lstm_hdim_128_wsize_20_interval_7_nlayers_1_bs_512_lr_0.01_decay_0.95_epoch_1.pt (torch, 277987 bytes, 6 tensors)

lstm.weight_ih_l0 f4 [512, 4]
0.016747894 -0.018297931 0.03691765 0.09895791 -0.14296098 -0.09670313 -0.08208338 -0.05957244
0.044738956 0.08023646 0.14205416 0.019723816 -0.035885036 0.034245506 0.15592894 -0.1595783
0.04084679 -0.08654287 -0.035152886 0.033456087 0.05216565 0.070769556 0.12847504 0.15475447
-0.021129081 -0.038835254 0.15593868 0.009780635 0.04719658 -0.018327072 0.014914289 0.049141146
0.120928146 0.1008387 -0.035062503 0.010455863 -0.22236049 -0.052014027 -0.5367903 -0.15258257
-0.07401146 -0.038452998 0.04534673 0.06489004 -0.06702634 -0.13210088 -0.029778626 -0.04763843
-0.032854907 -0.033544984 -0.25795475 -0.18326992 -0.008430852 0.053095862 -0.023653526 -0.059497673
-0.0822968 0.013112659 -0.07526144 -0.20131537 0.047069132 0.019714635 -0.06945528 0.10382593
0.1353973 0.002534734 0.045581676 -0.0859684 0.09707532 0.08861016 0.18981236 0.05229212
0.058276188 0.025571475 -0.4386694 -0.27762282 -0.0075817634 0.030509679 -0.26429996 0.14971739
-0.13254037 -0.1050404 -0.036943935 -0.10209478 -0.04266572 -0.04164832 -0.12648527 -0.09608851
-0.029366594 0.036792163 0.028900858 0.14214277 -0.112352416 -0.13534412 -0.035933018 -0.1734242
0.07374485 0.060286704 0.081636034 0.1186405 -0.0012852531 -0.025328374 -0.15817629 0.072918266
0.035480604 -0.011174391 0.044026464 -0.039117027 0.12356146 0.0043568704 -0.048885226 0.06822354
0.014517114 0.08108317 0.16841988 0.035549056 -0.062330794 -0.17376068 -0.06335276 -0.1357956
0.11769929 0.010046875 0.057606205 0.089993864 0.027391702 0.011896686 0.04926991 0.0533354
-0.018938256 0.042887572 -0.042506233 -0.029136166 0.13681667 0.0096045425 -0.061860416 -0.23155925
-0.0974732 -0.12851009 -0.06959557 -0.13470782 -0.012873738 -0.020422313 0.07219853 0.026775753
0.096752994 0.081455424 0.11814037 0.0039988747 0.08171723 0.06525711 0.07881216 -0.012362996
0.068823546 0.08749034 0.09214455 0.12109157 -0.051525608 0.03301028 -0.0073256274 -0.06652597
0.07078354 0.01806024 0.037918765 0.06537193 0.12798356 0.19764327 0.17185107 0.1795196
0.03021292 0.05751861 0.10538219 -0.03917488 0.06891548 0.041810907 0.12818965 0.07996464
-0.109487355 0.045502923 -0.111475624 -0.09914432 -0.19014916 -0.013391958 0.0016015728 -0.3099484
0.07282312 0.12059017 0.02577796 0.07401815 0.069436364 -0.06369075 0.03599904 0.0084898705
0.14464687 0.13258947 -0.03847547 0.098907776 0.1954173 0.049632456 0.11589012 0.13967434
0.29687428 0.18512166 0.5916472 -0.24341339 0.011519208 -0.012603287 -0.36057127 -0.046341904
-0.018578684 -0.0599045 0.08130444 0.39011517 -0.06412368 0.012875273 -0.039848488 -0.21133773
0.049807407 -0.0020732158 0.03834664 -0.064194225 0.6214193 0.5979973 0.69897556 0.87564284
-0.049188673 -0.14599861 -0.035775926 -0.14848778 -0.07945111 0.08521686 -0.021113312 -0.1356439
-0.092980444 0.023294618 0.024026722 0.06923831 0.102813326 0.13205633 0.012143757 -0.007790879
0.09176806 -0.054751918 -0.0061270343 0.16775581 0.0779988 0.13346843 0.012974885 0.19623727
-0.17659374 -0.04916448 -0.025659014 -0.087886766 0.0046180454 0.017487798 0.20878747 0.015862055
00000000: e132 893c 8be5 95bc f636 173d 72aa ca3d
00000010: 5d64 12be 4a0c c6bd 551b a8bd 3b02 74bd
00000020: 3240 373d 0353 a43d a576 113e d793 a13c
00000030: 30fc 12bd 0445 0c3d d6ab 1f3e 7e68 23be
00000040: f74e 273d 633d b1bd 79fc 0fbd 4009 093d
00000050: a6ab 553d a1ef 903d f68e 033e f577 1e3e
00000060: e516 adbc b711 1fbd 64ae 1f3e f53e 203c
00000070: 3351 413d a822 96bc 105b 743c 3a48 493d
00000080: 2da9 f73d 8584 ce3d b39d 0fbd 114f 2b3c
00000090: 78b2 63be a90c 55bd 176b 09bf 9b3e 1cbe
000000a0: 5293 97bd e480 1dbd 7ebd 393d 12e5 843d
000000b0: 1b45 89bd 7445 07be 4ef2 f3bc 8420 43bd
000000c0: de92 06bd 7766 09bd a512 84be 1cab 3bbe
000000d0: 8e21 0abc 0c7b 593d 0ac5 c1bc d5b3 73bd
000000e0: 3a8b a8bd 7ad6 563c ab22 9abd 9e25 4ebe
000000f0: 90cb 403d 9680 a13c 923e 8ebd b0a2 d43d
00000100: 97a5 0a3e c81d 263b dab3 3a3d 3310 b0bd
00000110: 6dcf c63d 3e79 b53d 2c5e 423e 4330 563d
00000120: 03b3 6e3d 457b d13c 4799 e0be 9424 8ebe
00000130: 7170 f8bb 6fef f93c 5352 87be 844f 193e
00000140: aab8 07be 6c1f d7bd 8652 17bd 1117 d1bd
00000150: 40c2 2ebd 6e97 2abd 5b85 01be 0dca c4bd
00000160: 3692 f0bc 61b3 163d 7ec1 ec3c e08d 113e
00000170: 0619 e6bd a697 0abe 802e 13bd 1d96 31be
00000180: 8a07 973d 31ef 763d cb30 a73d caf9 f23d
00000190: f075 a8ba 737d cfbc f7f8 21be 2c56 953d
000001a0: 1c54 113d cb14 37bc 1855 343d 2d39 20bd
000001b0: ca0d fd3d 14c4 8e3b e03b 48bd c9b8 8b3d
000001c0: 30d9 6d3c ef0e a63d 4376 2c3e e39b 113d
000001d0: 934e 7fbd 52ee 31be 18bf 81bd 000e 0bbe
000001e0: 530c f13d a69b 243c 7cf4 6b3d b44e b83d
000001f0: 9064 e03c 51ea 423c 3fcf 493d 3876 5a3d
00000200: 6724 9bbc e1aa 2f3d 041b 2ebd f8ae eebc
00000210: ab19 0c3e 5f5c 1d3c 5961 7dbd de1d 6dbe
00000220: 07a0 c7bd 2698 03be 1f88 8ebd d9f0 09be
00000230: 5fec 52bc b24c a7bc d3dc 933d d358 db3c
00000240: 6f26 c63d 1ad2 a63d 94f3 f13d fe08 833b
00000250: 5d5b a73d 85a5 853d 4568 a13d 2a8e 4abc
00000260: 5cf3 8c3d 232e b33d 48b6 bc3d dbfe f73d
00000270: 840c 53bd ca35 073d d10b f0bb c53e 88bd
00000280: f6f6 903d 12f3 933c b550 1b3d b8e1 853d
00000290: 1f0e 033e ff62 4a3e baf9 2f3e fcd3 373e
000002a0: 1681 f73c a298 6b3d 9ed2 d73d d775 20bd
000002b0: 8f23 8d3d ea41 2b3d 2644 033e 80c4 a33d
000002c0: e83a e0bd 4661 3a3d 554d e4bd 2d0c cbbd
000002d0: 76b6 42be f169 5bbc deeb d13a 8fb1 9ebe
000002e0: 4a24 953d fbf7 f63d 4d2c d33c d496 973d
000002f0: a734 8e3d 4c70 82bd bb73 133d 1919 0b3c
00000300: 4f1e 143e 89c5 073e 7498 1dbd 2990 ca3d
00000310: 791b 483e 674b 4b3d cd57 ed3d ca06 0f3e
00000320: e8ff 973e 8890 3d3e 3176 173f 5c41 79be
00000330: 0fbb 3c3c 047e 4ebc cc9c b8be 02d1 3dbd
00000340: 5332 98bc 6c5e 75bd f182 a63d 2dbd c73e
00000350: 4753 83bd cff2 523c 2b38 23bd eb68 58be
00000360: da02 4c3d cade 07bb 5e11 1d3d 4378 83bd
00000370: 5615 1f3f 5a16 193f 10f0 323f 212a 603f
00000380: 107a 49bd a980 15be c789 12bd 2e0d 18be
00000390: 43b7 a2bd 2d86 ae3d d3f5 acbc 3ce6 0abe
000003a0: 886c bebd 5bd4 be3c b0d3 c43c d1cc 8d3d
000003b0: cb8f d23d c639 073e 9cf6 463c a14a ffbb
000003c0: e5f0 bb3d 8c43 60bd 4ac5 c8bb 2ec8 2b3e
000003d0: d6bd 9f3d f3ab 083e 9d94 543c 6cf2 483e
000003e0: fdd4 34be b260 49bd da32 d2bc fafd b3bd
000003f0: f952 973b 9242 8f3c 62cc 553e 24f1 813c

lstm.weight_hh_l0 f4 [512, 128]
-0.046392493 -0.17387043 0.004385159 0.079859845 0.07960474 -0.022593372 -0.054591067 0.06473753
-0.051227693 0.05793274 -0.040811133 -0.0661986 0.05830889 0.116928704 0.018033491 -0.11200378
0.066879235 0.11815124 -0.006040997 0.09822321 0.14068602 -0.10577839 0.033414744 -0.05223243
-0.0361769 -0.067021206 -0.0654567 -0.006652055 -0.011537341 0.05060706 -0.0005525192 0.05427038
0.048118416 -0.07620946 -0.074268214 0.003124093 0.012353074 0.085472725 0.007023279 -0.009410049
-0.027838266 0.05827883 0.020856695 -0.058289316 0.030748513 -0.088238545 -0.051400293 0.009279468
0.0365203 0.07116874 -0.07043039 -0.088653475 0.07050006 0.0868223 -0.036850717 -0.06716438
-0.029710732 0.058065698 0.069445685 0.039492592 -0.11933664 0.05065095 -0.12324565 0.03686221
-0.0015322445 -0.13422805 0.002039663 0.13084179 0.10153682 0.030344443 0.119274504 0.10299329
-0.040432177 0.030693058 0.048697338 -0.11860178 0.010677152 -0.009330922 -0.021156518 -0.11690565
0.006123592 -0.04623807 -0.0114416005 0.113414 -0.05381568 0.1013366 -0.029891083 0.011775527
-0.04972827 0.097641736 0.05773075 0.055915926 -0.0009382831 0.09544203 -0.08186309 0.009470668
-0.016044848 0.01535753 -0.026111554 -0.019998848 -0.017396469 0.03614819 -0.09399423 0.012657992
-0.0489874 0.095659114 -0.08158711 0.05902966 0.124383435 -0.12839413 -0.09374077 -0.07998077
0.036978163 0.008730481 0.10361456 -0.12214385 0.017911537 0.0800196 0.08660693 0.045600355
0.056727447 0.11055112 0.045327935 -0.014972619 -0.107251234 0.043795917 0.031135682 0.15156515
0.14045906 0.045334615 -0.12436725 0.12709765 0.14656223 -0.11794907 0.2335199 0.1696543
0.12830655 0.021306 -0.04936678 -0.1765173 0.010458814 0.15322357 -0.05130861 -0.1698088
0.23454773 0.17835279 -0.10865513 0.14005862 0.018307425 -0.031101486 0.019731019 -0.03963907
-0.1564314 0.15489051 -0.15554266 0.20248516 0.21271527 0.11960897 0.09991544 -0.21071458
-0.08247423 0.05707087 -0.14942825 -0.12954287 -0.11669248 0.23801056 -0.16042228 0.003863115
-0.15959418 -0.13240123 0.13543913 -0.115277626 0.05311908 -0.05857757 -0.16045982 0.15130882
0.124374166 0.21313211 -0.11827186 -0.14619839 0.1754007 -0.0015981273 0.16958933 0.17471722
-0.05405231 0.19998407 -0.11615954 0.19225185 -0.14742316 -0.14000995 0.12660632 0.1135477
0.015322658 0.029139835 -0.14870316 -0.06776789 0.10112431 -0.15965794 0.24090637 0.13841908
0.11172129 0.21663585 -0.108545 -0.22572169 0.13366903 0.1112398 -0.11333796 -0.13542095
0.15806308 -0.023487704 -0.046876293 0.13482495 -0.16820183 0.1169708 0.14807838 -0.023647392
-0.17744632 0.09162029 -0.10099839 0.23924829 -0.06387542 0.16882922 -0.13964471 -0.23695697
-0.12122733 -0.052563313 -0.03519888 -0.14835593 -0.027883114 0.05703493 -0.045905706 0.07099353
0.04696761 0.2426179 0.0065937294 0.15105107 0.055977814 -0.07867899 0.13068186 0.08890372
0.1682501 0.10899752 0.2703777 -0.095237345 0.12568872 -0.11214401 0.07119977 0.16740003
-0.17051578 0.15294378 0.077821486 -0.1763965 0.07284697 -0.058795497 -0.176824 -0.05599895
00000000: 0e06 3ebd 170b 32be 61b1 8f3b 8f8d a33d
00000010: cf07 a33d bc15 b9bc e29a 5fbd 1c95 843d
00000020: 21d4 51bd e14a 6d3d 9329 27bd 2293 87bd
00000030: 4dd5 6e3d 5178 ef3d f9ba 933c 3d62 e5bd
00000040: fbf7 883d 47f9 f13d 8ef3 c5bb 4029 c93d
00000050: ff0f 103e 57a2 d8bd e6dd 083d acf1 55bd
00000060: 3b2e 14bd 6a42 89bd 2a0e 86bd 7bf9 d9bb
00000070: 1e07 3dbc 5949 4f3d f0d6 10ba 9e4a 5e3d
00000080: d117 453d b513 9cbd ef19 98bd 95bd 4c3b
00000090: 8c64 4a3c 530c af3d 8923 e63b 9b2c 1abc
000000a0: 130d e4bc c8b5 6e3d a9db aa3c c7c0 6ebd
000000b0: 4ee4 fb3c 69b6 b4bd 1d89 52bd e908 183c
000000c0: 4f96 153d ebc0 913d cf3d 90bd f48f b5bd
000000d0: 5662 903d e4cf b13d c7f0 16bd 7a8d 89bd
000000e0: ec63 f3bc 4cd6 6d3d 8a39 8e3d fcc2 213d
000000f0: c566 f4bd 5f77 4f3d 3768 fcbd d4fc 163d
00000100: 98d5 c8ba 1473 09be deab 053b 64fb 053e
00000110: 89f2 cf3d e994 f83c 3146 f43d 25ee d23d
00000120: 369c 25bd 0270 fb3c dc76 473d 7de5 f2bd
00000130: 39ef 2e3c b9e0 18bc 6f50 adbc 3b6c efbd
00000140: 6aa8 c83b 2164 3dbd 8d75 3bbc 9945 e83d
00000150: d56d 5cbd 9089 cf3d 25de f4bc 24ee 403c
00000160: dfaf 4bbd 64f8 c73d 1477 6c3d 1908 653d
00000170: 1df7 75ba 1c77 c33d d6a7 a7bd dc2a 1b3c
00000180: 7c70 83bc 269e 7b3c e6e7 d5bc a0d4 a3bc
00000190: 0a83 8ebc 2010 143d 0c80 c0bd 7763 4f3c
000001a0: 03a7 48bd ede8 c33d 2517 a7bd 16c9 713d
000001b0: bebc fe3d c079 03be 29fb bfbd f5cc a3bd
000001c0: 6a76 173d 4b0a 0f3c df33 d43d 8e26 fabd
000001d0: 37bb 923c 51e1 a33d f95e b13d 70c7 3a3d
000001e0: 0a5b 683d a068 e23d c9a9 393d b74f 75bc
000001f0: 89a6 dbbd 5963 333d 4210 ff3c e533 1b3e
00000200: 80d4 0f3e cab0 393d 42b4 febd e325 023e
00000210: 6914 163e 488f f1bd d71f 6f3e dbb9 2d3e
00000220: cb62 033e ec89 ae3c d234 4abd f3c0 34be
00000230: 725b 2b3c a4e6 1c3e fa28 52bd 5ce2 2dbe
00000240: 482d 703e 1da2 363e 9586 debd 876b 0f3e
00000250: 74f9 953c 8bc8 febc f2a2 a13c 945c 22bd
00000260: 8e2f 20be 9e9b 1e3e 9346 1fbe 4558 4f3e
00000270: 08d2 593e 8cf5 f43d 77a0 cc3d 90c5 57be
00000280: 40e8 a8bd 25c3 693d b803 19be e3a6 04be
00000290: 78fc eebd 0ab9 733e bd45 24be 512c 7d3b
000002a0: a86c 23be 3094 07be 8eb0 0a3e ad16 ecbd
000002b0: 6493 593d 09ef 6fbd 944f 24be b3f0 1a3e
000002c0: e2b7 fe3d 4e3f 5a3e 8438 f2bd 08b5 15be
000002d0: 3e9c 333e 4178 d1ba d3a8 2d3e 12e9 323e
000002e0: f465 5dbd a0c8 4c3e 0ee5 edbd abdd 443e
000002f0: 19f6 16be c55e 0fbe 16a5 013e b28b e83d
00000300: e30b 7b3c aab6 ee3c a445 18be e4c9 8abd
00000310: 431a cf3d 5f7d 23be 29b0 763e bbbd 0d3e
00000320: 22ce e43d cad5 5d3e d74c debd 9623 67be
00000330: 89e0 083e b1d1 e33d bb1d e8bd caab 0abe
00000340: 4adb 213e 4969 c0bc 5b01 40bd 8d0f 0a3e
00000350: 1a3d 2cbe 638e ef3d dca1 173e 2db8 c1bc
00000360: 7db4 35be 6ba3 bb3d 3ed8 cebd 81fd 743e
00000370: 1ed1 82bd 91e1 2c3e 06ff 0ebe d9a4 72be
00000380: 0946 f8bd a14c 57bd b32c 10bd 9eea 17be
00000390: 216b e4bc 759d 693d 9f07 3cbd 0e65 913d
000003a0: 1c61 403d d470 783e 3610 d83b 22ad 1a3e
000003b0: fe48 653d 7322 a1bd 77d1 053e 2713 b63d
000003c0: c149 2c3e 173a df3d f26e 8a3e cc0b c3bd
000003d0: 8bb4 003e c2ab e5bd 2fd1 913d ea6a 2b3e
000003e0: b09b 2ebe 4b9d 1c3e df60 9f3d 49a1 34be
000003f0: cb30 953d 8cd3 70bd 5a11 35be 285f 65bd

lstm.bias_ih_l0 f4 [512]
-0.04305741 -0.043618463 0.0055926805 0.03510458 -0.050505858 0.0888811 0.11217459 0.05732609
0.064928435 -0.041046254 -0.042995 -0.13546322 -0.13229297 0.08644775 -0.11069181 0.06055777
0.112883314 0.17033584 0.101022765 0.0485381 -0.10794133 -0.15768582 0.0124123385 -0.12885085
0.09674592 -0.11653766 -0.018175289 0.081995495 0.07303717 -0.18372713 -0.06478864 0.11329129
-0.08589424 0.08095149 -0.13546246 -0.022379447 0.007194648 0.13642527 -0.03584747 -0.019759798
0.12515493 0.17425904 -0.045254342 0.09952237 0.061722405 -0.0898489 0.028361099 -0.00846278
0.10630996 0.122837484 0.12105157 0.04952301 0.012592958 0.008352341 -0.04397211 0.59426373
-0.13376126 -0.07813667 -0.08840067 0.1982279 0.07879972 0.06633822 0.015053775 0.020723363
-0.06826119 0.27982107 0.04501625 0.19849089 0.026638497 0.042711392 -0.026674524 0.068881
0.06739956 0.026873194 0.09071298 0.023150757 -0.07513119 -0.03724217 -0.006403591 0.031994756
0.112137675 -0.116248235 -0.1052408 0.093120575 0.13917232 0.058832787 0.025111347 0.17735942
-0.005485923 -0.052643407 -0.10125571 0.15836382 -0.04853462 -0.0064686886 0.0687589 0.14909305
0.067809306 0.033381782 0.0136258025 -0.07385943 -0.029772786 -0.10614451 -0.08782639 -0.07488173
0.02887453 -0.016850354 -0.023174511 0.0135126775 -0.17386392 -0.045837678 -0.08465238 0.059760302
-0.07486577 0.01544599 -0.0034974916 0.28149632 0.067969255 -0.107612364 0.01638083 0.016571684
-0.035100155 -0.06926976 0.04741418 -0.013470972 -0.1386815 -0.13350938 -0.00016146783 0.2844051
-0.08684804 -0.1641416 -0.0079831425 0.077873066 -0.087160334 0.1006003 0.06256586 -0.02479469
0.087223075 -0.05049301 -0.076951265 -0.105336405 -0.09915445 -0.087639175 -0.009645136 -0.04507776
-0.0422789 0.08231699 -0.05309104 -0.095650636 -0.15388636 -0.08441382 -0.016015569 -0.15649591
0.09812914 -0.041847583 -0.09275406 0.028397016 0.009351853 -0.16766612 -0.083882906 -0.054718472
0.03387288 -0.18721937 -0.028333321 0.083112665 0.025892127 0.058359858 0.025581362 -0.06276142
0.012162727 0.058492426 0.031320665 0.06927022 -0.1146963 -0.022411635 0.016183237 -0.070660435
0.0062509133 0.035387788 0.040556982 -0.050924852 -0.17184795 -0.12857203 0.022701813 0.08480627
-0.06327283 0.034402084 -0.022228222 0.032663643 -0.016711364 0.009854992 -0.15393956 0.061215706
-0.096273646 0.04153797 -0.0523668 -0.101859644 -0.00910111 0.050984822 0.09874691 0.054789457
0.033801783 -0.0775706 0.1028015 0.07182906 -0.075172 0.030945273 -0.027939616 -0.04246827
0.08953545 -0.09718298 -0.10694203 0.022399971 -0.01282384 -0.06448901 0.06563236 0.13447021
-0.0685066 -0.014819849 -0.16685367 0.08010815 -0.025668094 0.052141607 0.07445004 0.06734055
-0.04835103 0.042206712 -0.12861559 0.08530824 -0.08711015 -0.048144646 0.04210613 -0.038095742
-0.04028474 0.034469254 0.0009522502 -0.079133496 -0.047371414 -0.02967558 -0.06343125 -0.026990352
-0.08535064 -0.19065963 0.0048792292 -0.1849467 0.049190335 -0.033830497 -0.07083095 0.035474025
-0.009702721 -0.0636785 -0.08835331 -0.012613539 -0.09919168 -0.073586635 -0.022888258 0.053536575
00000000: f75c 30bd 46a9 32bd ce42 b73b d2c9 0f3d
00000010: 3bdf 4ebd 4b07 b63d cbbb e53d c3ce 6a3d
00000020: 33f9 843d 1e20 28bd 861b 30bd dfb6 0abe
00000030: cf77 07be 850b b13d 63b2 e2bd 6d0b 783d
00000040: 5e2f e73d 856c 2e3e 06e5 ce3d e3cf 463d
00000050: 5810 ddbd 6478 21be 1f5d 4b3c 7af1 03be
00000060: ba22 c63d 4cab eebd 58e4 94bc 41ed a73d
00000070: 8394 953d f722 3cbe e8af 84bd 4405 e83d
00000080: 52e9 afbd e5c9 a53d acb6 0abe 1a55 b7bc
00000090: 15c1 eb3b 11b3 0b3e ccd4 12bd 4ddf a1bc
000000a0: 9d28 003e f670 323e 9e5c 39bd 62d2 cb3d
000000b0: a2d0 7c3d b302 b8bd 8955 e83c 79a7 0abc
000000c0: 09b9 d93d 3892 fb3d e3e9 f73d a4d8 4a3d
000000d0: b252 4e3c 42d8 083c 191c 34bd ab21 183f
000000e0: b6f8 08be 1e06 a0bd 690b b5bd 41fc 4a3e
000000f0: bf61 a13d 55dc 873d 1ca4 763c 0bc4 a93c
00000100: 86cc 8bbd b544 8f3e f662 383d 3241 4b3e
00000110: fa38 da3c 24f2 2e3d 8884 dabc 7b11 8d3d
00000120: c808 8a3d 2c25 dc3c bac7 b93d a8a6 bd3c
00000130: 62de 99bd 3f8b 18bd 37d5 d1bb ef0c 033d
00000140: 70a8 e53d 8e13 eebd 7d88 d7bd 00b6 be3d
00000150: 3083 0e3e a6fa 703d 50b6 cd3c b59d 353e
00000160: 42c3 b3bb 9da0 57bd 275f cfbd 202a 223e
00000170: 3dcc 46bd 4bf7 d3bb 77d1 8c3d d9ab 183e
00000180: 9bdf 8a3d 56bb 083d c23e 5f3c 9d43 97bd
00000190: 0fe6 f3bc 4b62 d9bd 53de b3bd 985b 99bd
000001a0: 478a ec3c c109 8abc 79d8 bdbc 4764 5d3c
000001b0: 6209 32be 4ac0 3bbd 3a5e adbd 38c7 743d
000001c0: 3a53 99bd 2d11 7d3c 2c36 65bb 4920 903e
000001d0: 7733 8b3d df63 dcbd 1731 863c 57c1 873c
000001e0: 2ec5 0fbd 4edd 8dbd 5f35 423d 5ab5 5cbc
000001f0: 8602 0ebe afb6 08be b14f 29b9 8c9d 913e
00000200: 63dd b1bd bc14 28be bacb 02bc ea7b 9f3d
00000210: 1e81 b2bd 8807 ce3d 8822 803d 3c1e cbbc
00000220: 03a2 b23d c2d1 4ebd a098 9dbd 9dba d7bd
00000230: 7d11 cbbd 2b7c b3bd a206 1ebc 75a3 38bd
00000240: a42c 2dbd cf95 a83d fe75 59bd 7be4 c3bd
00000250: 6394 1dbe 27e1 acbd 1533 83bc 7740 20be
00000260: eef7 c83d 5f68 2bbd d7f5 bdbd dca0 e83c
00000270: 8438 193c abb0 2bbe cdca abbd 7a20 60bd
00000280: 4abe 0a3d 6fb6 3fbe 481b e8bc f936 aa3d
00000290: ba1b d43c bf0a 6f3d 0190 d13c 0f89 80bd
000002a0: 2d46 473c c195 6f3d 194a 003d 8cdd 8d3d
000002b0: e5e5 eabd 9b98 b7bc b592 843c 6bb6 90bd
000002c0: 76d4 cc3b c9f2 103d 141f 263d 9496 50bd
000002d0: e9f8 2fbe 63a8 03be 27f9 b93c e9ae ad3d
000002e0: 2f95 81bd 33e9 0c3d f617 b6bc 50ca 053d
000002f0: 45e6 88bc d576 213c 55a2 1dbe 52bd 7a3d
00000300: 1e2b c5bd b823 2a3d 927e 56bd ca9b d0bd
00000310: d21c 15bc 76d5 503d d23b ca3d e96a 603d
00000320: bd73 0a3d 56dd 9ebd 9889 d23d 1d1b 933d
00000330: c7f3 99bd f180 fd3c 9fe1 e4bc 35f3 2dbd
00000340: 5d5e b73d df07 c7bd 6c04 dbbd 2580 b73c
00000350: 151b 52bc d012 84bd 426a 863d 8fb2 093e
00000360: 304d 8cbd f4ce 72bc b0db 2abe be0f a43d
00000370: e545 d2bc 7092 553d 4379 983d d8e9 893d
00000380: bb0b 46bd f2e0 2c3d ceb3 03be 16b6 ae3d
00000390: ce66 b2bd 5233 45bd 7a77 2c3d 480a 1cbd
000003a0: 9d01 25bd a22f 0d3d 6ea0 793a be10 a2bd
000003b0: 8708 42bd 341a f3bc 3ee8 81bd df1a ddbc
000003c0: 51cc aebd 473c 43be f1e1 9f3b ab62 3dbe
000003d0: ce7b 493d d991 0abd d10f 91bd 364d 113d
000003e0: 29f8 1ebc e069 82bd 95f2 b4bd 04a9 4ebc
000003f0: 0225 cbbd 97b4 96bd 2880 bbbc 2b49 5b3d

lstm.bias_hh_l0 f4 [512]
0.016246798 -0.05780726 0.08559271 0.10515657 -0.0567848 0.039151844 -0.046394296 0.08057338
0.011033011 -0.043278985 0.028525896 -0.018171024 -0.15889883 -0.0738206 -0.0154518355 -0.009087215
0.061384868 0.02777777 0.10516263 0.040185343 -0.16345303 -0.1396762 -0.04571148 -0.13862878
-0.009168495 -0.017579447 -0.066239566 -0.059699897 0.059319373 -0.16633686 -0.057349004 0.075407945
-0.017558547 0.049772717 -0.12411693 0.06334973 0.08574913 0.087893 0.023563595 -0.042173274
0.12824404 0.0787351 0.07022868 0.07327705 -0.050008103 -0.008084395 -0.015250073 0.032657035
0.120408945 0.11831312 0.253073 0.064233124 -0.05002296 -0.0066845105 0.05410808 0.7039118
-0.13582705 -0.078642674 0.048558876 0.16255382 0.0065003955 0.09320588 -0.015774563 0.03862002
-0.071101815 0.16203749 0.0034428113 0.16218409 0.08315518 0.1371223 -0.02732832 0.09244774
-0.06038614 -0.03180485 0.1262683 -0.021987041 -0.0632089 0.012201178 0.08331067 -0.039836403
0.11986432 -0.02573097 -0.047181826 -0.037018273 0.10063155 0.094049335 0.08352046 0.22779244
0.055152293 0.0018819576 -0.0796819 0.05641182 -0.003141897 0.0068909167 0.08649732 0.19142964
0.058770306 -0.019852387 0.016639791 -0.03892892 -0.092426315 -0.10025884 0.027844401 -0.15309033
-0.056165036 -0.011683339 -0.11030794 -0.08062549 -0.113237366 -0.111827426 -0.048679102 0.030445036
0.056294847 -0.06175551 0.10527079 0.33850756 0.09937486 -0.10331791 -0.031185612 -0.054848228
-0.11344483 0.053927936 -0.111042544 -0.10615387 -0.040149573 -0.06702765 -0.08705723 0.23149943
0.04013091 -0.20766416 0.018889498 -0.072361626 0.031901885 0.13118193 0.097462185 -0.021144524
-0.07771595 -0.0719792 0.012553204 -0.035243623 -0.1116896 0.024324533 -0.12835379 0.036934827
0.05764213 0.03679159 -0.074431024 -0.097096086 -0.092641115 -0.14016232 -0.14036845 -0.04682563
-0.052758936 -0.17104492 -0.015097492 -0.052244835 0.014755841 -0.119292594 -0.073789924 -0.0747247
0.07789966 -0.07023009 -0.12090056 -0.039570056 0.03761427 -0.024320643 0.07439019 0.053969674
0.018404203 0.117651604 -0.06591327 -0.0050262944 -0.11345895 -0.023329109 0.09210203 -0.046945848
0.10410452 -0.026245568 0.023082923 -0.06461634 -0.14923075 -0.11551601 0.019186936 0.21700972
-0.11521929 -0.005984587 -0.086020395 0.10970097 0.052915853 -0.05752724 -0.13048941 0.08427128
0.0015188629 -0.024953246 -0.08212642 -0.011911853 0.009993091 0.0044784443 0.015289644 0.037315466
-0.09169043 0.015973652 0.09558589 0.012992248 -0.04793669 -0.024197957 0.04446345 -0.04515575
0.08434201 -0.14832723 -0.056122385 -0.07212476 -0.13007925 0.03644146 0.059802677 0.11616173
-0.033289794 -0.03283619 -0.09990461 0.089644805 -0.058880683 -0.021500617 0.010015567 0.13955131
-0.031012103 0.047960024 -0.11868983 0.0126632815 -0.0933298 -0.15724334 -0.05876153 -0.12804854
-0.14606652 -0.04261668 -0.083546266 -0.015566962 -0.17470942 -0.09742851 -0.10151407 -0.088861756
-0.09912572 -0.18602729 0.025691014 -0.13616493 -0.0066906996 -0.18150754 -0.18159755 -0.09211101
-0.02003257 0.056648213 -0.07008997 -0.046082303 -0.14485364 -0.043399286 0.08853798 0.11437747
00000000: 0118 853c 4ec7 6cbd 3b4b af3d 545c d73d
00000010: 2e97 68bd af5d 203d f207 3ebd a803 a53d
00000020: cdc3 343c 4e45 31bd 24af e93c 66db 94bc
00000030: 60b6 22be 412f 97bd b229 7dbc 8be2 14bc
00000040: b36e 7b3d 358e e33c 815f d73d 6399 243d
00000050: 3b60 27be 4707 0fbe f63b 3bbd b4f4 0dbe
00000060: 7537 16bc c602 90bc 9ca8 87bd e187 74bd
00000070: dff8 723d 3654 2abe cae6 6abd 7b6f 9a3d
00000080: f1d6 8fbc 7ade 4b3d 0431 febd 81bd 813d
00000090: 3d9d af3d 3f01 b43d 7108 c13c e2bd 2cbd
000000a0: 6852 033e de3f a13d 0ed4 8f3d 4712 963d
000000b0: 4cd5 4cbd 6974 04bc 71db 79bc 62c3 053d
000000c0: f798 f63d 264e f23d c992 813e a88c 833d
000000d0: e0e4 4cbd bd09 dbbb 6fa0 5d3d 9033 343f
000000e0: 3f16 0bbe 690f a1bd ace5 463d 8274 263e
000000f0: 4501 d53b b9e2 be3d a839 81bc 0730 1e3d
00000100: d49d 91bd 28ed 253e caa0 613b 9613 263e
00000110: 434d aa3d ca69 0c3e a4df dfbc 3e55 bd3d
00000120: 7557 77bd cd45 02bd 7a4c 013e 2b1e b4bc
00000130: ab73 81bd 73e7 473c c99e aa3d 7f2b 23bd
00000140: 6d7b f53d c1c9 d2bc bb41 41bd 79a0 17bd
00000150: ea17 ce3d f09c c03d c60c ab3d 6c42 693e
00000160: 5fe7 613d 05ac f63a 4430 a3bd 1510 673d
00000170: 49e8 4dbb 33cd e13b 8225 b13d 2206 443e
00000180: 22b9 703d 79a1 a2bc 2c50 883c ee73 1fbd
00000190: 024a bdbd 8254 cdbd f119 e43c b6c3 1cbe
000001a0: 4f0d 66bd 7a6b 3fbc 21e9 e1bd fa1e a5bd
000001b0: fee8 e7bd c705 e5bd bd63 47bd de67 f93c
000001c0: 6d95 663d 58f3 7cbd 3698 d73d dd50 ad3e
000001d0: 0c85 cb3d 5798 d3bd f878 ffbc 89a8 60bd
000001e0: c355 e8bd 8ae3 5c3d 466a e3bd 3367 d9bd
000001f0: e173 24bd cb45 89bd 104b b2bd 300e 6d3e
00000200: 4f60 243d eaa5 54be 26be 9a3c 5532 94bd
00000210: 8dab 023d 8e54 063e 419a c73d 4837 adbc
00000220: 8a29 9fbd d569 93bd f4ab 4d3c 9e5b 10bd
00000230: 84bd e4bd 3e44 c73c 2d6f 03be f948 173d
00000240: 271a 6c3d c7b2 163d 4b6f 98bd 50da c6bd
00000250: a0ba bdbd b686 0fbe bfbc 0fbe 3bcc 3fbd
00000260: c119 58bd 6626 2fbe 795b 77bc aefe 55bd
00000270: 7cc2 713c ad4f f4bd 2c1f 97bd 4309 99bd
00000280: db89 9f3d cbd4 8fbd b69a f7bd 3614 22bd
00000290: 6c11 1a3d 163c c7bc e259 983d 4e0f 5d3d
000002a0: 69c4 963c 53f3 f03d 89fd 86bd 9db3 a4bb
000002b0: 2a5d e8bd b01c bfbc fd9f bc3d 4a4a 40bd
000002c0: c034 d53d f200 d7bc 6618 bd3c 9255 84bd
000002d0: f2cf 18be a893 ecbd ec2d 9d3c cc37 5e3e
000002e0: 17f8 ebbd 5b1a c4bb 762b b0bd e7aa e03d
000002f0: 4bbe 583d afa1 6bbd 049f 05be 6c96 ac3d
00000300: 9514 c73a c06a ccbc e631 a8bd ef29 43bc
00000310: 10ba 233c eabf 923b 6a81 7a3c 1ad8 183d
00000320: 31c8 bbbd 2ddb 823c 89c2 c33d 70dd 543c
00000330: 4359 44bd cb3a c6bc 4e1f 363d 3cf5 38bd
00000340: 81bb ac3d 18e3 17be 96e0 65bd 25b6 93bd
00000350: 7f33 05be a443 153d a7f3 743d 33e6 ed3d
00000360: e15a 08bd 3e7f 06bd ca9a ccbd b297 b73d
00000370: df2c 71bd 1022 b0bc 5518 243c 8ae6 0e3e
00000380: 180d febc bb71 443d a713 f3bd a779 4f3c
00000390: b223 bfbd 6604 21be eeaf 70bd 281f 03be
000003a0: 7692 15be d48e 2ebd 4e1a abbd 920c 7fbc
000003b0: 07e7 32be 9988 c7bd 9ce6 cfbd 27fd b5bd
000003c0: 6d02 cbbd f07d 3ebe f675 d23c d26e 0bbe
000003d0: a83d dbbb 1ddd 39be b5f4 39be b2a4 bcbd
000003e0: 581b a4bc f507 683d 558b 8fbd ccc0 3cbd
000003f0: 8354 14be 73c3 31bd 6753 b53d bc3e ea3d

fc.weight f4 [4, 128]
-0.04353432 0.017127682 0.04538879 -0.052997038 0.06340271 -0.0041088 -0.05543664 -0.023828493
-0.0785969 -0.09420337 0.020990057 0.024975285 0.01065762 -0.07193843 -0.031141553 0.10131434
-0.025826711 -0.11054717 0.07563257 0.014109839 -0.014305244 0.026393807 -0.01071287 -0.06863314
0.08559762 -0.09980232 0.06963672 -0.09664723 -0.10224302 -0.08655566 -0.093151316 0.077095166
0.07549289 -0.15910704 0.12560861 0.064237334 0.08195812 -0.05005175 0.013224823 -0.041173555
0.09752121 0.12844162 -0.099756315 0.032359134 -0.055293087 0.07924552 0.09484886 -0.0540727
-0.07780084 -0.112104945 0.13814887 0.1053663 -0.021879157 0.123957075 -0.05080552 -0.14234631
0.08878657 -0.03259046 0.014704234 -0.067254186 0.018603962 -0.023088653 0.08318722 -0.04833629
-0.022029433 -0.07501416 0.08359949 0.11067116 0.0825784 0.058891065 -0.0028284292 -0.024755843
-0.078093804 -0.03341898 0.027393403 0.07592484 0.028786987 -0.035413694 0.03916903 0.05346932
-0.06271474 0.045296103 0.0078103966 0.004591072 0.09367814 -0.031315807 -0.063248925 0.015651299
-0.00558862 -0.09577895 0.027199244 -0.07372615 0.043992136 -0.037108134 0.14258346 0.095033966
-0.028317058 -0.0588344 -0.09863791 0.022039715 -0.038227838 -0.07174949 -0.029021665 -0.08457898
-0.108817935 -0.10916949 0.058873616 -0.027111864 0.069672026 0.03834639 -0.13571444 -0.100028336
0.055387743 -0.021345232 -0.09864906 0.24684165 0.010930822 0.098489374 0.026605377 -0.033845104
0.12393756 -0.058752574 -0.04128389 0.06333057 -0.07909587 0.00545464 0.03555464 -0.04210697
-0.104172155 -0.15779576 0.025699086 -0.052412443 -0.08929079 0.072927535 -0.052830983 -0.049302004
-0.10743352 -0.052762788 -0.017461892 0.10466651 0.0576679 -0.06990106 0.004302582 0.03205013
-0.06280317 -0.09451641 0.15795332 -0.15355162 0.01365222 0.03542465 -0.06681708 0.0055853063
0.029824505 -0.08776122 -0.0040420857 -0.007290717 -0.11603915 -0.03176747 0.010717585 0.051829588
-0.04703795 -0.045362134 0.02126421 0.12874457 0.030269777 -0.095605 0.0317968 0.036977105
0.044007067 0.11633866 -0.07359581 0.073607795 -0.09715545 -0.027022397 0.028157264 0.025543457
-0.12140045 -0.013469271 0.09969955 0.13134085 -0.019756647 0.021800537 -0.018691149 -0.12781127
0.030053215 -0.10282353 -0.122317545 -0.11592243 0.08288621 0.09279728 -0.03791665 -0.09899834
-0.10113997 -0.14731103 0.10477502 -0.10713578 -0.10509475 0.08042268 -0.10824813 -0.07903724
0.01590426 -0.02378735 0.04764718 0.033562623 -0.030002799 -0.035931002 0.10049209 0.003568712
-0.07740246 0.06709084 -0.027624132 -0.05832486 0.17286794 -0.045722183 -0.029575739 0.032351736
0.09194788 -0.09912797 0.09993569 -0.10908724 0.03943762 -0.03083341 0.142985 0.12640755
0.090698205 0.028731171 0.037899975 0.071686864 0.11665662 -0.046570167 -0.03812624 -0.083633974
-0.21571492 0.006256773 0.0005491552 -0.016582914 -0.09305542 0.0033039893 0.0008290393 -0.10183846
-0.083520316 -0.11776926 -0.057832964 0.101766236 -0.118854165 0.0028574567 -0.08966437 -0.057367064
-0.04289453 -0.056083202 -0.03403133 0.092104025 -0.031059882 0.08724666 -0.039626587 -0.062115118
00000000: 0b51 32bd 5a4f 8c3c 99e9 393d 6c13 59bd
00000010: 48d9 813d 1da3 86bb 8811 63bd f933 c3bc
00000020: 69f7 a0bd b2ed c0bd 57f3 ab3c f898 cc3c
00000030: 4c9d 2e3c 7554 93bd 921c ffbc e57d cf3d
00000040: 8a92 d3bc 8e66 e2bd 40e5 9a3d f42c 673c
00000050: 8b60 6abc d337 d83c 0985 2fbc 888f 8cbd
00000060: ce4d af3d 2965 ccbd b29d 8e3d fcee c5bd
00000070: ca64 d1bd 1844 b1bd 1ec6 bebd 12e4 9d3d
00000080: 049c 9a3d f5ec 22be 8b9f 003e dd8e 833d
00000090: a9d9 a73d 1003 4dbd eeac 583c 9aa5 28bd
000000a0: 33b9 c73d 3386 033e 0a4d ccbd 038b 043d
000000b0: 017b 62bd 7a4b a23d 1e40 c23d 567b 5dbd
000000c0: 0c56 9fbd 4797 e5bd e676 0d3e 49ca d73d
000000d0: eb3b b3bc 35dd fd3d 7319 50bd 3bc3 11be
000000e0: bcd5 b53d 937d 05bd 07ea 703c 90bc 89bd
000000f0: 5667 983c 6a24 bdbc 105e aa3d 46fc 45bd
00000100: 1277 b4bc 06a1 99bd 3636 ab3d 90a7 e23d
00000110: dd1e a93d c237 713d 2b5d 39bb c4cc cabc
00000120: a5ef 9fbd 57e2 08bd 2168 e03c 7c7e 9b3d
00000130: b0d2 eb3c f30d 11bd b46f 203d a502 5b3d
00000140: 9670 80bd 6888 393d 5bee ff3b b470 963b
00000150: 53da bf3d 0145 00bd a788 81bd 2737 803c
00000160: be20 b7bb c127 c4bd f3d0 de3c bcfd 96bd
00000170: 1931 343d b3fe 17bd 6601 123e 2ba1 c23d
00000180: 2df9 e7bc 57fc 70bd ac02 cabd a28c b43c
00000190: cb94 1cbd 66f1 92bd d8be edbc bf37 adbd
000001a0: f0db debd 4194 dfbd 7625 713d b319 debc
000001b0: 35b0 8e3d 1b11 1d3d baf8 0abe a8db ccbd
000001c0: 42de 623d 32dc aebc 8508 cabd 0fc4 7c3e
000001d0: 3117 333c ccb4 c93d 85f3 d93c 2aa1 0abd
000001e0: fad2 fd3d 8aa6 70bd 4c19 29bd 75b3 813d
000001f0: 04fd a1bd d6bc b23b bea1 113d 5c78 2cbd
00000200: 3658 d5bd 3695 21be e486 d23c 6eae 56bd
00000210: 17de b6bd 085b 953d 4d65 58bd e6f0 49bd
00000220: 1b06 dcbd cb1d 58bd 3e0c 8fbc 655b d63d
00000230: 2d35 6c3d 4928 8fbd acfc 8c3b ff46 033d
00000240: f39e 80bd d291 c1bd 84be 213e a33c 1dbe
00000250: 90ad 5f3c 7019 113d 65d7 88bd f204 b73b
00000260: 8552 f43c 28bc b3bd 7973 84bb f8e6 eebb
00000270: efa5 edbd 9b1e 02bd cf98 2f3c 434b 543d
00000280: deaa 40bd a5cd 39bd 4832 ae3c 9ed5 033e
00000290: 53f8 f73c 8ecc c3bd 5d3d 023d 4e75 173d
000002a0: c140 343d f742 ee3d 66b9 96bd afbf 963d
000002b0: 70f9 c6bd 135e ddbc 10aa e63c 8340 d13c
000002c0: cda0 f8bd 38ae 5cbc 472f cc3d 377e 063e
000002d0: b1d8 a1bc 0a97 b23c 2e1e 99bc f5e0 02be
000002e0: 2932 f63c 2595 d2bd 9f81 fabd bd68 edbd
000002f0: 3fc0 a93d 800c be3d 7d4e 1bbd a4bf cabd
00000300: 7922 cfbd b4d8 16be 4994 d63d 016a dbbd
00000310: eb3b d7bd a5b4 a43d 32b1 ddbd 47de a1bd
00000320: a749 823c b0dd c2bc b029 433d f678 093d
00000330: 6ec8 f5bc 632c 13bd ccce cd3d 0de1 693b
00000340: 2e85 9ebd ec66 893d 014c e2bc 0ce6 6ebd
00000350: 4b04 313e 2f47 3bbd d248 f2bc 4183 043d
00000360: 2c4f bc3d 9b03 cbbd 15ab cc3d 2269 dfbd
00000370: 5889 213d 5996 fcbc a96a 123e fb70 013e
00000380: fbbf b93d a25d eb3c 013d 1b3d 90d0 923d
00000390: aae9 ee3d 5cc0 3ebd 432a 1cbd 4a48 abbd
000003a0: 5fe4 5cbe 9e05 cd3b 2ef5 0f3a e4d8 87bc
000003b0: d793 bebd be87 583b e353 593a af90 d0bd
000003c0: b30c abbd 0331 f1bd 42e2 6cbd d16a d03d
000003d0: d069 f3bd 2b44 3b3b f4a1 b7bd baf9 6abd
000003e0: 2db2 2fbd 80b7 65bd 7064 0bbd 09a1 bc3d
000003f0: 4b71 febc 60ae b23d 7d4f 22bd 6c6c 7ebd

fc.bias f4 [4]
0.20259906 0.07799637 0.18075812 0.16820195
00000000: 2176 4f3e 90bc 9f3d a818 393e 223d 2c3e
