lstm_hdim_128_wsize_20_interval_7_nlayers_1_bs_512_lr_0.01_decay_0.95_epoch_30.pt (torch, 277987 bytes, 6 tensors)

lstm.weight_ih_l0 f4 [512, 4]
0	0xbd537be1	-0.051631812
1	0xbbdbf3d0	-0.0067124143
2	0xbdd9e141	-0.10638667
3	0x3da5e0a9	0.08099491
4	0xbf070554	-0.52742505
5	0x3ecc2344	0.39870656
6	0xbeccfd1b	-0.40036854
7	0x3e6f551a	0.23372307
8	0xbdf0c163	-0.117556356
9	0xbd9d5614	-0.07682434
10	0x3d4601e9	0.048341665
11	0x3d8a6000	0.06756592
12	0xbdd25a06	-0.10271077
13	0x3bbb96b9	0.0057247547
14	0x3e2b3de7	0.16722833
15	0xbe3d6c88	-0.18498433
16	0xbc0acefd	-0.008472201
17	0xbdb5cb96	-0.088767216
18	0xbe429a9a	-0.19004288
19	0x3e475688	0.19466603
20	0xbe36707b	-0.17816345
21	0x38b69364	8.70589e-05
22	0x3c3b2858	0.011423193
23	0x3dc79147	0.09744506
24	0xbd70ef24	-0.058821812
25	0xbd4070e4	-0.04698266
26	0xbbdf6b88	-0.0068182386
27	0xbd9eb761	-0.077498205
28	0xbd2aa8e5	-0.041664977
29	0xbdd7813c	-0.105226964
30	0xbc19d70c	-0.00938965
31	0xbda22d0e	-0.0791875
32	0x3e129374	0.14314061
33	0x3e60d692	0.21956852
34	0xbdec08ce	-0.11525117
35	0xbdf59f83	-0.11993315
36	0xbf1ce0ba	-0.61280406
37	0x3e07bef1	0.13256432
38	0xbf39c50d	-0.725663
39	0x3e5b0a68	0.21390688
40	0xbe5ec042	-0.21753028
41	0xbe706643	-0.2347651
42	0xbda3dd84	-0.08001235
43	0xbe3dc9bd	-0.18533988
44	0xbc3c0878	-0.0114766285
45	0x3d1b569b	0.03792439
46	0x3d139cf4	0.036038354
47	0x3e8d3aae	0.27583832
48	0xbe0a315c	-0.13495392
49	0xbd8f71b5	-0.0700411
50	0xbf84a130	-1.036169
51	0xc0019781	-2.024872
52	0xbd8e0c93	-0.06935992
53	0x3de07bb7	0.10961097
54	0xbbda7b4d	-0.0066675306
55	0xbe254298	-0.16138685
56	0xbe4d8234	-0.200692
57	0x3e111851	0.14169432
58	0xbf12bf0a	-0.5732275
59	0xbf21df22	-0.632311
60	0x3e55de7c	0.20885652
61	0x3b62f903	0.0034633286
62	0xbe6c4c47	-0.23075972
63	0x3d98b8aa	0.07457097
64	0x3d1c0e66	0.03809967
65	0xbd97992d	-0.07402263
66	0xbd55b879	-0.05217788
67	0xbed4e890	-0.4158368
68	0x3e0c395b	0.13693754
69	0x3e0af153	0.1356862
70	0x3e015e67	0.12633668
71	0xbbc9895e	-0.0061504086
72	0x3e839f98	0.25707698
73	0x3f24f3d5	0.6443456
74	0xc0c626b0	-6.1922226
75	0xc0037ccd	-2.0544922
76	0xbec25099	-0.37952116
77	0xbec8b588	-0.39200997
78	0x401e832d	2.4767563
79	0x405abce3	3.4177787
80	0xbe6ba1a3	-0.23010878
81	0xbe5ce911	-0.21573283
82	0x3e3d4825	0.18484552
83	0xbf026a19	-0.5094314
84	0xbd825bcf	-0.06365167
85	0xbd452624	-0.048132077
86	0xbfdb6572	-1.7140334
87	0xbf8b5dac	-1.0887961
88	0xbee72224	-0.45143235
89	0xbc8f4c06	-0.017492305
90	0x3bfc98f0	0.0077086613
91	0x3e0bd6fd	0.1365623
92	0xbe55d944	-0.20883662
93	0xbe3c5fd6	-0.18395934
94	0xbe634251	-0.22193266
95	0xbecef3cb	-0.40420374
96	0x3d9fa92d	0.077959396
97	0xbe253a64	-0.16135556
98	0xbd67e24f	-0.05661231
99	0x3e4c7258	0.19965494
100	0xbd4e83c8	-0.050418645
101	0xbde18091	-0.1101085
102	0x3e85e672	0.26152378
103	0x4000bbf8	2.0114727
104	0x3d4a42db	0.049380165
105	0xbe352ff8	-0.1769408
106	0xbe0989e4	-0.13431507
107	0x3e67c1be	0.226325
108	0x3e9af1a2	0.30262476
109	0xbd69b777	-0.05705973
110	0xbdb76be2	-0.08956124
111	0xbdfc596e	-0.12321745
112	0x3da69f38	0.08135837
113	0x3e160fd7	0.1465448
114	0xbb524ce3	-0.0032089285
115	0x3e0b567a	0.13607207
116	0xbdd8a263	-0.10577848
117	0xbeaae329	-0.33376434
118	0xbf025278	-0.5090709
119	0x3eba5be3	0.3639823
120	0x3daacb0b	0.083395086
121	0xbde7b877	-0.11314481
122	0x3e6eb147	0.23309813
123	0xbd933e69	-0.07189638
124	0x3d915de2	0.07097985
125	0x3cc8c1ef	0.024506537
126	0x3c9a79cd	0.018856907
127	0x3d621131	0.055192176
128	0x3d548df2	0.051893182
129	0x3c944d3d	0.018103236
130	0x3e8beaf1	0.27327684
131	0x3d9f2d7a	0.07772346
132	0x3e30a9d1	0.1725228
133	0xbdf5ca2f	-0.12001454
134	0xbea1808c	-0.31543386
135	0xbecddfab	-0.40209708
136	0x3e4e36fa	0.2013816
137	0xbbc354d8	-0.005961042
138	0x3e93ee99	0.28892973
139	0xbfb686bb	-1.4259866
140	0xbd3c54e0	-0.04597938
141	0x3ca32fca	0.019920249
142	0x3c8abea3	0.016936606
143	0xbd0468e2	-0.032326587
144	0x3e140af0	0.14457297
145	0xbd70342c	-0.058643505
146	0x3c97788a	0.018490095
147	0xbe06ade7	-0.13152276
148	0x3c8fd4c5	0.017557511
149	0x3e21188b	0.15732019
150	0x3e6dbb47	0.23215972
151	0x3e175519	0.14778556
152	0xbcc11618	-0.023570105
153	0xba5b6226	-0.0008368812
154	0xbe1f5cd2	-0.15562752
155	0x3e152de6	0.1456829
156	0xbdc68a84	-0.096943885
157	0xbcc824e1	-0.024431648
158	0x3e6858f0	0.22690177
159	0xbe529c94	-0.20567542
160	0x3e17b439	0.14814843
161	0xbdd65024	-0.10464504
162	0xbec072bd	-0.37587538
163	0xbe2ebacc	-0.17063445
164	0x3e372f79	0.17889203
165	0x3e5b6d79	0.21428479
166	0x3dbb91be	0.091586575
167	0x3d30002f	0.042968925
168	0x3dcc32e7	0.09970646
169	0x3e25e561	0.16200782
170	0xbe320488	-0.17384541
171	0xbd446061	-0.047943477
172	0xbd613d71	-0.054990236
173	0x3d5650d1	0.052323166
174	0x3d3507f7	0.04419705
175	0xbdd9ad74	-0.10628787
176	0xbe94fadc	-0.2909764
177	0xbd9aada5	-0.07552651
178	0xbe075fae	-0.13220093
179	0xbeb9af11	-0.36266378
180	0xbf097513	-0.53694266
181	0x3de91feb	0.11383041
182	0x3f3b9474	0.73273396
183	0xbfa2c8e0	-1.2717552
184	0x3da6dd4f	0.0814768
185	0x3ce308c8	0.027714148
186	0xbe1bd7c8	-0.15219033
187	0x3d9d4341	0.07678843
188	0xbc11c0eb	-0.008896093
189	0xbe969681	-0.294117
190	0xbd83c631	-0.064342864
191	0xbe4f5530	-0.2024734
192	0x3e01ee33	0.12688522
193	0x3e65c009	0.22436537
194	0xbe8864c8	-0.2663939
195	0x3d7e5e97	0.062101927
196	0x3ea15a0b	0.3151401
197	0xbe457668	-0.1928345
198	0xbcd24b1b	-0.025670579
199	0x3d5bbb34	0.053645328
200	0x3e08ed02	0.13371661
201	0x3e409c78	0.18809688
202	0x3e34cb69	0.1765572
203	0xbeea285d	-0.4573392
204	0xbd391a9f	-0.045191403
205	0x3df0495c	0.11732742
206	0xbef4aea9	-0.47789505
207	0xbeeb1f4d	-0.45922318
208	0xbdca0908	-0.09865004
209	0xbe9d1f7d	-0.30688086
210	0x3df7cc80	0.12099552
211	0x40f46a54	7.6379795
212	0x3d5d861c	0.054082975
213	0xbd40ec30	-0.047100246
214	0xbf4ea434	-0.80719304
215	0xbf0e777d	-0.55651075
216	0x3de8102b	0.11331209
217	0x3db4bc87	0.08825021
218	0xbdb9380b	-0.090438925
219	0x3d64ef19	0.055892084
220	0xbc185d52	-0.009299593
221	0xbd71ecfd	-0.0590639
222	0x3ff0dc07	1.8817147
223	0x3ef74104	0.4829179
224	0xbdf98272	-0.121830836
225	0xbebe873e	-0.37212557
226	0x3bc98360	0.0061496943
227	0xbecc18ec	-0.39862764
228	0xbe9b720a	-0.30360442
229	0x3e096f60	0.13421392
230	0xbdd6915f	-0.10476946
231	0xbe7b8e1a	-0.24565926
232	0xbeb6f2e4	-0.35732186
233	0xbe7b22b7	-0.24524961
234	0x3d617364	0.055041686
235	0xbd0aa9a1	-0.033853177
236	0x3c8f7863	0.01751346
237	0x3e1e8615	0.15480836
238	0xbe3a3175	-0.18182929
239	0xbe39f2ed	-0.18159075
240	0xbd0e4823	-0.034736764
241	0xbe2e268f	-0.17006896
242	0xbea5d0b5	-0.32385793
243	0x3e756ba1	0.23966838
244	0xbdec267e	-0.11530779
245	0x3e4f8d45	0.20268734
246	0x3d65ea26	0.056131504
247	0x3e32d0ad	0.17462416
248	0xbf1a4272	-0.6025764
249	0xbe135d51	-0.14391066
250	0x3eed6ed9	0.46373633
251	0xbcf2513b	-0.02957975
252	0xbd9a7b11	-0.07543004
253	0x3db208fd	0.08693121
254	0x3d7534e1	0.059864882
255	0xbdc8daec	-0.09807381

lstm.weight_hh_l0 f4 [512, 128]
0	0xbd16b90c	-0.03679757
1	0xbe92e154	-0.28687537
2	0x3c4febad	0.012690467
3	0x3db48afa	0.0881557
4	0x3e291711	0.16512705
5	0x3c71b289	0.014752039
6	0xbd727a96	-0.05919894
7	0x3d4a4aad	0.049387623
8	0xbd404762	-0.046943076
9	0x3eb74a12	0.357987
10	0xbd96669b	-0.07343789
11	0xbe191ef7	-0.14953218
12	0x3ed117a1	0.4083834
13	0x3dda8bec	0.10671219
14	0xb982af74	-0.00024926255
15	0xbd9481c2	-0.07251312
16	0x3d7c989b	0.061668973
17	0x3dd5e66a	0.104443386
18	0xbee949a1	-0.45563987
19	0x3f95b888	1.169694
20	0x3e028252	0.12745026
21	0x3e464953	0.19363908
22	0xbcb1f4ca	-0.02172317
23	0xbd50c531	-0.050969306
24	0xbcf0c260	-0.02938956
25	0xbeb9eb4c	-0.3631233
26	0xbd626daf	-0.055280384
27	0xbd4bbee3	-0.04974259
28	0xbc31f14b	-0.010860751
29	0x3bd94f2c	0.0066317525
30	0x3b1ef270	0.002425339
31	0x3d5c2ad8	0.053751796
32	0xbc405ed7	-0.011741362
33	0xbdb15fc5	-0.08660845
34	0xbe8c132e	-0.27358383
35	0xbbe7c6f3	-0.007073277
36	0x3ca00805	0.019535074
37	0x3d73b429	0.059497986
38	0x3c9f847f	0.019472359
39	0xbd31df3c	-0.043425784
40	0xbdeba5b0	-0.11506212
41	0x3d957c73	0.072991274
42	0x3c9e3728	0.01931341
43	0xbd88411f	-0.06653046
44	0x3d7e7bef	0.06212991
45	0xbd5fbebd	-0.05462526
46	0x3be34cae	0.006936631
47	0x3be0177e	0.006838738
48	0x3cc3e1a4	0.023911305
49	0x3d113a0f	0.03545576
50	0xbe795681	-0.24349405
51	0xbe3195db	-0.17342322
52	0xbf355904	-0.7083895
53	0x3d5f1762	0.05446566
54	0xbdc58910	-0.09645283
55	0xbe0e99e6	-0.13925895
56	0xbd568f98	-0.052383035
57	0x3d979392	0.07401194
58	0xbee553be	-0.44790453
59	0x3d19400e	0.037414603
60	0xbe06c091	-0.13159396
61	0x3da48908	0.08033949
62	0xbda55868	-0.08073503
63	0x3cf331da	0.029686857
64	0x3ea77281	0.32704547
65	0x3e0fadcf	0.14031146
66	0xbd415e67	-0.04720917
67	0x3ddcf876	0.10789578
68	0xbc92fefe	-0.017943855
69	0x3da6b6d7	0.08140343
70	0x3e0b0343	0.13575463
71	0x3dce4566	0.100718305
72	0xbd8b014f	-0.06787359
73	0x3df77ed0	0.120847344
74	0x3eb77235	0.3582932
75	0xbe01ddcd	-0.12682267
76	0xbb124bc1	-0.0022322985
77	0x3b99240e	0.0046734875
78	0xbd3ab375	-0.0455813
79	0xbd5fe608	-0.054662734
80	0x3bcbe271	0.0062220623
81	0x3e52848c	0.20558375
82	0xbdd4c241	-0.103886135
83	0x3dbbab2a	0.09163506
84	0x3eaed93b	0.3415011
85	0x3de84a75	0.113423266
86	0xbbe9ff94	-0.007141063
87	0xbd5aaed1	-0.053389374
88	0xbd2ef288	-0.042711765
89	0x3e89b0af	0.2689261
90	0xbe4e7e5a	-0.20165387
91	0x3c525bd3	0.012839275
92	0xbcd49e88	-0.0259545
93	0x3deacfd6	0.11465423
94	0xbce922ca	-0.028458972
95	0x3cd21619	0.025645303
96	0xbd2f47d8	-0.042793125
97	0x3cec4ad5	0.028844276
98	0xbe2b37e5	-0.16720541
99	0xbcd12520	-0.025530398
100	0xb930cd30	-0.00016861106
101	0xbec06749	-0.375788
102	0xbdf0cdf7	-0.11758035
103	0x3da88d66	0.082300946
104	0x3e01d2e9	0.12678112
105	0x3da1b528	0.07895881
106	0x3e1aabdc	0.15104622
107	0xbbf6229b	-0.0075114495
108	0x3e9846e5	0.29741588
109	0xbe017bb2	-0.12644842
110	0xbe7ccd56	-0.24687704
111	0xbe183822	-0.14865163
112	0x3d750a8b	0.059824508
113	0x3c8a98ed	0.016918624
114	0x3de099b0	0.109668136
115	0xbe61660a	-0.22011581
116	0x3d1728ec	0.03690426
117	0xbd47c849	-0.04877499
118	0x3e1d6f51	0.15374495
119	0xbe01ee5b	-0.12688582
120	0x3e3d6e17	0.18499027
121	0x3e0969a2	0.13419202
122	0x3cee2015	0.029068032
123	0xbcc24335	-0.023713687
124	0xbd0bf0bf	-0.03416514
125	0x3f1d2e33	0.6139862
126	0x3d547bee	0.051876
127	0x3f2b7835	0.66980296
128	0x3eaffb36	0.34371346
129	0xbf34ca5f	-0.70621294
130	0xbf195cc9	-0.59907204
131	0x3e7ad948	0.24496949
132	0x3e87212d	0.263925
133	0xbe5834e1	-0.21113922
134	0x3f02da16	0.5111402
135	0x3ea47d1a	0.32126695
136	0x3ee76c52	0.4519983
137	0xbebac2a6	-0.3647663
138	0xbf11c240	-0.56937027
139	0x3f14b0e2	0.580824
140	0xbfbeffaf	-1.4921778
141	0x3ef05e52	0.4694696
142	0xbec08187	-0.37598822
143	0xbe5aeafb	-0.213787
144	0x3eee9454	0.4659754
145	0x3ee0e364	0.43923485
146	0xbfa06447	-1.2530602
147	0x3e9c2392	0.30495888
148	0x3d33cd8c	0.043897197
149	0x3f1006e1	0.56260496
150	0x3e27e4ef	0.16395925
151	0xbed62bfe	-0.41830438
152	0xbeb62301	-0.3557358
153	0xbd8ca9eb	-0.06868347
154	0x3e99a243	0.30006608
155	0x3f521dcf	0.82076734
156	0x3eb7b0c2	0.35877043
157	0x3c8625a2	0.016375367
158	0x3f1b6b6f	0.60710806
159	0xbdf559f4	-0.11980048
160	0xbfce0931	-1.6096555
161	0x3ea4d559	0.3219402
162	0xbf9f199b	-1.2429689
163	0xbe9e9bff	-0.3097839
164	0xbedccf85	-0.43127075
165	0x3f1cb3b8	0.6121173
166	0x3dd4ceb3	0.10390987
167	0xbfd3322b	-1.6499685
168	0xbe7c5daf	-0.24645112
169	0xbf0008af	-0.5001325
170	0x3ecfc59d	0.40580454
171	0xbe91dcb8	-0.28488708
172	0x3db4f500	0.088357925
173	0x3f1cc625	0.61239845
174	0xbe54bd18	-0.20775259
175	0xbe7827ce	-0.24233934
176	0x3eca9811	0.39569142
177	0x3edd0afd	0.43172446
178	0x3f7a325b	0.97733086
179	0xbcaa119c	-0.02076035
180	0x3f47146a	0.77765524
181	0xbe4de29f	-0.2010598
182	0xbeebbd7a	-0.46042997
183	0xbf47f077	-0.78101295
184	0x3eca773a	0.39544088
185	0x3e26dca3	0.16295104
186	0xbf7596e3	-0.9593336
187	0x3ee32196	0.44361562
188	0xbef0bef5	-0.4702069
189	0xbe837b10	-0.25679827
190	0x3f5fc4b6	0.8740953
191	0x3ebfc4a2	0.37454706
192	0xbe91e227	-0.28492853
193	0xbe7b7f1a	-0.24560204
194	0xbe5e8787	-0.21731387
195	0xbf1e634e	-0.61870277
196	0x3f08c8c7	0.5343136
197	0x3c890a4e	0.016728546
198	0x3ea8b641	0.3295155
199	0x3f0626d7	0.52403015
200	0x3e90f12e	0.28309005
201	0xbdb1ac15	-0.086754
202	0xbefe6b2e	-0.49691147
203	0x3e5ca15c	0.21545929
204	0xbe9a36b5	-0.30119863
205	0x3e57969f	0.21053551
206	0xbeec0ac2	-0.46101958
207	0xbeaff404	-0.34365857
208	0x3e946769	0.28985146
209	0x3f172a2e	0.59048736
210	0xbf471d6d	-0.77779275
211	0x3d99a16f	0.07501494
212	0xbf2a1905	-0.66444427
213	0x3e7cfcac	0.24705762
214	0x3e590a4f	0.21195339
215	0xbf174eac	-0.5910442
216	0xbebe4699	-0.37163237
217	0x3f93cd62	1.1547053
218	0xbf840dd8	-1.0316725
219	0x3f0672f9	0.52519184
220	0xbedd38ee	-0.43207496
221	0x3dcfb499	0.10141868
222	0xbf08216e	-0.5317601
223	0xbf08d0ef	-0.5344381
224	0xbf4aac85	-0.79169494
225	0x3f287dd6	0.6581701
226	0xbee04842	-0.43805128
227	0xbdd9ceed	-0.10635171
228	0x3f69f8f0	0.91395473
229	0xbda75b87	-0.08171754
230	0xbf94226f	-1.1573008
231	0x3ccae6c6	0.024768244
232	0xbe02224f	-0.127084
233	0x3ea4606c	0.32104814
234	0x3e543fc6	0.20727453
235	0xbd4a5c7e	-0.049404614
236	0x3cfff1fb	0.031243315
237	0x3f261f72	0.6489173
238	0xbf4fd3f0	-0.81182766
239	0x3eda486c	0.42633379
240	0x3f36345e	0.71173656
241	0xbe503ff4	-0.20336896
242	0x3f250607	0.6446232
243	0xbfac0714	-1.343966
244	0x3ec8a577	0.3918874
245	0x3e157b4d	0.14597817
246	0xbdf01645	-0.117229976
247	0x3f2b6bd5	0.66961414
248	0x3f2b3981	0.6688462
249	0xbcedf12f	-0.02904567
250	0x3df07cf5	0.11742584
251	0xbf317afc	-0.69328284
252	0x3d840a6d	0.06447301
253	0x3d36d107	0.044632938
254	0xbcdb63a2	-0.026780907
255	0xbf03ef9a	-0.5153748

lstm.bias_ih_l0 f4 [512]
0	0xbdb3b14c	-0.08774051
1	0x3e03fc8f	0.12889312
2	0xbe381231	-0.1797569
3	0xbdd810c6	-0.10550074
4	0xbd001612	-0.031271048
5	0xbd5bf1b1	-0.05369729
6	0x3caa9ade	0.0208258
7	0xbd70f6dd	-0.058829177
8	0xbc057476	-0.008145442
9	0x3e1adc73	0.15123157
10	0xbe209616	-0.15682253
11	0xbd74e7a6	-0.05979123
12	0xbe5b2b62	-0.21403268
13	0x3c91dab2	0.017804477
14	0xbe4353ae	-0.1907489
15	0x3cab1914	0.020885982
16	0xbd054b9a	-0.032542802
17	0x3d359dec	0.04434006
18	0x3f0f385e	0.55945385
19	0xbe2589fc	-0.16165918
20	0xbe3326be	-0.17495248
21	0xbde7d7cd	-0.113204576
22	0xbe036df4	-0.12834913
23	0xbe41dd3d	-0.18932052
24	0xbc87f151	-0.01659456
25	0xbe883e69	-0.26610115
26	0xbdc540c5	-0.096314944
27	0x3d787367	0.06065693
28	0xbcd9a1c1	-0.026566388
29	0xbe9ae955	-0.30256143
30	0xbe52cde6	-0.20586357
31	0x3d37a7cf	0.04483777
32	0xbdad7ff8	-0.08471674
33	0xbe191134	-0.14947969
34	0x3d6b9a55	0.05752023
35	0xbe02d355	-0.1277593
36	0xbda1365d	-0.07871697
37	0xbcbb76f7	-0.022883875
38	0xbe15b133	-0.14618377
39	0xbdc68586	-0.09693436
40	0xbbc4dcfc	-0.0060077887
41	0x3ca50e08	0.020148292
42	0xbdb39668	-0.08768922
43	0xbd0d6579	-0.0345206
44	0xbd2ea179	-0.04263446
45	0xbd484e02	-0.04890252
46	0xbdffae72	-0.12484445
47	0xbe625c68	-0.22105563
48	0xbd6d41c0	-0.057924032
49	0x3d584ff9	0.052810643
50	0x3dbcbf34	0.092161566
51	0xbd44df7b	-0.04806469
52	0xbdb5239a	-0.08844681
53	0xbc822bd1	-0.015890034
54	0xbd1d4795	-0.038398344
55	0xbdf90373	-0.12158861
56	0xbe1ac4ad	-0.15114088
57	0xbe54d773	-0.20785312
58	0xbeb14fcf	-0.34631202
59	0x3d6b0855	0.057380993
60	0xbd0fecdd	-0.035138
61	0xbd127f2b	-0.035765808
62	0xbe1a794f	-0.15085338
63	0xbdfe2f30	-0.12411344
64	0x3e0b3e48	0.13597977
65	0x3eb730f6	0.35779542
66	0x3e1e155f	0.1543784
67	0x3f1bea5b	0.60904473
68	0x3e9dd9f9	0.30830362
69	0xbd38a9e2	-0.045083888
70	0xbe0d761a	-0.13814583
71	0xbd163315	-0.03666981
72	0xbe0afb7e	-0.13572499
73	0xbe0ab1e5	-0.13544424
74	0x3a86682e	0.0010254437
75	0xba5f5d02	-0.0008520634
76	0x3bf01632	0.0073268646
77	0xbdec5d27	-0.11541205
78	0xbd8ea0b5	-0.06964246
79	0xbdad950b	-0.08475693
80	0xbd217e48	-0.03942707
81	0xbd604bca	-0.054759778
82	0xbdfbd4bd	-0.12296436
83	0x3cb38b34	0.021916963
84	0xb9340e73	-0.0001717152
85	0xbd9fce2f	-0.07802998
86	0xb9d06ae6	-0.00039752497
87	0xbe892aa1	-0.26790336
88	0xbdd3e44b	-0.10346278
89	0xbe52da42	-0.20591071
90	0xbdbe6f0d	-0.09298525
91	0x3d6e7171	0.058213655
92	0xbe642bf9	-0.22282399
93	0xbdcdbfa0	-0.10046315
94	0xbd400d12	-0.046887465
95	0x3caf54a5	0.021402666
96	0x3cfeb004	0.03108979
97	0x3c24278c	0.010019194
98	0x3d945d52	0.07244362
99	0xbe448f1c	-0.19195217
100	0xbca2d8ee	-0.01987883
101	0xbe4a399d	-0.1974854
102	0xbd4243a4	-0.04742779
103	0xbe5e0f0e	-0.2168543
104	0xbd8b1f63	-0.06793096
105	0xbde1fd60	-0.110346556
106	0xbd898999	-0.06715698
107	0xbd6680ce	-0.05627518
108	0xbe0872d5	-0.13325055
109	0xbc8b84b4	-0.017031051
110	0xbde769e9	-0.11299498
111	0x3d98cfca	0.074615076
112	0xbdac3b6d	-0.08409772
113	0x3ccecfb3	0.025245523
114	0xbe0f0456	-0.13966498
115	0x3e8707e5	0.2637321
116	0xbd197835	-0.037468154
117	0xbed5e306	-0.41774768
118	0x3e46ba3b	0.19406979
119	0x3d47c275	0.048769433
120	0x3f09ee14	0.53878903
121	0xbddd2e9c	-0.10799906
122	0xbe767289	-0.24067129
123	0xbce8ca55	-0.028416792
124	0xbe38cf64	-0.18047863
125	0xbb0c972f	-0.0021452417
126	0xbe04e753	-0.12978868
127	0x3db6859b	0.08912202
128	0xbe1b8fb2	-0.15191534
129	0xbe4e536f	-0.20149015
130	0xbd493aab	-0.049128216
131	0x3d6c4fe3	0.057693373
132	0xbd14f88a	-0.036369838
133	0x3d9c5ca1	0.07634855
134	0x3d742a02	0.059610374
135	0xbd90bde6	-0.0706747
136	0x3d2fb4f5	0.042897183
137	0x3db87b52	0.090078965
138	0xbdb8fb54	-0.09032312
139	0xbddbd9fa	-0.10734935
140	0xbe6e9ee4	-0.233028
141	0xbded972f	-0.116011016
142	0x3e27d0c6	0.16388234
143	0xbd2af15f	-0.041734096
144	0xbdcc79a0	-0.09984136
145	0x3c859061	0.016304197
146	0xbe188bee	-0.14897129
147	0x3da419e6	0.08012752
148	0xbe05921b	-0.13044016
149	0xbe21600f	-0.157593
150	0xbe03c3e2	-0.12867692
151	0xbdbc17ce	-0.09184228
152	0x3d0c0be5	0.03419103
153	0xbe050d0a	-0.12993255
154	0xbda0fff3	-0.078613184
155	0xbc926de1	-0.01787466
156	0xbd0f15d6	-0.034932934
157	0xbe7e87d7	-0.24856506
158	0xbdbbd3f4	-0.09171286
159	0xbda895fb	-0.082317315
160	0x3e0c788b	0.13717858
161	0xbeaa40d7	-0.33252594
162	0x3e11cca6	0.14238223
163	0x3d165dbe	0.036710493
164	0xbcf6b95d	-0.030117685
165	0xbccadf19	-0.024764584
166	0x3ca99e3d	0.020705337
167	0xbd8fca24	-0.07020977
168	0xbdb02afe	-0.0860195
169	0xbcb40f76	-0.021980029
170	0x3d218b97	0.039439764
171	0x3c8ce8e4	0.017200895
172	0xbe1ab572	-0.15108278
173	0xbd166211	-0.036714617
174	0xbd27491d	-0.04084121
175	0xbdd04ebb	-0.10171267
176	0xbd804eba	-0.06265016
177	0x3c5a011e	0.01330593
178	0x3d6330d8	0.055466503
179	0xbda3f394	-0.08005443
180	0xbe0e730c	-0.13911074
181	0xbd9daae3	-0.0769861
182	0xbb3fa109	-0.0029240272
183	0xbd462f36	-0.048384868
184	0xbe1d3b6d	-0.153547
185	0xbc814a92	-0.015782628
186	0x3f03fed5	0.5156072
187	0xbd121f6f	-0.03567451
188	0xbd412f23	-0.047164094
189	0xbd3f65d5	-0.046727974
190	0xbe443af3	-0.19163112
191	0x3cb2da99	0.021832751
192	0xbe293b1d	-0.16526456
193	0x3dd2847e	0.10279177
194	0xbe43dd6a	-0.19127432
195	0xbe015b4d	-0.12632485
196	0x3de382e5	0.111089505
197	0x3d14973b	0.036277037
198	0x3d8f25b9	0.06989617
199	0x3c07fa39	0.008299404
200	0x3e2bdd56	0.16783652
201	0xbba72dde	-0.0051019033
202	0x3e2d6da0	0.1693635
203	0x3d9493c6	0.07254748
204	0xbdccd721	-0.1000197
205	0xbc438453	-0.011933404
206	0xbd147b5e	-0.036250465
207	0xbc1eacac	-0.009684723
208	0x3ca15e08	0.019698158
209	0xbcdc0284	-0.026856668
210	0xbe096798	-0.13418424
211	0xbd558063	-0.052124392
212	0xbe10267e	-0.14077184
213	0xbdd6131a	-0.10452862
214	0xbda66be8	-0.0812605
215	0x3f019339	0.5061527
216	0xbde10c8f	-0.109887235
217	0x3e089a8f	0.1334021
218	0xbdf25e65	-0.118344106
219	0x3da561a0	0.08075261
220	0xbe27e120	-0.16394472
221	0x3e32b1ef	0.17450689
222	0x3d1ff19b	0.039048772
223	0x3c5552d0	0.013020232
224	0xbdae83ff	-0.0852127
225	0xbc91c0f6	-0.017792206
226	0xbe6a58d4	-0.22885448
227	0x3d809d99	0.06280059
228	0xbd6d37fd	-0.057914723
229	0xbe06f1cd	-0.13178177
230	0x3d00808a	0.031372584
231	0xbd45c6ff	-0.04828548
232	0xbe015fd1	-0.12634207
233	0xbc8f983b	-0.017528644
234	0x3d425ad9	0.04744992
235	0xbdd21440	-0.10257769
236	0xbda8cce1	-0.082422026
237	0xbd97bea5	-0.074094094
238	0xbe0b0d75	-0.13579352
239	0xbdaf2c9d	-0.08553431
240	0xbd24d38f	-0.04024082
241	0xbe460602	-0.1933823
242	0xbd9b7b60	-0.07591891
243	0xbea03ca1	-0.31296256
244	0x39c221df	0.000370278
245	0xbe32e64c	-0.17470664
246	0xbe21a405	-0.15785225
247	0x3d4efc37	0.0505335
248	0x3cba458b	0.022738239
249	0xbd8df2c3	-0.06931069
250	0xbe2888d4	-0.16458446
251	0x3df16377	0.117865495
252	0xbe3a4617	-0.181908
253	0x3d9e1e26	0.07720594
254	0xbd818c79	-0.06325621
255	0xbc007f37	-0.00784283

lstm.bias_hh_l0 f4 [512]
0	0xbce8f30f	-0.028436212
1	0x3deae9ee	0.114704
2	0xbdcc4d44	-0.09975675
3	0xbd1132cc	-0.035448834
4	0xbd19cdfb	-0.037549954
5	0xbdd3d14e	-0.10342656
6	0xbe0d0c99	-0.13774337
7	0xbd11be1d	-0.035581697
8	0xbd7e1e70	-0.062040746
9	0x3e189328	0.14899886
10	0xbdaeb2ef	-0.085302226
11	0x3d6b8633	0.05750103
12	0xbe7669f4	-0.24063855
13	0xbe11e202	-0.14246371
14	0xbdc39aa5	-0.095509805
15	0xbd47b791	-0.048759047
16	0xbdac1de3	-0.08404138
17	0xbdc9266c	-0.098217815
18	0x3f1047a9	0.56359345
19	0xbe2e17aa	-0.17001215
20	0xbe6bfee5	-0.23046453
21	0xbdc2f59c	-0.095195025
22	0xbe3ef2ac	-0.1864726
23	0xbe4be081	-0.1990986
24	0xbdfae5b6	-0.12250845
25	0xbe2b27a3	-0.16714339
26	0xbe13d81f	-0.14437912
27	0xbda5f794	-0.081038624
28	0xbd250105	-0.040284175
29	0xbe9201f6	-0.2851712
30	0xbe4b2fa3	-0.1984239
31	0x3be3e2cb	0.006954526
32	0xbc8631be	-0.01638114
33	0xbe38fe9e	-0.18065879
34	0x3d8d0946	0.068865344
35	0xbd2c27f4	-0.04203029
36	0xb92a6518	-0.00016250124
37	0xbd924291	-0.07141603
38	0xbdb1b593	-0.08677211
39	0xbdf46ca9	-0.11934788
40	0xbb3f46ca	-0.002918648
41	0xbd9a5e8a	-0.07537563
42	0x3ce3afee	0.02779385
43	0xbd78e5f5	-0.06076618
44	0xbe1e11bc	-0.15436453
45	0x3d069a53	0.03286202
46	0xbe2c7f82	-0.16845515
47	0xbe38411b	-0.17993586
48	0xbd3381d1	-0.043824974
49	0x3d45c7c6	0.048286222
50	0x3e659029	0.22418274
51	0xbd089ebc	-0.033354506
52	0xbe1ab029	-0.15106262
53	0xbcfd5a40	-0.030926824
54	0x3d7474de	0.059681766
55	0xbc43a0d1	-0.011940197
56	0xbe1ce236	-0.15320668
57	0xbe555c16	-0.20835909
58	0xbe566035	-0.20935138
59	0x3cb1d3be	0.021707412
60	0xbddc082e	-0.10743748
61	0xbc11ca3e	-0.008898316
62	0xbe3a0aa5	-0.18168123
63	0xbdd98822	-0.106216684
64	0x3e0855a4	0.1331392
65	0x3e75c578	0.2400111
66	0x3de7064f	0.112805
67	0x3f129ee7	0.57273716
68	0x3ebac9a7	0.36481974
69	0x3d4a0bb0	0.049327552
70	0xbe0e217e	-0.13879964
71	0xbc56af07	-0.013103253
72	0xbe86eae7	-0.2635109
73	0xbe46c7e3	-0.19412188
74	0x3d15d5ff	0.036581036
75	0xbd3c5fc7	-0.045989778
76	0x3c9db081	0.019249203
77	0xbd871aa6	-0.0659688
78	0x3ca46db5	0.020071844
79	0xbe205892	-0.15658787
80	0xbd01d844	-0.031700388
81	0x3d1276ba	0.035757758
82	0xbd84ed07	-0.06490522
83	0xbddda357	-0.1082217
84	0xbd1e913a	-0.038712718
85	0xbd2f5d3e	-0.042813532
86	0x3d6d9d5c	0.058011398
87	0xbe5eb09b	-0.21747057
88	0xbd2f6907	-0.04282477
89	0xbe1b04c3	-0.15138535
90	0xbd924024	-0.0714114
91	0xbd33276d	-0.04373877
92	0xbe35b089	-0.17743124
93	0xbdb26362	-0.08710362
94	0xbceeca05	-0.029149065
95	0x3d8289c2	0.063739315
96	0x3cb4a362	0.022050563
97	0xbd310224	-0.043214932
98	0x3d9a8987	0.075457625
99	0xbe20ca34	-0.15702134
100	0xbda9070e	-0.08253299
101	0xbe4432ad	-0.19159956
102	0x3d8bc2e9	0.068242855
103	0xbe971258	-0.29506183
104	0xbe1ca43b	-0.15297024
105	0xbdd76861	-0.105179556
106	0xbe1dfe60	-0.15429068
107	0xbe1a0609	-0.15041365
108	0xbd94bbdc	-0.07262394
109	0xbdaa06af	-0.08302056
110	0xbd9dbdb7	-0.07702201
111	0x3d398c6e	0.04529994
112	0x3d40c511	0.047062937
113	0xbd54cff3	-0.05195613
114	0xbcfd1ce5	-0.030897567
115	0x3ea43872	0.32074314
116	0xbbc6aa05	-0.0060627484
117	0xbed3b022	-0.41345316
118	0x3e1604f2	0.14650324
119	0xbcb98e11	-0.02265075
120	0x3eebbf98	0.46044612
121	0x3c790449	0.015198776
122	0xbecc5a81	-0.399128
123	0xbdf8031f	-0.1210997
124	0xbda7d3de	-0.08194707
125	0x3d83c2c1	0.06433631
126	0xbe5de29c	-0.21668476
127	0x3d1457d4	0.036216572
128	0xbccc4806	-0.024936687
129	0xbe7ae491	-0.24501254
130	0xbcb65162	-0.022255603
131	0xbdbd8658	-0.0925414
132	0x3da95aa4	0.082692415
133	0x3ddafe6d	0.10693059
134	0x3dc18cda	0.094506934
135	0xbd89442d	-0.067024566
136	0xbdf9f0e9	-0.12204153
137	0x3d8c7a5d	0.068592764
138	0xba569962	-0.0008186308
139	0xbd189acb	-0.037256997
140	0xbe7b74e2	-0.24556306
141	0xbb84a238	-0.0040476583
142	0x3d390835	0.045173842
143	0x3d24fb26	0.040278576
144	0x38a72004	7.969144e-05
145	0xbcef613f	-0.029221175
146	0xbe2e6621	-0.17031147
147	0x3da12414	0.078682095
148	0xbd8db5a7	-0.06919413
149	0xbe5a7603	-0.2133408
150	0xbe818d1c	-0.2530297
151	0x3c920c72	0.0178282
152	0xbdeefed0	-0.116696954
153	0xbe84ac96	-0.25912923
154	0xba7ae759	-0.00095712167
155	0xbdc9c2ea	-0.0985163
156	0xbcf1e697	-0.0295289
157	0xbe4cff08	-0.20019162
158	0xbda72853	-0.08161988
159	0xbdd18ee1	-0.1023233
160	0x3e398dba	0.1812047
161	0xbe5cb5d7	-0.21553741
162	0x3d4c0b33	0.049815368
163	0xbdb01252	-0.08597244
164	0xbc96b287	-0.018395675
165	0xbddc0c29	-0.10744507
166	0x3d8e5d36	0.06951372
167	0x3d3e8d17	0.046521273
168	0xbda3628f	-0.07977783
169	0x3d184930	0.037179172
170	0xbd6cb9d9	-0.057794426
171	0xbd69dd31	-0.05709571
172	0xbe197114	-0.14984542
173	0xbd1a2418	-0.037632078
174	0x3d0fad8e	0.035077624
175	0xbd9fbd78	-0.0779981
176	0x3d10317f	0.035203453
177	0xbd45f301	-0.04832745
178	0x3d1b9de3	0.03799237
179	0xbdbffdf5	-0.0937461
180	0xbdee93f8	-0.116493165
181	0xbd82edd0	-0.063930154
182	0xbbd2fdac	-0.0064389315
183	0x3daba8d9	0.083818145
184	0xbe526ceb	-0.20549361
185	0xbd6611ed	-0.05616944
186	0x3ee75459	0.4518154
187	0x3d296c10	0.041362822
188	0x3cb8046b	0.022463044
189	0xbde9b2df	-0.1141107
190	0xbe2c37a1	-0.16818096
191	0x3d37dd0a	0.044888534
192	0xbd8a2e80	-0.067471504
193	0x3d14b00a	0.036300696
194	0xbe6256cd	-0.22103424
195	0xbd15005b	-0.036377292
196	0x3e054ee5	0.13018377
197	0xbc27992b	-0.010229389
198	0xbc5e2f09	-0.013561019
199	0xbc16510c	-0.0091745965
200	0x3d2d70f6	0.042344056
201	0x3db52131	0.088442214
202	0x3e260a1c	0.16214794
203	0x3c60a245	0.013710563
204	0xbd950fc8	-0.07278401
205	0xbd895f66	-0.06707649
206	0x3d1414d9	0.036152694
207	0xbc4ab4fc	-0.012372252
208	0x3c6da4e3	0.014504644
209	0xbd9fbeed	-0.07800088
210	0xbdaabacb	-0.08336409
211	0xbe162b46	-0.14664945
212	0xbe841c34	-0.25802767
213	0xbb6bcdde	-0.003598086
214	0xbdb25c65	-0.08709029
215	0x3ef9c6b3	0.48784408
216	0xbd98ecb2	-0.07467021
217	0x3dec4f31	0.11538542
218	0xbd528385	-0.051394958
219	0x3db8e9a2	0.09028937
220	0xbe49e378	-0.19715679
221	0x3dce920b	0.10086449
222	0xbccff5f1	-0.025385829
223	0x3dae8d92	0.08523096
224	0xbd8b0170	-0.067873836
225	0xbc453ebc	-0.012038883
226	0xbe602edd	-0.21892877
227	0xbc2149d5	-0.009844263
228	0xbd8358f0	-0.06413448
229	0xbe76a96f	-0.24088071
230	0xbd8e5358	-0.0694949
231	0xbe0d8e77	-0.13823877
232	0xbe6db1d7	-0.23212372
233	0xbdc1c517	-0.0946142
234	0xbd17c043	-0.03704859
235	0xbd1fc9ed	-0.03901093
236	0xbe56cb50	-0.20975995
237	0xbe11405b	-0.14184706
238	0xbe320cc1	-0.17387678
239	0xbe16f17c	-0.14740556
240	0xbd5d3fe7	-0.05401602
241	0xbe4147ab	-0.18874995
242	0xbd61b7fb	-0.055107098
243	0xbe8742bd	-0.26418105
244	0xbd635f3e	-0.055510752
245	0xbea50f5c	-0.3223828
246	0xbe89885a	-0.2686184
247	0xbd9dcd37	-0.07705157
248	0x3c4b4ca3	0.012408408
249	0x3d50f5b4	0.05101557
250	0xbe15d531	-0.14632107
251	0x3dacd833	0.08439674
252	0xbe69086e	-0.22757122
253	0x3ddbf0f9	0.10739321
254	0x3d454de6	0.048169993
255	0x3d5914c2	0.05299831

fc.weight f4 [4, 128]
0	0xbd28a8a4	-0.041176453
1	0x3e5b8357	0.21436821
2	0x3c801bbf	0.01563823
3	0xbdba0d2b	-0.09084543
4	0x3cfc2a2a	0.030781824
5	0x3cba0732	0.02270851
6	0xbd3ae29b	-0.045626264
7	0xbd84b578	-0.06479925
8	0xbe0946d3	-0.13405924
9	0xbd74a7f4	-0.059730485
10	0x3d609dbf	0.05483794
11	0xb8975504	-7.2160765e-05
12	0xbc3a428b	-0.011368404
13	0xbdbd65f3	-0.09247961
14	0x3d1f5de0	0.038907886
15	0x3e33c88b	0.1755697
16	0xbd73118a	-0.0593429
17	0xbe2e94da	-0.1704897
18	0xbb266320	-0.0025388673
19	0x3b99b04e	0.0046902066
20	0x3caabe69	0.020842748
21	0xbba63c81	-0.0050731306
22	0x3e18278d	0.14858837
23	0xbd134283	-0.035952102
24	0x3e17c036	0.14819416
25	0x3c2c3079	0.010509604
26	0x3de2a02f	0.11065709
27	0xbe0e1094	-0.13873512
28	0xbe3975f3	-0.181114
29	0xbd8d69e8	-0.06904966
30	0xbdbd1e24	-0.092342645
31	0x3df23db8	0.11828178
32	0x3c736d04	0.014857534
33	0xbe4568af	-0.19278215
34	0x3c3600b5	0.011108567
35	0x3d9ebb8d	0.07750616
36	0x3e127d75	0.1430567
37	0xbdd500c2	-0.10400535
38	0x3cf41343	0.029794341
39	0xbd086792	-0.033301897
40	0x3e1b15dd	0.15145059
41	0x3e3c8886	0.18411455
42	0xbe170135	-0.14746554
43	0x3d908aad	0.070577
44	0xbda41365	-0.08011512
45	0xbc98c0ba	-0.018646587
46	0x3e1f5dfc	0.15563196
47	0xbd946a42	-0.072468296
48	0xbe15ad07	-0.14616786
49	0xbe5f4470	-0.2180345
50	0x3e1e711a	0.15472832
51	0x3d59cadc	0.053171977
52	0xbab7769b	-0.0013997139
53	0x3cf889db	0.030339172
54	0xbdaa7aad	-0.0832418
55	0xbd3557b9	-0.044273112
56	0x3d687af8	0.056757897
57	0xbd6b8946	-0.05750396
58	0x3de13e0e	0.10998164
59	0xbe02d014	-0.12774688
60	0x3d800a54	0.0625197
61	0xbbd8d1aa	-0.006616791
62	0x3ded6b87	0.11592775
63	0xbdcc8afd	-0.099874474
64	0xbc97419a	-0.018463898
65	0xbc3ea949	-0.01163704
66	0x3ea327bc	0.31866252
67	0xb9c5f332	-0.00037755963
68	0x3dec3827	0.11534148
69	0x3df77cf1	0.120843776
70	0xbd32cd17	-0.04365262
71	0xbccb0263	-0.024781412
72	0xbdd6cf59	-0.10488767
73	0x3c532ec5	0.012889569
74	0x3dfd6713	0.123731755
75	0x3e085eca	0.13317409
76	0xba4980c9	-0.0007686732
77	0xbdb0c6bb	-0.08631655
78	0x3d6e8e42	0.058241136
79	0x3d6c6de5	0.05772199
80	0xbe095d12	-0.1341441
81	0x3d2de2e7	0.04245272
82	0xbcd37092	-0.025810514
83	0xba7dcc1a	-0.00096815976
84	0x3e3df41c	0.18550152
85	0xbd7e565e	-0.062094085
86	0xbda675d0	-0.0812794
87	0xbda93d72	-0.08263673
88	0xbc17e53c	-0.009270962
89	0xbd00159a	-0.0312706
90	0xbc7cb8d6	-0.015424928
91	0xbe1540af	-0.14575456
92	0x3db41c98	0.08794516
93	0xbca1d4aa	-0.019754726
94	0x3e73e15f	0.23816441
95	0x3e14d79d	0.14535375
96	0xbdb719ff	-0.08940505
97	0xbdc4ff9d	-0.09619067
98	0xbcb9f60e	-0.022700336
99	0x3d27b922	0.04094804
100	0xbc6bd814	-0.014394779
101	0xbc848a66	-0.016179275
102	0xbcbd37ed	-0.023097957
103	0xbd965efc	-0.073423356
104	0xbe0453e5	-0.12922628
105	0xbe405074	-0.1878069
106	0x3da57643	0.08079197
107	0xbdb6e25e	-0.08929895
108	0x3cd31f1f	0.025771676
109	0x3c1a480d	0.009416592
110	0xbd31b6f8	-0.043387383
111	0x3ceee396	0.029161256
112	0x3d2a5735	0.041587073
113	0x3d814372	0.06311692
114	0xbe297158	-0.16547143
115	0x3f4f1190	0.80886173
116	0xbac238e1	-0.0014817977
117	0x3e2208c5	0.15823658
118	0x3edf6c89	0.43637493
119	0xbb130348	-0.0022432376
120	0x3eaca1bc	0.33717144
121	0xbdd9fd4c	-0.10644016
122	0x3c2fcea8	0.010730423
123	0xbd15e94d	-0.036599446
124	0xbd5b0e5c	-0.05348049
125	0x3c63a917	0.013895295
126	0x3cd72d08	0.02626659
127	0x3d74be0e	0.059751563
128	0xbdeb501f	-0.11489891
129	0xbde0df31	-0.109800704
130	0x3d12aab4	0.035807326
131	0xbe0b35e3	-0.13594775
132	0xbd3cb623	-0.046072137
133	0x3e035921	0.12826969
134	0xbd9cf617	-0.076641254
135	0xbdc14514	-0.09437004
136	0xbe52d581	-0.20589258
137	0x3d5da43f	0.054111715
138	0xbcf65d75	-0.03007386
139	0x3c9913f3	0.01868627
140	0x3d161790	0.036643565
141	0xbe2154c2	-0.15754989
142	0x3d4a2f90	0.049361765
143	0x3d8c8d4d	0.068628885
144	0xbdb4684b	-0.08808955
145	0xbe39c834	-0.18142778
146	0x3b0a7c39	0.0021131171
147	0xbb93792a	-0.004500528
148	0xbc9f2f0c	-0.019431613
149	0x3c1b1bf2	0.009467112
150	0xbe084bce	-0.13310167
151	0xbbdd6150	-0.0067559853
152	0x3d8b2b13	0.06795325
153	0x3c79db5d	0.015250054
154	0x3b046ca5	0.0020206359
155	0x3b1cd47c	0.0023930361
156	0xbe483198	-0.19550169
157	0xbdab66c4	-0.0836921
158	0xbb0d56ee	-0.0021566707
159	0x3dd10ada	0.10207148
160	0xbe06c138	-0.13159645
161	0xbda106b7	-0.07862609
162	0x3c3ce116	0.011528274
163	0x3e12a68f	0.1432135
164	0x3cfea611	0.031085046
165	0xbe1e5bec	-0.15464753
166	0x3d9a3abc	0.07530734
167	0x3c31c811	0.010850922
168	0x3db2ef03	0.08736994
169	0x3e566323	0.20936255
170	0xbe034d72	-0.12822512
171	0x3e048b3f	0.12943743
172	0xbe178a73	-0.14798908
173	0xbd7cd4d8	-0.06172642
174	0x3dc2d953	0.095141076
175	0x3c620ed9	0.013797485
176	0xbe5abbea	-0.21360746
177	0xbd83cf3a	-0.0643601
178	0xbd2de4cc	-0.042454526
179	0x3dbdaa74	0.09261027
180	0xbb11fb1b	-0.0022274915
181	0xbc4619b7	-0.012091092
182	0xbd9adcaa	-0.075616196
183	0xbd064cd8	-0.032788128
184	0xbd8bb6ce	-0.068219766
185	0xbe1de1da	-0.15418187
186	0x3d3d6995	0.04624327
187	0xbe4bbfb2	-0.19897345
188	0x3da62326	0.08112173
189	0x3e247f91	0.16064288
190	0xbdebb319	-0.115087695
191	0xbe2fa8b7	-0.17154203
192	0xbceebb50	-0.029142052
193	0xbbd6a981	-0.006550968
194	0x3ebefc63	0.3730193
195	0xbce15e90	-0.027510911
196	0xbe2ea478	-0.17054927
197	0x3e141c4c	0.1446392
198	0xbe4d3e2e	-0.20043251
199	0xbe26a843	-0.16275124
200	0xbc6a3f61	-0.014297337
201	0xbd414a0a	-0.04718975
202	0x3e531a2d	0.20615454
203	0x3c1d9c4e	0.0096197855
204	0xbbb59e02	-0.0055425176
205	0xbcdb18d0	-0.02674523
206	0x3e42db69	0.19029011
207	0x3c847348	0.016168252
208	0xbe178ea9	-0.14800514
209	0x3cc5f160	0.024162948
210	0xbdc09066	-0.09402542
211	0xbe0da687	-0.13833056
212	0x3dd76c6d	0.105187275
213	0xbd73cce2	-0.059521563
214	0xbcedbc98	-0.029020593
215	0xbba1f5d0	-0.004942633
216	0x3e32882a	0.17434755
217	0xbd19e441	-0.037571196
218	0x3dbb9711	0.09159673
219	0xbe46c51a	-0.19411126
220	0x3d5e172b	0.054221313
221	0xbd4377ab	-0.047721546
222	0x3e880907	0.26569387
223	0x3e3cb235	0.18427356
224	0x3e0e1aaf	0.13877366
225	0x3da3cc53	0.07997956
226	0x3dc75c6f	0.09734427
227	0x3dd360fa	0.10321231
228	0x3d562e30	0.05229014
229	0xbd63909a	-0.055557825
230	0xbdd4c284	-0.103886634
231	0xbe0bb1a4	-0.13641983
232	0xbe9c397c	-0.30512607
233	0xbcb00436	-0.021486383
234	0xbd572e7c	-0.052534565
235	0x3be74fcf	0.0070590745
236	0x3c896674	0.016772486
237	0x3b06f8b0	0.0020595007
238	0x3c43cd0b	0.0119507415
239	0xbdf455f3	-0.11930456
240	0xbe290ffa	-0.16510001
241	0xbdba6b82	-0.09102537
242	0xbe05c3ab	-0.13062923
243	0x3dfaeb0d	0.12251864
244	0xbe2a2f76	-0.16619667
245	0x3d9e0894	0.0771648
246	0xbecfe8dd	-0.40607348
247	0x3b371d92	0.002794121
248	0xbf0c5a4c	-0.5482528
249	0xbda304fa	-0.079599336
250	0xbd1fd8f3	-0.03902526
251	0xbc5f34da	-0.013623441
252	0x3c0f9f8e	0.008766068
253	0x3dd6434a	0.10462053
254	0xbd85d919	-0.06535549
255	0x3da68cf5	0.08132354

fc.bias f4 [4]
0	0x3e763a09	0.24045576
1	0x3e219b28	0.15781844
2	0x3e6725bd	0.2257299
3	0x3e3c7fd1	0.18408133
