lstm_hdim_128_wsize_20_interval_7_nlayers_1_bs_512_lr_0.01_decay_0.95_epoch_8.pt (torch, 277987 bytes, 6 tensors)

lstm.weight_ih_l0 f4 [512, 4]
0	0xba33b638	-0.0006855461
1	0xbb98790d	-0.0046531023
2	0xbc3ebdc7	-0.011641926
3	0x3db58ef1	0.088651545
4	0xbeaa340f	-0.33242843
5	0x3e04882b	0.12942569
6	0xbe96ae10	-0.29429674
7	0xbdf8b6a4	-0.12144211
8	0x3d308d01	0.04310322
9	0x3d82eb58	0.063925445
10	0x3e0a048f	0.13478301
11	0x3d897556	0.06711833
12	0xbd026ebc	-0.031843886
13	0x3d2ed750	0.042685807
14	0x3df487da	0.11939974
15	0xbdfcf60e	-0.12351619
16	0x3d4945fc	0.049139008
17	0xbd76a94e	-0.060220055
18	0xbd4ff0b7	-0.050766673
19	0x3dc7da09	0.09758384
20	0xbbeed0e8	-0.007288087
21	0x3d950037	0.072754316
22	0x3dce210a	0.100648955
23	0x3e247f59	0.16064204
24	0xbbb020e4	-0.0053750146
25	0xbcef9b61	-0.029248895
26	0x3df97fe2	0.12182595
27	0xbc8443d9	-0.016145634
28	0x3d09369a	0.033499338
29	0xbd0daac5	-0.034586687
30	0xbc09f4d5	-0.008420189
31	0x3c97d3c4	0.018533595
32	0x3e0ed57e	0.13948628
33	0x3e0ee099	0.13952865
34	0xbda30f8a	-0.07961948
35	0xbd47b131	-0.048752967
36	0xbf0d0b71	-0.55095583
37	0x3e32af8b	0.17449777
38	0xbf2037f2	-0.62585366
39	0x3d1e0ed8	0.038588375
40	0xbe01da18	-0.12680852
41	0xbde9ef43	-0.11422589
42	0xbd2522a3	-0.040316235
43	0xbe31d285	-0.17365463
44	0xbdb7a980	-0.089678764
45	0xbda31c14	-0.0796434
46	0x3c60e2d1	0.013725952
47	0xbcc97402	-0.02459145
48	0xbda40ee0	-0.0801065
49	0xbc8ae0de	-0.016952928
50	0xbec4d362	-0.38442522
51	0xbf3f510f	-0.7473306
52	0xbc48dd62	-0.012259813
53	0x3dae4b55	0.08510462
54	0xbbc91208	-0.0061361827
55	0xbd665c50	-0.05624038
56	0xbe3ca6b6	-0.1842297
57	0x3e20a8cf	0.15689395
58	0x3d59d082	0.053177364
59	0xbeb65ce9	-0.3561776
60	0x3e1b7e46	0.15184888
61	0xbc98a44a	-0.018633027
62	0xbe00e319	-0.12586631
63	0x3e0ce437	0.13758932
64	0x3e01251f	0.12611817
65	0xb9cec97d	-0.00039441502
66	0x3d2ea153	0.04263432
67	0xbde8510f	-0.11343586
68	0x3e028866	0.12747344
69	0x3dc6fe48	0.09716469
70	0x3e2b7e70	0.16747451
71	0x3d0eb3be	0.034839384
72	0x3e8b7d7f	0.27244183
73	0x3f0721e5	0.52786094
74	0xc08ecbfc	-4.4624004
75	0xbfd55756	-1.6667278
76	0xbd4855e1	-0.048910026
77	0xbd38cdf9	-0.045118306
78	0x3eb68234	0.35646212
79	0x3f818f84	1.0121922
80	0xbe0e5866	-0.13900909
81	0xbde843c2	-0.11341049
82	0xbd05e36f	-0.0326876
83	0xbe1e868a	-0.1548101
84	0xbd7c29ce	-0.061563306
85	0xbd8e23d2	-0.06940426
86	0xbeabadf1	-0.33531144
87	0xbe93854a	-0.2881263
88	0xbe4eda52	-0.2020047
89	0x3dc0a2d4	0.09406057
90	0x3d26ac30	0.040691555
91	0x3e10a118	0.14123952
92	0xbdce33b8	-0.10068458
93	0xbe1a34a2	-0.1505914
94	0x3dac20b2	0.08404674
95	0xbe322ebb	-0.17400639
96	0x3df7411e	0.12072967
97	0x3bccc2fd	0.0062488304
98	0xbd4bf0c9	-0.049790177
99	0x3dfa9fa0	0.12237477
100	0x3d28b01e	0.041183583
101	0xbc8f2b0a	-0.017476577
102	0xbd07b25f	-0.033129092
103	0x3eb763d0	0.35818338
104	0x3dc66b19	0.09688396
105	0xbd18b439	-0.03728125
106	0x3db9f5cb	0.090800844
107	0x3d197c41	0.037472013
108	0x3e748330	0.23878169
109	0xbd01b95f	-0.031670924
110	0xbd1cdff4	-0.038299516
111	0xbdae8f9f	-0.08523487
112	0x3d8e1cd2	0.06939091
113	0x3dfafa23	0.12254741
114	0x3de0222d	0.109440185
115	0x3d81e38e	0.06342231
116	0xbd753e3d	-0.05987381
117	0xbe37bd1d	-0.17943235
118	0xbe227b6b	-0.15867393
119	0xbe02ca89	-0.12772574
120	0x3e1855ec	0.14876527
121	0xbc563e79	-0.013076418
122	0x3de32fc1	0.11093093
123	0x3dc8be42	0.09801914
124	0x3d8fb2d2	0.07016529
125	0x3cc1cffb	0.023658743
126	0x3d0c37a5	0.034232754
127	0x3dc8e467	0.09809189
128	0x3d08e800	0.033424377
129	0x3d8a33be	0.0674815
130	0xbc902f33	-0.017600631
131	0xbcc810e1	-0.024422111
132	0x3e83fd8d	0.2577938
133	0xbc4e797f	-0.012602209
134	0xbccde5de	-0.025134023
135	0xbe89e0c5	-0.26929298
136	0xbd9b07a7	-0.07569819
137	0xbe25a1a5	-0.16174944
138	0xbe197bcb	-0.1498863
139	0xbe9bf8c9	-0.30463246
140	0xbaa790a8	-0.00127842
141	0x3ca1d15b	0.019753149
142	0x3d7cce07	0.06171992
143	0x3c63f12c	0.01391248
144	0x3e281b40	0.16416645
145	0x3d11d80b	0.035606425
146	0x3d930031	0.07177771
147	0x3cb97fba	0.022643913
148	0x3d8690b8	0.06570572
149	0x3df8698d	0.12129507
150	0x3e6149e5	0.22000845
151	0x3c26cf97	0.010181329
152	0x3d39ef65	0.04539432
153	0x3d41ab3f	0.047282454
154	0x3d3b3622	0.045705922
155	0x3dcdb571	0.10044373
156	0xbccc696e	-0.024952617
157	0x3d7daa46	0.061929964
158	0x3db9b46a	0.090676144
159	0xbd57efd2	-0.052718945
160	0x3e007a3d	0.1254663
161	0x3bcfed14	0.0063454006
162	0xbe4da787	-0.20083438
163	0x3d859782	0.065230384
164	0x3e1f7cef	0.15575002
165	0x3e3989f0	0.18119025
166	0x3e00a94f	0.12564586
167	0x3dd3e6b6	0.10346739
168	0x3d9a46c9	0.075330324
169	0x3dc3490b	0.09535416
170	0x3dc1694f	0.09443914
171	0xbc2dfc12	-0.01061918
172	0x3d17eff5	0.037094075
173	0x3d66daa3	0.056360852
174	0x3dadfe17	0.084957294
175	0x3be14832	0.0068750614
176	0xbe2167f5	-0.15762313
177	0x3d47ebc0	0.048808813
178	0xbdf0fcdb	-0.11766978
179	0xbe80b77c	-0.25139987
180	0xbef7b89e	-0.4838304
181	0x3e01043a	0.12599269
182	0x3ea6f917	0.32611915
183	0xbf3375b7	-0.70101494
184	0x3de06cbf	0.10958242
185	0x3d8d6f7d	0.0690603
186	0xbca30cbe	-0.019903537
187	0x3dd386bd	0.10328434
188	0x3dfb0e1a	0.12258549
189	0xbe00bb51	-0.12571456
190	0xbd178b8e	-0.036998324
191	0xbd5ea812	-0.054359503
192	0x3e186b80	0.14884758
193	0x3e2ca53e	0.1685991
194	0xbdbaad36	-0.091150686
195	0x3d96b098	0.07357901
196	0x3e996d6c	0.29966295
197	0xbd3e6f36	-0.046492778
198	0x3dddee08	0.108364165
199	0x3df2f869	0.11863787
200	0x3e9822a3	0.29713926
201	0x3ea1ae60	0.3157835
202	0x3f053e06	0.52047765
203	0xbec8d599	-0.39225462
204	0xbd07bf8e	-0.033141665
205	0x3dc39224	0.095493585
206	0xbf1bc819	-0.608522
207	0xbe883d1c	-0.26609123
208	0xbe875953	-0.26435336
209	0xbe30f9a6	-0.17282733
210	0x3ee04383	0.43801507
211	0x406369fd	3.553344
212	0xbbe18675	-0.0068824836
213	0xbb10f0d0	-0.0022116192
214	0xbe5f396e	-0.21799251
215	0xbea09b40	-0.31368446
216	0x3da54280	0.080693245
217	0x3c414e36	0.011798432
218	0xbe2e4bbe	-0.17021081
219	0xbca0825b	-0.019593408
220	0x3ec1b625	0.37834278
221	0x3eaf21d3	0.34205493
222	0x3fbd4f1d	1.4789768
223	0x3f8c15af	1.0944117
224	0xbd2615a5	-0.040547986
225	0xbe2548ad	-0.16141005
226	0x3cdcd7ef	0.026958434
227	0xbddbf829	-0.10740692
228	0xbe41d75c	-0.1892981
229	0x3e16c61c	0.1472401
230	0xbdad180b	-0.084518515
231	0xbda35c6f	-0.07976615
232	0xbe6d22b7	-0.23157774
233	0xbe04a890	-0.12954926
234	0xbd8aa723	-0.0677016
235	0xbde7c341	-0.113165386
236	0x3db4e81f	0.08833336
237	0x3e1575c5	0.14595707
238	0xbd17135f	-0.036883708
239	0xbd47629f	-0.048678037
240	0x3d84ae4c	0.06478557
241	0xbd8ae832	-0.06782569
242	0xbd5e6fcb	-0.054305833
243	0x3dc99d5f	0.09844469
244	0x3b551fd2	0.0032520187
245	0x3e3246b8	0.1740979
246	0x3c9b12da	0.018929888
247	0x3e2015ac	0.15633267
248	0xbec995d7	-0.3937213
249	0x3c861037	0.016365154
250	0x3e09f350	0.13471723
251	0x3c4832ae	0.012219114
252	0xbb05288a	-0.0020318353
253	0x3d942360	0.0723331
254	0x3e2f3c35	0.17112811
255	0x3d2b4a01	0.041818622

lstm.weight_hh_l0 f4 [512, 128]
0	0xbd2a4bcf	-0.041576203
1	0xbe33ed2a	-0.1757094
2	0x3b8f4a43	0.0043728664
3	0x3da5cc24	0.08095577
4	0x3d9d6f02	0.07687189
5	0xbce00e0d	-0.02735045
6	0xbd5141a6	-0.051087998
7	0x3d8c0132	0.068361655
8	0xbd4293f9	-0.0475044
9	0x3d3449f0	0.044015825
10	0xbd12e7de	-0.035865657
11	0xbd751a7f	-0.05983972
12	0x3d7a2354	0.061068848
13	0x3df1c20c	0.1180459
14	0x3b92a7bf	0.0044755633
15	0xbded4c1b	-0.115867816
16	0x3d90a0cb	0.07061919
17	0x3dfff617	0.1249811
18	0xbc32124b	-0.010868619
19	0x3daaaf37	0.08334201
20	0x3e108ae3	0.14115481
21	0xbdd1e6ea	-0.102491215
22	0x3d5a9d14	0.053372458
23	0xbd403171	-0.04692215
24	0xbd31ca3f	-0.043405768
25	0xbd7ab06d	-0.06120341
26	0xbd8d1bd7	-0.06890076
27	0xbbafd5ce	-0.0053660637
28	0xbb9fd128	-0.0048772283
29	0x3d49d021	0.049270753
30	0x3854acba	5.0705603e-05
31	0x3d5ca809	0.05387119
32	0x3d499a1c	0.049219236
33	0xbd7c87a0	-0.06165278
34	0xbd277deb	-0.04089157
35	0xbb051db9	-0.0020311906
36	0x3bc31ee4	0.00595461
37	0x3db27867	0.08714371
38	0x3b612759	0.0034355728
39	0xbbebd254	-0.007196704
40	0xbd80a49b	-0.06281396
41	0x3d4dd736	0.05025407
42	0x3cbee5c2	0.023302916
43	0xbd818b29	-0.06325371
44	0x3d131422	0.035907872
45	0xbdac3259	-0.084080406
46	0xbd687297	-0.056749906
47	0x3c4ca92d	0.0124915065
48	0x3d2957fc	0.041343674
49	0x3da3e95c	0.08003494
50	0xbd6234bd	-0.055226076
51	0xbdc203bc	-0.094733685
52	0x3d6ad83d	0.057335127
53	0x3dacfe21	0.08446909
54	0xbd1dcb8a	-0.038524188
55	0xbe15b60e	-0.1462023
56	0xbcdfc3e3	-0.027315086
57	0x3d7c37b7	0.06157657
58	0x3e0c46d1	0.1369889
59	0x3d316a5d	0.043314327
60	0xbdfe69e5	-0.124225415
61	0x3d40593b	0.046960097
62	0xbde681f2	-0.11255254
63	0x3d268705	0.04065611
64	0xbd8db8eb	-0.06920036
65	0xbe8ef723	-0.27922925
66	0x3beee3a9	0.007290323
67	0x3dd3dd24	0.103449136
68	0x3dceba87	0.10094171
69	0x3ccf58d2	0.025310908
70	0x3dfa5f05	0.12225155
71	0x3dd5c416	0.10437791
72	0xbd32c180	-0.043641567
73	0x3ce6aac9	0.028157609
74	0x3c195237	0.00935798
75	0xbdf64684	-0.120251685
76	0x3c40c1a9	0.011764922
77	0xbbe1f008	-0.006895069
78	0xbcccfcc5	-0.025022874
79	0xbdf3e990	-0.11909783
80	0x3c33ed96	0.010981938
81	0xbd4bc69a	-0.049749948
82	0xbc90d99c	-0.01768189
83	0x3ded5825	0.11589078
84	0xbd3f719b	-0.046739202
85	0x3dd12267	0.1021164
86	0xbcdf5e2d	-0.027266586
87	0x3b49d300	0.0030795932
88	0xbd54acf1	-0.051922742
89	0x3dd67824	0.10472134
90	0x3d58e2aa	0.05295054
91	0x3d871a82	0.06596853
92	0xb99c0c63	-0.00029763867
93	0x3dcc8b63	0.099875234
94	0xbdbccfb0	-0.09219301
95	0x3b350915	0.0027623822
96	0xbc95fbcd	-0.018308545
97	0x3c90b49a	0.017664243
98	0xbce71dc1	-0.02821243
99	0xbcb35529	-0.021891193
100	0xbc4d576c	-0.01253305
101	0x3cdca86d	0.02693578
102	0xbdc6e6e3	-0.09712007
103	0x3c88926b	0.01667138
104	0xbd323a92	-0.04351289
105	0x3dc83fb0	0.097777724
106	0xbd96aa13	-0.07356658
107	0x3d792189	0.060822997
108	0x3df8f363	0.12155797
109	0xbe0054b2	-0.12532309
110	0xbdcc5181	-0.09976483
111	0xbde82198	-0.113345325
112	0x3d05b51a	0.032643415
113	0x3bdeec0e	0.0068030423
114	0x3de5b45a	0.1121604
115	0xbdffad0f	-0.1248418
116	0x3cb97142	0.022637013
117	0x3d908037	0.07055705
118	0x3dbed2c9	0.09317548
119	0x3d3fc181	0.0468154
120	0x3cf72aca	0.03017177
121	0x3de67162	0.11252095
122	0x3d65642c	0.056003734
123	0xbcc1b723	-0.023646897
124	0xbdd1a268	-0.10236055
125	0x3d873328	0.06601554
126	0x3cea8d5f	0.028631864
127	0x3e53803b	0.20654385
128	0x3e3c7666	0.1840454
129	0x3d7762d9	0.060397003
130	0xbde8672c	-0.113478035
131	0x3e17960c	0.14803332
132	0x3e0e3140	0.13885975
133	0xbe2853c7	-0.16438209
134	0x3e8498a4	0.25897706
135	0x3e573b92	0.21018818
136	0x3e33bb74	0.17551976
137	0xbe892587	-0.26786444
138	0xbdb883e5	-0.09009532
139	0xbe355261	-0.17707206
140	0xbdd8e94f	-0.10591375
141	0x3e3522f4	0.17689115
142	0xbe48e4af	-0.19618486
143	0xbe5a3e44	-0.21312815
144	0x3e8a7b6f	0.27047297
145	0x3e70d454	0.23518497
146	0xbdd56980	-0.10420513
147	0x3e4f7b4e	0.20261881
148	0x3c0d0c4a	0.008608887
149	0x3cd0f120	0.025505602
150	0x3d15f1df	0.03660762
151	0xbd021953	-0.031762432
152	0xbe644561	-0.22292091
153	0x3e2e595b	0.17026274
154	0xbe4fbbd6	-0.20286497
155	0x3e896390	0.26833773
156	0x3e8bc90d	0.27301827
157	0x3e30eeed	0.17278643
158	0x3defbe19	0.1170618
159	0xbe71d548	-0.23616517
160	0xbde14110	-0.10998738
161	0x3dfe08f8	0.124040544
162	0xbe11ceb1	-0.14239003
163	0xbe38f6bf	-0.18062876
164	0xbe290f08	-0.1650964
165	0x3e883d5e	0.2660932
166	0xbe4d2d0a	-0.20036712
167	0xbd49bcff	-0.049252506
168	0xbe4f4d5e	-0.20244357
169	0xbe470e86	-0.19439134
170	0x3e2c0d86	0.16802034
171	0xbe296b29	-0.16544785
172	0x3e0725de	0.13198039
173	0x3c5e2ef2	0.013560997
174	0xbe5a8e1f	-0.21343277
175	0x3e40277f	0.18765067
176	0x3e323fb9	0.17407121
177	0x3e94f3ef	0.29092357
178	0x3d808619	0.06275577
179	0xbe6f47f0	-0.23367286
180	0x3e7961f8	0.24353778
181	0xbcc6f712	-0.024287734
182	0x3e3a6177	0.18201242
183	0x3d1a08db	0.0376061
184	0xbc8f6b8f	-0.017507343
185	0x3e766046	0.24060163
186	0xbe045b6f	-0.12925504
187	0x3e7648f5	0.24051268
188	0xbe57183e	-0.21005341
189	0xbe39c1ed	-0.18140383
190	0x3ea45242	0.32094008
191	0x3e1d1f85	0.15344055
192	0x3d6a0422	0.057132848
193	0x3cdafc99	0.026731776
194	0xbe402eaa	-0.18767801
195	0xbe1800aa	-0.14844003
196	0x3dc425eb	0.09577545
197	0xbe4c9c0e	-0.19981405
198	0x3e890f72	0.26769596
199	0x3e1620c9	0.14660944
200	0x3dd04a7c	0.10170457
201	0x3e36ce55	0.17852147
202	0xbe24467f	-0.16042517
203	0xbe84da34	-0.25947726
204	0x3e134875	0.14383109
205	0x3dfeaa69	0.12434847
206	0xbe121afa	-0.14268103
207	0xbe3a5494	-0.18196326
208	0x3e5411bc	0.2070989
209	0xbc017774	-0.007902015
210	0xbd23748d	-0.039906073
211	0x3e2094c9	0.15681757
212	0xbeb63b89	-0.35592297
213	0x3e12b087	0.14325152
214	0x3e232714	0.15932876
215	0xbd41eeec	-0.047346994
216	0xbe5038c2	-0.20334151
217	0x3e6cb133	0.23114471
218	0xbe47dc9a	-0.19517747
219	0x3e9da3d6	0.3078906
220	0xbdabbbcb	-0.08385428
221	0x3e2bf7f6	0.16793808
222	0xbe5c9dbe	-0.21544549
223	0xbe9b06dd	-0.30278674
224	0xbe11daf6	-0.14243683
225	0xbce323a7	-0.027726961
226	0xbdb1adec	-0.08675751
227	0xbe3583bc	-0.17726034
228	0x3c3e5fa4	0.011619482
229	0x3da241c4	0.079227
230	0xbdb11018	-0.08645648
231	0x3da86b87	0.08223634
232	0x3e0bd593	0.13655691
233	0x3e8e81be	0.2783336
234	0x3d3b9a02	0.04580117
235	0x3e387a6d	0.18015452
236	0x3ca8cb25	0.02060468
237	0xbd85fd93	-0.06542506
238	0x3df825e3	0.12116601
239	0x3dc821c0	0.09772062
240	0x3e4764a5	0.19471987
241	0x3e09bb38	0.13450325
242	0x3ea54110	0.322762
243	0xbee69264	-0.45033562
244	0x3e2804a8	0.16408026
245	0xbe2376c1	-0.1596327
246	0x3de7903f	0.1130681
247	0x3e49f13b	0.19720928
248	0xbee26ec4	-0.44225132
249	0x3e40b8af	0.18820451
250	0x3dc4c2cf	0.09607469
251	0xbe0e5068	-0.1389786
252	0x3e1b7cb5	0.1518429
253	0x3c9e7d54	0.01934687
254	0xbe5264b4	-0.20546228
255	0xbe6eee5b	-0.23333113

lstm.bias_ih_l0 f4 [512]
0	0xbd75452e	-0.059880428
1	0x3c8c2a48	0.017110005
2	0xbc885181	-0.016640427
3	0x3c9948fe	0.018711563
4	0xbcde3fa2	-0.027129952
5	0x3d818ae5	0.0632532
6	0x3db983e0	0.09058356
7	0x3ce823b3	0.028337335
8	0x3d1d4448	0.038395196
9	0x3e1dbd21	0.15404178
10	0xbdbf90d8	-0.09353799
11	0xbde0035f	-0.10938143
12	0xbde7fd35	-0.11327592
13	0x3dab36a6	0.08360033
14	0xbe1c9f45	-0.15295132
15	0x3d26df36	0.040740214
16	0x3d8f2add	0.069905974
17	0x3def83bc	0.11695048
18	0x3f041d01	0.51606756
19	0x3df0edef	0.11764132
20	0xbddb4cc0	-0.10707998
21	0xbe35f6e6	-0.17769966
22	0xbaa8623c	-0.0012846659
23	0xbe1b0b34	-0.15140992
24	0x3d833039	0.06405682
25	0xbe12d88f	-0.14340423
26	0xbc565717	-0.013082287
27	0x3d9ce63d	0.07661102
28	0x3d3de586	0.04636147
29	0xbe4566cc	-0.19277495
30	0xbda4ccca	-0.08046873
31	0x3dd8ed6c	0.1059216
32	0xbd642542	-0.055699594
33	0x3cf900ef	0.030395953
34	0xbe00f71e	-0.12594268
35	0xbd3da500	-0.046299934
36	0xbc808aa2	-0.015691105
37	0x3dd66e42	0.10470249
38	0xbd97d523	-0.074136995
39	0x3c0774eb	0.0082676215
40	0x3dad9fe1	0.0847776
41	0x3dd43340	0.10361338
42	0xbd705e10	-0.058683455
43	0x3d7bce81	0.061476234
44	0x3d243156	0.040086113
45	0xbd3c7862	-0.046013243
46	0xbcca0bda	-0.024663854
47	0xbd1fcc3d	-0.039013136
48	0x3d4cb1aa	0.04997412
49	0x3dc38c3b	0.09548231
50	0x3e7aa963	0.24478678
51	0x3bcc4dee	0.006234876
52	0xbdab3268	-0.083592236
53	0xbbf30f67	-0.0074176076
54	0xbd1f1a6e	-0.038843565
55	0x3eaf5946	0.34247798
56	0xbe1333ac	-0.1437518
57	0xbdee9c4a	-0.116509035
58	0xbe28cdec	-0.16484803
59	0x3e21021b	0.1572346
60	0x3d74fc67	0.059811022
61	0x3d1c0b0e	0.03809648
62	0x3cca9e49	0.02473368
63	0xbc93b1a8	-0.018029049
64	0xbcf7e675	-0.030261258
65	0x3ebe6b38	0.37191176
66	0x3d9bc15f	0.07605242
67	0x3eed27c6	0.46319407
68	0x3e004efb	0.12530129
69	0x3cbc98c1	0.023022057
70	0xbd6f5f34	-0.058440402
71	0x3d671c16	0.05642327
72	0x3d886d28	0.06661445
73	0x3d4b7d8e	0.049680285
74	0x3d8561f8	0.06512827
75	0x3cbf6f57	0.02336852
76	0xbd965830	-0.07341039
77	0xbd25da35	-0.0404913
78	0xbc80b049	-0.01570906
79	0x3cdad822	0.026714388
80	0x3d9015eb	0.070354305
81	0xbdde2d11	-0.108484395
82	0xbdbce3b6	-0.0922312
83	0x3d9dfd14	0.077142864
84	0x3dc61d97	0.096736126
85	0x3d11f8e4	0.03563775
86	0x3cd21309	0.025643842
87	0x3c200af8	0.00976824
88	0xbcd8717e	-0.026421305
89	0xbdacc967	-0.08436852
90	0xbd0b54fd	-0.034016598
91	0x3df20c81	0.11818791
92	0xbd251e19	-0.040311906
93	0xbcf9b7bf	-0.030483125
94	0x3c03c989	0.008043655
95	0x3ddd2571	0.10798157
96	0x3d8f6582	0.07001783
97	0x3d4d8d6a	0.05018369
98	0x3d69bdc0	0.057065725
99	0xbdb4686d	-0.0880898
100	0xbd62607c	-0.055267796
101	0xbdd02a2b	-0.10164293
102	0xbd9cd27f	-0.076573364
103	0xbdb15fcf	-0.08660852
104	0xbb1849be	-0.0023237313
105	0xbcfa2f9c	-0.03054028
106	0x3ca5cc93	0.02023915
107	0xbad16c10	-0.001597764
108	0xbe0e3b2c	-0.1388976
109	0xbd644b33	-0.055735778
110	0xbd9cd908	-0.07658583
111	0x3d42616c	0.04745619
112	0xbd2b7e63	-0.04186858
113	0x3d81a339	0.063299604
114	0xbd42bbab	-0.047542255
115	0x3e881325	0.26577106
116	0x3cdc0734	0.026858903
117	0xbe0937d9	-0.1340021
118	0x3e170a45	0.14750011
119	0x3d3a8517	0.04553708
120	0x3dc63947	0.096788935
121	0xbd9a144e	-0.07523404
122	0xbcd595e7	-0.026072456
123	0xbac36527	-0.0014907465
124	0xbe21fedf	-0.15819882
125	0xbd128652	-0.03577263
126	0xbcce3b93	-0.025174892
127	0x3ebd9d2c	0.37033975
128	0xbdc801e2	-0.09765984
129	0xbe4410e5	-0.1914707
130	0xbb4e1a66	-0.003144884
131	0x3d8edd27	0.06975775
132	0xbd9d7d73	-0.07689943
133	0x3db89fe3	0.09014871
134	0x3d5d4fe2	0.05403126
135	0xbd1a912b	-0.0377361
136	0x3d95dcbc	0.07317492
137	0x3d2a4dc5	0.041578073
138	0xbd8dda99	-0.0692646
139	0xbdcefb90	-0.101065755
140	0xbd940f6c	-0.07229504
141	0xbdb3676f	-0.08759963
142	0x3d9e7041	0.077362545
143	0xbd6ca407	-0.057773616
144	0xbd7f3ddc	-0.062314853
145	0x3d664d9c	0.056226358
146	0xbe056911	-0.13028361
147	0xbd406326	-0.046969555
148	0xbe1950de	-0.14972255
149	0xbdc0d53e	-0.09415673
150	0xbcbe9ded	-0.023268664
151	0xbe274711	-0.16335703
152	0x3db1d0d5	0.0868241
153	0xbd887909	-0.066637106
154	0xbdaac838	-0.0833897
155	0x3ce2f2a4	0.02770359
156	0x3a82c173	0.0009975865
157	0xbe29f780	-0.1659832
158	0xbdb33f80	-0.08752346
159	0xbd608142	-0.05481077
160	0x3dbe3628	0.09287673
161	0xbe537c75	-0.20652945
162	0xbc4e41cb	-0.012588928
163	0x3d866ed1	0.06564105
164	0x3c67b654	0.0141425915
165	0x3d4189dc	0.047250614
166	0x3cd077d2	0.02544776
167	0xbcfb30fd	-0.030663008
168	0xbc1feab1	-0.009760545
169	0x3c87e134	0.016586877
170	0x3ceb81fe	0.028748509
171	0x3d413e8f	0.0471788
172	0xbe019b80	-0.12656975
173	0x3d4a298a	0.04935602
174	0xbb987e44	-0.004653724
175	0xbd9ad04c	-0.07559261
176	0xbc8984c0	-0.016786933
177	0x3d44dea6	0.048063897
178	0x3db32d02	0.08748819
179	0xbda87c89	-0.08226878
180	0xbe8dc177	-0.27686664
181	0xbe05747c	-0.13032717
182	0x3d321c1b	0.043483835
183	0x3d36cf83	0.044631492
184	0xbd8ec5fc	-0.06971356
185	0x3c8f11d7	0.017464561
186	0x3ea0ef22	0.31432444
187	0xbacc422e	-0.0015583688
188	0xbcaa2cec	-0.020773374
189	0xbbd37179	-0.006452736
190	0xbe295f3d	-0.16540237
191	0x3d3f5ec7	0.046721246
192	0xbe1d1b97	-0.15342556
193	0x3dbbea9b	0.09175607
194	0xbd6b858b	-0.057500403
195	0xbcf9e62a	-0.030505259
196	0x3d051deb	0.032499235
197	0x3d43581a	0.047691442
198	0x3dad22b5	0.084538855
199	0x3d62647b	0.055271607
200	0x3db05987	0.08610826
201	0xbb88bba3	-0.0041727587
202	0x3df5c388	0.12000185
203	0x3d94fe62	0.07275082
204	0xbd94e9e2	-0.07271172
205	0x3d110cd9	0.035412643
206	0xbcc7f1fa	-0.024407376
207	0xbd2a9c56	-0.041653
208	0x3d98bbc3	0.07457688
209	0xbd9e8353	-0.07739892
210	0xbdca5a47	-0.098805
211	0x3c519836	0.012792638
212	0xbd89969d	-0.0671818
213	0xbd968a8c	-0.073506445
214	0x3d89e165	0.06732444
215	0x3e802b50	0.25033045
216	0xbd9c90e7	-0.076448254
217	0x3c3fc7b4	0.011705328
218	0xbe1118ec	-0.14169663
219	0x3d9560fb	0.07293888
220	0xbcfe39c2	-0.0310334
221	0x3d7cf84f	0.061760243
222	0x3d4e5ea5	0.05038323
223	0x3d0b0e5f	0.033949252
224	0xbd4a3a38	-0.049371928
225	0x3d0ae828	0.033912808
226	0xbdff4f83	-0.124663375
227	0x3da8784e	0.08226071
228	0xbdd3cfe0	-0.103423834
229	0xbd3c0aca	-0.045908727
230	0x3d8a2c81	0.0674677
231	0xbd1d2268	-0.03836289
232	0xbda3c330	-0.079962134
233	0x3cd91d67	0.026503278
234	0x3ce9a48d	0.028520847
235	0xbdaaa709	-0.08332641
236	0xbd29de52	-0.041471787
237	0xbd1f9e8c	-0.03896956
238	0xbd5dba01	-0.054132465
239	0xbcfc6699	-0.030810641
240	0xbd9c6eca	-0.07638319
241	0xbe5a8166	-0.21338424
242	0xbc8367cf	-0.01604071
243	0xbe7d05bb	-0.24709217
244	0x3ca0a6c5	0.019610772
245	0xbd2fa185	-0.042878646
246	0xbdb0b776	-0.086287424
247	0x3d192f41	0.03739858
248	0x3db750ee	0.08950983
249	0xbd8187be	-0.06324719
250	0xbde59211	-0.112095006
251	0x3d40bac0	0.0470531
252	0xbdc0263a	-0.09382291
253	0x3a98a59d	0.0011646036
254	0xbd00a289	-0.031405006
255	0x3c65bfbd	0.014022765

lstm.bias_hh_l0 f4 [512]
0	0xba170bae	-0.0005761933
1	0x3b3f724c	0.0029212413
2	0x3d81c2af	0.06335961
3	0x3db5c99b	0.08876344
4	0xbd08d7c0	-0.03340888
5	0x3c5d93a2	0.013523968
6	0xbd8b3be4	-0.067985326
7	0x3d534a90	0.05158478
8	0xbc7df479	-0.015500181
9	0x3e1b73d6	0.15180907
10	0xbcb45d03	-0.022017008
11	0x3c019bef	0.007910713
12	0xbe0f3d2c	-0.13988179
13	0xbd9d0420	-0.076668024
14	0xbd6c62de	-0.057711475
15	0xbcecc997	-0.02890472
16	0x3c96cb3c	0.018407457
17	0xbcd1c66e	-0.025607314
18	0x3f052c4c	0.52020717
19	0x3ddfd2b2	0.10928859
20	0xbe267e6f	-0.16259168
21	0xbe2385c9	-0.15969004
22	0xbd735651	-0.05940849
23	0xbe250e6e	-0.16118786
24	0xbd2b7291	-0.041857306
25	0xbd360d29	-0.044446144
26	0xbd7a74d7	-0.061146583
27	0xbd854b09	-0.065084524
28	0x3d05b576	0.032643758
29	0xbe33980b	-0.17538469
30	0xbd959046	-0.073029086
31	0x3d8b57a3	0.06803825
32	0x3c4f0739	0.012635999
33	0xba4d3495	-0.0007827965
34	0xbdeab218	-0.1145975
35	0x3d21807d	0.039429177
36	0x3d80be80	0.06286335
37	0x3d6612b5	0.056170184
38	0xbc71455f	-0.014726012
39	0xbc67c3fb	-0.0141458465
40	0x3db3f373	0.08786669
41	0x3c048951	0.008089379
42	0x3d68a6bd	0.05679964
43	0x3d104e29	0.03523079
44	0xbd92ba4b	-0.07164439
45	0x3d126fef	0.03575128
46	0xbd8bd3c1	-0.06827498
47	0x3b0a1089	0.0021066985
48	0x3d8338be	0.06407307
49	0x3dba4829	0.09095795
50	0x3ec0ed05	0.37680832
51	0x3cab94cf	0.02094498
52	0xbe15b78c	-0.14620799
53	0xbcb7f25c	-0.022454433
54	0x3d72a21a	0.059236623
55	0x3ee77d1d	0.4521264
56	0xbe155135	-0.1458176
57	0xbdefa595	-0.11701504
58	0xbce47648	-0.027888432
59	0x3df8f4bf	0.121560566
60	0xbc4c9c15	-0.012488385
61	0x3d850be1	0.06496406
62	0xbbc7b4af	-0.006094537
63	0xb90ad381	-0.00013239497
64	0xbd0795d2	-0.033101864
65	0x3e821d11	0.254128
66	0x3d0d39d0	0.034478962
67	0x3eda90f5	0.42688718
68	0x3e3a2e64	0.18181759
69	0x3df080f9	0.117433496
70	0xbd720cc2	-0.059094198
71	0x3da3d1dc	0.07999012
72	0xbd7a8ed5	-0.06117137
73	0xbc136b65	-0.008997773
74	0x3dce3336	0.100683615
75	0xbcb2557c	-0.021769278
76	0xbd7bdb02	-0.06148816
77	0x3c12abc0	0.008952081
78	0x3d979004	0.07400516
79	0xbd38cc59	-0.045116756
80	0x3d9fe8e8	0.07808095
81	0xbc932f88	-0.017967
82	0xbd0bf7f3	-0.03417201
83	0xbd591278	-0.05299613
84	0x3d6e5df8	0.058195084
85	0x3d911c16	0.07085435
86	0x3dac23ed	0.0840529
87	0x3d7695bd	0.060201395
88	0x3d0c2730	0.03421706
89	0xbcf47962	-0.029843036
90	0xbc4bdc8f	-0.012442722
91	0x3c850116	0.01623587
92	0x3ba67c9d	0.005080773
93	0xbc8c4699	-0.017123507
94	0x3cd334de	0.025782045
95	0x3e19ecfb	0.15031807
96	0x3d79c4c0	0.06097865
97	0xbb47e980	-0.0030504167
98	0x3d761628	0.060079724
99	0xbd59bd71	-0.05315918
100	0xbdf180f5	-0.11792175
101	0xbdc41c62	-0.09575726
102	0x3d202480	0.03909731
103	0xbe28c5c7	-0.16481696
104	0xbdb2eb79	-0.08736319
105	0xbccfdba9	-0.025373297
106	0xbd88ffe9	-0.06689436
107	0xbdc4112a	-0.09573586
108	0xbda04cbf	-0.07827138
109	0xbdf94b45	-0.1217256
110	0xbd265940	-0.04061246
111	0x3c949c5f	0.01814097
112	0x3db6dec9	0.08929212
113	0xbc63c4be	-0.013901887
114	0x3d7ac7ec	0.061225817
115	0x3ea543b9	0.3227823
116	0x3d6ea693	0.058264326
117	0xbe04d214	-0.12970763
118	0x3dccaa00	0.099933624
119	0xbcd40862	-0.025882903
120	0x3c97184d	0.018444205
121	0x3d44757c	0.047963604
122	0xbe3cf538	-0.18452919
123	0xbdc0de18	-0.09417361
124	0xbd746527	-0.05966678
125	0x3cfb9164	0.030708976
126	0xbde5855c	-0.11207077
127	0x3ea286b7	0.31743404
128	0x3cf02ef2	0.02931926
129	0xbe70a213	-0.23499326
130	0x3cc260ae	0.023727741
131	0xbda4d118	-0.08047694
132	0x3d2cb2fc	0.04216288
133	0x3df741af	0.12073075
134	0x3db61fbd	0.08892772
135	0xbd0b9dac	-0.034085914
136	0xbdbbeed1	-0.0917641
137	0x3ca497e5	0.02009196
138	0x3ca5ce06	0.020239841
139	0xbcfdbba0	-0.030973256
140	0xbdadbb73	-0.08483019
141	0x3cc796b9	0.024363862
142	0xbd295a61	-0.041345958
143	0x3cc69094	0.024238862
144	0x3d1a08ef	0.037606176
145	0x3c2f5337	0.010700992
146	0xbe1b4334	-0.15162355
147	0xbd464ed4	-0.04841502
148	0xbdb53387	-0.08847719
149	0xbe1980d2	-0.14990547
150	0xbe172a1a	-0.14762154
151	0xbd5be6c2	-0.053686865
152	0xbd8333f7	-0.06406396
153	0xbe4888c8	-0.19583428
154	0xbbbbde17	-0.0057332623
155	0xbd58d5c9	-0.052938256
156	0x3bd1c461	0.006401584
157	0xbdf0dd57	-0.11760967
158	0xbd9e93df	-0.07743048
159	0xbd993994	-0.07481685
160	0x3e0c3062	0.13690332
161	0xbdb760d5	-0.08954016
162	0xbdd75c19	-0.10515613
163	0xbd69a4ba	-0.05704186
164	0x3cd3e1f8	0.025864586
165	0xbd111ee0	-0.035429835
166	0x3d98139b	0.074256144
167	0x3db0448c	0.08606824
168	0xbb669f9a	-0.0035190345
169	0x3d9b20b6	0.075745985
170	0xbd8c422f	-0.06848561
171	0xbcde263f	-0.027117847
172	0xbe005722	-0.12533239
173	0x3d466782	0.048438556
174	0x3d91f360	0.07126498
175	0xbd547e05	-0.051877994
176	0x3da6064a	0.08106668
177	0xbc5e5267	-0.013569451
178	0x3d8f638e	0.070014104
179	0xbdc486ed	-0.095960476
180	0xbe822cf6	-0.25424927
181	0xbdf02c09	-0.11727149
182	0x3d23b674	0.039968923
183	0x3e351436	0.17683491
184	0xbdf928d7	-0.12165993
185	0xbcbbc71c	-0.022922091
186	0x3e8045c6	0.25053233
187	0x3d9a94b1	0.07547892
188	0x3d481af9	0.048853848
189	0xbd9736c8	-0.073834956
190	0xbe115bf0	-0.14195228
191	0x3d8ee725	0.06977681
192	0xbd63df84	-0.055633083
193	0x3ccef862	0.025264923
194	0xbdb2b576	-0.08726017
195	0x3d737a1a	0.059442617
196	0x3d5353ba	0.05159352
197	0x3a9b54ad	0.0011850797
198	0x3a8dc40b	0.0010815872
199	0x3d1ad1ac	0.037797615
200	0xbd21511d	-0.039383996
201	0x3db7087b	0.089371644
202	0x3de6fc86	0.11278634
203	0x3c63f7f9	0.013914102
204	0xbd3a455f	-0.045476314
205	0xbca1a1e8	-0.019730523
206	0x3d44972d	0.047995735
207	0xbd359e5d	-0.04434048
208	0x3d8e18e7	0.069383435
209	0xbe03a0c3	-0.12854294
210	0xbd448c86	-0.047985576
211	0xbda7631a	-0.08173199
212	0xbe3cdd1b	-0.1844372
213	0x3ce0a837	0.027423961
214	0x3d7be1ea	0.061494745
215	0x3e6d9728	0.23202193
216	0xbd28e1fe	-0.041231148
217	0xbbceccc3	-0.0063110306
218	0xbd991529	-0.07474739
219	0x3da8e8ef	0.082475536
220	0xbd83935d	-0.06424592
221	0xbc42ac85	-0.011881952
222	0xbc6637aa	-0.014051357
223	0x3dd96a68	0.106159985
224	0xbd033508	-0.032032996
225	0x3d2278ed	0.039666105
226	0xbdeafb8c	-0.1147376
227	0x3c1d8bb2	0.0096158255
228	0xbde08cc4	-0.10964349
229	0xbe1eba36	-0.15500721
230	0xbd08ce5b	-0.03339992
231	0xbe03653e	-0.1283159
232	0xbe3e33ae	-0.18574402
233	0xbd4f2fc2	-0.050582655
234	0xbd6548d2	-0.05597765
235	0xbca1dfc0	-0.019760013
236	0xbe2cdc75	-0.16880973
237	0xbdda9158	-0.10672253
238	0xbdbcdb53	-0.0922152
239	0xbdbdcffe	-0.09268187
240	0xbdb8a4e6	-0.09015827
241	0xbe55c30f	-0.2087519
242	0x3b9c570f	0.0047711204
243	0xbe4b11f3	-0.19831066
244	0xbd149024	-0.036270276
245	0xbe4320fd	-0.19055553
246	0xbe49c888	-0.19705403
247	0xbdb8b3a6	-0.0901864
248	0x3da2291d	0.07917998
249	0x3d69cc23	0.057079446
250	0xbdc02ad1	-0.093831666
251	0x3c5e90e2	0.013584347
252	0xbe0ed539	-0.13948525
253	0x3d006afa	0.03135202
254	0x3da3e232	0.08002128
255	0x3d99522f	0.074863784

fc.weight f4 [4, 128]
0	0xbd0152a7	-0.031572964
1	0x3de34ee1	0.11099029
2	0x3d35f2be	0.04442095
3	0xbd812d80	-0.063075066
4	0x3d8b0602	0.06788255
5	0xbb19b04f	-0.0023451035
6	0xbd61b02b	-0.055099647
7	0xbd2df7cc	-0.042472646
8	0xbdbc3ca5	-0.091912545
9	0xbe50d570	-0.2039392
10	0x3ce181a1	0.027527632
11	0xbce57ccc	-0.02801361
12	0xbcc1913e	-0.023628827
13	0xbd80c6ae	-0.06287895
14	0x3bd19c8d	0.006396836
15	0x3e16ee24	0.14739281
16	0xbd2d0805	-0.042243976
17	0xbe0726b9	-0.13198365
18	0xbd112a4e	-0.035440736
19	0x3e05e3f9	0.13075246
20	0xbc1f2a5e	-0.009714691
21	0x3a624a23	0.0008632263
22	0x3d963e56	0.073361084
23	0xbd8e8474	-0.06958857
24	0x3deb5eb3	0.11492672
25	0xbd8e72b0	-0.06955469
26	0x3ddc2202	0.10748674
27	0xbe026095	-0.12732156
28	0xbe068d7e	-0.13139912
29	0xbda1efc7	-0.07907062
30	0xbdc6c768	-0.097060025
31	0x3dc0aad4	0.09407583
32	0x3db5c470	0.08875358
33	0xbe1b7aa8	-0.15183508
34	0x3dbc9628	0.092083275
35	0x3d831d5c	0.06402084
36	0x3df2052a	0.11817391
37	0xbd8fb028	-0.07016021
38	0x3ca169b6	0.019703727
39	0xbd0a0fe1	-0.03370655
40	0x3dd18aca	0.1023155
41	0x3e1559be	0.14585015
42	0xbde847c3	-0.113418125
43	0x3d1d04eb	0.03833477
44	0xbd2ca462	-0.042148955
45	0x3d8cf619	0.06882877
46	0x3dfe8f43	0.12429669
47	0xbd8c6a04	-0.068561584
48	0xbdd36188	-0.10321337
49	0xbe26fdd1	-0.16307761
50	0x3e82a017	0.25512764
51	0x3da8084e	0.08204709
52	0x3c626828	0.013818778
53	0x3def2ff8	0.11679071
54	0xbd890204	-0.066898376
55	0xbe2abfb6	-0.16674694
56	0x3d9a0f2a	0.075224236
57	0xbd06032f	-0.03271788
58	0x3d293d86	0.04131844
59	0xbdaa8c58	-0.0832755
60	0x3d20d231	0.039262954
61	0xbcfed3f9	-0.031106936
62	0x3e1d309c	0.15350574
63	0xbd784984	-0.060616985
64	0xbd4559b0	-0.048181236
65	0xbd697260	-0.056993842
66	0x3e3b3213	0.1828082
67	0x3deee58c	0.11664876
68	0x3deb3585	0.114848174
69	0x3da5b0f9	0.080903955
70	0xbc958dcb	-0.018256089
71	0xbc6abd89	-0.014327415
72	0xbdc78bd6	-0.097434685
73	0xbd0dad13	-0.034588885
74	0x3de2bc92	0.11071123
75	0x3dd1dc53	0.10247102
76	0x3d00c8e8	0.0314416
77	0xbd63e3e4	-0.055637255
78	0x3d374b24	0.044749394
79	0x3d96543d	0.07340286
80	0xbdc3c4ba	-0.09559007
81	0x3d399348	0.045306474
82	0x3c5d8fde	0.01352307
83	0x3c131a1a	0.008978391
84	0x3e4af508	0.19820035
85	0xbd341ba3	-0.04397167
86	0xbd768254	-0.060182884
87	0xbd21a6dc	-0.03946577
88	0xbc3d7fee	-0.011566145
89	0xbe0de5ce	-0.13857195
90	0xbdd2a873	-0.102860354
91	0xbdd0686a	-0.101761654
92	0x3d3ea4b9	0.04654381
93	0xbd244947	-0.040108945
94	0x3e357504	0.17720419
95	0x3ddfeb11	0.10933507
96	0xbd3befdd	-0.04588305
97	0xbd9fd938	-0.07805103
98	0xbe04d224	-0.12970787
99	0x3cdf74e3	0.027277416
100	0xbd0a15a4	-0.033712044
101	0xbd325c94	-0.04354532
102	0xbd213237	-0.03935453
103	0xbda57bc1	-0.08080245
104	0xbdb09e4a	-0.08623941
105	0xbe19ebf2	-0.15031412
106	0x3e2648c7	0.162387
107	0xbcb066e9	-0.021533446
108	0x3dbfc9c1	0.093646534
109	0x3d1b02be	0.037844412
110	0xbde2c2cc	-0.11072311
111	0xbd841f0e	-0.06451236
112	0x3d76b529	0.06023136
113	0x3ceeb33a	0.029138196
114	0xbe052b71	-0.13004853
115	0x3f12b937	0.57313865
116	0x3c5aa5bf	0.013345181
117	0x3de1e0ea	0.11029227
118	0x3e8e824b	0.2783378
119	0xbc700fa9	-0.014652171
120	0x3e9088f4	0.28229487
121	0xbdab0c99	-0.08352012
122	0xbd185ef8	-0.037199944
123	0xbd1648ee	-0.036690645
124	0xbd99cc56	-0.07509677
125	0x3d137692	0.03600175
126	0x3d3fd5f2	0.046834894
127	0x3d4cc4d6	0.049992405
128	0xbde0c90b	-0.10975846
129	0xbe3632c5	-0.17792805
130	0x3d47643e	0.048679583
131	0xbda049c5	-0.078265704
132	0xbdd5a19a	-0.10431214
133	0x3dacba20	0.08433938
134	0xbd8936ea	-0.06699927
135	0xbd6643e3	-0.056217086
136	0xbe0985bd	-0.13429923
137	0x3d88fda8	0.06689006
138	0xbd06ef5a	-0.032943107
139	0x3e136a45	0.14396007
140	0x3db7558c	0.08951864
141	0xbddbb369	-0.10727579
142	0x3d99db2c	0.07512507
143	0x3d35ee1a	0.044416524
144	0xbd923a4c	-0.071400255
145	0xbde72d57	-0.11287945
146	0x3d076ba4	0.03306164
147	0xbe69bc8e	-0.22825834
148	0x3cb86d7c	0.022513144
149	0x3d109a88	0.035303622
150	0xbdc4713b	-0.095919095
151	0x3b24219d	0.002504445
152	0x3cb98cde	0.022650179
153	0xbdad2612	-0.08454527
154	0xbcb774bf	-0.022394536
155	0xbbb9d499	-0.0056710956
156	0xbe04ad66	-0.12956771
157	0xbd1f5ac6	-0.038904928
158	0xba40e8ab	-0.0007358889
159	0x3d8b0acf	0.06789171
160	0xbd9f182b	-0.077682815
161	0xbda8c939	-0.08241505
162	0x3da79d12	0.08184256
163	0x3e0535dd	0.13008828
164	0x3cf3b2d4	0.029748358
165	0xbdf40230	-0.1191448
166	0x3d36e252	0.04464943
167	0x3c67d826	0.014150655
168	0x3d2b7def	0.041868147
169	0x3e05726b	0.13031928
170	0xbdd07402	-0.10178377
171	0x3daee41c	0.08539602
172	0xbdc38345	-0.09546522
173	0xbd512ff3	-0.05107112
174	0x3d222dde	0.039594524
175	0x3c5c2868	0.013437368
176	0xbe106101	-0.14099504
177	0xbc302a6a	-0.0107523
178	0xbda01231	-0.0781597
179	0x3e166b6e	0.14689419
180	0xba8a523c	-0.0010553072
181	0x3d10538b	0.035235923
182	0xbd1f28a1	-0.038857106
183	0xbd6463c0	-0.05575919
184	0x3d02dbf0	0.03194803
185	0xbdf4afa3	-0.119475625
186	0xbba865f7	-0.0051391083
187	0xbe07439f	-0.13209389
188	0x3da8ad0a	0.082361296
189	0x3df247d1	0.11830104
190	0xbdf7dcfa	-0.12102695
191	0xbdf4b23a	-0.119480565
192	0xbe2aa7ca	-0.16665569
193	0xbe2ba9a0	-0.16763926
194	0x3e3c26d8	0.18374193
195	0xbd890522	-0.06690432
196	0xbe1f3f5a	-0.1555151
197	0x3dd6ca11	0.1048776
198	0xbe0b369b	-0.13595049
199	0xbdf0fc3f	-0.11766862
200	0xbb2a446c	-0.0025980724
201	0xbd61091d	-0.05494033
202	0x3e29cc19	0.16581763
203	0x3d0c6002	0.034271248
204	0xbccdf90e	-0.025143173
205	0xbd303533	-0.043019485
206	0x3e0740ea	0.13208356
207	0x3bc6607b	0.006053982
208	0xbdaac0ab	-0.0833753
209	0x3d96b0a7	0.073579125
210	0xbd12671c	-0.035742864
211	0xbdabec7c	-0.08394715
212	0x3e4ad901	0.19809343
213	0xbd466db2	-0.048444457
214	0xbd1a2281	-0.03763056
215	0xbbd849df	-0.006600603
216	0x3dfc56bb	0.1232123
217	0xbde34182	-0.11096479
218	0x3e0acb74	0.13554174
219	0xbdf575b8	-0.11985344
220	0x3d463f1d	0.048400033
221	0xbd467293	-0.04844911
222	0x3e28166c	0.16414803
223	0x3e02fe71	0.12792374
224	0x3defd64c	0.11710796
225	0x3d55c854	0.052193
226	0x3d99a97b	0.07503029
227	0x3da1f016	0.07907121
228	0x3ddd9f81	0.108214386
229	0xbd996838	-0.07490581
230	0xbd72a310	-0.05923754
231	0xbdbcd8b0	-0.09221017
232	0xbe7bbf56	-0.24584708
233	0xbaa31585	-0.0012442326
234	0xbd750bc7	-0.059825685
235	0xbc4ebcdc	-0.01261827
236	0xbde1f92e	-0.110338554
237	0x3c6424fd	0.013924834
238	0xbd2bdfac	-0.041961357
239	0xbdff182c	-0.12455782
240	0xbdffa185	-0.12481979
241	0xbe0ff4e8	-0.14058268
242	0xbd914f17	-0.07095163
243	0x3d9e64f2	0.077340975
244	0xbe060032	-0.13086012
245	0xbc9738d9	-0.018459724
246	0xbe4da235	-0.20081408
247	0xbdae0155	-0.08496348
248	0xbe2f11d1	-0.1709664
249	0xbd8851d0	-0.066562295
250	0xbcfce52e	-0.030871
251	0x3c263a9d	0.01014581
252	0xbcd02a17	-0.025410695
253	0x3df05b93	0.117362164
254	0xbd269972	-0.04067368
255	0x3db2222f	0.08697926

fc.bias f4 [4]
0	0x3e460cd4	0.19340831
1	0x3dbce25f	0.09222864
2	0x3e45178d	0.19247265
3	0x3e2d1059	0.16900767
