lstm_hdim_128_wsize_20_interval_7_nlayers_1_bs_512_lr_0.01_decay_0.95_epoch_2.pt (torch, 277987 bytes, 6 tensors)

lstm.weight_ih_l0 f4 [512, 4]
0.013904865 -0.01863147 0.02709078 0.089079745 -0.15607764 -0.08441162 -0.0480427 -0.059525713
0.04334164 0.07283918 0.13080478 0.019768622 -0.031157197 0.032996785 0.13041721 -0.14043781
0.041042734 -0.085309245 -0.03439328 0.03307986 0.036908798 0.07381246 0.13697943 0.1567935
-0.009488131 -0.043401115 0.15784131 -0.00010753451 0.04843762 -0.022649992 0.013777531 0.0368638
0.13578954 0.09978629 -0.03635641 -0.019325402 -0.5069336 0.06111702 -0.6982526 -0.065117896
-0.06773855 -0.032815862 0.042955216 0.043932512 -0.07198477 -0.12654078 -0.026949208 -0.052817307
-0.0099185575 0.0020468049 -0.26333958 -0.28852522 -0.011487677 0.052830648 -0.029954266 -0.06296175
-0.13989113 0.029594243 -0.03451799 -0.2900999 0.113448806 0.0153136635 -0.08218733 0.11798975
0.13656257 -0.002354414 0.037595943 -0.08728731 0.11367033 0.0775768 0.18075243 0.04098598
0.10899655 0.120453596 -0.91125786 -0.48369434 -0.014859855 0.03894108 -0.18930052 0.18441844
-0.13270687 -0.10336374 -0.036620907 -0.102653466 -0.052614376 -0.055721898 -0.16254352 -0.14743601
-0.08327689 0.054702688 0.053034578 0.14603454 -0.103043854 -0.14252318 -0.02164948 -0.16552621
0.09638253 0.044734705 0.040374406 0.12459566 0.016150251 -0.040019624 -0.12448538 0.115851186
0.07064951 -0.01224952 0.051941656 -0.03186108 0.1868624 -0.00075386534 -0.03093675 0.040197007
0.046523105 0.083681874 0.15132375 0.048188876 -0.052498586 -0.16899787 -0.0747993 -0.16099972
0.13690062 0.0023295202 0.05795762 0.08335641 0.051449187 0.012509144 0.039273184 0.05568018
-0.012644337 0.0442536 -0.039604835 -0.02311698 0.1959951 -0.00641145 -0.06447525 -0.21613798
-0.10410865 -0.12044415 -0.14686306 -0.17452534 0.001752069 -0.019419301 0.06556989 0.015116086
0.13921237 0.07405868 0.115504935 0.014419452 0.07445503 0.067063965 0.10724383 -0.060956024
0.07219852 0.07962941 0.08454724 0.11562092 -0.037312314 0.04653737 0.0018523469 -0.046250846
0.105189614 0.008889576 -0.02438078 0.076515205 0.1395979 0.1819172 0.15655425 0.15953536
0.052467603 0.0577069 0.0993306 -0.036392532 0.06664624 0.040193863 0.120965295 0.062486358
-0.11765905 0.048090275 -0.098709546 -0.15002447 -0.3416479 0.034290444 0.09540316 -0.39585227
0.10187703 0.10200903 0.012098242 0.077560686 0.1123374 -0.07654717 0.022936836 -0.00088375894
0.15902682 0.12841994 -0.0666503 0.07340015 0.238938 0.022822235 0.10691726 0.13743198
0.29987523 0.2697157 0.634115 -0.38963106 0.014848003 -0.009642418 -0.41828513 -0.11691935
-0.041721854 0.032440275 0.26905015 0.9830353 -0.03477053 0.007047407 -0.065632686 -0.2232026
0.05364946 -0.011434268 -0.0021804583 -0.05689995 0.5996959 0.5573379 0.8540011 0.83145994
-0.05458889 -0.15111971 -0.02302577 -0.16747019 -0.12672427 0.093144976 -0.061813895 -0.12024347
-0.06866213 0.04815875 0.114915706 0.14517 0.10342143 0.13035117 0.003807935 -0.02882762
0.087414905 -0.05044354 0.024060834 0.122994475 0.05503472 0.14052284 0.031590275 0.18663299
-0.19615331 0.03499188 0.10344083 -0.023235558 0.007640557 0.019835427 0.1948945 0.020132061
00000000: 3bd1 633c 06a1 98bc 7ced dd3c 716f b63d
00000010: d1d2 1fbe 00e0 acbd 6cc8 44bd 3cd1 73bd
00000020: 0187 313d b52c 953d b0f1 053e cef1 a13c
00000030: 613d ffbc a327 073d 178c 053e eece 0fbe
00000040: 6d1c 283d 9db6 aebd f8df 0cbd bf7e 073d
00000050: ae2d 173d fd2a 973d 5644 0c3e 7a8e 203e
00000060: 1b74 1bbc 5ec5 31bd 27a1 213e 2784 e1b8
00000070: 8766 463d 7a8c b9bc 27bb 613c 7ffe 163d
00000080: 6a0c 0b3e c15c cc3d 75ea 14bd 4e50 9ebc
00000090: 67c6 01bf d755 7a3d afc0 32bf 885c 85bd
000000a0: 82ba 8abd ed69 06bd cff1 2f3d 94f2 333d
000000b0: c06c 93bd e893 01be 96c4 dcbc f656 58bd
000000c0: 7281 22bc b023 063b 72d4 86be 94b9 93be
000000d0: cf36 3cbc f364 583d a662 f5bc 17f2 80bd
000000e0: 9f3f 0fbe a06f f23c bc62 0dbd f987 94be
000000f0: d957 e83d 29e6 7a3c d551 a8bd 9ca4 f13d
00000100: 0fd7 0b3e 834c 1abb 34fe 193d b0c3 b2bd
00000110: fdcb e83d 96e0 9e3d 2a17 393e eae0 273d
00000120: 9539 df3d 60b0 f63d 3248 69bf c9a6 f7be
00000130: c076 73bc af80 1f3d ffd7 41be 30d8 3c3e
00000140: 4fe4 07be 5eb0 d3bd ceff 15bd fb3b d2bd
00000150: 2c82 57bd a53c 64bd cf71 26be 77f9 16be
00000160: 138d aabd ed0f 603d c93a 593d 148a 153e
00000170: a808 d3bd 99f1 11be 405a b1bc b47f 29be
00000180: 3464 c53d bd3b 373d a25f 253d 022c ff3d
00000190: 884d 843c 9eeb 23bd 31f2 febd 6343 ed3d
000001a0: b1b0 903d 36b2 48bc c6c0 543d c480 02bd
000001b0: db58 3f3e 0c9f 45ba 116f fdbc 9ea5 243d
000001c0: 038f 3e3d 6761 ab3d 9df4 1a3e b361 453d
000001d0: c208 57bd c70d 2dbe 6030 99bd 1cdd 24be
000001e0: ad2f 0c3e ddaa 183b f864 6d3d c4b6 aa3d
000001f0: 62bc 523d 27f3 4c3c ebdc 203d e710 643d
00000200: 312a 4fbc 4343 353d ae38 22bd d25f bdbc
00000210: f1b2 483e 2417 d2bb 9a0b 84bd 4653 5dbe
00000220: ea36 d5bd 6cab f6bd 4563 16be c5b6 32be
00000230: aea5 e53a 3a15 9fbc 8249 863d 76a9 773c
00000240: b08d 0e3e 14ac 973d da8d ec3d 913f 6c3c
00000250: e17b 983d d558 893d a7a2 db3d 06ad 79bd
00000260: d1dc 933d be14 a33d 1a27 ad3d a9ca ec3d
00000270: ccd4 18bd f89d 3e3d 73ca f23a 8771 3dbd
00000280: a76d d73d 96a5 113c 34ba c7bc 01b4 9c3d
00000290: c0f2 0e3e 8148 3a3e c24f 203e 3d5d 233e
000002a0: 45e8 563d 125e 6c3d d76d cb3d 5610 15bd
000002b0: d37d 883d 52a2 243d a7bc f73d b2f1 7f3d
000002c0: 3af7 f0bd 4ffa 443d 3b28 cabd 04a0 19be
000002d0: 79ec aebe 2374 0c3d bb62 c33d 26ad cabe
000002e0: e8a4 d03d 1cea d03d b437 463c 23d8 9e3d
000002f0: 2711 e63d c3c4 9cbd 08e6 bb3c 0fac 67ba
00000300: edd7 223e 8480 033e f47f 88bd d152 963d
00000310: 2aac 743e b2f5 ba3c 70f7 da3d f8ba 0c3e
00000320: 3f89 993e 2d18 8a3e 5c55 223f b97d c7be
00000330: 0a45 733c 3bfb 1dbc 7829 d6be 6a73 efbd
00000340: 89e4 2abd 18e0 043d f1c0 893e 34a8 7b3f
00000350: 8b6b 0ebd efed e63b 6e6a 86bd 398f 64be
00000360: 89bf 5b3d cc56 3bbc 05e6 0ebb ec0f 69bd
00000370: ac85 193f b2ad 0e3f d19f 5a3f 8fda 543f
00000380: 9a98 5fbd 20bf 1abe 8aa0 bcbc 4e7d 2bbe
00000390: 02c4 01be cbc2 be3d 9130 7dbd 3542 f6bd
000003a0: bb9e 8cbd 1c42 453d ed58 eb3d 72a7 143e
000003b0: 9dce d33d c77a 053e 8c8e 793b e727 ecbc
000003c0: 9606 b33d e39d 4ebd 3a1b c53c 87e4 fb3d
000003d0: 166c 613d 38e5 0f3e ce64 013d b81c 3f3e
000003e0: 6adc 48be a553 0f3d c9d8 d33d 7f58 bebc
000003f0: a35d fa3b e87d a23c 6c92 473e feeb a43c

lstm.weight_hh_l0 f4 [512, 128]
-0.045464233 -0.17566822 0.0044585234 0.08057926 0.07920422 -0.0244903 -0.053171106 0.06612864
-0.049183145 0.06673268 -0.040867202 -0.06520349 0.054928925 0.11771611 0.00020609911 -0.11383624
0.06835157 0.120937705 -0.0064188195 0.10048329 0.14047608 -0.10461894 0.037666805 -0.05036183
-0.038752794 -0.06777284 -0.06618662 -0.0051711816 -0.009283208 0.05065563 0.00017685852 0.05383567
0.04783085 -0.065378845 -0.0726542 0.0012248138 0.010135953 0.08670127 0.005858131 -0.008737216
-0.039961416 0.055229876 0.02236724 -0.06044547 0.032477293 -0.089566186 -0.053460855 0.011109053
0.038252573 0.074056946 -0.048989926 -0.09067342 0.049913086 0.08158242 -0.037604775 -0.075390935
-0.029484434 0.059210543 0.07229052 0.041668937 -0.12098473 0.048940476 -0.1177047 0.0384657
-0.0014919231 -0.18345574 0.0036734694 0.084028535 0.10188702 0.02865222 0.12037675 0.10370588
-0.04032648 0.03035381 0.03285106 -0.1196141 0.010948185 -0.008632863 -0.02253225 -0.11795933
0.0073994445 -0.047659606 -0.011978721 0.11402786 -0.07567192 0.10204904 -0.02936125 0.023883471
-0.051054325 0.099220045 0.057866782 0.05920549 -0.0013323796 0.096365854 -0.085436076 0.006766862
-0.017049696 0.015911665 -0.0262523 -0.020614883 -0.017245803 0.033677995 -0.09436156 0.012725388
-0.045964014 0.09690426 -0.08692673 0.059985142 0.12588367 -0.12767401 -0.094867684 -0.08416205
0.03691702 0.008445902 0.10611177 -0.13781598 0.019439777 0.078244776 0.09085222 0.046011113
0.049637485 0.11117837 0.046491664 -0.015685488 -0.10576671 0.044872113 0.030252237 0.15775254
0.14424069 0.04759579 -0.1250952 0.13013895 0.14443399 -0.121005975 0.23722827 0.1733074
0.13224952 0.095439695 -0.04911369 -0.17739576 0.0026983141 0.15424289 -0.040711243 -0.17577928
0.23838179 0.18346971 -0.13057151 0.15258874 0.017162018 -0.026441688 0.020886151 -0.03703749
-0.16194814 0.15873948 -0.16080739 0.20879263 0.21800998 0.12166104 0.10261498 -0.21351801
-0.08678415 0.063183464 -0.15027538 -0.13463049 -0.12229946 0.24145061 -0.16361901 0.007974878
-0.16321746 -0.13770841 0.13930956 -0.11906848 0.05869164 -0.06376135 -0.1649015 0.15629943
0.12859564 0.21918792 -0.11980247 -0.15179144 0.17888182 -0.0040988903 0.16907118 0.13743934
-0.052206 0.202709 -0.11192763 0.19593625 -0.1517947 -0.14252965 0.13196085 0.11726207
0.018295798 0.021924056 -0.14848243 -0.13482079 0.099245 -0.16475613 0.24331142 0.13989972
0.113793686 0.21597569 -0.11103144 -0.23002054 0.13542119 0.11456257 -0.11665518 -0.13925968
0.16203809 -0.021635575 -0.048231598 0.1357244 -0.22961839 0.12015242 0.15094419 -0.027685616
-0.18023774 0.10420761 -0.102157556 0.24430172 -0.06489769 0.17015558 -0.14564106 -0.2419298
-0.12368491 -0.04847679 -0.03249475 -0.15093237 -0.024335166 0.05799059 -0.046799242 0.07235016
0.054173768 0.24728945 -0.0080682915 0.15304099 0.054276615 -0.076008394 0.13264145 0.09066992
0.16274685 0.110845715 0.276142 -0.19459578 0.12884149 -0.11544014 0.0728854 0.16648723
-0.1864738 0.15654281 0.080909565 -0.18525033 0.07908655 -0.06037986 -0.17987004 -0.06034594
00000000: b438 3abd 5fe2 33be ce18 923b bd06 a53d
00000010: d235 a23d e29f c8bc f2c9 59bd 746e 873d
00000020: 4474 49bd 25ab 883d 5e64 27bd 6889 85bd
00000030: 27fd 603d 2515 f13d 4f1c 5839 f922 e9bd
00000040: e8fb 8b3d 30ae f73d f654 d2bb 2fca cd3d
00000050: f6d8 0f3e 7442 d6bd 8248 1a3d 3548 4ebd
00000060: 40bb 1ebd 7dcc 8abd da8c 87bd 0473 a9bb
00000070: 9918 18bc 477c 4f3d 1973 3939 cb82 5c3d
00000080: 48ea 433d 58e5 85bd bacb 94bd ee89 a03a
00000090: 4511 263c 6f90 b13d 91f5 bf3b 8a26 0fbc
000000a0: 95ae 23bd b938 623d 813b b73c ab95 77bd
000000b0: e906 053d 7a6e b7bd c5f9 5abd bf02 363c
000000c0: bbae 1c3d 2bab 973d a9a9 48bd fcb2 b9bd
000000d0: aa71 4c3d af14 a73d 7707 1abd 9066 9abd
000000e0: 5789 f1bc c186 723d 0d0d 943d 0cad 2a3d
000000f0: d8c6 f7bd cf75 483d 290f f1bd 368e 1d3d
00000100: a28c c3ba d2db 3bbe 97be 703b 2717 ac3d
00000110: 24aa d03d 0fb8 ea3c 1688 f63d c063 d43d
00000120: 612d 25bd 8ea8 f83c d58e 063d 3df8 f4bd
00000130: 0460 333c da70 0dbc 8e95 b8bc a994 f1bd
00000140: 0a77 f23b b836 43bd 6642 44bc 7087 e93d
00000150: e1f9 9abd 16ff d03d 0187 f0bc 45a7 c33c
00000160: 571e 51bd e133 cb3d b805 6d3d 7581 723d
00000170: 3ea3 aeba 765b c53d 1cf9 aebd 8dbc dd3b
00000180: ceab 8bbc 2e59 823c 100f d7bc 8be0 a8bc
00000190: 1247 8dbc f0f1 093d a240 c1bd 257e 503c
000001a0: c344 3cbd be75 c63d a406 b2bd fbb2 753d
000001b0: a6e7 003e fabc 02be fd49 c2bd 275d acbd
000001c0: 4d36 173d ae60 0a3c 2151 d93d a21f 0dbe
000001d0: 2b40 9f3c cc3e a03d bb10 ba3d 2676 3c3d
000001e0: ad50 4b3d 7cb1 e33d 0b6e 3e3d da7e 80bc
000001f0: 389c d8bd d2cb 373d 8ad3 f73c e289 213e
00000200: d5b3 133e cef3 423d f518 00be 2543 053e
00000210: 81e6 133e fbd1 f7bd f8eb 723e 7f77 313e
00000220: 6b6c 073e e375 c33d 702b 49bd 3ca7 35be
00000230: 33d6 303b d9f1 1d3e d5c0 26bd 7cff 33be
00000240: 5b1a 743e 7cdf 3b3e 8ab4 05be 3940 1c3e
00000250: 5c97 8c3c 3d9c d8bc 6f19 ab3c a0b4 17bd
00000260: bcd5 25be 9a8c 223e b1aa 24be bccd 553e
00000270: 023e 5f3e 6c29 f93d cd27 d23d 77a4 5abe
00000280: e3bb b1bd 5566 813d cae1 19be 93dc 09be
00000290: 2478 fabd d43e 773e be8b 27be 10a9 023c
000002a0: 7a22 27be 6f03 0dbe 2aa7 0e3e 2dda f3bd
000002b0: a566 703d 5095 82bd f0db 28be f50c 203e
000002c0: 93ae 033e cc72 603e ff5a f5bd 376f 1bbe
000002d0: cc2c 373e fc4f 86bb ff20 2d3e e6bc 0c3e
000002e0: f5d5 55bd f392 4f3e 503a e5bd 83a3 483e
000002f0: 1270 1bbe 4bf3 11be bf20 073e 1927 f03d
00000300: 12e1 953c 149a b33c c70b 18be 760e 0abe
00000310: f640 cb3d d5b5 28be a126 793e df41 0f3e
00000320: aa0c e93d bb28 5d3e 7464 e3bd 818a 6bbe
00000330: daab 0a3e c89f ea3d e9e8 eebd 179a 0ebe
00000340: 50ed 253e 173d b1bc 7f8e 45bd 56fb 0a3e
00000350: 1521 6bbe 7912 f63d 1d91 1a3e f2cc e2bc
00000360: 3e90 38be cd6a d53d fb37 d1bd 3b2a 7a3e
00000370: 15e9 84bd 443d 2e3e ee22 15be 72bc 77be
00000380: 844e fdbd 998f 46bd 3719 05bd 048e 1abe
00000390: 8b5a c7bc 8a87 6d3d 90b0 3fbd 522c 943d
000003a0: 50e5 5d3d 7239 7d3e de30 04bc c7b6 1c3e
000003b0: 2851 5e3d 4aaa 9bbd 29d3 073e 27b1 b93d
000003c0: 1ca7 263e 1403 e33d 7c62 8d3e 1e44 47be
000003d0: 06ef 033e e16b ecbd f144 953d a17b 2a3e
000003e0: fdf2 3ebe c24c 203e eab3 a53d 43b2 3dbe
000003f0: 21f8 a13d df50 77bd da2f 38be 4e2d 77bd

lstm.bias_ih_l0 f4 [512]
-0.047775444 -0.046240836 -0.0027034164 0.03140336 -0.049271885 0.088654816 0.10420907 0.050283685
0.058599807 0.06268705 -0.03615462 -0.13410994 -0.096234016 0.083931044 -0.10606833 0.059046824
0.102634616 0.15627868 0.1880401 0.057391286 -0.106135845 -0.1696521 0.021819863 -0.13686913
0.08197869 -0.13568562 -0.015292349 0.08267329 0.06949717 -0.17891024 -0.07034046 0.11296595
-0.08366707 0.063807234 -0.12802027 -0.027133448 0.0012804468 0.12963343 -0.04424538 -0.006502954
0.11577478 0.15616904 -0.048909895 0.09313433 0.06077392 -0.06327171 0.012037665 -0.015699454
0.095607385 0.10212406 0.2154213 0.040452745 0.10765461 0.003201344 -0.052274078 0.55644137
-0.1388189 -0.08158553 -0.051679444 0.19239709 0.07830601 0.06578844 0.09109406 0.015925512
-0.048772097 0.37729707 0.048733573 0.40254146 0.047214653 0.03995561 -0.035636988 0.0660794
0.071982786 0.030895658 0.08276424 0.024260411 -0.07522591 -0.036129903 -0.008275884 0.03434939
0.10216071 -0.1114861 -0.10347218 0.08818901 0.13991135 0.053437807 0.021992153 0.19835128
-0.01100592 -0.027472895 -0.048806 0.1478964 -0.045392815 -0.011099545 0.0542248 0.14282325
0.064922675 0.034637813 0.024976762 -0.07666201 -0.0021762652 -0.10081142 -0.083746925 -0.08163291
0.02913934 -0.017688613 0.008307763 0.009342107 -0.162535 -0.052255355 -0.08033211 0.03786644
-0.057768866 0.023956528 -0.019292938 0.35730812 0.05960753 -0.114635974 0.07663516 0.02845394
-0.041157436 -0.06933026 0.049527343 -0.008327803 -0.14201415 -0.09536941 -0.0032668065 0.3270365
-0.08802745 -0.1658178 -0.003378492 0.07641166 -0.08637287 0.105829045 0.059163775 -0.027383506
0.08438382 0.026084898 -0.06211579 -0.10643912 -0.092038885 -0.08851664 0.03209318 -0.04149543
-0.046946466 0.0766397 -0.013681636 -0.063983046 -0.15341479 -0.086977236 -0.012668828 -0.15831141
0.09503783 -0.048962846 -0.088944495 0.033213608 0.010553467 -0.1660046 -0.085305616 -0.05460399
0.03812621 -0.19191003 -0.028953437 0.07787634 0.029189004 0.058399606 0.027685381 -0.05037549
0.007878094 0.047389317 0.031049369 0.06586748 -0.114976436 0.0069846306 0.01416399 -0.06679028
-3.0257943e-05 0.040421326 0.0988966 -0.05853563 -0.19779313 -0.12984617 0.029935364 0.07597113
-0.06512738 0.034629047 0.023402825 0.024717962 -0.010253699 0.012558816 -0.1486394 0.059771057
-0.07635897 0.049926326 -0.04236153 -0.016300503 0.0056130015 0.05635912 0.092841715 0.057102725
0.04248617 -0.07195709 0.12848932 0.07263466 -0.07506226 0.03269617 -0.027005916 -0.037291702
0.08406365 -0.09362506 -0.103213355 0.020934103 -0.04374907 -0.06842048 0.06955828 0.17024912
-0.07090163 0.0060723163 -0.13989195 0.08266815 -0.023251336 0.0567582 0.07256389 0.06279473
-0.05039061 0.04052509 -0.12203524 0.082849495 -0.07911751 -0.045933094 0.046208933 -0.03964726
-0.049564 0.048761837 0.026362393 -0.07920566 -0.03867487 -0.031279437 -0.062538065 -0.03122898
-0.0738999 -0.18612833 0.0017293891 -0.23338276 0.04124496 -0.03392459 -0.047131952 0.04253962
0.01910907 -0.062632374 -0.0824753 -0.021815082 -0.10104086 -0.049420968 -0.018839646 0.0692651
00000000: 2fb0 43bd 0867 3dbd cd2b 31bb cfa0 003d
00000010: 51d1 49bd a890 b53d 916b d53d 44f6 4d3d
00000020: 5a06 703d 1162 803d de16 14bd 1e54 09be
00000030: 5716 c5bd 0ae4 ab3d 5a3a d9bd 15db 713d
00000040: 1932 d23d 8507 203e 958d 403e 2013 6b3d
00000050: c05d d9bd 48b9 2dbe 92bf b23c 6c27 0cbe
00000060: 72e4 a73d 2cf1 0abe c38c 7abc 9d50 a93d
00000070: 8854 8e3d 3f34 37be a90e 90bd b15a e73d
00000080: a459 abbd 5ead 823d bf17 03be f746 debc
00000090: aad4 a73a a0be 043e a53a 35bd bb16 d5bb
000000a0: 541b ed3d c7ea 1f3e be55 48bd 36bd be3d
000000b0: 13ee 783d 9994 81bd a039 453c 249c 80bc
000000c0: cecd c33d 6b26 d13d 6797 5c3e c7b1 253d
000000d0: 057a dc3d a4cd 513b 581d 56bd f172 0e3f
000000e0: 8b26 0ebe 5016 a7bd d3ad 53bd be03 453e
000000f0: e75e a03d 17bc 863d 868f ba3d 3876 823c
00000100: 40c5 47bd 152d c13e db9c 473d ea19 ce3e
00000110: 2764 413d 7ea8 233d 17f8 11bd a354 873d
00000120: b66b 933d e418 fd3c 4c80 a93d c5bd c63c
00000130: 0b10 9abd f3fc 13bd 9397 07bc f2b1 0c3d
00000140: a239 d13d d352 e4bd 39e9 d3bd 719c b43d
00000150: ec44 0f3e 9ae1 5a3d e328 b43c 991c 4b3e
00000160: 2d52 34bc d60e e1bc cde8 47bd 2772 173e
00000170: d1ed 39bd deda 35bc d31a 5e3d 4240 123e
00000180: 2ef6 843d 61e0 0d3d 119c cc3c f900 9dbd
00000190: ac9f 0ebb 3876 cebd 8283 abbd 282f a7bd
000001a0: a0b5 ee3c b6e7 90bc 491d 083c a30f 193c
000001b0: 936f 26be b609 56bd 2985 a4bd d719 1b3d
000001c0: 0c9f 6cbd 7b40 c43c 390c 9ebc 17f1 b63e
000001d0: 0627 743d 44c6 eabd e5f2 9c3d 3d18 e93c
000001e0: b394 28bd 06fd 8dbd 2fdd 4a3d 5671 08bc
000001f0: 286c 11be 0a51 c3bd eb17 56bb 5471 a73e
00000200: bc47 b4bd 24cc 29be b169 5dbb b77d 9c3d
00000210: 42e4 b0bd e6bc d83d b755 723d 6053 e0bc
00000220: 6dd1 ac3d ffaf d53c 206d 7ebd c1fc d9bd
00000230: e27e bcbd 3648 b5bd 2374 033d 1df7 29bd
00000240: f04a 40bd 46f5 9c3d f128 60bc 8b09 83bd
00000250: c418 1dbe 1f21 b2bd ea90 4fbc 631c 22be
00000260: 32a3 c23d 448d 48bd 8828 b6bd fe0a 083d
00000270: 73e8 2c3c 1cfd 29be b6b4 aebd 6fa8 5fbd
00000280: 3b2a 1c3d 1084 44be c22f edbc a17d 9f3d
00000290: c71d ef3c 6d34 6f3d 74cc e23c 8856 4ebd
000002a0: 1f13 013c 4d1b 423d 3f5b fe3c 88e5 863d
000002b0: c478 ebbd 54df e43b 1410 683c 58c9 88bd
000002c0: 70d2 fdb7 d590 253d 4d8a ca3d 0fc3 6fbd
000002d0: 488a 4abe 65f6 04be 023b f53c c096 9b3d
000002e0: 8161 85bd 30d7 0d3d 48b7 bf3c 537d ca3c
000002f0: 21ff 27bc 7ec3 4d3c ed34 18be 7fd2 743d
00000300: 1762 9cbd 8c7f 4c3d 4983 2dbd a288 85bc
00000310: 45ed b73b d2d8 663d cc23 be3d 8ce4 693d
00000320: fa05 2e3d 3d5e 93bd b492 033e 7bc1 943d
00000330: 3eba 99bd 6bec 053d 833b ddbc 2fbf 18bd
00000340: 9029 ac3d 7fbe bfbd 8661 d3bd ff7d ab3c
00000350: 3a32 33bd 0920 8cbd 9274 8e3d c955 2e3e
00000360: e034 91bd 48fa c63b d63f 0fbe eb4d a93d
00000370: 9679 bebc 497b 683d 609c 943d 869a 803d
00000380: 6266 4ebd a3fd 253d 9ded f9bd ffac a93d
00000390: 5c08 a2bd 5724 3cbd 9445 3d3d 2a65 22bd
000003a0: 9f03 4bbd 7eba 473d f2f5 d73c 9436 a2bd
000003b0: 8a69 1ebd de1e 00bd f513 80bd ebd3 ffbc
000003c0: d558 97bd 6d98 3ebe abac e23a e4fb 6ebe
000003d0: 7af0 283d 83f4 0abd 6f0d 41bd 063e 2e3d
000003e0: a08a 9c3c 6745 80bd cfe8 a8bd 8bb5 b2bc
000003f0: 83ee cebd a46d 4abd 9a55 9abc dcda 8d3d

lstm.bias_hh_l0 f4 [512]
0.011528775 -0.060429588 0.07729663 0.10145531 -0.05555083 0.038925573 -0.05435982 0.07353111
0.004704365 0.060454316 0.03536625 -0.016817791 -0.1228399 -0.07633731 -0.010828424 -0.010598144
0.05113612 0.013720668 0.19217996 0.04903853 -0.1616474 -0.15164249 -0.03630393 -0.14664707
-0.0239357 -0.03672734 -0.06335666 -0.0590221 0.05577944 -0.16151997 -0.06290082 0.0750826
-0.015331439 0.0326285 -0.11667497 0.058595687 0.07983491 0.081101276 0.015165667 -0.028916411
0.118863866 0.06064527 0.06657313 0.06688901 -0.05095659 0.018492833 -0.031573515 0.025420351
0.10970637 0.09759969 0.3474425 0.05516286 0.04503867 -0.011835503 0.04580611 0.6660894
-0.1408847 -0.08209153 0.08528016 0.15672301 0.0060067205 0.0926561 0.06026577 0.033822164
-0.051612724 0.25951332 0.0071601444 0.36623457 0.10373126 0.13436653 -0.036290783 0.089646146
-0.0558029 -0.027782375 0.118319586 -0.020877387 -0.06330362 0.013313467 0.08143835 -0.03748177
0.109887354 -0.020968866 -0.045413133 -0.041949805 0.10137069 0.08865435 0.08040129 0.24878438
0.049632285 0.027052488 -0.027232198 0.04594444 -1.04730866e-07 0.0022600654 0.0719632 0.18515985
0.055883653 -0.018596373 0.02799076 -0.041731462 -0.064829856 -0.094925754 0.031923786 -0.15984125
-0.05590022 -0.012521582 -0.07882557 -0.08479606 -0.1019087 -0.11824509 -0.044358827 0.008551183
0.07339177 -0.053244926 0.08947531 0.41431937 0.09101307 -0.11034152 0.029068712 -0.042965937
-0.1195022 0.053867456 -0.108929366 -0.1010107 -0.04348225 -0.028887665 -0.090162545 0.2741308
0.03895148 -0.20934036 0.023494145 -0.073823035 0.032689407 0.13641064 0.094060145 -0.02373334
-0.0805552 0.0045986874 0.027388671 -0.03634631 -0.10457403 0.023447009 -0.08661544 0.040517155
0.052974563 0.031114304 -0.035021592 -0.06542851 -0.092169605 -0.14272568 -0.1370216 -0.048641145
-0.055850215 -0.1781601 -0.011287934 -0.047428243 0.015957464 -0.11763104 -0.075212635 -0.074610226
0.08215304 -0.074920766 -0.12152069 -0.04480634 0.040911134 -0.0242809 0.07649409 0.06635562
0.014119576 0.10654842 -0.066184595 -0.008429098 -0.11373908 0.006067159 0.09008281 -0.043075714
0.09782334 -0.021212006 0.081422515 -0.07222723 -0.17517592 -0.116790265 0.026420487 0.20817451
-0.11707384 -0.0057575987 -0.040389348 0.1017553 0.05937353 -0.054823454 -0.12518933 0.0828267
0.021433542 -0.016564896 -0.07212109 0.073647335 0.024707204 0.009852761 0.009384459 0.039628733
-0.08300604 0.021587165 0.121273726 0.013797906 -0.04782699 -0.02244707 0.045397144 -0.039979182
0.07887021 -0.14476933 -0.05239371 -0.07359057 -0.16100453 0.03251001 0.06372863 0.15194064
-0.035684835 -0.011944012 -0.072942905 0.0922048 -0.056463953 -0.016884023 0.008129439 0.1350055
-0.033051677 0.046278387 -0.11210949 0.010204571 -0.08533716 -0.15503177 -0.054658726 -0.12960006
-0.15534593 -0.028324082 -0.0581361 -0.015639137 -0.16601275 -0.09903243 -0.10062083 -0.09310034
-0.08767498 -0.181496 0.022541182 -0.18460125 -0.014636064 -0.18160167 -0.15789858 -0.085045494
0.008779231 0.057694364 -0.06421196 -0.05528379 -0.1467029 -0.019233538 0.0925866 0.1301061
00000000: 30e3 3c3c 0485 77bd b24d 9e3d cdc7 cf3d
00000010: 4489 63bd 6c70 1f3d 67a8 5ebd 7b97 963d
00000020: 1327 9a3b f29e 773d 33dc 103d 77c5 89bc
00000030: 7c93 fbbd bc56 9cbd b469 31bc d6a3 2dbc
00000040: 1c74 513d a7cc 603c d3ca 443e a0dc 483d
00000050: e586 25be 2b48 1bbe 6eb3 14bd a62a 16be
00000060: cd14 c4bc 686f 16bd 23c1 81bd 28c1 71bd
00000070: fb78 643d 7e65 25be 25d2 80bd e8c4 993d
00000080: b730 7bbc 76a5 053d 49f3 eebd 0802 703d
00000090: 7c80 a33d 6d18 a63d 6b79 783c 1ce2 ecbc
000000a0: e66e f33d 2d67 783d 7e57 883d 1bfd 883d
000000b0: dbb7 50bd 487e 973c 3b53 01bd 573e d03c
000000c0: bcad e03d 59e2 c73d fce3 b13e 73f2 613d
000000d0: 787a 383d b3e9 41bc 309f 3b3d d684 2a3f
000000e0: 1444 10be 9b1f a8bd 5da7 ae3d ff7b 203e
000000f0: 06d4 c43b 7bc2 bd3d 3dd9 763d 1c89 0a3d
00000100: dd67 53bd eede 843e a59f ea3b 1983 bb3e
00000110: 0e71 d43d 6197 093e a5a5 14bd 6698 b73d
00000120: 9591 64bd dd97 e3bc 8a51 f23d 0e07 abbc
00000130: 54a5 81bd ba20 5a3c 26c9 a63d 7c86 19bd
00000140: 9f0c e13d e6c6 abbc 1f03 3abd 8fd3 2bbd
00000150: 709b cf3d 6990 b53d 6ea9 a43d 55c1 7e3e
00000160: 394b 4b3d 2e9d dd3c 0f16 dfbc 3d30 3c3d
00000170: 67e8 e0b3 9b1d 143b 7161 933d 8b9a 3d3e
00000180: 42e6 643d 6c57 98bc e14c e53c 9cee 2abd
00000190: 84c5 84bd 6f68 c2bd 84c2 023d 6dad 23be
000001a0: a1f7 64bd 5227 4dbc 4d6f a1bd 8fa9 adbd
000001b0: 82b5 d0bd 7b2a f2bd 9ab1 35bd 431a 0c3c
000001c0: 6d4e 963d 5a17 5abd d53e b73d ab21 d43e
000001d0: 0f65 ba3d bcfa e1bd 8221 ee3c 0dfd 2fbd
000001e0: 92bd f4bd 1fa4 5c3d 5c16 dfbd b3de cebd
000001f0: 721a 32bd d3a5 ecbc 24a7 b8bd df5a 8c3e
00000200: 968b 1f3d 525d 56be cb76 c03c 8830 97bd
00000210: 54e5 053d 3baf 0b3e 9ba2 c03d 6c6c c2bc
00000220: 20fa a4bd 96b0 963b 355e e03c dedf 14bd
00000230: e92a d6bd f113 c03c 7063 b1bd 51f5 253d
00000240: dbfb 583d 6de3 fe3c cd72 0fbd 62ff 85bd
00000250: 6bc3 bcbd ae26 12be 644f 0cbe f03b 47bd
00000260: 32c3 64bd 9a6f 36be 07f1 38bc 1e44 42bd
00000270: 3ab9 823c 8be8 f0bd 1509 9abd 3fcd 98bd
00000280: da3f a83d 0f70 99bd d7df f8bd da86 37bd
00000290: 6f92 273d bde8 c6bc efa8 9c3d 75e5 873d
000002a0: cb55 673c 0f36 da3d ca8b 87bd 331a 0abc
000002b0: 09f0 e8bd 05cf c63b 567d b83d 2970 30bd
000002c0: 9a57 c83d cdc4 adbc d9c0 a63d dfeb 93bd
000002d0: 5161 33be bc2f efbd c76f d83c b32b 553e
000002e0: 69c4 efbd 3daa bcbb 4d6f 25bd 1565 d03d
000002f0: a931 733d 8f8e 60bd a231 00be 0ba1 a93d
00000300: 6595 af3c 1bb3 87bc 39b4 93bd 6ad4 963d
00000310: c366 ca3c 7a6d 213c 46c1 193c bd51 223d
00000320: 12ff a9bd 91d7 b03c 5c5e f83d 9d10 623c
00000330: 3ce6 43bd ebe2 b7bc 5bf2 393d 36c1 23bd
00000340: b486 a13d 693e 14be c99a 56bd a7b6 96bd
00000350: 5fde 24be 3729 053d 2884 823d 5496 1b3e
00000360: 432a 12bd d1b0 43bc 1763 95bd dfd5 bc3d
00000370: bf46 67bd 5d50 8abc 5731 053c e23e 0a3e
00000380: 3261 07bd 688e 3d3d a999 e5bd 1331 273c
00000390: 40c5 aebd a6c0 1ebe d4e1 5fbd e1b5 04be
000003a0: 0113 1fbe e807 e8bc 1f20 6ebd a61d 80bc
000003b0: 3fff 29be 84d1 cabd 4b12 cebd 64ab bebd
000003c0: f18e b3bd 16da 39be 49a8 b83c 1c08 3dbe
000003d0: 1acc 6fbc caf5 39be 2ab0 21be 552c aebd
000003e0: c4d6 0f3c ed50 6c3d 8f81 83bd 4171 62bd
000003f0: 4939 16be a78f 9dbc 0b9e bd3d 893a 053e

fc.weight f4 [4, 128]
-0.036378436 0.039245665 0.04664168 -0.05820847 0.064066224 -0.005346434 -0.05538113 -0.031036226
-0.080448195 -0.204885 0.014409523 0.009461978 0.011958966 -0.064519696 -0.053773157 0.11976806
-0.033329867 -0.1173064 0.05976746 0.042115286 -0.010373822 0.02233733 0.018666817 -0.06804418
0.09702496 -0.08239198 0.080821745 -0.10568814 -0.11337832 -0.08327934 -0.09290549 0.084711604
0.081553675 -0.16174187 0.12130279 0.060260452 0.10002894 -0.05875862 0.017041555 -0.04482684
0.09765552 0.13213673 -0.104934335 0.031493776 -0.043898515 0.09996844 0.10697836 -0.06550313
-0.08504296 -0.13235894 0.17771475 0.089556076 0.028513279 0.11294784 -0.055083092 -0.24392587
0.08276894 -0.030819751 0.033686243 -0.068836965 0.027077027 -0.029502312 0.11408347 -0.05243312
-0.0074601984 -0.020970395 0.089340664 0.26677728 0.09690265 0.070113674 -0.008500906 -0.020603346
-0.086691044 -0.036837135 0.07604902 0.08773877 0.027175456 -0.04578364 0.044746846 0.06194101
-0.07544802 0.046635 0.014233147 0.007957433 0.1317578 -0.037421357 -0.0647668 -0.068174675
-0.006637394 -0.11608121 -0.015096339 -0.084498584 0.043562956 -0.045695238 0.15550856 0.09509241
-0.034642197 -0.0684148 -0.10612783 0.023175368 -0.038500663 -0.06405843 -0.032578576 -0.08093832
-0.096215576 -0.130427 0.10593995 -0.020952312 0.08068608 0.038729664 -0.1372876 -0.08974759
0.063065596 -0.00875324 -0.11166741 0.34628448 0.014189051 0.091630965 0.07222075 -0.02423352
0.16938747 -0.0701776 -0.04416849 0.04241572 -0.076049305 0.039685592 0.04469968 -0.016627258
-0.107273005 -0.16312853 0.028572198 -0.054756954 -0.092781216 0.07703251 -0.055270474 -0.050702415
-0.113108054 0.024511999 -0.015088986 0.1113525 0.06632421 -0.07644281 0.022821505 0.030156596
-0.06390091 -0.09699867 0.17487171 -0.17743325 0.0146892825 0.035337657 -0.07681658 0.0036633804
0.028977184 -0.0901893 -0.0066363304 -0.007831056 -0.117576264 -0.03632948 0.008786033 0.053150035
-0.049534395 -0.05916387 0.035187338 0.13177043 0.028011352 -0.09962237 0.03413729 0.042214427
0.047493502 0.11966886 -0.07655455 0.07867145 -0.10399592 -0.042128608 0.027949309 0.025363272
-0.123969816 -0.01244514 0.04444343 0.13888444 0.008418503 0.035509504 -0.021293733 -0.09277615
0.034676522 -0.109109856 -0.11430005 -0.12119764 0.08530192 0.0996211 -0.07540519 -0.101212464
-0.11369205 -0.17891121 0.108974464 -0.13517775 -0.11406543 0.07960919 -0.112332135 -0.08457248
0.016494723 -0.024680533 0.05218641 0.033683985 -0.029882656 -0.03557555 0.10316123 0.004915831
-0.077361345 0.06911472 -0.033763744 -0.0638551 0.15019517 -0.046852104 -0.03161911 0.0320413
0.096153334 -0.09977056 0.11771278 -0.1104554 0.04283508 -0.030630937 0.1450404 0.13050981
0.09583957 0.034335468 0.044908833 0.073985085 0.11934226 -0.05530633 -0.038232245 -0.08407472
-0.2331748 0.009532732 -0.029535506 -0.020711627 -0.09752985 0.006047456 0.002105281 -0.10638336
-0.09408537 -0.12644415 -0.05782738 0.052797206 -0.123614624 0.0023140889 -0.1197559 -0.06599987
-0.05728951 -0.056031432 -0.031414274 0.09059244 -0.03384905 0.078178704 -0.040572353 0.0023378048
00000000: 8e01 15bd 10c0 203d 590b 3f3d 016c 6ebd
00000010: 2735 833d 2431 afbb 53d7 62bd af3f febc
00000020: 06c2 a4bd 60cd 51be ec15 6c3c 6a06 1b3c
00000030: 8aef 433c e722 84bd 3e41 5cbd f548 f53d
00000040: e684 08bd 563e f0bd b9ce 743d 1481 2c3d
00000050: f7f6 29bc c7fc b63c 27eb 983c bf5a 8bbd
00000060: 06b5 c63d 20bd a8bd df85 a53d 0673 d8bd
00000070: e532 e8bd 5c8e aabd 3c45 bebd 477d ad3d
00000080: 9d05 a73d a99f 25be 996d f83d aad3 763d
00000090: f9db cc3d e1ac 70bd bb9a 8b3c 599c 37bd
000000a0: 9eff c73d da4e 073e d0e7 d6bd 9eff 003d
000000b0: eece 33bd 41bc cc3d 7817 db3d 8126 86bd
000000c0: 012b aebd 1a89 07be dbfa 353e 2d69 b73d
000000d0: ae94 e93c 3251 e73d cf9e 61bd b4c7 79be
000000e0: c382 a93d b479 fcbc 96fa 093d 65fa 8cbd
000000f0: a4d0 dd3c d5ae f1bc 98a4 e93d 1cc4 56bd
00000100: ae74 f4bb 1bca abbc 3df8 b63d 0897 883e
00000110: e674 c63d c297 8f3d 6247 0bbc 59c8 a8bc
00000120: 138b b1bd 89e2 16bd 97bf 9b3d 62b0 b33d
00000130: 109f de3c a087 3bbd 7848 373d dbb5 7d3d
00000140: 7e84 9abd 5704 3f3d 2532 693c e55f 023c
00000150: 84eb 063e 2347 19bd 75a4 84bd 2a9f 8bbd
00000160: 7f7e d9bb fcbb edbd a356 77bc 980d adbd
00000170: 126f 323d ee2a 3bbd a33d 1f3e cfbf c23d
00000180: fae4 0dbd 0f1d 8cbd 8c59 d9bd 45da bd3c
00000190: dfb2 1dbd 1131 83bd 1d71 05bd fdc2 a5bd
000001a0: ac0c c5bd a88e 05be 0bf7 d83d 2fa4 abbc
000001b0: be3e a53d ffa2 1e3d 1f95 0cbe 96cd b7bd
000001c0: 8928 813d c069 0fbc e2b1 e4bd 334c b13e
000001d0: 3279 683c 04a9 bb3d 79e8 933d 6085 c6bc
000001e0: e973 2d3e 46b9 8fbd 05ea 34bd 1bbc 2d3d
000001f0: bdbf 9bbd 5c8d 223d 0317 373d e335 88bc
00000200: f3b1 dbbd 2a0b 27be 3e10 ea3c d448 60bd
00000210: 1404 bebd 38c3 9d3d 4b63 62bd 56ad 4fbd
00000220: 32a5 e7bd 63cd c83c cb37 77bc c80c e43d
00000230: fdd4 873d 0c8e 9cbd 2af4 ba3c f70a f73c
00000240: 7bde 82bd 3da7 c6bd 9211 333e 10b1 35be
00000250: 51ab 703c 38be 103d 0352 9dbd 5315 703b
00000260: 8f61 ed3c 2bb5 b8bd 9375 d9bb d44d 00bc
00000270: d3cb f0bd 39ce 14bd 4bf3 0f3c dab3 593d
00000280: 94e4 4abd d055 72bd 9920 103d d4ee 063e
00000290: 1078 e53c d006 ccbd 8bd3 0b3d 09e9 2c3d
000002a0: 8c88 423d f314 f53d a2c8 9cbd 7f1e a13d
000002b0: d0fb d4bd 0c8f 2cbd f3f5 e43c a3c6 cf3c
000002c0: e3e3 fdbd b3e6 4bbc 500a 363d b937 0e3e
000002d0: c3ed 093c 6a72 113d 3270 aebc 6c01 bebd
000002e0: f808 0e3d fd74 dfbd 2516 eabd 7836 f8bd
000002f0: c6b2 ae3d 2606 cc3d 096e 9abd 7b48 cfbd
00000300: 61d7 e8bd 8034 37be 012e df3d 096c 0abe
00000310: 239b e9bd 250a a33d 640e e6bd 5634 adbd
00000320: f11f 873c d42e cabc 6bc1 553d 38f8 093d
00000330: 79cc f4bc abb7 11bd 3246 d33d fb14 a13b
00000340: a06f 9ebd 058c 8d3d da4b 0abd 76c6 82bd
00000350: c3cc 193e fee7 3fbd 0a83 01bd bd3d 033d
00000360: 0aec c43d 8254 ccbd 6613 f13d 7136 e2bd
00000370: d673 2f3d bbed fabc 7885 143e 5da4 053e
00000380: 8947 c43d 59a3 0c3d 53f2 373d 7e85 973d
00000390: b769 f43d e488 62bd 6a99 1cbd 5e2f acbd
000003a0: 60c5 6ebe 2d2f 1c3c 72f4 f1bc 6eab a9bc
000003b0: bbbd c7bd bd29 c63b c1f8 093b 85df d9bd
000003c0: d5af c0bd 937a 01be 67dc 6cbd e241 583d
000003d0: aa29 fdbd f8a7 173b 9542 f5bd f12a 87bd
000003e0: 68a8 6abd 3781 65bd 41ac 00bd 8788 b93d
000003f0: 4da5 0abd 281c a03d 322f 26bd db35 193b

fc.bias f4 [4]
0.1972836 0.08612297 0.17499125 0.16023575
00000000: b604 4a3e 3d61 b03d e830 333e d714 243e
