lstm_hdim_128_wsize_20_interval_7_nlayers_1_bs_512_lr_0.01_decay_0.95_epoch_42.pt (torch, 277987 bytes, 6 tensors)

lstm.weight_ih_l0 f4 [512, 4]
0	0xbd88a904	-0.06672862
1	0xbc1da7f1	-0.00962256
2	0xbe2f8860	-0.17141867
3	0x3e38e938	0.18057716
4	0xbf0909b7	-0.5353045
5	0x3ebdc891	0.37067083
6	0xbece8ef4	-0.4034344
7	0x3e77abcb	0.24186628
8	0xbe31d888	-0.17367756
9	0xbdf42d68	-0.11922723
10	0x3d130531	0.035893623
11	0x3d55c422	0.052189
12	0xbdf5f1fb	-0.12009045
13	0xbce20c38	-0.027593717
14	0x3e4344ec	0.1906926
15	0xbdef39a2	-0.116809145
16	0xbc8798da	-0.016552377
17	0xbdb544c8	-0.088510096
18	0xbe854c4c	-0.26034772
19	0x3e45739b	0.19282381
20	0xbe5c4734	-0.21511537
21	0xbc2a2d13	-0.010386723
22	0x3cdc0d57	0.02686183
23	0x3e18d7bb	0.14926045
24	0xbdc8554f	-0.09781896
25	0xbda3e664	-0.08002928
26	0xbcaad0c8	-0.020851508
27	0xbdf12208	-0.11774069
28	0xbd579ea7	-0.052641537
29	0xbdef0f76	-0.11672871
30	0xbb9cf934	-0.0047904495
31	0xbe4e784a	-0.20163074
32	0x3e268223	0.1626058
33	0x3e7a3679	0.24434842
34	0xbe0f2fbb	-0.13983051
35	0xbdb9ceca	-0.09072645
36	0xbf1c934c	-0.6116226
37	0x3de5786a	0.11204608
38	0xbf51267f	-0.81699365
39	0x3e6b0c72	0.22953966
40	0xbe59ea32	-0.21280745
41	0xbe689862	-0.2271438
42	0xbd31693f	-0.04331326
43	0xbe7966e3	-0.24355654
44	0xbbdc3038	-0.0067196153
45	0x3ce140cc	0.027496718
46	0x3e15e776	0.14639077
47	0x3e50897d	0.20364948
48	0xbdfdcc7b	-0.12392517
49	0xbd9e4486	-0.077279136
50	0xbfa6713a	-1.3003304
51	0xc01d6b63	-2.4596794
52	0xbd9bb53b	-0.07602926
53	0x3df0efd1	0.11764491
54	0xbcd95f1f	-0.026534615
55	0xbe47ce74	-0.1951235
56	0xbe3c3cad	-0.18382521
57	0x3e1b0fd7	0.15142761
58	0xbf2f9a07	-0.685944
59	0xbf3aa6f6	-0.7291101
60	0x3e4b9b9f	0.19883583
61	0xbb48caeb	-0.0030638527
62	0xbe671a4a	-0.22568622
63	0x3dad32a6	0.08456926
64	0x3ca0117a	0.019539583
65	0xbd9f64a5	-0.07782868
66	0xbda6614b	-0.08124026
67	0xbf2b82fc	-0.6699674
68	0x3e0a6147	0.13513671
69	0x3e0da92f	0.1383407
70	0x3e082f74	0.13299352
71	0xbcb1cd1c	-0.02170425
72	0x3e4de5ac	0.20107144
73	0x3f1c521d	0.61062795
74	0xc0cf732c	-6.482809
75	0xc00725a2	-2.111672
76	0xbee6b4f1	-0.45059922
77	0xbee440cb	-0.44580683
78	0x402df813	2.7182662
79	0x4069c72c	3.6527815
80	0xbe816af5	-0.25276914
81	0xbe829ba4	-0.2550937
82	0x3e510ae9	0.20414318
83	0xbf292507	-0.66072124
84	0xbd13da86	-0.036097072
85	0xbd2a835d	-0.041629184
86	0xc00bdf75	-2.1855137
87	0xbf899523	-1.0748638
88	0xbefc868f	-0.4932141
89	0xbcd7c497	-0.026338859
90	0xbb8b222e	-0.004246018
91	0x3e17d3d7	0.14826904
92	0xbe77380a	-0.24142471
93	0xbe3cb91f	-0.18429993
94	0xbe982832	-0.29718167
95	0xbec1c56e	-0.3784594
96	0x3d795980	0.06087637
97	0xbe48e09d	-0.19616933
98	0xbda5ec3a	-0.08101697
99	0x3e70da9c	0.23520893
100	0xbd7a4c0f	-0.06110769
101	0xbe05d712	-0.13070324
102	0x3e9c3c34	0.3051468
103	0x4009e1cb	2.1544063
104	0x3cdcb8b3	0.02694354
105	0xbe52bfb1	-0.20580937
106	0xbe40d70a	-0.18832031
107	0x3e8a5e19	0.27024916
108	0x3ec959a9	0.39326218
109	0xbc0e1444	-0.008671824
110	0xbe24d7cf	-0.1609795
111	0xbd0e347c	-0.03471802
112	0x3dc2b3b5	0.09506933
113	0x3e2822f8	0.1641959
114	0x3de0fc72	0.1098565
115	0x3e1b3a1b	0.15158884
116	0xbe41e2b4	-0.18934137
117	0xbede8cba	-0.4346674
118	0xbefee360	-0.49782848
119	0x3ee4f47d	0.4471778
120	0x3d8f9c23	0.070122026
121	0xbe148417	-0.14503513
122	0x3e7f7f83	0.24950986
123	0xbe81ed72	-0.2537647
124	0x3e0648c8	0.13113701
125	0x3d946b90	0.072470784
126	0xbd3d4fbb	-0.046218615
127	0xbd201fdd	-0.039092887
128	0x3d8eba11	0.06969083
129	0xbb1ae269	-0.0023633486
130	0x3e7ed998	0.24887693
131	0x3e3930c7	0.18085013
132	0x3e1078f9	0.14108647
133	0xbe16c161	-0.14722206
134	0xbeedee2f	-0.46470782
135	0xbef33f1b	-0.47509083
136	0x3e60f167	0.21967088
137	0x3ba57418	0.00504924
138	0x3e1f2110	0.15539956
139	0xbfcf2c25	-1.6185347
140	0xbd48190a	-0.048852004
141	0x3d050c93	0.032482695
142	0x3d5751ab	0.05256812
143	0xbd69c73e	-0.057074778
144	0x3e17d172	0.14825991
145	0xbdb0a22d	-0.086246826
146	0xbd42ff7c	-0.04760693
147	0xbe8fe91a	-0.2810753
148	0xbae6c5df	-0.0017606578
149	0x3e0ec593	0.13942556
150	0x3e600d09	0.21879973
151	0x3e02b170	0.12763
152	0xbc89d41d	-0.016824776
153	0x3c35fcf6	0.011107674
154	0xbe7daa86	-0.24772081
155	0x3e3e81b6	0.18604168
156	0xbddefc57	-0.10887974
157	0xbd73c2ca	-0.059511937
158	0x3e2dbe76	0.16967186
159	0xbe6c3e44	-0.23070627
160	0x3e2d5359	0.16926326
161	0xbdce308d	-0.10067854
162	0xbee5e285	-0.44899383
163	0xbe722290	-0.23645997
164	0x3e39ca28	0.18143523
165	0x3e6204aa	0.22072092
166	0x3d94362c	0.07236895
167	0x3cb79424	0.022409506
168	0x3d9b206c	0.07574543
169	0x3e080b09	0.1328546
170	0xbe7576e1	-0.2397113
171	0xbcaca1db	-0.021073272
172	0xbd5ce13c	-0.053925738
173	0x3d786962	0.060647376
174	0x3d4e7ccb	0.05041198
175	0xbddb5c9c	-0.10711023
176	0xbeac7f77	-0.33690998
177	0xbdf24316	-0.11829202
178	0xbe4548e7	-0.19266091
179	0xbebd6d4e	-0.36997455
180	0xbf0a1a63	-0.5394651
181	0x3ddc1d99	0.10747833
182	0x3f3fabfe	0.74871814
183	0xbfa9c2a9	-1.326253
184	0x3d8d9f56	0.069151565
185	0x3c8f1c76	0.017469626
186	0xbe6599dd	-0.22421975
187	0x3dd8b1c4	0.10580781
188	0xbd98a8fc	-0.07454106
189	0xbebb4b98	-0.3658111
190	0xbe0a9a56	-0.13535437
191	0xbe580fe2	-0.21099809
192	0x3e097a87	0.13425647
193	0x3e782204	0.24231726
194	0xbe9c22f7	-0.30495426
195	0x3d9734f3	0.07383146
196	0x3ea79da9	0.32737473
197	0xbe537a0b	-0.20652024
198	0xbd7aa161	-0.06118906
199	0xbccefff1	-0.025268527
200	0x3dd76c8d	0.10518751
201	0x3e200b81	0.15629388
202	0x3e1a12c9	0.15046228
203	0xbef0c5ee	-0.47026008
204	0xbd3c6514	-0.045994833
205	0x3dd5d494	0.10440937
206	0xbf154594	-0.5830929
207	0xbedbf5c1	-0.42960933
208	0xbdaf79df	-0.08568167
209	0xbea4098f	-0.32038543
210	0x3db3718a	0.0876189
211	0x410078cf	8.029494
212	0x3d4bac5e	0.04972493
213	0xbd7001ca	-0.058595456
214	0xbf87d0f5	-1.0610644
215	0xbf1cb08b	-0.61206883
216	0x3dfcbd1e	0.12340759
217	0x3ddef4ed	0.1088656
218	0xbdb6c2bf	-0.089238636
219	0xbbaf7575	-0.005354578
220	0xbdad6a90	-0.08467591
221	0xbe053ffe	-0.13012692
222	0x400209e9	2.0318549
223	0x3ef4a86b	0.47784743
224	0xbe076308	-0.13221371
225	0xbebfe2b0	-0.37477636
226	0xbcf613fb	-0.030038824
227	0xbef6fffd	-0.4824218
228	0xbe9fad67	-0.31186983
229	0x3e207e6d	0.15673228
230	0xbe036058	-0.12829721
231	0xbe9f1efc	-0.31078327
232	0xbebf846a	-0.3740571
233	0xbe83ba31	-0.2572799
234	0x3d502815	0.050819475
235	0xbd255b83	-0.040370476
236	0x3b749523	0.0037320338
237	0x3e1e55c6	0.15462407
238	0xbe7c671c	-0.24648708
239	0xbe2f8dfc	-0.17144006
240	0xbda1b2b0	-0.0789541
241	0xbe5ebfe0	-0.21752882
242	0xbf04da3b	-0.51895493
243	0x3e6373b4	0.22212106
244	0xbdf01693	-0.11723056
245	0x3e761070	0.24029708
246	0x3debd1f5	0.115146555
247	0x3e306418	0.17225683
248	0xbf15be27	-0.58493274
249	0xbe246942	-0.16055778
250	0x3ee45e4c	0.44603193
251	0xbc312d6e	-0.010814054
252	0xbdcc8505	-0.09986309
253	0x3d902133	0.07037582
254	0x3d0a9e74	0.03384252
255	0xbe1bb2b9	-0.15204896

lstm.weight_hh_l0 f4 [512, 128]
0	0xbae2e958	-0.0017311973
1	0xbe8e6b48	-0.27816224
2	0x3ac0c1a0	0.0014706142
3	0x3dd4269e	0.10358928
4	0x3ec301b0	0.38087225
5	0x3d9d90b0	0.076936126
6	0xbb21f75e	-0.0024714093
7	0x3d717b92	0.058955736
8	0x3d4c3fa4	0.04986538
9	0x3ef8b207	0.48573324
10	0xbe21047f	-0.15724371
11	0xbd9d49c0	-0.07680082
12	0x3f0e4933	0.55580443
13	0x3e5b489a	0.21414414
14	0xbd641685	-0.05568554
15	0xbcce5460	-0.025186718
16	0xbd05308c	-0.032517
17	0x3d28edbe	0.041242354
18	0xbf3e05aa	-0.7422739
19	0x3fbd8ca8	1.480855
20	0x3eeaafde	0.458373
21	0x3ecd2e1d	0.40074244
22	0xbd084fac	-0.033279106
23	0xbe83ed25	-0.25766864
24	0x3d1cc22b	0.03827111
25	0xbe14e76d	-0.14541407
26	0xbd3575b6	-0.04430171
27	0xbdd76ac0	-0.10518408
28	0xbc916066	-0.017746162
29	0x3c9d30f7	0.019188387
30	0xbc01df21	-0.007926733
31	0xbd2233d1	-0.039600197
32	0xbdd0d7c0	-0.10197401
33	0xbe34d48e	-0.17659208
34	0xbf21ec87	-0.6325154
35	0xbcf45a1f	-0.02982813
36	0x3c981e15	0.018569032
37	0x3d45de46	0.04830768
38	0x3d01ed13	0.031720232
39	0xbe43762f	-0.19088052
40	0xbdf0a6e4	-0.11750582
41	0x3e02a205	0.12757118
42	0x3d88137e	0.06644343
43	0xbdf98825	-0.12184171
44	0x3e0197c1	0.12655546
45	0xbda2bfb9	-0.079467244
46	0x3d8638b2	0.065537825
47	0x3d0d3575	0.03447481
48	0xbd9e9ba9	-0.077445336
49	0x3c998dab	0.01874431
50	0xbf0949a6	-0.53628004
51	0xbe8e52dc	-0.27797592
52	0xbf669ee6	-0.9008621
53	0xbdd6ce77	-0.10488599
54	0xbe40e270	-0.18836379
55	0xbc81f051	-0.015861662
56	0xbe582bb6	-0.21110424
57	0x3e56a554	0.20961505
58	0xbf0366a1	-0.51328474
59	0x3c41dc92	0.011832373
60	0xbe789554	-0.24275714
61	0x3d4e5122	0.050370343
62	0x3d0f9214	0.03505142
63	0x3c0ffca1	0.008788259
64	0x3ece2e38	0.40269637
65	0x3eb28d70	0.34873533
66	0x3c29a120	0.010353357
67	0xbbb5292f	-0.005528591
68	0xbe880cb7	-0.265722
69	0x3e47efbd	0.19525047
70	0x3e025ad1	0.12729956
71	0x3db76682	0.08955099
72	0xbe4a460f	-0.19753288
73	0x3ddd694e	0.10811101
74	0x3f00bf4e	0.5029191
75	0xbe04f395	-0.12983544
76	0x3ccb8556	0.024843853
77	0xbafb66f5	-0.0019180464
78	0xbe881649	-0.26579502
79	0xbd38a642	-0.04508043
80	0xbca94e40	-0.020667195
81	0x3ed348ea	0.41266567
82	0xbea608d2	-0.32428604
83	0x3da0dba9	0.07854397
84	0x3f0c468b	0.5479514
85	0x3de46387	0.11151796
86	0xbd576828	-0.052589566
87	0xbdbdad93	-0.09261622
88	0xbd641235	-0.055681426
89	0x3e6e07f6	0.23245224
90	0xbdd9334f	-0.106054895
91	0xbd623cae	-0.05523365
92	0xbe0b87c6	-0.13626012
93	0x3de92acf	0.11385118
94	0x3d7981b5	0.060914714
95	0x3daba8c0	0.08381796
96	0xbe3bc385	-0.18336304
97	0x3d9755d0	0.07389414
98	0xbe85f50c	-0.26163518
99	0xbd68f555	-0.05687459
100	0xbde3cc1d	-0.11122916
101	0xbea24d51	-0.31699613
102	0xbdda231a	-0.10651226
103	0xbdd45953	-0.103686
104	0x3dcbf08c	0.0995799
105	0x3cca8f53	0.024726545
106	0x3f00119b	0.50026864
107	0x3dee9f47	0.116514735
108	0x3eeaacc1	0.45834926
109	0xbe71fe57	-0.23632179
110	0xbe653e58	-0.22387064
111	0xbe194b17	-0.14970051
112	0x3dabf70e	0.08396731
113	0xbc8642d2	-0.016389284
114	0x3e14e4f3	0.14540462
115	0xbe6b7b80	-0.2299633
116	0x3db0f40c	0.08640298
117	0xbd6c54c5	-0.05769803
118	0x3e1df871	0.15426804
119	0xbeb6d68b	-0.35710558
120	0x3e7a4191	0.24439074
121	0x3ea8ee51	0.3299432
122	0xbc692e68	-0.0142322555
123	0xbe007a83	-0.12546735
124	0x3db352e7	0.08756047
125	0x3f30e41a	0.69098055
126	0x3e201e9f	0.15636681
127	0x3f8be15b	1.0928148
128	0x3eacbaaa	0.33736163
129	0xbf8d8ad9	-1.1057998
130	0xbf3391c8	-0.7014432
131	0x3ed1b287	0.40956518
132	0x3e34753c	0.17622846
133	0xbeacdae4	-0.3376075
134	0x3f18e01a	0.5971695
135	0x3ea95d2d	0.330789
136	0x3f13255c	0.5747888
137	0xbf06c4ba	-0.5264393
138	0xbf2a675a	-0.6656395
139	0x3f230326	0.6367668
140	0xbfc07b40	-1.5037613
141	0x3f121670	0.57065487
142	0xbec4c40c	-0.38430822
143	0xbea60549	-0.32425907
144	0x3ece5812	0.40301567
145	0x3f0979aa	0.5370127
146	0xbfa5a6d5	-1.2941538
147	0x3e7b65ae	0.24550506
148	0xbdc60876	-0.096695825
149	0x3f29a31f	0.6626453
150	0xbc35a14f	-0.011085822
151	0xbf28b894	-0.65906644
152	0xbeef9152	-0.46790558
153	0xbe41b6e4	-0.18917423
154	0x3e8decd1	0.2771974
155	0x3f84c0d7	1.037135
156	0x3ed526f8	0.41631293
157	0xbe26814e	-0.16260263
158	0x3f5ab458	0.8543143
159	0xbe7aa4eb	-0.24476974
160	0xbfe4090e	-1.7815263
161	0x3ec3704d	0.38171616
162	0xbf932f1e	-1.1498754
163	0xbe94343f	-0.2894611
164	0xbf0eee84	-0.55832696
165	0x3f35eed5	0.71067554
166	0x3ea354aa	0.3190053
167	0xbfd5c5b3	-1.6700958
168	0xbe9c3767	-0.3051102
169	0xbf23d918	-0.64003134
170	0x3eb4a708	0.35283685
171	0xbe8db2f0	-0.2767558
172	0x3e2d6b68	0.16935503
173	0x3f048585	0.51766235
174	0xbe6f3646	-0.23360547
175	0xbe9e692e	-0.3093962
176	0x3ed29af6	0.4113385
177	0x3efddbd2	0.49581772
178	0x3f98dbab	1.1942037
179	0x3de64ba6	0.112448975
180	0x3f838da5	1.0277601
181	0xbedfaaa6	-0.43684882
182	0xbee7c6a3	-0.45268735
183	0xbf354d20	-0.7082081
184	0x3ec1decd	0.37865296
185	0xbc2d48a6	-0.010576403
186	0xbf6b397c	-0.9188459
187	0x3f0d1c30	0.55121136
188	0xbeb7c022	-0.35888773
189	0xbe5f9ebe	-0.21837899
190	0x3f2a18e2	0.6644422
191	0x3ee12db2	0.43980175
192	0xbe8ed4f9	-0.2789686
193	0xbe514318	-0.2043575
194	0xbe8e70ac	-0.27820337
195	0xbf4990a6	-0.7873634
196	0x3f2ad9f5	0.66738826
197	0xbd5da12e	-0.05410879
198	0x3eafa8fe	0.34308618
199	0x3f2ee9b1	0.68325335
200	0x3e362aed	0.17789812
201	0xbe34d6de	-0.1766009
202	0xbf24ed51	-0.64424616
203	0x3ebdfa2c	0.37104928
204	0xbdbb4b80	-0.0914526
205	0x3e9c31ad	0.3050665
206	0xbef031ac	-0.46912897
207	0xbef1898c	-0.47175252
208	0x3ed0ef90	0.40807772
209	0x3f47b5cd	0.7801178
210	0xbf3e20b2	-0.7426864
211	0x3d5f577b	0.054526787
212	0xbf4ad906	-0.792374
213	0x3e1a40f8	0.15063846
214	0x3e6fac11	0.23405482
215	0xbf17a929	-0.5924249
216	0xbed1c412	-0.40969902
217	0x3f96dbbd	1.1785809
218	0xbf9d1a83	-1.2273716
219	0x3f228aa3	0.6349279
220	0xbf06bdb5	-0.5263322
221	0xbc14ea76	-0.009089103
222	0xbf261fdc	-0.64892364
223	0xbf2b7a01	-0.6698304
224	0xbf82d780	-1.0222015
225	0x3f126753	0.5718891
226	0xbf198b93	-0.599786
227	0x3c89da2f	0.01682767
228	0x3f87581e	1.0573766
229	0xbdd44086	-0.10363869
230	0xbfa85c78	-1.3153219
231	0xbcff5944	-0.031170495
232	0xbdd5f701	-0.10447503
233	0x3f07b383	0.5300829
234	0x3e10a56c	0.14125603
235	0xbc67dda7	-0.014151967
236	0x3df9a873	0.12190332
237	0x3f6a6825	0.9156516
238	0xbf5c22de	-0.85990703
239	0x3eddedfe	0.43345636
240	0x3f391cb1	0.72309405
241	0xbee71dc4	-0.45139897
242	0x3f49f19d	0.788843
243	0xbfb9b629	-1.4508716
244	0x3ef6708e	0.48132747
245	0x3e58d644	0.21175486
246	0xbda553e0	-0.080726385
247	0x3f3e6a94	0.74381375
248	0x3f526312	0.8218242
249	0xbdbcf549	-0.09226472
250	0x3d6ddf71	0.05807442
251	0xbf35cdea	-0.71017325
252	0x3d463d5f	0.04839837
253	0x3e6570f3	0.22406368
254	0xbcacb9ec	-0.021084748
255	0xbf1586c7	-0.5840878

lstm.bias_ih_l0 f4 [512]
0	0xbddbf0cf	-0.1073929
1	0x3ddebee3	0.108762525
2	0xbe63076c	-0.221708
3	0xbe32d1a0	-0.17462778
4	0xbcefdb38	-0.029279336
5	0xbd92334e	-0.07138692
6	0xbccddcaf	-0.025129644
7	0xbda89a4f	-0.08232557
8	0xbc2ea60c	-0.010659706
9	0x3e22b0c5	0.15887745
10	0xbe195766	-0.14974746
11	0xbd8d8715	-0.069105305
12	0xbe78f65d	-0.2431273
13	0xbbbc2a37	-0.005742337
14	0xbe3d328b	-0.18476312
15	0xb7d346fe	-2.5186218e-05
16	0xbd10aed9	-0.035322998
17	0x3cfe55ab	0.031046709
18	0x3f067378	0.5251994
19	0xbe657fa7	-0.22411977
20	0xbe55ccd4	-0.20878917
21	0xbdac2cea	-0.08407004
22	0xbe0ade4e	-0.13561365
23	0xbe34d8ff	-0.17660902
24	0xbd1485f8	-0.036260575
25	0xbe916293	-0.2839552
26	0xbdff7ae0	-0.124746084
27	0x3dbd8baa	0.092551544
28	0xbd0fddce	-0.03512364
29	0xbec984fd	-0.39359275
30	0xbe72a00a	-0.23693863
31	0x3d71fb8b	0.05907778
32	0xbdd7224f	-0.10504591
33	0xbe395458	-0.18098581
34	0x3d961b88	0.0732947
35	0xbe19b251	-0.15009429
36	0xbdd18c0e	-0.102317914
37	0xbd85433f	-0.06506967
38	0xbe0dd130	-0.1384933
39	0xbe0f0ed5	-0.13970502
40	0xbccdd5a1	-0.02512628
41	0x3beff469	0.007322837
42	0xbe11d5e4	-0.14241749
43	0xbd380678	-0.044928044
44	0xbd9d17bc	-0.076705426
45	0xbd1e1da2	-0.03860248
46	0xbe19fa1c	-0.15036815
47	0xbe9a8a9c	-0.30183876
48	0xbd8b8ab5	-0.06813566
49	0x3d4462a3	0.04794563
50	0x3d772c2f	0.06034487
51	0xbd4b7c08	-0.049678832
52	0xbdb31745	-0.08744673
53	0xbce9db98	-0.028547093
54	0xbcf2dd76	-0.029646616
55	0xbe53408a	-0.20630088
56	0xbe09f3e3	-0.13471942
57	0xbe4ef668	-0.20211184
58	0xbebdea31	-0.37092736
59	0x3d128a64	0.03577651
60	0xbdc1e09b	-0.09466668
61	0xbc710100	-0.014709711
62	0xbe390a49	-0.1807033
63	0xbe1f6ef2	-0.15569666
64	0x3e1afbde	0.15135142
65	0x3eab572b	0.3346494
66	0x3e3b86da	0.1831316
67	0x3f202d11	0.62568766
68	0x3e9458c3	0.2897397
69	0xbd9c41d8	-0.07629746
70	0xbe295d7b	-0.16539566
71	0xbd731052	-0.059341736
72	0xbe27986e	-0.16366741
73	0xbe0f66f5	-0.14004119
74	0xbcb4b2c1	-0.022057893
75	0xbce97160	-0.028496444
76	0xbd661354	-0.056170776
77	0xbe228aba	-0.15873232
78	0xbda120a6	-0.07867555
79	0xbe161c30	-0.1465919
80	0xbd7f4d87	-0.062329795
81	0xbd5598c2	-0.052147634
82	0xbde02204	-0.10943988
83	0x3cbce09f	0.023056326
84	0xbd0a5d13	-0.03378017
85	0xbdd002c2	-0.10156776
86	0xbcb5d481	-0.022196056
87	0xbe8efa29	-0.27925232
88	0xbe054b6d	-0.13017054
89	0xbe597d7a	-0.21239272
90	0xbdd15703	-0.10221674
91	0x3d24ac39	0.040203307
92	0xbe862762	-0.26201922
93	0xbe0ca20e	-0.13733694
94	0xbd376f22	-0.04478372
95	0x3723859e	9.746667e-06
96	0x3c9fef09	0.01952316
97	0xb9877d1d	-0.00025842423
98	0x3d2125ea	0.0393428
99	0xbe786396	-0.24256739
100	0xbcef411e	-0.029205855
101	0xbe360283	-0.17774396
102	0xbd95a79d	-0.0730736
103	0xbe8bc3d3	-0.2729784
104	0xbd991417	-0.07474535
105	0xbe072aa4	-0.1319986
106	0xbdb24341	-0.08704234
107	0xbd618d41	-0.05506635
108	0xbe18c712	-0.1491969
109	0xbcf8bec3	-0.0303644
110	0xbdf5ce44	-0.12002233
111	0x3d8540d6	0.06506507
112	0xbd9edaf9	-0.077566095
113	0x3d1ee278	0.038790196
114	0xbe12e2d7	-0.14344345
115	0x3e8c6dae	0.2742743
116	0xbd1497fc	-0.036277756
117	0xbec196f5	-0.37810484
118	0x3e5651b5	0.20929606
119	0xbbcc1969	-0.006228615
120	0x3f27ed59	0.6559654
121	0xbe19766f	-0.14986585
122	0xbe81e059	-0.25366476
123	0xbd148922	-0.036263593
124	0xbe5fc551	-0.21852614
125	0x3c0e5f6e	0.008689744
126	0xbe1cd973	-0.15317325
127	0x3d983d7d	0.07433603
128	0xbe0a7c4b	-0.13523977
129	0xbe44dfec	-0.19226044
130	0xbdbe06a1	-0.09278608
131	0x3db2db1f	0.087332
132	0xbd70029d	-0.058596242
133	0x3dce1904	0.10063365
134	0x3d6c0ffc	0.05763243
135	0xbddf656c	-0.109080166
136	0x3d4a8c35	0.049450118
137	0x3dda6dd7	0.106654815
138	0xbdfa32bd	-0.12216709
139	0xbdec9a3d	-0.11552856
140	0xbea5f063	-0.32409963
141	0xbe05af32	-0.13055113
142	0x3e40fa90	0.18845582
143	0xbc1f929f	-0.009739547
144	0xbe1fa674	-0.1559084
145	0x3c1c44b4	0.0095378645
146	0xbe27ebfc	-0.16398615
147	0x3daa8e03	0.08327868
148	0xbd92f1c3	-0.07175019
149	0xbe2caec8	-0.16863549
150	0xbe312772	-0.17300203
151	0xbd08e652	-0.033422776
152	0x3c1e587c	0.009664651
153	0xbddb152b	-0.10697397
154	0xbd7c7b4a	-0.061641015
155	0xbd014f2f	-0.031569656
156	0xbce0a2d6	-0.027421396
157	0xbe8b8635	-0.2725083
158	0xbd6ab142	-0.057297952
159	0xbdb44c3a	-0.088036016
160	0x3e14f10b	0.14545076
161	0xbeb2d420	-0.34927464
162	0x3dffeb1e	0.12496017
163	0x3cac407e	0.021026846
164	0x3c9406e4	0.018069692
165	0xbd41d08a	-0.04731802
166	0x3da0ca84	0.07851127
167	0xbd82f78d	-0.06394873
168	0xbdb19b84	-0.086722404
169	0xbcc289e7	-0.023747398
170	0x3db93a45	0.09044317
171	0x3ca2e231	0.019883247
172	0xbe30cbd2	-0.17265251
173	0x3c8a9fee	0.016921964
174	0xbd5e2182	-0.054231174
175	0xbdafde78	-0.085873544
176	0xbd86e66c	-0.06586918
177	0x3a02f258	0.00049952185
178	0x3d98c9fc	0.074604005
179	0xbd3e2a1c	-0.046426877
180	0xbe10dc2a	-0.14146486
181	0xbe4008b6	-0.18753323
182	0xbca88df4	-0.020575501
183	0xbd8860e4	-0.066591054
184	0xbe433bfc	-0.19065851
185	0xbd035021	-0.03205884
186	0x3f02d2c0	0.5110283
187	0xbd2dfde3	-0.042478453
188	0xbd5b7322	-0.053576596
189	0xbce80989	-0.02832486
190	0xbe4255da	-0.18978062
191	0x3c427803	0.011869433
192	0xbe582088	-0.2110616
193	0x3d72c743	0.059272062
194	0xbe5025f5	-0.2032698
195	0xbdff8fc9	-0.12478597
196	0x3e0e806f	0.13916181
197	0x3d360e81	0.044447426
198	0x3d9dcfba	0.07705636
199	0xbb42dcf8	-0.0029733758
200	0x3e6545f1	0.22389962
201	0xbb729385	-0.0037014198
202	0x3e417c06	0.18894967
203	0x3de14b83	0.11000731
204	0xbdbab6be	-0.091168866
205	0xbc223503	-0.009900334
206	0xbc29af1b	-0.01035669
207	0xb95540ec	-0.00020337448
208	0x3c2508e8	0.010072924
209	0xbd83203d	-0.06402633
210	0xbe0c9d23	-0.13731818
211	0xbd9db69b	-0.07700845
212	0xbe245e49	-0.16051592
213	0xbe2f64e9	-0.17128338
214	0xbdce4a48	-0.10072762
215	0x3f08e33d	0.5347174
216	0xbdd5f81d	-0.104477145
217	0x3e0c1a4f	0.13681911
218	0xbddbda0f	-0.10734951
219	0x3dbaabfc	0.09114835
220	0xbe4662bd	-0.19373603
221	0x3e406929	0.18790115
222	0x3d44c4ac	0.048039123
223	0x3c1fe301	0.009758712
224	0xbdc11208	-0.09427267
225	0xbd105fef	-0.03524774
226	0xbe32dac9	-0.17466272
227	0x3d3b5870	0.045738637
228	0xbd2b6841	-0.04184747
229	0xbe1c1353	-0.15241747
230	0x3bb9aaca	0.0056661116
231	0x3ba5330d	0.005041486
232	0xbdfa60cf	-0.12225496
233	0xbbc1d7a8	-0.005915601
234	0x3d5e7bf1	0.05431742
235	0xbd99b290	-0.07504761
236	0xbd741382	-0.059588917
237	0xbde13fbb	-0.10998484
238	0xbe288ebc	-0.16460699
239	0xbdbb541c	-0.09146902
240	0xbd793a75	-0.060846765
241	0xbe837c6d	-0.25680867
242	0xbdb225e7	-0.086986355
243	0xbea6ee93	-0.32603893
244	0x3c2d3132	0.010570811
245	0xbe38f6a3	-0.18062834
246	0xbe1bbee1	-0.15209533
247	0x3d913309	0.07089812
248	0x3c38dd94	0.011283297
249	0xbd263e63	-0.04058684
250	0xbe53f438	-0.20698631
251	0x3df28edc	0.118436545
252	0xbe63e031	-0.22253491
253	0x3dd33459	0.10312719
254	0xbd8bd2ae	-0.06827293
255	0xbc5c217d	-0.013435719

lstm.bias_hh_l0 f4 [512]
0	0xbd44f884	-0.048088565
1	0x3dc1afaa	0.094573334
2	0xbe111bfa	-0.14170828
3	0xbdd62c1c	-0.10457632
4	0xbd11a594	-0.0355583
5	0xbdf80bc8	-0.12111622
6	0xbe3c1b93	-0.18369894
7	0xbd71fbaa	-0.059077896
8	0xbd843591	-0.064555295
9	0x3e20677a	0.15664473
10	0xbda03587	-0.078227095
11	0x3d455fa4	0.048186913
12	0xbe8a1a8d	-0.26973382
13	0xbe29feac	-0.16601056
14	0xbdb7585a	-0.089523986
15	0xbd8eaf27	-0.069670014
16	0xbdb1cf8a	-0.08682163
17	0xbde45fe6	-0.11151104
18	0x3f0782c3	0.529339
19	0xbe6e0d55	-0.23247273
20	0xbe875294	-0.2643019
21	0xbd874ab8	-0.06606048
22	0xbe466306	-0.19373712
23	0xbe3edc43	-0.1863871
24	0xbe119632	-0.14217451
25	0xbe3d6fed	-0.18499728
26	0xbe30f529	-0.17281021
27	0xbd494b48	-0.04914406
28	0xbd480df8	-0.048841447
29	0xbec09d9e	-0.37620252
30	0xbe6b01c7	-0.22949897
31	0x3cada024	0.021194525
32	0xbd165dc7	-0.036710527
33	0xbe5941c2	-0.21216491
34	0x3dad579c	0.08463976
35	0xbd83d196	-0.0643646
36	0xbcc2ab28	-0.023763254
37	0xbde8a7f0	-0.113601565
38	0xbda1f560	-0.0790813
39	0xbe260264	-0.1621185
40	0xbcb48740	-0.022037148
41	0xbdb4a2bf	-0.08820104
42	0xbcdca640	-0.026934743
43	0xbd91c374	-0.07117358
44	0xbe40f537	-0.18843542
45	0x3d30cab4	0.043162063
46	0xbe46a266	-0.19397888
47	0xbe857cf3	-0.2607189
48	0xbd5d5548	-0.05403641
49	0x3d31da70	0.04342121
50	0x3e44fbb5	0.19236644
51	0xbd0f3b25	-0.034968514
52	0xbe19a9f9	-0.15006246
53	0xbd3284fc	-0.043583855
54	0x3d8c26d9	0.06843347
55	0xbdc5f1a9	-0.09665234
56	0xbe0c116c	-0.13678521
57	0xbe4f7b0b	-0.20261781
58	0xbe6f94cf	-0.2339661
59	0x38d7d1b2	0.00010291058
60	0xbe2af911	-0.16696574
61	0x3c47318e	0.012157811
62	0xbe589b9f	-0.21153115
63	0xbe0d1b6e	-0.13779995
64	0x3e18133a	0.14851084
65	0x3e5e11e0	0.21686506
66	0x3e10f4a8	0.14155829
67	0x3f16e19d	0.5893801
68	0x3eb14871	0.3462558
69	0x3c9463b9	0.018113958
70	0xbe2a08df	-0.16604947
71	0xbd1288f5	-0.035775144
72	0xbe95396b	-0.2914537
73	0xbe4b7cf3	-0.19871883
74	0x3c5d252e	0.013497634
75	0xbd96cd79	-0.073634095
76	0xbd353dd0	-0.044248402
77	0xbddfd2e3	-0.10928895
78	0x3c34dcbb	0.011038954
79	0xbe5faa41	-0.2184229
80	0xbd5fa78e	-0.054603152
81	0x3d1d29bd	0.038369883
82	0xbd5274c7	-0.0513809
83	0xbddb4df3	-0.10708227
84	0xbd941d1f	-0.07232117
85	0xbd87e348	-0.06635147
86	0x3d1453d1	0.036212746
87	0xbe6a4f7a	-0.2288188
88	0xbd8e671b	-0.069532596
89	0xbe21a7fb	-0.15786736
90	0xbda5281a	-0.080642894
91	0xbd7ceca6	-0.061749123
92	0xbe5dd351	-0.21662642
93	0xbdfde7cc	-0.12397727
94	0xbcdd8e16	-0.02704529
95	0x3d2d7379	0.04234645
96	0x3c2bc4c8	0.010483928
97	0xbd5b1ae7	-0.053492453
98	0x3d2d7e4f	0.042356785
99	0xbe549eb7	-0.2076367
100	0xbdbc2123	-0.09186008
101	0xbe2ffb93	-0.17185812
102	0x3d2e7a4f	0.04259711
103	0xbeb3ceb4	-0.3511864
104	0xbe239e9e	-0.15978476
105	0xbe01e039	-0.1268319
106	0xbe325b19	-0.17417563
107	0xbe18c932	-0.149205
108	0xbdb56450	-0.08857024
109	0xbdc5552b	-0.09635385
110	0xbdac2215	-0.08404938
111	0x3d126ec0	0.03575015
112	0x3d5b860e	0.05359464
113	0xbd1d5577	-0.038411584
114	0xbd0e08be	-0.034676306
115	0x3ea99e3b	0.33128533
116	0xbb9fa814	-0.0048723314
117	0xbebf6411	-0.37381032
118	0x3e259c6c	0.16172951
119	0xbd9f0651	-0.07764877
120	0x3f13df1a	0.577623
121	0xbcda761b	-0.026667645
122	0xbed3018e	-0.41212124
123	0xbe040a81	-0.12894632
124	0xbdf5bfe9	-0.119994946
125	0x3d99f36a	0.07517131
126	0xbe75d4de	-0.24006984
127	0x3caf8f38	0.021430597
128	0xbc0759a3	-0.008261117
129	0xbe71710f	-0.23578285
130	0xbd86fda6	-0.06591348
131	0xbd80d31b	-0.06290265
132	0x3d77ab2d	0.06046598
133	0x3e065d6d	0.13121577
134	0x3dbd7fdb	0.09252902
135	0xbdd7ebb3	-0.10543003
136	0xbdec855a	-0.11548872
137	0x3dae6ce2	0.085168615
138	0xbd05c943	-0.03266264
139	0xbd3a1b40	-0.045436144
140	0xbeac5b60	-0.33663464
141	0xbc984570	-0.018587798
142	0x3d8ed79e	0.069747195
143	0x3d9403f7	0.07227319
144	0xbd65530b	-0.0559874
145	0xbd1367be	-0.035987608
146	0xbe3dc62f	-0.18532632
147	0x3da79831	0.08183325
148	0xbc2c1a0d	-0.010504258
149	0xbe65c4bc	-0.2243833
150	0xbe983edd	-0.2973546
151	0x3d9c27bc	0.07624766
152	0xbe109ccf	-0.14122318
153	0xbe71d6ca	-0.23617092
154	0x3c83324b	0.016015192
155	0xbde5cf16	-0.11221139
156	0xbcb45dae	-0.022017326
157	0xbe6583af	-0.22413515
158	0xbd415a0c	-0.047205016
159	0xbddd4518	-0.10804194
160	0x3e42063a	0.18947688
161	0xbe6ddc39	-0.2322854
162	0x3d04ae1d	0.03239261
163	0xbdd030f6	-0.101655886
164	0x3cf40dc2	0.029791716
165	0xbe051e5b	-0.12999861
166	0x3e026016	0.12731966
167	0x3d583231	0.05278224
168	0xbda4d315	-0.08048073
169	0x3d110bfa	0.035411812
170	0xbbde8858	-0.006791156
171	0xbd5ee0b4	-0.054413512
172	0xbe2f8774	-0.17141515
173	0x3c831bd3	0.016004479
174	0x3cb1aa52	0.02168766
175	0xbd7e9a80	-0.06215906
176	0x3d030258	0.031984657
177	0xbd7a6782	-0.06113387
178	0x3d6a00ed	0.05712979
179	0xbd763eda	-0.060118534
180	0xbdf36636	-0.118847296
181	0xbe32aa24	-0.17447716
182	0xbcc55943	-0.024090415
183	0x3d865f9a	0.06561203
184	0xbe786d78	-0.24260509
185	0xbd945e68	-0.07244569
186	0x3ee4fc1f	0.44723603
187	0x3d0d8d9c	0.034558877
188	0x3c837c78	0.016050562
189	0xbdc40222	-0.09570719
190	0xbe2a5288	-0.16633046
191	0x3d0f0dc6	0.034925245
192	0xbde7f960	-0.113268614
193	0xbbec8c78	-0.0072188936
194	0xbe6e9f58	-0.23302972
195	0xbd0eb237	-0.034837928
196	0x3e220db6	0.15825543
197	0xbb06efc7	-0.0020589696
198	0xbbd1c01e	-0.006401076
199	0xbca78148	-0.020447388
200	0x3dc989e9	0.098407574
201	0x3db7ff6c	0.08984265
202	0x3e3a1882	0.18173411
203	0x3d51981d	0.051170457
204	0xbd82ef5f	-0.06393313
205	0xbd853574	-0.06504336
206	0x3d7e2464	0.062046424
207	0xbb3d756e	-0.0028909105
208	0x3b9fe389	0.004879419
209	0xbdebde87	-0.11517053
210	0xbdb12598	-0.086497486
211	0xbe2fa669	-0.17153324
212	0xbe8e381d	-0.27777186
213	0xbd90152e	-0.0703529
214	0xbdda3ac5	-0.10655741
215	0x3f043374	0.5164101
216	0xbd8dd840	-0.06926012
217	0x3df34e98	0.11880225
218	0xbd257ac5	-0.040400285
219	0x3dce33fe	0.100685105
220	0xbe686515	-0.2269481
221	0x3dea0090	0.114258885
222	0xbc864fca	-0.016395468
223	0x3da7df85	0.0819693
224	0xbd9d8f7b	-0.07693382
225	0xbcf19e20	-0.029494345
226	0xbe28b0d2	-0.16473702
227	0xbcdc6a3e	-0.026906129
228	0xbd44e224	-0.048067227
229	0xbe85e58e	-0.261517
230	0xbdc2f8e7	-0.095201306
231	0xbdade633	-0.08491173
232	0xbe69825c	-0.22803634
233	0xbda9fc6b	-0.08300098
234	0xbcf73e36	-0.030181032
235	0xbc3c1975	-0.011480679
236	0xbe3f69a8	-0.18692648
237	0xbe3600da	-0.17773762
238	0xbe4f8e08	-0.20269024
239	0xbe1d0565	-0.15334089
240	0xbd98d365	-0.07462195
241	0xbe811d3f	-0.25217625
242	0xbd878691	-0.066174634
243	0xbe8df4af	-0.2772574
244	0xbd39972d	-0.045310188
245	0xbea817a4	-0.32830536
246	0xbe8695e4	-0.26286232
247	0xbd683087	-0.056686904
248	0x3a79f337	0.0009534838
249	0x3da34e6c	0.07973942
250	0xbe414095	-0.18872292
251	0x3dae0398	0.08496779
252	0xbe895139	-0.2681978
253	0x3e08839d	0.13331456
254	0x3d30c15f	0.043153163
255	0x3d422c33	0.047405433

fc.weight f4 [4, 128]
0	0xbcc56312	-0.024095092
1	0x3e0e56ab	0.13900249
2	0x3c33161d	0.010930565
3	0xbda7165a	-0.0815856
4	0x3ca70d1b	0.020391991
5	0x3c8f8881	0.017521145
6	0xbce385b3	-0.027773714
7	0xbd885ff1	-0.06658924
8	0xbe15e05e	-0.1463637
9	0xbd1d89d5	-0.038461525
10	0x3d576c79	0.052593682
11	0xbb3fa5cb	-0.0029243107
12	0xbcd79dbc	-0.02632033
13	0xbdb53abe	-0.08849095
14	0x3d07f639	0.0331938
15	0x3e154ffb	0.14581291
16	0xbcfbddfd	-0.0307455
17	0xbe3861da	-0.18006077
18	0x3ab1587a	0.0013530396
19	0x3bdc8992	0.006730267
20	0x3d03f0c9	0.032212052
21	0xbaee8de4	-0.0018200246
22	0x3e0d0be4	0.13774067
23	0xbd507271	-0.05089039
24	0x3e1c8dbc	0.15288442
25	0x3b8d0ef1	0.0043047597
26	0x3d7c3aa6	0.06157937
27	0xbd9a2564	-0.07526663
28	0xbe490bc9	-0.19633402
29	0xbd9403d1	-0.072272904
30	0xbdb630fa	-0.0889606
31	0x3dfc6540	0.123239994
32	0x3c170bee	0.009219153
33	0xbe1a9dc4	-0.15099245
34	0x3bfd5176	0.007730658
35	0x3d982ba5	0.074301995
36	0x3e0d0196	0.13770136
37	0xbdc5df1e	-0.09661697
38	0x3c2835c4	0.010266725
39	0x3b028591	0.0019916038
40	0x3e0cb380	0.13740349
41	0x3e479372	0.1948984
42	0xbdf49180	-0.119418144
43	0x3d9e7182	0.07736494
44	0xbdbe9643	-0.09306004
45	0xbcd9f0b2	-0.02660403
46	0x3e22fab4	0.15915948
47	0xbd8ddcb6	-0.06926863
48	0xbe1caded	-0.15300722
49	0xbe613e7e	-0.21996495
50	0x3ddc9195	0.10769955
51	0x3cebec97	0.028799338
52	0x39cac77c	0.0003867707
53	0x3c8be737	0.017078025
54	0xbd4c9c40	-0.0499537
55	0xbcc921bf	-0.024552224
56	0x3ccfb5c5	0.02535523
57	0xbcc2c551	-0.023775728
58	0x3dc9e439	0.09857983
59	0xbe0b2da1	-0.13591625
60	0x3d54bdc0	0.051938772
61	0xbce05987	-0.02738644
62	0x3d95b0bb	0.07309099
63	0xbddbfe8e	-0.10741912
64	0xbc73d6de	-0.014882771
65	0xbbc37c76	-0.0059657646
66	0x3eac1753	0.33611545
67	0x3c570388	0.0131234005
68	0x3d841c97	0.064507656
69	0x3e082a7a	0.13297454
70	0xbd1991d5	-0.037492592
71	0xbce32749	-0.027728694
72	0xbd6005f1	-0.054693166
73	0x3b2f507e	0.0026750858
74	0x3de9c9dd	0.114154555
75	0x3e06e844	0.1317454
76	0xbbe2e5a8	-0.00692435
77	0xbda42b66	-0.0801609
78	0x3d8414d1	0.06449283
79	0x3d2e152e	0.042500667
80	0xbe09eebf	-0.1346998
81	0x3d05a058	0.03262362
82	0xbd266265	-0.04062118
83	0x3b187b9e	0.002326704
84	0x3ddd841e	0.10816215
85	0xbdb688d0	-0.08912814
86	0xbd0e1207	-0.03468516
87	0xbdc54cbd	-0.09633777
88	0xbc889414	-0.016672172
89	0xbccd7296	-0.025079053
90	0x3c8f480c	0.01749041
91	0xbe198724	-0.14992958
92	0x3d4996a0	0.049215913
93	0xbcc1618a	-0.02360608
94	0x3e81a16f	0.25318477
95	0x3e1bfcfc	0.15233225
96	0xbdb26af2	-0.087118044
97	0xbdc2471e	-0.09486221
98	0x3af828dd	0.0018933077
99	0x3d0f6f09	0.035018
100	0xbcbfb5b6	-0.023402076
101	0x3c650e0e	0.013980402
102	0xbcb6b9da	-0.022305418
103	0xbcef0635	-0.029177764
104	0xbe03aa1d	-0.12857862
105	0xbe41e4ef	-0.18934987
106	0x3d4cba91	0.04998261
107	0xbd0457ac	-0.032310173
108	0x3c5229a7	0.0128273135
109	0x3c276775	0.010217537
110	0xbd1e1119	-0.038590524
111	0x3cd1641d	0.025560433
112	0x3d3d64f9	0.046238873
113	0x3c9ab19f	0.018883524
114	0xbe34bc42	-0.1764994
115	0x3f58ad8a	0.846398
116	0xbbfefc18	-0.0077815168
117	0x3da60755	0.08106867
118	0x3edf9f19	0.4367607
119	0xbb5df735	-0.003386927
120	0x3ea3b0f4	0.31970942
121	0xbd8e4c51	-0.0694815
122	0x3d5028ce	0.050820164
123	0xbd06cc8b	-0.03290991
124	0xbd29b858	-0.04143557
125	0x3cbccbad	0.023046339
126	0xba89c60e	-0.0010511295
127	0x3d1921da	0.0373858
128	0xbda9eb73	-0.082968615
129	0xbd893507	-0.06699567
130	0x3cb3ddfa	0.021956433
131	0xbe33a8b8	-0.1754483
132	0xbccc2efa	-0.024924744
133	0x3df1d1a8	0.11807567
134	0xbd746d54	-0.059674576
135	0xbdca9dbd	-0.098933674
136	0xbe632855	-0.22183354
137	0x3d2d40e5	0.042298216
138	0xbc9dab30	-0.019246668
139	0x3c0f4b27	0.008745945
140	0x3bb1136c	0.0054039266
141	0xbe1de8ac	-0.15420789
142	0x3d3c6617	0.045995798
143	0x3d8a2f4b	0.06747302
144	0xbda2c453	-0.07947602
145	0xbe4ee3a2	-0.20204023
146	0x3af5cdcf	0.0018753352
147	0x3a253262	0.0006301758
148	0xbddfe7de	-0.10932897
149	0x3c7b22d6	0.01532813
150	0xbd9aff36	-0.07568209
151	0xbcb8015b	-0.022461584
152	0x3d97624e	0.07391797
153	0x3bcdab75	0.006276543
154	0x3ce04817	0.027378125
155	0xbb28f051	-0.0025778005
156	0xbe5526da	-0.20815602
157	0xbe18613e	-0.14880845
158	0x3cd7ad50	0.026327759
159	0x3e02c86a	0.12771764
160	0xbdf2e793	-0.118605755
161	0xbdc1ea0c	-0.09468469
162	0x3be2f31f	0.006925955
163	0x3e13471c	0.14382595
164	0xbafe6999	-0.0019410133
165	0xbe2c3d3a	-0.16820231
166	0x3d737ab0	0.059443176
167	0xbb95488f	-0.004555769
168	0x3dc31500	0.0952549
169	0x3e6d8a65	0.23197325
170	0xbe05b24b	-0.13056295
171	0x3e0b2d22	0.13591436
172	0xbe48c602	-0.19606784
173	0xbd50bd32	-0.05096168
174	0x3dc2a456	0.09504001
175	0x3b709ccc	0.0036714552
176	0xbe6d216e	-0.23157284
177	0xbd8e7f0f	-0.06957828
178	0xbd1754c1	-0.036946062
179	0x3d3e6e12	0.04649169
180	0x3a95de9e	0.0011434143
181	0xbcacb796	-0.021083634
182	0xbd858aba	-0.065206006
183	0xbcc6582c	-0.024211966
184	0xbdba2928	-0.09089881
185	0xbe18aaba	-0.14908877
186	0x3c4f90a7	0.012668765
187	0xbe5e1cf7	-0.21690737
188	0x3d6efe4f	0.058347996
189	0x3e261c7f	0.16221808
190	0xbddaece6	-0.10689716
191	0xbe3bece8	-0.18352091
192	0xbcab24c5	-0.020891557
193	0xbb84ac8e	-0.0040488904
194	0x3ecb6611	0.39726308
195	0xbc9598ac	-0.018261276
196	0xbe0dabd2	-0.13835075
197	0x3e12c16c	0.14331597
198	0xbe4dfca3	-0.20115905
199	0xbe1fb34e	-0.15595743
200	0xbd2bfd22	-0.041989453
201	0xbd46474b	-0.048407834
202	0x3e487d86	0.19579133
203	0x3bce80c1	0.0063019698
204	0x3a69da0f	0.0008920738
205	0x3ca2f8c6	0.019894015
206	0x3e49f920	0.1972394
207	0x3d6c65f6	0.057714425
208	0xbe240a3c	-0.16019529
209	0x3c864572	0.016390536
210	0xbd924cbb	-0.071435414
211	0xbe1cc291	-0.15308596
212	0x3d82a894	0.0637981
213	0xbd4670f7	-0.048447575
214	0xbcdce0f9	-0.026962744
215	0x3bafd583	0.0053660288
216	0x3e40fffa	0.18847647
217	0xbca8273d	-0.020526523
218	0x3d89feac	0.06738028
219	0xbe58a621	-0.21157123
220	0x3d16a032	0.036773868
221	0xbd29916c	-0.04139845
222	0x3e942eb7	0.2894189
223	0x3e50c532	0.20387724
224	0x3de010db	0.10940715
225	0x3da61566	0.0810955
226	0x3d4fc20e	0.050722174
227	0x3de11916	0.10991113
228	0x3d2fb7bb	0.04289983
229	0xbc6952ec	-0.0142409615
230	0xbdc25082	-0.09488012
231	0xbd9ab88d	-0.075547315
232	0xbe89c17f	-0.26905438
233	0xbcdfadb5	-0.02730451
234	0xbc92b079	-0.017906414
235	0x3d40b1dc	0.04704462
236	0x3c8cf948	0.01720871
237	0xb8ba27cf	-8.876586e-05
238	0x3d7010a7	0.05860963
239	0xbdbcb07f	-0.092133515
240	0xbe121e33	-0.14269333
241	0xbcb35bb7	-0.021894319
242	0xbe0a6b35	-0.13517459
243	0x3e173fa3	0.14770369
244	0xbe26c30e	-0.16285345
245	0x3da51bce	0.08061944
246	0xbed8b20b	-0.42323336
247	0xbb32e1b6	-0.0027295179
248	0xbf16b4c5	-0.5886958
249	0xbd4068ca	-0.046974935
250	0xbcf52a3c	-0.029927365
251	0xbc9c9b00	-0.019116879
252	0x3c2311ac	0.009952944
253	0x3d8ba26f	0.06818091
254	0xbdb27919	-0.08714504
255	0x3d6fc57a	0.058537938

fc.bias f4 [4]
0	0x3e81df1d	0.25365534
1	0x3e3a4422	0.18190053
2	0x3e6c6267	0.23084413
3	0x3e3c2964	0.18375164
