lstm_hdim_128_wsize_20_interval_7_nlayers_1_bs_512_lr_0.01_decay_0.95_epoch_27.pt (torch, 277987 bytes, 6 tensors)

lstm.weight_ih_l0 f4 [512, 4]
00000000: ab84 49bd 07a5 55bc f78a 02be e4f6 603d
00000010: 5e5a 08bf 8d92 cd3e 377d e0be 6c73 433e
00000020: 842a c9bd 927d 6dbd 0cab 7a3d 0f47 a03d
00000030: 95f1 bcbd 79a0 893c 5cd7 293e 2aed 3ebe
00000040: efcc 2db9 4ef2 9fbd 8649 2cbe 61fe 223e
00000050: 9e25 2cbe 0dd0 053a d90f 8f3d f6bd b33d
00000060: 4741 49bd 1ee5 29bd e8bf e63c b1f3 82bd
00000070: 9290 00bd 62f9 c6bd 3d5e 223c 2450 94bd
00000080: 388f 0e3e 64ee 573e cf95 e8bd 54b4 03be
00000090: e11f 1bbf b538 163e 927e 35bf eb20 633e
000000a0: eebb 65be dcc2 76be 1586 afbd feea 34be
000000b0: fd13 b0bc f059 0c3d dae5 a03d ad4a 8e3e
000000c0: 3c69 14be 3f46 8dbd 3315 6ebf 655a ebbf
000000d0: 119a 8cbd 4f1c d53d 2ad4 03bb a540 18be
000000e0: 26c9 51be 34b6 113e 0950 07bf 6e33 16bf
000000f0: c227 4f3e bb92 69bb 81ca 64be 90f7 7f3d
00000100: b92f 513d afa1 83bd 515a 89b9 2d0d b5be
00000110: 12d3 0c3e da08 0a3e 1b9a 063e d61b 10bb
00000120: d1c1 8a3e 0db5 263f 4d19 c3c0 03b6 01c0
00000130: 9b1f b5be c885 bdbe c99e 1640 bec4 5240
00000140: 681c 6ebe 989b 5abe f20a 193e 160c f2be
00000150: 6955 70bd 76f7 09bd c57f c3bf ac45 86bf
00000160: 64a7 e0be c418 79bc b013 0dbd ce18 0a3e
00000170: f818 4cbe d006 4cbe bbb6 40be a9e8 c4be
00000180: c06c b43d 9b69 14be ce3c 83bd 79ca 463e
00000190: 22d3 2ebd 0429 cfbd 747a 823e ad96 fb3f
000001a0: df73 483d c177 2fbe a29c 10be 3bf9 513e
000001b0: dc05 943e fe8d 76bd 430d e2bd bec2 ffbd
000001c0: 0798 a73d ae81 153e ffb4 9dbc f8c3 053e
000001d0: 649a 81bd b509 90be 9b14 f8be 7673 913e
000001e0: d4e3 bb3d 3558 c5bd e4d3 7e3e d377 51bc
000001f0: 5f67 813d 86e1 943c e737 903c 17d9 a33d
00000200: b135 4f3d 65ff d53c d996 943e 19a7 bb3c
00000210: 9a4f 2e3e d75c fabd a403 a7be 7112 c9be
00000220: 8789 2a3e 05bc 0cbd 8887 ad3e 32e7 adbf
00000230: c06b 22bd 6436 b93c f2de b0bb 9181 b8bc
00000240: 5a8f 173e 073f 49bd 549b af3c 10f3 e1bd
00000250: df7a 9b3c e223 203e 4eb6 4a3e 8fdb 223e
00000260: adab 78bc c962 653b 94d1 f7bd 141a da3d
00000270: 5a43 b8bd 148f 4dbc 7860 6b3e edee 2cbe
00000280: 9c72 113e 75d1 d3bd decb b2be 7eb2 0abe
00000290: de8f 363e d907 593e d93f b23d e7af 4c3d
000002a0: 0490 c83d 281c 223e fe1e 04be 7ad6 28bd
000002b0: 8363 40bd 1a15 5b3d a40a 223d 367c cfbd
000002c0: 46df 8bbe 0c2d 72bd 9356 03be 5183 bfbe
000002d0: b6ae 0abf 5006 ea3d d991 343f 806f 9fbf
000002e0: 1c2f ac3d b011 f13c 526c ddbd 5632 893d
000002f0: 0dda 833c 4ffd 89be af53 10bd 6728 46be
00000300: 4fd9 ff3d 4beb 5f3e 4401 7fbe 2d94 5e3d
00000310: d2bb a13e 89c8 3cbe 4aa7 cc3c 4a07 8a3d
00000320: f8e7 133e 6463 4d3e f84c 3b3e b742 edbe
00000330: 2850 6dbd 518b e43d 3744 d5be 414d e4be
00000340: 632d d3bd 9bb8 99be fef6 0e3e 4ed8 ef40
00000350: b96e 3c3d 3d86 49bd 28a0 29bf 17ba 00bf
00000360: cc2d ec3d ca8c b53d 753d c9bd fa96 833d
00000370: 5f0f d13c b157 c4bc 6623 e23f 7c85 fc3e
00000380: be44 f3bd aa39 bdbe b8d2 1f3d 87a4 c2be
00000390: 8575 96be e443 0f3e 21ae c6bd e5f4 68be
000003a0: d045 b4be 04a0 75be f422 623d aa78 04bd
000003b0: d5be c93c 1cc6 203e cfc7 21be c1ba 3bbe
000003c0: fefb b0bc 9bde 20be 96cd 90be bca3 3c3e
000003d0: 8b0d dfbd 3f2d 483e f220 863d a8ae 353e
000003e0: 062f 1cbf 2c83 10be 4224 e93e 875f 2e39
000003f0: ed3e 8abd 1666 ba3d a9a6 913d 99d7 afbd
-0.049198788 -0.013039834 -0.12748323 0.054922953 -0.5326289 0.40150872 -0.4384553 0.19086999
-0.09822562 -0.05798108 0.06119828 0.07826053 -0.092257656 0.016800152 0.1658606 -0.18645158
-0.0001657491 -0.07809888 -0.16824922 0.1591735 -0.16811225 0.00051045493 0.069854446 0.087764665
-0.04913452 -0.04147827 0.02816768 -0.06394137 -0.031387873 -0.09715535 0.0099101635 -0.07241848
0.13921821 0.21087033 -0.11356699 -0.12861758 -0.6059552 0.1467007 -0.70896256 0.22180526
-0.2243497 -0.2409777 -0.08570496 -0.17667767 -0.021493906 0.03426546 0.07856341 0.27791348
-0.14493269 -0.06898164 -0.930011 -1.8386961 -0.06865323 0.1040579 -0.0020115473 -0.1486841
-0.20486888 0.14229661 -0.528565 -0.58672225 0.2023001 -0.0035640437 -0.22342874 0.062491953
0.051070902 -0.06427323 -0.00026197967 -0.35361615 0.13752392 0.13479939 0.13144724 -0.0021989248
0.27100995 0.6512001 -6.0968385 -2.026734 -0.35375676 -0.3701613 2.3534415 3.2932582
-0.23253024 -0.21348417 0.14945582 -0.47274846 -0.058675203 -0.033683263 -1.5273367 -1.0490012
-0.4387771 -0.0152036585 -0.034442604 0.13486025 -0.199314 -0.19924474 -0.18819706 -0.38458756
0.08809805 -0.1449341 -0.06408082 0.19413175 -0.04268182 -0.10115245 0.2548405 1.9655358
0.04893863 -0.17135526 -0.1412225 0.2050523 0.2891072 -0.060194008 -0.11037686 -0.12488316
0.08183294 0.1460025 -0.019251345 0.13063037 -0.06328276 -0.28132406 -0.4845322 0.28408402
0.09174314 -0.09635965 0.24885517 -0.012784916 0.063185446 0.018173944 0.017604781 0.08000391
0.050588313 0.026122758 0.29021338 0.022906827 0.17022553 -0.12224739 -0.32619965 -0.39271882
0.16654025 -0.034358997 0.33892465 -1.358618 -0.03965354 0.022608943 -0.005397671 -0.02252272
0.14800778 -0.049132373 0.02143637 -0.110326886 0.018979488 0.15638688 0.19796106 0.15904067
-0.015177649 0.0035001507 -0.12100521 0.10649505 -0.08997221 -0.0125463195 0.22986019 -0.16888018
0.14203876 -0.10342685 -0.34921163 -0.13544652 0.17828318 0.211944 0.08703584 0.04997244
0.09793094 0.15831053 -0.12902448 -0.041220166 -0.0469699 0.05348692 0.03956093 -0.10131113
-0.27318782 -0.05912499 -0.12825994 -0.37404874 -0.5417284 0.11426985 0.70535046 -1.2455902
0.08407423 0.02942738 -0.10811676 0.06699054 0.016095186 -0.26951072 -0.035236057 -0.1935135
0.1249262 0.21867101 -0.24902827 0.05434053 0.31588608 -0.18435873 0.024982113 0.067396715
0.14443958 0.20057446 0.1829108 -0.46339962 -0.05793777 0.11159385 -0.41653606 -0.4459019
-0.10311391 -0.30023655 0.13961408 7.4951544 0.04600403 -0.049200285 -0.66260004 -0.5028395
0.115321726 0.08864744 -0.09826175 0.06425281 0.025520025 -0.023967596 1.7667053 0.4932059
-0.11878346 -0.36958057 0.039019316 -0.3801615 -0.29386535 0.13990742 -0.09701181 -0.2274967
-0.35209513 -0.23986822 0.055209115 -0.032341637 0.024627129 0.15700573 -0.15798877 -0.1833296
-0.021604534 -0.15709917 -0.2828185 0.18421835 -0.10891255 0.1954851 0.065492526 0.17742407
-0.6100925 -0.14112538 0.45535475 0.0001662952 -0.067502834 0.091015026 0.07111866 -0.08586044

lstm.weight_hh_l0 f4 [512, 128]
00000000: b840 2ebd 9f21 86be 7d12 863c 1194 a93d
00000010: dd07 143e c5f9 bdb9 e3d1 80bd 170f 543d
00000020: 74b4 55bd 53f0 853e ab7b 80bd 4b9c cabd
00000030: 2127 a63e b35b ce3d 418b 803d 7526 b7bd
00000040: f142 823d 532f e63d faad b6be 9c99 783f
00000050: 70c4 e63d e311 c23d 551d 023d 7ad0 38bd
00000060: 0ab0 05bd 4715 d3be bc39 7cbd b848 07bd
00000070: 0f90 67bc 3be5 483d 1d17 ce3a d55e 673d
00000080: c057 1a3c a458 3cbd 81c6 41be ca8e 9abb
00000090: d09c 8d3c 3f07 9a3d b62e 603c 7897 03bd
000000a0: 5ec5 e2bd 11e3 7c3d eac0 ac3c 3e5a 85bd
000000b0: 6159 653d 9bd3 bfbd 77b6 82bc 3b05 3c3c
000000c0: 494b f03c c4e4 3c3d d45e 38be 6e83 11be
000000d0: b70c 1fbf 6a70 993d 546d 96bd be35 3cbe
000000e0: 0896 1f3d 3519 893d 4c99 b8be 8861 213d
000000f0: 8e92 03be 4b18 933d 041a c6bd defc 053d
00000100: 7ad3 893e e39f 893c 272c 00bd fb60 463e
00000110: afc9 103d 19a9 773d 6e53 073e 4cc2 ca3d
00000120: 468b 53bd 6eb4 a03d cd79 833e bd37 01be
00000130: 198f 8abb 04f6 09bc 6b20 99bc 93a3 b5bd
00000140: ae78 253c 95bf 183e af9d 3cbd ee48 c43d
00000150: f868 563e 3a25 e43d e0a3 a7bc 244a a2bd
00000160: cb46 37bd 1f7d 5b3e 21e4 4fbe 2eb0 123d
00000170: e737 25bd bfc0 cb3d 4c32 53bd f704 7b3c
00000180: 070f debc 0fef d63c 8905 1ebe ffa1 cdbc
00000190: 9356 fa3c f3bf 9bbe 0572 f0bd fabe 943d
000001a0: 6c1f e03d 52f4 af3d fbf0 833d a050 cf3b
000001b0: 89d5 3e3e 9e6a c0bd 65c9 4cbe c070 b3bd
000001c0: 129e 1d3d bce0 433c 7153 d93d 5c13 4dbe
000001d0: edf9 ee3c c890 f2bc aaf4 093e 2774 9bbd
000001e0: 60b5 0e3e 8e22 f53d 7438 813d 1cd5 25bd
000001f0: a981 72bd 470a 023f 87a4 2d3d 4fc2 0f3f
00000200: 2079 ae3e f232 f6be 7308 0dbf f9e8 5e3e
00000210: b67e 823e 85d6 49be 6f32 f93e 8b02 a13e
00000220: 92bc d83e 2eb9 a3be da25 f7be a795 243f
00000230: b7a1 b7bf 7e96 f53e b3ef c1be cd4d 3ebe
00000240: f1bf eb3e 1948 d43e 6bd8 9bbf 8311 903e
00000250: a093 a93d d534 063f 973b 333e a1c6 adbe
00000260: c3db aabe 4359 843c fef7 a03e 050a 393f
00000270: 0bd5 b13e 5c8d 193c 18db 083f 504f f8bd
00000280: ddd1 bbbf 8a9e a13e 90a8 9dbf b3fc 8bbe
00000290: 7b53 cfbe 3d54 163f 399c 673d d4fc cebf
000002a0: 189b 75be 7a1a f1be 01ce c13e 6cf5 8bbe
000002b0: 3f90 9c3d 91e2 1a3f d0fc 53be b4ae 07be
000002c0: efc6 bf3e 979b d33e c634 693f 830f 19be
000002d0: a5d5 383f 58f6 efbd caaf dbbe 2697 47bf
000002e0: cd4c c03e bfdf 3a3e 7183 6ebf 4be1 d63e
000002f0: dc6d f2be 6c50 82be e8df 7b3f 134c b83e
00000300: d24b b5be 5213 85be 4500 56be cd46 04bf
00000310: 5d8b 093f b24d 1dbb f240 9d3e f194 f03e
00000320: a3dc 913e 1e94 61bd b57e f0be 6baa 3e3e
00000330: e572 89be 296c 2f3e 95c6 e6be 814c a6be
00000340: 224f 8e3e 488b f63e 54a8 41bf 506a 173e
00000350: f728 2bbf f166 593e 0b1d 483e 8dcb 15bf
00000360: 26c8 c7be 2170 923f 2e04 6ebf 7b27 023f
00000370: 32dc b2be b00c 283e 2d76 02bf b509 02bf
00000380: 0169 2fbf b5aa 1d3f bb21 c3be bf34 b5bd
00000390: f8e2 463f beb8 19be 4dab 86bf 9007 e03c
000003a0: d4e6 fdbd 0956 903e c7e3 8b3e c7d1 40bd
000003b0: 7f31 89bd 3bf4 183f 0a81 3bbf 7dcf 013f
000003c0: eefe 2e3f ed92 a5bd 356a 1b3f 8ed1 a7bf
000003d0: 3f60 ba3e 5216 3a3e 18e6 e9bd 95cd 363f
000003e0: afef fe3e 0ae8 e53c dfb0 153e 685f 24bf
000003f0: 941b a13d 2ee1 0b3d 8561 b3bd a091 f3be
-0.04254219 -0.26197526 0.016366238 0.082801946 0.14456125 -0.00036234982 -0.06290033 0.051772203
-0.052174047 0.26159915 -0.06273588 -0.09893092 0.32451728 0.10076084 0.062765606 -0.08942882
0.06360424 0.11239495 -0.3567961 0.9710939 0.11267936 0.09476068 0.031766254 -0.045120694
-0.032638587 -0.4122717 -0.061578497 -0.033028334 -0.014133467 0.049046736 0.0015723441 0.056486923
0.009420335 -0.04598297 -0.1892338 -0.004716729 0.017286688 0.07520913 0.013683012 -0.032126874
-0.11072801 0.061739985 0.021088082 -0.06511353 0.05599344 -0.093665324 -0.015956147 0.011475856
0.029332774 0.046116605 -0.18004924 -0.14210293 -0.62128776 0.074921444 -0.073450714 -0.18379876
0.03896144 0.06694261 -0.36054456 0.039399654 -0.12848875 0.07182368 -0.09672931 0.032711856
0.26919156 0.016799873 -0.031292107 0.19372933 0.03534859 0.060464 0.1321542 0.099003404
-0.051646493 0.07846914 0.25678864 -0.12618919 -0.0042284844 -0.008420471 -0.018692216 -0.0886909
0.010099573 0.14916833 -0.046048816 0.09584223 0.2093848 0.11139913 -0.020463884 -0.079242975
-0.044745248 0.21434449 -0.20301868 0.03581255 -0.040336516 0.09948873 -0.05156164 0.015321008
-0.027106775 0.026237039 -0.15431799 -0.02510166 0.03055886 -0.30419883 -0.117404975 0.072629884
0.10943493 0.08591522 0.06442448 0.00632675 0.18636145 -0.093953356 -0.19998701 -0.0876174
0.038480826 0.011955436 0.10611618 -0.20026916 0.029171908 -0.029610053 0.13472238 -0.07590514
0.13936377 0.119694814 0.06309596 -0.04048644 -0.059205685 0.5079693 0.042393234 0.56155866
0.34076786 -0.48085743 -0.5509102 0.2176856 0.25487298 -0.19710739 0.4867129 0.31447253
0.42331368 -0.31977218 -0.48271066 0.6429085 -1.4346226 0.4796638 -0.37878188 -0.18584366
0.46044877 0.41461256 -1.217542 0.2813836 0.0828011 0.52424365 0.175032 -0.33940604
-0.3337079 0.016155845 0.31439203 0.72280914 0.3473285 0.009372082 0.5345931 -0.12124503
-1.467342 0.31566268 -1.2317066 -0.27341232 -0.40493378 0.5872229 0.05654547 -1.6170907
-0.23984945 -0.47090513 0.3785248 -0.2733568 0.076447 0.6050196 -0.20701909 -0.13250238
0.37456462 0.41329643 0.9109615 -0.14947324 0.72200996 -0.11716908 -0.42907554 -0.7796501
0.37558594 0.18249415 -0.93169314 0.4196876 -0.4734944 -0.25451982 0.9838853 0.3599554
-0.3540941 -0.25991303 -0.2089854 -0.51670533 0.53728276 -0.002400261 0.30713612 0.46988633
0.28488645 -0.055072896 -0.4697167 0.18619697 -0.2684547 0.17131104 -0.4507338 -0.32480243
0.2779475 0.48153138 -0.75647473 0.14786649 -0.6685938 0.21230675 0.19542329 -0.5851372
-0.3901989 1.1440469 -0.9297513 0.5084149 -0.3493362 0.1641109 -0.5096157 -0.5079606
-0.685196 0.61588603 -0.38111672 -0.08847951 0.77690077 -0.1501188 -1.0521027 0.027347356
-0.123975426 0.2819064 0.27322218 -0.04707506 -0.06698894 0.59747666 -0.73243773 0.50707227
0.6835774 -0.080846645 0.60708934 -1.3110826 0.36401555 0.18172577 -0.1142084 0.71407443
0.4979224 0.028064746 0.14618252 -0.6420808 0.07866588 0.034150295 -0.08758835 -0.4757204

lstm.bias_ih_l0 f4 [512]
00000000: 8239 b5bd ef87 053e 15a3 23be 3723 abbd
00000010: a0d3 d1bc bf81 4dbd 10a5 ff3c 050f 41bd
00000020: c58e e6bb bf33 203e e068 28be 0319 81bd
00000030: 4f2c 52be cf77 ad3c c53e 44be b9b6 a73c
00000040: 7604 abbc ddc1 4c3d c106 113f ba49 0cbe
00000050: b041 32be 9195 ddbd 256e 01be 6e9d 52be
00000060: 5c18 a1bb 3bdb 83be 13b3 bdbd 7183 743d
00000070: b247 94bc 2277 82be 83bd 3fbe d927 453d
00000080: 729e 9cbd 4b46 17be dca0 d93c 6d27 eebd
00000090: 9c51 90bd f023 5bbc 539b 0dbe 5f7c a7bd
000000a0: 06c6 6e3b e2cc d03c 49cd a6bd dc72 d0bc
000000b0: ddee e2bc a127 5abd 922b f0bd e389 44be
000000c0: fd32 57bd b191 6d3d 2440 d43d dc8f 6cbd
000000d0: c75e b2bd 570d 9bbc 3c8a 07bd 1e85 a6bd
000000e0: 1528 21be e285 4abe 5870 abbe 3798 8c3d
000000f0: eab3 99bc 7237 11bd a6a2 13be 0320 e8bd
00000100: fc1d 1c3e 3471 ba3e c99a 133e 00b6 183f
00000110: 1182 9e3e 4da3 2cbd 33be 02be a5b2 d8bc
00000120: 5352 ecbd 2a50 f2bd ddd4 d43b 3a5d 943b
00000130: 306e c33b c034 e5bd 6bf4 7ebd 163a 54bd
00000140: b460 e2bc cafe 88bd 3b08 1cbe ce25 d33c
00000150: 985b cc3b 7cef 1fbd 70c8 6b3c 07bd 83be
00000160: 6723 c9bd b440 4abe beb6 babd 00e4 883d
00000170: 2aef 62be d839 b0bd 9841 37bd d8d6 e73c
00000180: dcda 183d f1bb cb3b deef b53d 9c7b 2ebe
00000190: e719 98bc 2bae 46be 20c3 6ebd 141a 62be
000001a0: 0e17 85bd 889d c1bd 752b 68bd 8c11 4dbd
000001b0: ecab 10be caae c9bc 6b2c eebd 00a8 963d
000001c0: b879 bfbd 6b4b 843c 677a 04be e974 853e
000001d0: f1bf 22bd a3ea cdbe a412 433e 9b97 a33d
000001e0: cfe0 fc3e a7bc e0bd 3d09 76be 9e1c b8bc
000001f0: a6a3 3fbe f509 2839 30de fdbd 1c7d c63d
00000200: 03ad 11be c681 54be 2ec2 38bd e1e1 683d
00000210: 685b 01bd 541e 8d3d c66b 623d 2286 84bd
00000220: 5805 313d 2f25 aa3d 330d bfbd 5ffa ddbd
00000230: 055b 68be 2a1d ebbd 54d8 173e efbc 70bd
00000240: 4036 bebd aec7 9c3c 24d9 11be f110 b73d
00000250: b53b 15be 3b48 3cbe ac3e eebd c6cb 18be
00000260: 1b44 2f3d 1fe4 01be 31fc aabd dfe6 f3bb
00000270: a6b8 03bd 796a 5bbe d2a8 d7bd ee46 a4bd
00000280: 4077 ec3d 0263 a7be 268a 183e 9bb5 0d3d
00000290: 95a7 ecbc 2b91 7ebc 60c3 4e3c b2ed 80bd
000002a0: ab6b b0bd 3f2e a8bc 1e0e cb3c 8a85 8a3c
000002b0: 5abc 11be b1c9 1dbd aa2f 1abd 8bc1 e4bd
000002c0: 6aa0 75bd eccf 933c e5ed 4a3d 396b f1bd
000002d0: 7bc0 0ebe f003 98bd 919f 103c e9dd 16bd
000002e0: eba1 2ebe a6ed 35bc 7eca 063f 5be6 01bd
000002f0: d8e3 51bd 0ef2 42bd 1c91 5abe 461a c83c
00000300: 0dcc 16be 033b e23d 07af 3dbe 80c5 fbbd
00000310: 5b63 cc3d 5b30 e83c 4dc1 993d 6d3c 633c
00000320: 1558 1d3e 2e0f ac3b 3d70 243e da79 673d
00000330: 4786 e1bd 7a59 82bc 1211 1abd 23ea f5bc
00000340: 5175 ff3c 883c a2bc 5f8a 2dbe cf44 0dbd
00000350: 9b9c 10be 1350 d0bd 4fb7 46bd a7ae f83e
00000360: 4b6b e1bd b3dd 003e 1a53 01be 787d 9c3d
00000370: dcf2 15be 1514 233e 8b66 1a3d 664a 533c
00000380: 2132 9ebd 215d d5bc ee18 84be 7613 813d
00000390: 2da9 9fbd 5e4f 24be 9291 193d 2058 fcbd
000003a0: e2c0 f8bd 43ac 54bc 5204 313d 31cd f5bd
000003b0: 0a9d cfbd 6fd9 a2bd ebd2 edbd 41a6 c5bd
000003c0: 191e 4abd 0ad3 5cbe 09b3 91bd 4afc 9cbe
000003d0: ab4b 0cbc 9ea9 47be e63f 24be a181 5a3d
000003e0: b79c d93c a043 a6bd 5488 36be 87f2 f33d
000003f0: 35f1 26be 1851 963d ec4a 94bd ef72 84bc
-0.08848859 0.13040136 -0.1598018 -0.08356326 -0.025613606 -0.050172564 0.031206638 -0.047133464
-0.0070360624 0.1564474 -0.16446257 -0.06303599 -0.20524715 0.021175293 -0.1916457 0.020472871
-0.02087615 0.04998957 0.5665093 -0.137 -0.1740787 -0.10819543 -0.12639673 -0.20567867
-0.004916234 -0.25753197 -0.09262671 0.059695665 -0.018100593 -0.25481516 -0.18724637 0.048133705
-0.076474085 -0.14772908 0.026565962 -0.116286136 -0.07046816 -0.013375267 -0.13828783 -0.08178019
0.003643395 0.02548832 -0.08144624 -0.025445394 -0.02770179 -0.05326045 -0.117270604 -0.19193225
-0.05253886 0.05800027 0.10363796 -0.057754382 -0.087094836 -0.01892726 -0.033090815 -0.08130859
-0.15737946 -0.19777635 -0.3348415 0.0686497 -0.018762548 -0.035453267 -0.14417514 -0.11334231
0.15245813 0.36414492 0.14414515 0.5965271 0.30958608 -0.042147923 -0.12767868 -0.026452372
-0.115391396 -0.11831696 0.006495102 0.004527715 0.005964063 -0.11191702 -0.062244814 -0.051813208
-0.027634002 -0.06689222 -0.15237515 0.025774863 0.0062365048 -0.03904675 0.01439105 -0.25730154
-0.098212056 -0.19751245 -0.091168866 0.066841125 -0.22161546 -0.08604783 -0.04474029 0.028300688
0.037318096 0.0062174727 0.08883642 -0.1703934 -0.018567039 -0.19402377 -0.058291554 -0.2208026
-0.06498538 -0.09453875 -0.05668207 -0.050065562 -0.14128083 -0.024619479 -0.11629566 0.07356262
-0.09349388 0.016149243 -0.12937318 0.26065758 -0.03973383 -0.40218076 0.1905008 0.07987901
0.49390265 -0.109734826 -0.24026962 -0.022474583 -0.1871477 0.00016025438 -0.123958945 0.096918315
-0.14226155 -0.2075263 -0.04510706 0.05685604 -0.031581312 0.0689055 0.055278562 -0.06470896
0.043217987 0.083078735 -0.093286894 -0.1083877 -0.22690971 -0.11480172 0.14828616 -0.05877393
-0.09287691 0.019138183 -0.14242989 0.08938778 -0.14573558 -0.18386929 -0.116330475 -0.14921483
0.04278956 -0.12684678 -0.08348883 -0.0074432935 -0.032158516 -0.21427335 -0.10530247 -0.08021341
0.11546183 -0.32692724 0.1489645 0.03459702 -0.028888503 -0.01553754 0.012619823 -0.06295337
-0.08614286 -0.020529864 0.024787005 0.01690938 -0.14232007 -0.038522426 -0.037643112 -0.11169728
-0.059967436 0.01804348 0.04954328 -0.11788029 -0.13940613 -0.07422626 0.008827106 -0.036832724
-0.17053954 -0.011104023 0.5265273 -0.031713825 -0.05124268 -0.047594123 -0.21344417 0.02442659
-0.14726277 0.11046412 -0.18523799 -0.122935295 0.09979888 0.02834337 0.07507572 0.013869387
0.15365632 0.005250833 0.1605844 0.05651269 -0.110119395 -0.015911806 -0.037613936 -0.030018872
0.03118387 -0.019804254 -0.16947316 -0.03448945 -0.1412224 -0.10171523 -0.04851466 0.4857075
-0.11006793 0.12584572 -0.12629357 0.07641119 -0.14643425 0.1592563 0.03769545 0.012896156
-0.07724405 -0.026045384 -0.2580027 0.0630254 -0.077959396 -0.16045901 0.037492342 -0.12321496
-0.121461645 -0.0129805235 0.04321701 -0.12002028 -0.10137375 -0.079516284 -0.11612495 -0.09650851
-0.04934511 -0.2156488 -0.07114226 -0.3066123 -0.0085629625 -0.19498298 -0.1604 0.05334628
0.026563985 -0.08118367 -0.17825443 0.11911493 -0.1630295 0.07339686 -0.07240853 -0.016168086

lstm.bias_hh_l0 f4 [512]
00000000: e913 efbc c100 ee3d 2a6f a3bd 305e 5dbc
00000010: bda1 02bd 5599 ccbd 436b 02be 90ac c3bc
00000020: 2993 79bd 74ea 1d3e 7358 bebd be3b 5e3d
00000030: d66a 6dbe 5c6e 0ebe cf70 c5bd b568 49bd
00000040: 2d39 94bd 7594 bdbd 0c16 123f 68d7 14be
00000050: d719 6bbe 60b3 b8bd e0f2 3cbe b2a0 5cbe
00000060: dcfa e2bd 3e61 22be 4d11 10be 96ef a7bd
00000070: f053 02bd 8b1f 73be 401f 38be 9bf1 273c
00000080: 3257 05bc b533 37be b048 1b3d dd52 fabc
00000090: bc7c 043c b892 7dbd e989 a1bd 8163 d5bd
000000a0: 999c dc3b c96e 8fbd 376a 0b3d dab9 53bd
000000b0: 3fc7 0ebe 6b81 e93c 22be 24be 966e 1abe
000000c0: 0e73 1dbd 7e09 5b3d a350 713e 1f4f 30bd
000000d0: be4d 19be e31d 0bbd 1419 853d 0d29 e83c
000000e0: 9e45 23be 850a 4bbe 43a1 4abe f211 073d
000000f0: b97e babd 61ab 0cbc fc33 33be f578 c3bd
00000100: 5835 193e 0e46 7c3e 0011 d23d 8c6a 0f3f
00000110: bf71 bb3e 4512 563d 9769 03be 901e 3dbb
00000120: 9603 79be 1c3e 35be 4d3d 2c3d 9356 26bd
00000130: 7d86 923c 6fe4 7fbd f207 e13c 3c39 fdbd
00000140: af14 a3bc ea89 c13c d728 c1bd b5bc d5bd
00000150: c451 04bd c804 7bbb 2018 953d 65d5 53be
00000160: 3ce7 19bd 356b 12be d987 8ebd d7d0 0fbd
00000170: ba73 34be 9add 94bd 0b33 ddbc 47aa 903d
00000180: 01a9 e73c 7094 40bd 131c bc3d b4b6 0abe
00000190: 5657 a6bd 3ba7 40be 3d06 6b3d ee17 99be
000001a0: 1da0 19be 8908 b7bd 6544 13be 35aa 13be
000001b0: 0d2e a5bd 4591 b9bd 3980 a4bd e43c 353d
000001c0: 8148 1a3d 0d12 7abd d4cc a8bc 76a5 a23e
000001d0: 0874 08bc bfb7 cbbe 5b5d 123e 8e96 0a3c
000001e0: 20c4 d43e 9893 5c3c d825 ccbe c6d7 ebbd
000001f0: 617c b5bd 807b 883d 60ea 57be a046 343d
00000200: ba64 7abc 6e89 80be 7560 95bc 593d bfbd
00000210: 3429 b33d 20c0 cb3d baad b83d d318 7abd
00000220: b648 f9bd 7e48 7c3d 32e1 77bb 7cdb 1cbd
00000230: 0b31 75be 7903 3abb 6a4c f23c 195f be3c
00000240: a6d1 e63b f329 d8bc 57b3 27be 1f1b b43d
00000250: cd08 adbd 325e 75be 9775 76be 3bf9 21bd
00000260: b262 ddbd 1b18 83be c820 bfbb dc65 b4bd
00000270: 422c dbbc aee1 29be 31fd c2bd d43f cdbd
00000280: d350 233e 4afa 56be 3101 673d 6966 b4bd
00000290: c3a0 8cbc 8b26 c9bd 3d9c 7b3d 0146 5c3d
000002a0: 3ca3 a3bd cb39 1e3d 2e5f 94bd db0e 6bbd
000002b0: fc77 10be b98b 21bd 01c7 1c3d 4830 b4bd
000002c0: 8a2e 1b3d 578b 32bd f05a 033d cbba 06be
000002d0: d62e efbd b18d 7abd fc11 ae3b 7651 c33d
000002e0: 69d3 63be 10e8 52bd 94eb ec3e 28a5 393d
000002f0: 1b9b 963c e078 ebbd ca8d 42be e57c 423d
00000300: dfa0 4abd f61c 343d 6a28 5cbe f41d 07bd
00000310: 307e f33d b0ca 94bc a052 09bc 733b 6cbb
00000320: c6b7 e63c 0755 ca3d b90c 1d3e 2b52 18bb
00000330: e6be a9bd 3a85 91bd 277f 0e3d 23f7 05bd
00000340: b3e9 d43c 6e4d 91bd 5f00 f3bd 4d1c 04be
00000350: 4857 84be 5fb5 4dba 3498 5ebd ed4e ef3e
00000360: 6e4b 99bd a7d5 dc3d 4213 73bd 7a05 b03d
00000370: 34f5 37be 6156 af3d e60b dbbc 844c ae3d
00000380: 2b5f 75bd 853b a6bc dc07 7ebe d49a 1dbc
00000390: 1f66 acbd 7f03 8abe dcca 81bd c048 5abe
000003a0: 79b2 68be 9f74 b8bd c816 29bd dd3b 67bd
000003b0: 7433 6abe aecd 16be c3e8 1dbe 4e2e 22be
000003c0: 2f45 81bd b314 58be 6627 4ebd 6602 84be
000003d0: 35fb 83bd 1171 afbe 5dd6 8abe 7d0a 98bd
000003e0: 90fd 843c 1054 203d b1d4 23be 4367 af3d
000003f0: 8cb3 55be eb23 d43d 1bd1 1f3d 0dfb 363d
-0.029184299 0.116212375 -0.07980187 -0.013511226 -0.031892527 -0.09990183 -0.1273623 -0.023885995
-0.06093136 0.15421468 -0.09294214 0.054256193 -0.23185286 -0.13909286 -0.09640657 -0.049172122
-0.07237468 -0.092568316 0.5706489 -0.14535296 -0.22959076 -0.09018588 -0.18452024 -0.21545675
-0.11083004 -0.15857407 -0.140691 -0.08199994 -0.03181833 -0.23742501 -0.17980671 0.010250474
-0.008138465 -0.17890818 0.037911117 -0.03055709 0.00808638 -0.0619075 -0.078876324 -0.104193695
0.006732535 -0.070035525 0.03403684 -0.051690914 -0.13943194 0.028504094 -0.16088155 -0.15081248
-0.038439803 0.05347585 0.23565917 -0.043044206 -0.14971063 -0.03396405 0.06498924 0.028339887
-0.15944526 -0.19828232 -0.19788079 0.0329761 -0.09106202 -0.008585782 -0.17500299 -0.09544555
0.14961755 0.24636099 0.10257149 0.5602195 0.3661022 0.052263517 -0.12833248 -0.0028857328
-0.24317774 -0.17699474 0.04205065 -0.040609907 0.017886395 -0.06247371 0.027469609 -0.12364432
-0.019907324 0.023625333 -0.09431618 -0.10436384 -0.03230454 -0.003830241 0.07279992 -0.20686872
-0.037574038 -0.14298709 -0.06959505 -0.035111275 -0.17622271 -0.0726883 -0.027001878 0.07063728
0.02827883 -0.04701656 0.09185042 -0.13546258 -0.08122127 -0.18813793 0.057378996 -0.2990107
-0.15002485 -0.08937175 -0.14381559 -0.14420398 -0.08065424 -0.09060911 -0.08032269 0.044247523
0.0376668 -0.06105237 -0.020605482 0.31766862 -0.008328445 -0.39788625 0.14293425 0.008458747
0.41555882 0.0134629235 -0.39872622 -0.11515765 -0.08861614 0.06664181 -0.210855 0.044012666
-0.015282804 -0.2510485 -0.01823447 -0.09337873 0.08748093 0.09948754 0.09017511 -0.06105883
-0.12172072 0.06159257 -0.0037823436 -0.038295254 -0.2394449 -0.0028383418 0.029577453 0.023238705
0.007044035 -0.02638719 -0.16377006 0.087942354 -0.08448944 -0.23961714 -0.24068294 -0.039544325
-0.1080984 -0.2560433 -0.0058327653 -0.08808491 -0.026754502 -0.16589996 -0.09520949 -0.1002194
0.159488 -0.20993915 0.05639762 -0.08808596 -0.0171665 -0.098218046 0.061428297 0.0537777
-0.07990119 0.038629334 -0.072447166 -0.057387214 -0.1410827 -0.03943989 0.038275722 -0.087982714
0.03788618 -0.043589916 0.032069147 -0.13157193 -0.11678855 -0.061170284 0.0053122025 0.09537022
-0.22248615 -0.051490843 0.46273482 0.04532352 0.018384507 -0.114976645 -0.189994 0.04748239
-0.049469825 0.04397293 -0.21499792 -0.03298755 0.11889303 -0.018163055 -0.008381516 -0.0036046177
0.028163802 0.09879499 0.15336885 -0.0023242335 -0.08288364 -0.07105489 0.03478923 -0.03270639
0.025990343 -0.07094847 -0.11865305 -0.12901421 -0.2584784 -0.0007847156 -0.05434437 0.46739903
-0.0748509 0.107829385 -0.059344538 0.085947946 -0.17964631 0.08561397 -0.026739072 0.08510688
-0.059905212 -0.020292053 -0.24807686 -0.009619433 -0.084179156 -0.26955792 -0.063375205 -0.21316814
-0.22724332 -0.09006619 -0.04128149 -0.056453574 -0.2287119 -0.14726898 -0.15420823 -0.15837976
-0.06312024 -0.21101646 -0.050330542 -0.2578308 -0.06444398 -0.3426595 -0.2711667 -0.074238755
0.01623419 0.03914267 -0.15999104 0.085646175 -0.20869273 0.10358413 0.039017778 0.044673014

fc.weight f4 [4, 128]
00000000: 7794 35bd db93 6e3e d83b 993c 304f b2bd
00000010: 6a35 113d 72b2 a93c a54e 45bd 9c95 84bd
00000020: 81f2 04be 5a4a 8dbd ac08 473d 0e63 92b9
00000030: 8bce bfbc be05 b6bd 0a72 383d 69ec 373e
00000040: b1ca 7dbd e404 2bbe bade 90bb cb06 703b
00000050: 807d 573c 41c7 58bb 9795 0d3e c4d8 32bd
00000060: 6a4a 153e 7156 203c e819 f23d 4577 0fbe
00000070: 6bfc 32be 7cdc 39bd e89b c5bd ed64 e83d
00000080: b51b 0e3d 7747 43be 5c09 9b3c 2e9f 9d3d
00000090: 9291 0f3e 8a96 d3bd adfc f13c 99de fcbc
000000a0: c1ed 193e 3d35 393e aa6f 15be 6cce 883d
000000b0: 729c 9abd a7b9 84bc 71a9 1c3e 55d4 9fbd
000000c0: 20e0 11be 59ef 5abe d7b6 2b3e 155c 7b3d
000000d0: 8fa2 3439 0d3f 273d f20f c0bd 00d1 57bd
000000e0: 9cc2 6b3d 756c 6fbd 3a43 e73d 8c17 ffbd
000000f0: b7a4 8e3d 0d4f b1bb c4ea 033e cb93 c4bd
00000100: fb87 94bc b8bb 4ebc 08e4 9d3e 1646 a4bb
00000110: c04f 003e 1b7b e63d 39b2 26bd c875 adbc
00000120: ccc0 e0bd d49a 9d3c ced7 003e 6b05 053e
00000130: 8a61 783c 4dbf abbd 87f2 6b3d 18cc 883d
00000140: 3398 05be 2ed4 283d a2c4 a0bc f835 06bb
00000150: 1dce 5b3e 19bc 72bd 4dbe a6bd 8c0b a8bd
00000160: 90f9 bcbb 5958 15bd 0c14 1fbd 8f4d 12be
00000170: 45bf b83d df14 6ebc 3391 6e3e 59dd 123e
00000180: e6a4 9bbd 37ea c0bd 33cd 51bd d1ed 223d
00000190: e3e8 96ba 2cf1 8b3a feeb adbc 0e9c cfbd
000001a0: 6344 ffbd 9e29 3abe 2cea cf3d 3bd8 92bd
000001b0: 9c9e f43c bb90 5b3c 9da1 69bd 559e c53c
000001c0: e4c8 223d 8295 983d 4f26 26be b834 4c3f
000001d0: f900 d5bb 4e71 303e 1081 df3e 1238 12bc
000001e0: 6a47 af3e c5dd d5bd c7fe 733b fc33 26bd
000001f0: 1b81 7dbd 6c14 043c 84d8 133d 01e7 833d
00000200: ae48 f5bd 5a40 0dbe 99b6 1f3d 95d9 fcbd
00000210: 7e8e 79bd c8d3 013e d958 a0bd 2a5b babd
00000220: 7cc4 4abe 809b 763d 1ec1 97bc cefe ad3c
00000230: ff02 6d3d b305 1bbe 9c09 4d3d 988f 8e3d
00000240: d729 b0bd 2b31 32be 99fb 1b3c 36ca e0bb
00000250: 1bce 82bb 34c7 d93b 9097 0ebe 91a0 b2bb
00000260: b9cf 813d 022d 843c f651 20bc d3ef d03b
00000270: 9c80 3ebe cbf9 80bd c340 bebb 3914 b93d
00000280: 82c3 06be 9d7e 96bd 569b aa3c 1b37 103e
00000290: 0438 0a3d 42c4 1dbe 13fd 923d c237 ac3c
000002a0: 9eaf 9d3d b255 4e3e 2849 02be 0dd6 fd3d
000002b0: ddf0 10be 8689 94bd fc48 bd3d 852d 773c
000002c0: 15f2 51be 33c3 7abd d4e4 34bd c871 d93d
000002d0: 34e6 9abb 7a07 50bc e964 9cbd 6fc6 06bd
000002e0: 68d5 79bd 1ff1 1bbe 1a39 383d 5d10 44be
000002f0: 957b b83d dfa4 203e d501 edbd 1e7b 29be
00000300: 68b8 1bbd 7dd6 5ebc 1be9 b73e 3283 13bd
00000310: d0c7 34be f3a5 123e ed4d 41be 5609 1fbe
00000320: 3268 5abb 64b3 48bd 36ca 553e d44a 6c3c
00000330: b420 39ba f5ed b2bc c90f 3b3e 06c8 713c
00000340: 53d1 0abe 39e4 1b3d 3e86 aebd 32ac 03be
00000350: 5a60 f03d e89f 78bd b65b 05bd 4ef1 06bc
00000360: aafe 2a3e 53ec 32bd 5ba3 9c3d 17fb 40be
00000370: c75c 343d e19e 35bd 11bb 833e 6307 353e
00000380: 16fd 0b3e 5a3e a13d a806 df3d fdbf cb3d
00000390: a435 a03d c759 43bd daf8 c4bd 8ad2 17be
000003a0: bf44 94be a113 88bc b352 88bd 047c 93bb
000003b0: a403 813c b9bd 043c be3a 943b 0a6a 01be
000003c0: f846 2ebe 3b38 d8bd 2aca 00be 2972 e73d
000003d0: 6838 28be cbce c23d ceec cabe acf1 21bc
000003e0: 1f6f 05bf 97a7 a1bd 5a9f 01bd 11d0 7dbc
000003f0: bbac bb3b 86a2 e83d 479e 7bbd 5588 b93d
-0.04433104 0.2329859 0.018705294 -0.0870651 0.03545133 0.020714972 -0.048170704 -0.06473848
-0.12983133 -0.06898947 0.048592255 -0.00027921092 -0.023413917 -0.08887814 0.04503063 0.17961277
-0.06196088 -0.16701084 -0.0044210823 0.0036625143 0.01315248 -0.003307775 0.13826595 -0.043663755
0.14579168 0.009786234 0.118213475 -0.14010341 -0.17479102 -0.045376286 -0.096488774 0.11347375
0.034694392 -0.1907023 0.018925361 0.07696377 0.14020374 -0.103314474 0.02953943 -0.030867862
0.15032102 0.18086715 -0.14593378 0.06679997 -0.07549371 -0.016201807 0.15299012 -0.07804171
-0.14245653 -0.21380366 0.16768967 0.061367113 0.00017226695 0.040831614 -0.09378041 -0.052689552
0.05755864 -0.058453042 0.11292119 -0.12455663 0.069650106 -0.005411035 0.12882525 -0.09598502
-0.018131247 -0.012617998 0.30838037 -0.0050132377 0.12530422 0.11253949 -0.04069731 -0.021174327
-0.10974273 0.019238867 0.12582323 0.12990348 0.015159974 -0.08386097 0.05760434 0.06679553
-0.1304634 0.041217975 -0.019625012 -0.0020478945 0.21465345 -0.059261415 -0.08141766 -0.082053274
-0.005767055 -0.036461208 -0.038837478 -0.14287399 0.09020857 -0.014531343 0.23297577 0.1434225
-0.07599811 -0.09419673 -0.051221084 0.03977758 -0.0011513497 0.0010676733 -0.021230694 -0.10137187
-0.124642156 -0.18179938 0.101520866 -0.07170149 0.029860787 0.013401206 -0.057038892 0.02412335
0.039742365 0.07450391 -0.16225551 0.7976794 -0.00650036 0.17230722 0.43653154 -0.008924501
0.34234172 -0.1044269 0.0037230717 -0.04057692 -0.061890703 0.00806151 0.036095157 0.06440545
-0.11976753 -0.1379408 0.038992498 -0.12346188 -0.060926907 0.12678444 -0.07829446 -0.090994194
-0.19801515 0.06020689 -0.018524703 0.021239664 0.057864185 -0.15138893 0.050057992 0.06960982
-0.0860173 -0.17401569 0.009520435 -0.006860043 -0.003991855 0.0066460613 -0.13925004 -0.00545127
0.06338448 0.016134743 -0.009785166 0.0063762455 -0.18603748 -0.06297644 -0.00580606 0.0903706
-0.13160518 -0.07348368 0.020826023 0.14083521 0.033744827 -0.15406898 0.07177176 0.021022681
0.07699512 0.20149878 -0.1272322 0.123943426 -0.14154382 -0.07252793 0.09242436 0.015086536
-0.20502503 -0.061221313 -0.04416354 0.10617405 -0.0047271494 -0.012697095 -0.076364346 -0.032904085
-0.060994536 -0.15228699 0.04497633 -0.19146867 0.090079464 0.15687893 -0.11572615 -0.16550872
-0.03801766 -0.013600943 0.35920033 -0.03601379 -0.17654347 0.14321117 -0.18877383 -0.15530905
-0.0033326265 -0.048999205 0.20877919 0.014422137 -0.0007062063 -0.021841982 0.1826774 0.014757162
-0.13556413 0.038059447 -0.085216984 -0.12858656 0.117371276 -0.060699373 -0.032558165 -0.008236242
0.16698709 -0.043682408 0.07648345 -0.18845783 0.044033792 -0.04434097 0.25728658 0.17678599
0.13670763 0.07873221 0.108899415 0.09948728 0.07822731 -0.04769304 -0.09617777 -0.14826408
-0.289587 -0.016610922 -0.066563986 -0.004500868 0.015748806 0.008101874 0.004523604 -0.12638107
-0.1701926 -0.105576 -0.1257712 0.11301071 -0.16427767 0.09512099 -0.39633793 -0.009884279
-0.5212268 -0.07893293 -0.03164611 -0.015491501 0.005727378 0.11359124 -0.061430242 0.090592064

fc.bias f4 [4]
00000000: 3266 713e 6f98 193e 1923 653e 2f21 3c3e
0.2357414 0.14999555 0.2237667 0.18372034
