lstm_hdim_128_wsize_20_interval_7_nlayers_1_bs_512_lr_0.01_decay_0.95_epoch_31.pt (torch, 277987 bytes, 6 tensors)

lstm.weight_ih_l0 f4 [512, 4]
00000000: f539 65bd de95 16bc 0f3e e8bd 6a03 8f3d
00000010: 78ec 05bf e2d2 cc3e cab5 d4be 9747 6d3e
00000020: fb1c febd 69f8 a9bd 26cb 853d b41f 893d
00000030: 4773 e3bd df9a 6ebb 148f 203e ccee 37be
00000040: b217 2ebb 7652 a8bd 095f 53be 0e92 443e
00000050: 5f19 38be b373 b43a 7348 a13b 6bbe cd3d
00000060: 4b13 79bd bc86 43bd 12d9 94bc 91bc 83bd
00000070: 11e3 33bd 1ba2 dbbd 9d03 8abc f4ed b1bd
00000080: 7cb6 113e 6461 613e 23c6 ecbd 5823 f1bd
00000090: c928 1dbf 509d 043e 2b87 3dbf 3545 5c3e
000000a0: 442d 5bbe 4d92 6cbe 5b5e 91bd 4217 3ebe
000000b0: e7d6 86bb 34a2 323d 7ad8 1d3d 673f 843e
000000c0: 9efa 13be cf6e a8bd 31ac 8bbf e8e6 05c0
000000d0: 20f7 96bd 7b1b dc3d 22b1 d5bc 8bb9 29be
000000e0: a523 4abe abe9 113e bf54 16bf 77a1 23bf
000000f0: 8128 593e 401f d53b fca2 5dbe 3547 8d3d
00000100: 5efe 1e3d 45dd 93bd f2c1 f5bc 4df8 d8be
00000110: fa33 0c3e 6de3 0b3e 096f 033e 178b b9bb
00000120: 3051 803e 75f1 233f 4d0a c7c0 30ef 03c0
00000130: 477d c7be d4c4 ccbe 5994 2040 363d 5c40
00000140: 243d 65be 2c8a 58be 908b 4a3e d6bf 0abf
00000150: e0d3 4cbd 3428 15bd 56f2 e1bf 9a21 8cbf
00000160: 1123 ebbe b423 b6bc 0460 c83b faf0 043e
00000170: c822 61be 8fab 41be a8f1 6abe 6d46 cbbe
00000180: d2bd 9f3d 64de 26be 9b97 6bbd 40e7 533e
00000190: 4bc5 54bd f3f0 e4bd d93b 823e a7f3 0140
000001a0: 6832 053d cefe 47be f730 1cbe bcdd 703e
000001b0: adaf 9f3e db50 4fbd 07b2 bebd 3ff6 f5bd
000001c0: 39ac aa3d 2b00 193e b6fa 9e3b 71fc 0c3e
000001d0: edd3 b0bd c8ea a1be 4688 05bf fcf1 ca3e
000001e0: 2df8 a53d d173 eebd 15d4 613e a673 c6bd
000001f0: 9935 953d ce4d da3c 48eb 843c c685 8e3d
00000200: 5c42 6f3d c47b ab3c 7478 823e 98a5 8d3d
00000210: 9747 253e ff7a 05be 59bb b4be e0d1 d4be
00000220: a3ef 503e 3f64 a1bb 74dc 833e 2365 bbbf
00000230: 22d5 46bd db9e 9a3c 2305 733c 0753 dabc
00000240: 6cbf 143e 436a 77bd 2830 133c af29 0dbe
00000250: 41ad 873c 046f 203e aef1 633e 76b2 143e
00000260: 8acd d1bc f4c1 1dbb 106b 2bbe 2611 043e
00000270: 263d c7bd 27bc e2bc 11cc 5e3e 6085 4cbe
00000280: 0676 1f3e a32c cbbd aa44 c5be 8c12 3cbe
00000290: 6e89 373e aeac 5c3e 4b8a c03d 50b9 273d
000002a0: 7ec0 c33d 4ef6 203e d673 40be efe5 5cbd
000002b0: 34b6 71bd b808 4e3d 1bec 523d c85d c1bd
000002c0: 8b4b 96be a847 9ebd c1f9 14be bf13 bbbe
000002d0: 8327 07bf 198a f83d ab3d 403f 1ae5 a3bf
000002e0: af91 a33d 2282 d93c 8994 2fbe 8a61 a03d
000002f0: 0904 cabc b179 9ebe c515 f4bd 21ea 42be
00000300: d63f 033e 2c62 683e 7389 8abe 5178 813d
00000310: 14d0 a13e b202 47be 7ab7 eebc 73a4 593d
00000320: 5ae2 083e 6ae6 3f3e 8ae3 313e 437f e9be
00000330: 25e5 3fbd 38b6 e73d 8b24 f2be 7503 efbe
00000340: f9b7 d1bd 1fb3 a0be bc86 053e 03b2 f540
00000350: d109 3a3d d575 6abd 1838 5bbf 0a5a 0bbf
00000360: 8450 e63d 94cd b43d b482 c4bd ee0b 523d
00000370: ccae 98bc cb1c 8abd cbfa f13f f8de 013f
00000380: 5cbc fabd 168c bebe 9a53 6cbc 4900 d0be
00000390: fe6a 9abe a94f 0d3e 6d46 d6bd 14f8 79be
000003a0: 1c84 b7be cbdd 7bbe bac8 713d 6528 1cbd
000003b0: 4f7a 8d3c 4faa 203e 74a2 46be f771 37be
000003c0: 8c5c 1abd 5eeb 31be efc1 b8be a1dc 663e
000003d0: c37e eabd 4ac8 543e ccdb 4c3d 6e27 313e
000003e0: ba51 18bf 070a 0fbe 05d6 f03e 4778 bfbc
000003f0: 40a5 9fbd 49cf af3d 2139 5d3d 8e34 d0bd
-0.055963475 -0.009191005 -0.11339962 0.06983073 -0.5231395 0.4000464 -0.41544944 0.2317184
-0.12407871 -0.082993336 0.06532888 0.066955 -0.11105972 -0.0036408228 0.1567958 -0.17962188
-0.0026564416 -0.08218853 -0.20641722 0.1919634 -0.17978428 0.0013767391 0.0049219667 0.10046085
-0.060809415 -0.047735915 -0.018169913 -0.064324506 -0.04391772 -0.107242785 -0.016847426 -0.08687964
0.14229769 0.22009808 -0.11561229 -0.117743194 -0.6139036 0.12950635 -0.74034375 0.21510775
-0.21403986 -0.23102684 -0.07098075 -0.1856356 -0.004114974 0.04361172 0.038536526 0.25829622
-0.14451072 -0.0822426 -1.0911924 -2.0922184 -0.07371354 0.10747429 -0.02608544 -0.16574685
-0.1974016 0.14249294 -0.5872306 -0.6391825 0.21206857 0.0065039694 -0.21644205 0.06898347
0.038816802 -0.07219938 -0.029999707 -0.42376938 0.13691702 0.13660975 0.12835325 -0.0056623328
0.2506194 0.6404031 -6.2200074 -2.0614738 -0.38962767 -0.39993918 2.5090544 3.441236
-0.22386605 -0.21146458 0.19779801 -0.5419897 -0.050006747 -0.036415294 -1.765208 -1.0947754
-0.4592519 -0.022233821 0.0061149616 0.1298255 -0.21985924 -0.189131 -0.22943747 -0.39702168
0.07799877 -0.16295773 -0.05751763 0.20693684 -0.051945966 -0.1117877 0.25436285 2.0304964
0.032518774 -0.19530794 -0.15253054 0.23522085 0.31188717 -0.05061422 -0.093113 -0.12009858
0.0833363 0.1494147 0.0048516644 0.13768174 -0.08634172 -0.31624436 -0.5216106 0.39637744
0.081039764 -0.11643184 0.22053559 -0.09690027 0.072856136 0.026648428 0.016225472 0.06959109
0.058412895 0.02093304 0.25482523 0.0691635 0.1614059 -0.130352 -0.35299185 -0.41566372
0.20403914 -0.0049252803 0.2575413 -1.464024 -0.048543103 0.018874576 0.014832768 -0.026650919
0.14526147 -0.060404073 0.008983649 -0.13785432 0.016562106 0.15667349 0.22260162 0.14521202
-0.025610704 -0.0024071904 -0.1674006 0.12897167 -0.0972846 -0.027677609 0.21757533 -0.19972754
0.15572366 -0.09920623 -0.3852895 -0.1836645 0.17923519 0.21550247 0.09401377 0.040948212
0.09558199 0.15718958 -0.18794188 -0.05393022 -0.059011653 0.050301284 0.0514947 -0.094417155
-0.2935451 -0.07728511 -0.14548399 -0.36538503 -0.52794665 0.12135715 0.750941 -1.2804291
0.07986771 0.02655131 -0.17146505 0.07831104 -0.024660127 -0.30952218 -0.11918215 -0.19034626
0.1281732 0.226937 -0.2705799 0.06321777 0.31604064 -0.19434622 -0.029140223 0.053135347
0.13367596 0.1874024 0.17371956 -0.45604905 -0.04684939 0.11314052 -0.47293505 -0.46682325
-0.10240168 -0.3138666 0.13039678 7.67798 0.045419518 -0.05724128 -0.8563247 -0.54434264
0.11245826 0.088282734 -0.09595242 0.05128091 -0.018638037 -0.06743773 1.8904661 0.5073085
-0.12242958 -0.37216252 -0.014424229 -0.40625218 -0.30159754 0.13799919 -0.104626514 -0.2441104
-0.3584298 -0.24596326 0.05902932 -0.03812446 0.017270235 0.15689968 -0.19397908 -0.17914568
-0.037685916 -0.17374942 -0.3608546 0.22545101 -0.11449959 0.20779529 0.050014302 0.17300197
-0.59499705 -0.13968669 0.47038284 -0.023372782 -0.07795191 0.085844584 0.05400956 -0.10166274

lstm.weight_hh_l0 f4 [512, 128]
00000000: e97b 05bd 3f2d 91be 3a19 b73c 6d3f bc3d
00000010: 76e7 343e c263 bf3c 2ac5 65bd 032f 503d
00000020: decb 2cbd 5daa cb3e 29f2 89bd 3749 06be
00000030: b845 e13e 5307 ec3d 2c5f adbc 29a9 7fbd
00000040: d387 813d 8685 cd3d 6a3b fabe 2093 9f3f
00000050: 5d21 0a3e a043 7b3e 3335 36ba 208c 74bd
00000060: 020b e8bc 4106 b5be a035 2fbd 77da 62bd
00000070: d14c 8ebc e9b9 403c 23c0 89bb 6586 5a3d
00000080: 50ec a9bc 7ebe 83bd c9ca abbe c084 0ebc
00000090: 8188 ae3c 14ba 753d 5cc4 b03c ff07 4dbd
000000a0: 907d 0fbe 2d86 9e3d 863a 6d3c 9c1d 89bd
000000b0: 16d0 893d 535f 34bd 226a 623c 809e 283c
000000c0: 9b1a de3c ca5c 053d e3bb 8bbe 4083 40be
000000d0: 408d 39bf 9f99 ce3c cccd dabd e211 27be
000000e0: e7a7 35bd 379f a33d 1611 e7be b0ea 123d
000000f0: 64ff 04be d5e4 a33d 38cd b9bd 901f ff3c
00000100: dfcf a33e 46f7 3c3e 354e 0bbd 6585 433d
00000110: f6c3 4abd 536a be3d 436a 083e c6bd b93d
00000120: 7b95 b1bd 6234 f43d 6718 bd3e 3612 0abe
00000130: 65a5 8bbb fd5f afba aa8d 72bd dded 50bd
00000140: 7bd8 f83b 1dce 843e 48d8 00be d5c6 bc3d
00000150: 2124 bf3e 43a5 eb3d 5422 3dbc d2f3 9fbd
00000160: 5578 4abd df01 983e 5a76 78be 2091 113c
00000170: 9c42 5bbd f7d3 eb3d f136 cabc 493d df3c
00000180: cd55 49bd f74a 063d efac 30be 38e0 b2bc
00000190: c240 1a3d 788a c3be 79e4 f7bd ff25 b03d
000001a0: 8f2c 213e d6aa 933d 580c 473e 017c 95bc
000001b0: b906 ad3e 4e92 0abe 1f08 6cbe 5a19 edbd
000001c0: 9461 903d 099d b23c 417a e33d 92ac 7fbe
000001d0: fe98 413d 0a5f 87bd fe33 2b3e d812 16be
000001e0: 6729 4c3e 6f35 0f3e c804 373d b358 3bbd
000001f0: 147d 82bc 2837 253f 9cbb 4d3d fa2c 3a3f
00000200: c79b a93e 2e23 40bf a3e8 10bf 8a3c 823e
00000210: 39fa 803e 181c 5fbe 1854 083f 81b8 a23e
00000220: d0c9 e83e 9035 c2be 877b 10bf d3d5 193f
00000230: 4eb8 bdbf 0575 f13e 9deb c8be 363e 74be
00000240: ca5d ec3e df4a e23e 0547 9ebf 51b5 a43e
00000250: 1ff7 9b3c d4bd 143f 265d 0c3e a2c2 ecbe
00000260: 68ce b7be b417 afbd 85e8 943e 4a45 5c3f
00000270: 1f95 b43e c3fe debc 3290 213f 6edc fdbd
00000280: 3969 d1bf ceca 9d3e 6c66 9dbf 4ebc 9dbe
00000290: a0b9 e4be 0c88 1d3f 1bd2 043e e3df d2bf
000002a0: 8b04 6abe c366 00bf 45dc d13e 6783 8fbe
000002b0: a2b6 a43d 2fbf 163f 39a5 53be a151 82be
000002c0: 6463 c53e 9b97 e03e 2e23 803f 2d69 ce3c
000002d0: 9c09 4c3f def3 7dbe 2915 edbe 39af 45bf
000002e0: a3ff cd3e bac3 0e3e a883 71bf b209 e73e
000002f0: 30c0 f7be 9a3e 81be c6a2 533f 9183 c03e
00000300: 083c 8abe df1b 82be 3c59 56be 5773 21bf
00000310: f7b7 0e3f 06e0 4f3b 58af 9a3e 101d 063f
00000320: b429 833e b512 c3bd 57ef 02bf 5161 643e
00000330: fa87 95be 75c2 353e 7a23 f2be a321 c7be
00000340: b711 8b3e da79 1a3f cb2d 49bf 9686 6a3d
00000350: 75c6 2ebf 7e2e 723e b924 483e d9c7 1bbf
00000360: 1851 c1be 4dcb 8f3f 3d75 83bf 02cd 073f
00000370: 9697 cabe 3d44 ae3d 2c33 09bf 3a84 09bf
00000380: 98a7 4ebf 4d09 293f 6395 e8be 75d2 b3bd
00000390: 9b7b 6a3f 46a1 cebd ed01 9bbf bed4 70b9
000003a0: 2864 20be 5971 a93e fbf2 1e3e aa2a 0fbd
000003b0: de27 5e3d a944 293f f8af 4abf d916 d83e
000003c0: 5bd9 383f 0a9f 6bbe a2e7 243f cc85 adbf
000003d0: 751f d73e e997 033e 50a7 f9bd f28e 243f
000003e0: 1476 383f 4ba3 c1bd ada9 f43d e9d9 36bf
000003f0: f99b 063d 4076 8f3d 3e72 bebc 98ef 03bf
-0.032588873 -0.28354833 0.022350896 0.09191785 0.1766642 0.023362998 -0.056096233 0.050826084
-0.04218661 0.39778414 -0.067356415 -0.13113867 0.43998504 0.115248345 -0.021163546 -0.062417183
0.063247345 0.10035233 -0.48873454 1.2466774 0.1348929 0.24537516 -0.00069506763 -0.059703946
-0.028325561 -0.35356334 -0.04277575 -0.055384126 -0.017370613 0.011763074 -0.0042038127 0.053350825
-0.020742565 -0.06432818 -0.3355315 -0.008698642 0.021305325 0.05999191 0.021578006 -0.050056454
-0.14012742 0.07740436 0.014479285 -0.06695101 0.06729142 -0.04403622 0.013819249 0.010291696
0.027112296 0.032559194 -0.27291784 -0.18800068 -0.72481155 0.025219737 -0.10683784 -0.16315416
-0.044349577 0.07989352 -0.45130223 0.035868347 -0.12988049 0.080026306 -0.090723455 0.03114298
0.3199453 0.18453702 -0.03401013 0.047734637 -0.04950329 0.092976235 0.13321786 0.090693995
-0.08671089 0.11924054 0.3693268 -0.1348351 -0.00426166 -0.0013380047 -0.059217133 -0.051008094
0.007594166 0.25938502 -0.12582505 0.09217612 0.37332252 0.115061305 -0.011543829 -0.07810177
-0.049431164 0.29688928 -0.24263898 0.008884698 -0.05353032 0.115150385 -0.024684401 0.027250903
-0.04915409 0.032786336 -0.17253469 -0.021835431 0.037659414 -0.3819158 -0.121041246 0.08600997
0.15739654 0.07210319 0.19438303 -0.018247606 0.3379419 -0.13532373 -0.23049973 -0.11577101
0.070498616 0.021803396 0.111073025 -0.24968174 0.047265045 -0.06609924 0.16719052 -0.14655626
0.19937669 0.13985227 0.044682294 -0.045738887 -0.015928783 0.64537287 0.050227746 0.7272488
0.3312666 -0.7505368 -0.56604975 0.25436813 0.25190905 -0.2178806 0.53253317 0.3178139
0.4546647 -0.3793149 -0.5643849 0.60091895 -1.482187 0.4715959 -0.3924226 -0.23851857
0.46165305 0.44197747 -1.2365423 0.32169583 0.019038735 0.58102155 0.13707408 -0.46242243
-0.35899663 -0.08549443 0.29083648 0.86043227 0.3527002 -0.02722109 0.6311065 -0.12395559
-1.6360236 0.3081879 -1.2296882 -0.30807728 -0.4467287 0.61535716 0.12970774 -1.6474575
-0.22853296 -0.501568 0.40988365 -0.2802994 0.08042647 0.58885473 -0.20668496 -0.25452903
0.38552392 0.43865666 1.0010736 0.025196636 0.7970216 -0.24800059 -0.46305206 -0.77220494
0.40234098 0.13941851 -0.94341516 0.45124584 -0.48388815 -0.25243074 0.8267025 0.37600377
-0.26998925 -0.2541189 -0.20932478 -0.6306662 0.5574946 0.0031719222 0.30211902 0.52388096
0.25617754 -0.095250525 -0.51146454 0.22302748 -0.29205304 0.1774996 -0.4729269 -0.3889285
0.27161953 0.6034218 -0.785855 0.057257257 -0.6827157 0.23650548 0.19545259 -0.6085182
-0.37757182 1.1233917 -1.0270153 0.5304719 -0.39568776 0.08509109 -0.5359371 -0.53717387
-0.8072448 0.66029817 -0.45426473 -0.08780376 0.91594857 -0.10089354 -1.2109963 -0.00022967436
-0.15663207 0.3309429 0.15522377 -0.034952797 0.05423724 0.6612039 -0.79174757 0.4220493
0.7220666 -0.23009887 0.64415944 -1.3556457 0.42016187 0.12850918 -0.121901155 0.6428062
0.7205517 -0.09454974 0.119464256 -0.71426255 0.03286359 0.07004976 -0.023247834 -0.51537466

lstm.bias_ih_l0 f4 [512]
00000000: aaae bcbd ec17 063e 40de 3ebe 82e3 f2bd
00000010: 3b22 c3bc f635 5abd c113 963c 5269 7dbd
00000020: 85a3 2fbc 42d2 1a3e 27b8 1cbe 901b 5ebd
00000030: 52f8 69be 3ac5 443c 676e 42be 4606 b73c
00000040: 0571 ffbc 4c05 313d 1c25 0e3f 3692 2ebe
00000050: 9f2f 2ebe ff70 c9bd 61da 07be 182e 46be
00000060: 1aec 85bc 1c14 89be e292 e9bd 7cb5 863d
00000070: 73a4 dabc 635f 91be a0f7 56be 2b1d 323d
00000080: 1c6a a7bd 56c6 24be cb71 723d 8538 07be
00000090: 38fa a3bd da02 dbbc cd2a 18be 6bed cebd
000000a0: 3687 53bb 413a 9b3c eef6 c3bd 668b 1fbd
000000b0: 364f 32bd 6414 23bd ace3 02be 93a7 73be
000000c0: 6402 71bd 02b1 573d 0b5d bb3d 51d6 4ebd
000000d0: 204b c0bd c416 d8bc 0246 23bd 5a1e 07be
000000e0: 0f27 18be 8691 52be 8996 b2be 1ffd 673d
000000f0: 1c80 22bd a47e 06bd eebc 17be cc3f 02be
00000100: 96fa 153e c2f6 b43e b00c 1e3e 75b5 1c3f
00000110: 3921 9d3e 0134 57bd 57cc 0fbe 5521 1fbd
00000120: a8fe 0cbe 1551 08be 136a e3ba cec0 00bc
00000130: 1a4c 1dbc 3f53 0abe 1a4d 94bd 9b08 c6bd
00000140: d165 33bd 4f19 71bd 9c4e 11be 32e1 943c
00000150: dfef f0bb f4de a5bd 29a5 b83b b511 88be
00000160: 6de5 debd 8274 4dbe 936c c5bd abfb 643d
00000170: 42bb 5dbe a6c2 d2bd 2f8c 3ebd f94f a03c
00000180: f5c1 d13c 1499 8e3c b581 853d f560 4ebe
00000190: 39ce b7bc e68b 4bbe 9844 65bd 79a0 50be
000001a0: 6761 89bd cbac e9bd 8531 74bd b37a 49bd
000001b0: 403f 0ebe 7615 babc 9fab e4bd a8c6 a03d
000001c0: aab2 acbd c503 1e3d ad5e 13be b752 873e
000001d0: b439 1bbd e2c5 cbbe 521b 493e 014a 233d
000001e0: 4d1a 103f 616c dfbd a548 78be c3a5 fdbc
000001f0: 88d1 4dbe c90b 74bb d2e0 17be 7790 aa3d
00000200: d858 20be 63dc 58be 4d6f 87bd a3a1 593d
00000210: 3ab9 3abd ec36 a33d 9860 6e3d 1fae 94bd
00000220: cd36 273d deed bf3d af46 b6bd 64cf e3bd
00000230: b775 83be b3c0 f1bd 4506 2e3e e14f 28bd
00000240: 5249 cebd a48a 7a3c 9620 19be bc94 ad3d
00000250: 3771 01be ee10 2cbe 8f5f fdbd 7b7b abbd
00000260: b0ad 083d cb90 07be b297 a8bd 33bc 88bc
00000270: 49cf 08bd 476b 61be ee7b b5bd b5ba a7bd
00000280: 8c61 103e a421 b4be acaa 0e3e ee10 0c3d
00000290: 75f5 f1bc 6b21 dcbc edbd c33c 627a 87bd
000002a0: 3c9d a7bd 6c78 b6bc 8e76 2b3d c13a 843c
000002b0: d15c 16be 7a3e fabc c45c 32bd 352c dbbd
000002c0: cd28 81bd 9929 373c d8f6 6a3d ee25 b0bd
000002d0: 982d 0ebe 8cc2 cfbd 56df bebb cec2 4dbd
000002e0: 0c05 18be a600 63bc 347f 043f 779d 0fbd
000002f0: 6325 4abd a604 34bd ccfc 44be 1eed a93c
00000300: 5aef 2cbe 0483 c03d 2b89 48be 28d1 00be
00000310: 16fd e23d 3e42 013d 1d12 933d d06b e23b
00000320: d110 3e3e d202 d2bb c8a1 2e3e ab2e 8c3d
00000330: 829b c0bd 93ad d2bc 0fca 0ebd da92 d83a
00000340: e5f9 793c b95d 9ebc 6e62 12be b8c3 75bd
00000350: c070 03be b352 d1bd 6e88 93bd 2638 023f
00000360: 68c2 e9bd 5bbe 0c3e 43de febd 275f a33d
00000370: 97e3 20be 07f7 303e ddd3 243d 47cc 523c
00000380: cdc1 b3bd 6a67 8abc b661 63be 762b 743d
00000390: 769b 4bbd 3da5 1bbe 588e 8c3c cd6f 34bd
000003a0: 346a fabd 9bec aabc 7469 373d b827 b3bd
000003b0: e276 6cbd 2bcc a8bd eabe 0cbe ab6f b4bd
000003c0: 1500 3bbd 775d 43be fb8c a0bd 9b3c a0be
000003d0: d1a7 ebb9 ff2d 2bbe 7893 1dbe f7fe 4c3d
000003e0: de3d ab3c 2e84 9cbd 42f0 36be 68a0 f23d
000003f0: b5b9 53be 802e 9b3d cf21 98bd c80f a0bb
-0.09213002 0.13095063 -0.18639469 -0.118598 -0.023820033 -0.053274117 0.018319966 -0.06186802
-0.010720138 0.1511927 -0.15304624 -0.054225504 -0.22848633 0.012009913 -0.18987428 0.022341859
-0.031181822 0.043217942 0.55525374 -0.17047963 -0.17010354 -0.098360054 -0.13266899 -0.19353521
-0.016347934 -0.26773155 -0.11404969 0.06577584 -0.026689744 -0.28393087 -0.20992899 0.043484848
-0.08174536 -0.16091284 0.059190553 -0.13205154 -0.0800671 -0.026734758 -0.14860077 -0.10103878
-0.0032276637 0.018948676 -0.095685825 -0.0389513 -0.043532573 -0.039814368 -0.12782162 -0.23794393
-0.05884017 0.052659042 0.09148606 -0.050497357 -0.09389329 -0.026378043 -0.039861687 -0.13195172
-0.1485865 -0.20563325 -0.34880474 0.05663788 -0.039672956 -0.032835618 -0.14818165 -0.12719649
0.14646372 0.3534451 0.15434527 0.6121438 0.3068941 -0.05253983 -0.14042793 -0.038850147
-0.13769019 -0.1331218 -0.0017350338 -0.007858468 -0.009600664 -0.13508318 -0.072412685 -0.0966961
-0.04379827 -0.058862027 -0.14190143 0.018173788 -0.0073528136 -0.080991656 0.005634923 -0.2657601
-0.10883603 -0.20063975 -0.096398495 0.05590407 -0.21653464 -0.102910325 -0.04652041 0.019569384
0.025605181 0.017406978 0.0651888 -0.20154174 -0.022437202 -0.19877586 -0.05597362 -0.20373715
-0.06708031 -0.11409911 -0.059617538 -0.04918928 -0.13891315 -0.022715311 -0.111655466 0.07850391
-0.08432515 0.038577814 -0.14391585 0.26430294 -0.037896827 -0.3979941 0.19639328 0.039865497
0.5629013 -0.109093435 -0.24246462 -0.03096283 -0.20099461 -0.003723847 -0.14831856 0.08328336
-0.15658891 -0.21177821 -0.06613026 0.053132664 -0.045586802 0.0796946 0.058197588 -0.072597735
0.040823746 0.093715414 -0.089002006 -0.11123541 -0.25675747 -0.118043326 0.16994579 -0.041091803
-0.100725785 0.015291844 -0.14953837 0.084756345 -0.12640844 -0.16803333 -0.12371742 -0.083731614
0.033368766 -0.13238828 -0.082320586 -0.016691303 -0.033400808 -0.2201358 -0.08861528 -0.081899084
0.14099711 -0.35181916 0.13932294 0.034195833 -0.029535988 -0.026871404 0.023894275 -0.066151395
-0.08184287 -0.022274218 0.04186111 0.016141297 -0.14683844 -0.03054737 -0.0435455 -0.10701791
-0.0630661 0.011179351 0.057364315 -0.086009845 -0.1388458 -0.10144529 -0.0058249636 -0.05023461
-0.14845675 -0.013855135 0.51756597 -0.03506228 -0.04935206 -0.043949746 -0.1923706 0.02074295
-0.1688818 0.09399989 -0.19583575 -0.12579787 0.110834286 0.031557314 0.07181189 0.006909825
0.18561102 -0.0064090276 0.17053902 0.06844839 -0.09404661 -0.025717532 -0.034860667 0.0016523257
0.015257333 -0.0193318 -0.1429536 -0.060001105 -0.1283598 -0.10220852 -0.07203756 0.50866926
-0.11414033 0.1374449 -0.12444737 0.07977133 -0.15711819 0.17281733 0.04024111 0.012866086
-0.08777199 -0.016895015 -0.22205243 0.05961176 -0.049708806 -0.15199752 0.017157719 -0.044051934
-0.12227288 -0.020864775 0.044778302 -0.0874781 -0.057730563 -0.08242067 -0.13744703 -0.088103615
-0.045654375 -0.19078623 -0.0783939 -0.31296238 -0.00044947726 -0.16716765 -0.15388286 0.05004784
0.020903524 -0.07642399 -0.17865089 0.11847001 -0.2067631 0.075772285 -0.074283235 -0.004884694

lstm.bias_hh_l0 f4 [512]
00000000: 5174 06bd ad20 ef3d 64e5 d9bd 44d8 46bd
00000010: 0092 f6bc 73f3 d2bd 899d 0fbe 9130 1ebd
00000020: 2155 84bd f788 183e 09f7 a6bd 2429 813d
00000030: 6e9b 82be 04d1 17be 1dd0 c1bd fac0 41bd
00000040: 5954 a9bd c172 cbbd 6734 0f3f e41f 37be
00000050: c607 67be ce8e a4bd 195f 43be 5c31 50be
00000060: 6c64 fabd fbd2 2cbe 2e01 26be d27b 9bbd
00000070: 6382 25bd 0478 88be 5d59 4fbe 978d b73b
00000080: 7fb4 5bbc c0b3 44be f874 903d 9fbc 3dbd
00000090: 6244 c6ba 8b25 9abd a5a8 b6bd 89d4 fcbd
000000a0: e43f 11b9 7ed3 9cbd f22d a23c ee85 85bd
000000b0: 28fd 1ebe f2d3 2b3d f68b 2fbe 468c 49be
000000c0: 7542 37bd cf28 453d 0edf 643e 9995 12bd
000000d0: eb43 20be a2a2 29bd 7676 6e3d 8bb5 b6bc
000000e0: 9844 1abe 2916 53be 9eed 58be 5dbd ab3c
000000f0: c451 e5bd 0990 c3bb 444e 37be 8dd8 dfbd
00000100: f211 133e 2651 713e f1f4 e63d 016a 133f
00000110: e710 ba3e 9181 2b3d bb77 10be 0868 7abc
00000120: 7cec 87be 1367 44be 6687 0a3d 8712 59bd
00000130: 3327 183b fa63 afbd 0dbc 8d3c 5c92 2cbe
00000140: cfbf 13bd 36a9 013d 92b5 abbd db4d e5bd
00000150: 23fb 3bbd d57e 3bbd 5f29 833d be7e 5cbe
00000160: 4c6b 45bd 039f 15be aa3d 99bd 339d 3cbd
00000170: d23f 2fbe 6866 b7bd 3bc8 ebbc 1f91 7d3d
00000180: 46b5 873c 79bf 12bd eaad 8b3d 0d9c 2abe
00000190: 6144 aebd f684 45be e884 743d 115b 90be
000001a0: 40c5 1bbe cc17 dfbd ef45 16be 87c4 12be
000001b0: a754 a0bd e0aa b5bd 6dff 9abd 1e7a 493d
000001c0: 8fd6 3f3d 0d34 1ebd eaf7 0fbd 4483 a43e
000001d0: a3b5 d4bb fe92 c9be 0966 183e 7d3f 01bd
000001e0: 0f18 f83e 5716 673c 8c45 cdbe 003a fdbd
000001f0: 22d8 d1bd 1e87 803d 1bdc 70be fcda f83c
00000200: 2091 f2bc bfb6 82be a1cc 20bd 78dd c6bd
00000210: 467a 963d b8d8 e13d 2ca8 be3d 6634 8dbd
00000220: 0130 febd e9ec 933d 8abb 033a aa85 28bd
00000230: b5e0 89be 4e3a c7bb 39de 513d a49c 273d
00000240: 88f5 52ba 4aac f7bc c9fa 2ebe ea9e aa3d
00000250: d773 85bd e226 65be 1a06 7ebe bb7d d43c
00000260: f5ad f0bd 7dee 85be 50d9 98bb 8056 c7bd
00000270: 7559 e5bc 77e2 2fbe 4dd0 a0bd 9bb3 d0bd
00000280: bb76 3d3e 6777 70be 2183 3f3d be38 b5bd
00000290: a2ee 91bc c15c e0bd 1ee5 943d 9f2c 4f3d
000002a0: cdd4 9abd b414 173d e2ce 62bd 4334 6ebd
000002b0: 7318 15be 42e1 00bd e799 043d f29a aabd
000002c0: 677d 0e3d e4a8 4ebd e363 233d 4f30 ccbd
000002d0: 0609 eebd 7405 b5bd 3906 19bc 03df a73d
000002e0: 8a36 4dbe cf2c 5ebd 1155 e83e 08ee 2b3d
000002f0: e217 a63c 4902 e4bd 7af9 2cbe 4866 333d
00000300: 0a97 91bd 325a e13c 8e02 67be a5d7 12bd
00000310: f30b 053e 16ed 74bc cdcb 3ebc 6915 2dbc
00000320: ad3e 763d e073 b23d 443e 273e 2979 1d3c
00000330: 27d4 88bd 439a a5bd 28c6 193d 8eaf 87ba
00000340: c2e2 243c ba55 90bd 6db0 bcbd 113c 1ebe
00000350: a182 7bbe 2781 a7ba eb78 9fbd 9d10 fb3e
00000360: 8ba2 a1bd c896 f43d 5083 6bbd 29e7 b63d
00000370: efe5 42be 431c cb3d 7531 c6bc c53c ae3d
00000380: 3d3f 90bd 9f8b 36bc bf37 59be ea88 55bc
00000390: 5f15 65bd 72ae 85be 0b70 abbd a738 09be
000003a0: 1a87 69be 2e9a c8bd a8b1 22bd 89e1 c3bc
000003b0: 9282 3dbe 18c7 19be 36be 33be 0993 19be
000003c0: 646c 73bd 209f 3ebe 30db 6bbd b742 87be
000003d0: d4ba 66bd 3c33 a1be 1880 87be d3cb 9ebd
000003e0: 423d 2d3c e0d2 333d 9f3c 24be 2415 ae3d
000003f0: 063e 81be 5301 d93d 3723 183d 9732 653d
-0.03282577 0.11676154 -0.10639456 -0.04854609 -0.030098915 -0.103003405 -0.14024939 -0.038620535
-0.064615496 0.14895998 -0.08152587 0.06306675 -0.25509208 -0.14825827 -0.094635226 -0.047303177
-0.08268041 -0.09933997 0.55939335 -0.17883259 -0.22561559 -0.0803505 -0.19079246 -0.20331329
-0.12226185 -0.16877358 -0.16211388 -0.07591976 -0.04040755 -0.26654065 -0.20248933 0.0056015956
-0.013409733 -0.19209194 0.0705356 -0.04632246 -0.0015126581 -0.07526692 -0.08918885 -0.12345225
-0.00013852079 -0.076575264 0.019797299 -0.06519686 -0.15526259 0.041950174 -0.17143235 -0.19682416
-0.044741113 0.04813462 0.22350714 -0.0357872 -0.15650909 -0.041414864 0.058218442 -0.022303363
-0.15065229 -0.20613922 -0.21184394 0.020964319 -0.11197236 -0.005968098 -0.1790095 -0.10929976
0.14362314 0.23566112 0.112771876 0.57583624 0.3634102 0.04187161 -0.14108174 -0.015283592
-0.2654761 -0.19179945 0.033820532 -0.052996185 0.0023216724 -0.08563991 0.017301584 -0.16852707
-0.036071595 0.031655513 -0.08384241 -0.111964904 -0.0458938 -0.045775253 0.06404375 -0.21532723
-0.04819803 -0.1461144 -0.074824646 -0.046048354 -0.1711419 -0.08955079 -0.028782 0.061905976
0.01656593 -0.035827134 0.06820281 -0.16661091 -0.08509136 -0.19289002 0.05969706 -0.28194478
-0.15211964 -0.10893211 -0.14675115 -0.14332782 -0.07828646 -0.088704824 -0.0756825 0.049188726
0.04683548 -0.03862386 -0.03514854 0.32131398 -0.0064913793 -0.3936996 0.14882673 -0.031554688
0.48455855 0.014104447 -0.40092123 -0.12364578 -0.10246302 0.062757716 -0.23521464 0.030377857
-0.029610217 -0.2553005 -0.03925765 -0.097102106 0.073475406 0.11027664 0.0930942 -0.0689476
-0.124115 0.072229214 0.0005025199 -0.041143097 -0.2692925 -0.0060799485 0.05123732 0.04092087
-0.0008047451 -0.030233521 -0.17087854 0.08331092 -0.06516235 -0.22378114 -0.24807015 0.02593886
-0.1175193 -0.26158515 -0.0046645775 -0.097332954 -0.027996758 -0.17176233 -0.0785223 -0.10190507
0.18502323 -0.23483048 0.046755914 -0.08848713 -0.017813984 -0.109551914 0.07270263 0.050579663
-0.0756012 0.03688498 -0.05537308 -0.05815531 -0.14560108 -0.031464823 0.032373335 -0.08330335
0.03478756 -0.050454035 0.03989018 -0.09970152 -0.11622815 -0.08838931 -0.0093398625 0.08196833
-0.20040336 -0.05424195 0.453774 0.04197505 0.02027506 -0.11133248 -0.16892043 0.043798715
-0.071088865 0.027508829 -0.22559568 -0.035850186 0.1299284 -0.014949104 -0.01164527 -0.010564187
0.060118366 0.08713508 0.16332346 0.009611406 -0.0668109 -0.08086064 0.037542492 -0.0010352002
0.010063829 -0.07047601 -0.09213338 -0.15452601 -0.2456155 -0.0012779579 -0.07786735 0.49036112
-0.07892331 0.11942822 -0.057498276 0.08930809 -0.19033025 0.099175 -0.024193505 0.085076846
-0.07043312 -0.011141687 -0.21212672 -0.013033131 -0.055928584 -0.26109654 -0.0837098 -0.13400517
-0.22805443 -0.097950324 -0.039720207 -0.023911254 -0.1850684 -0.15017354 -0.17553028 -0.14997496
-0.05942954 -0.18615389 -0.05758208 -0.26418087 -0.056330517 -0.314844 -0.26464915 -0.0775372
0.010573687 0.043902278 -0.1603875 0.08500126 -0.25242633 0.10595956 0.03714296 0.05595645

fc.weight f4 [4, 128]
00000000: e759 2ebd 9510 4e3e 9133 763c 6fa2 bbbd
00000010: 930d f43c a442 b73c 3c31 35bd b3d3 84bd
00000020: dc28 0abe 4a15 6cbd 3a62 5c3d e3d6 d6bb
00000030: 76a7 78bc 03a0 bfbd c987 1e3d 4533 303e
00000040: 1c1f 70bd 3384 2fbe 8068 78ba c065 973b
00000050: 9e0f e53c e3df 0ebc 49f5 173e 3eb3 1fbd
00000060: 7454 183e a415 283c 7158 d63d 3632 09be
00000070: a742 3bbe 6fec 9bbd 8ceb b6bd de69 f13d
00000080: d5b8 203c cebf 49be af73 f33b 6151 9c3d
00000090: ba23 133e 0517 d4bd 451e ef3c c757 07bd
000000a0: 4fd8 1a3e 6281 3d3e 6353 16be 19f3 913d
000000b0: 5e4a aabd 982e 8cbc 30f9 1e3e 4ba3 94bd
000000c0: 7345 16be 96e8 5fbe 68e1 1a3e 1f74 523d
000000d0: a1e0 d6ba 2628 903c 5a41 9fbd 3d74 27bd
000000e0: 2a37 613d 9024 68bd 2e9e e43d e29b 03be
000000f0: 35dd 753d 4c70 08bc c210 e03d 02e5 cebd
00000100: 3303 72bc 400a 25bc 7b41 a43e f59f 48bb
00000110: 97c8 e43d 9204 fa3d 8dbe 2ebd e94a ccbc
00000120: 93a8 cfbd 2879 d43b bb53 fb3d e603 093e
00000130: 1f67 b7bb a246 b3bd edbf 703d b767 563d
00000140: 7e52 09be 750c 393d 238f d4bc 67ba ebb9
00000150: 433f 353e 4b1a 84bd 2f43 9bbd b507 adbd
00000160: a7bd 3abc ad5a 03bd 575f 13bc 3bf3 15be
00000170: 7a45 bc3d 3695 9fbc 3f51 753e 367d 153e
00000180: 4e76 bbbd baf7 c4bd d7c9 dcbc 4e07 233d
00000190: 93da 7dbc 9385 8cbc 78c1 babc 2475 8cbd
000001a0: 02ff 06be 2a3e 40be 6b90 9a3d cfc1 b5bd
000001b0: fdee 923c 5536 7b3c d4fa 1ebd 3b57 fa3c
000001c0: 67e5 1b3d 6baf 743d 3e57 2abe 2bf5 4f3f
000001d0: 51ef 14ba a6fc 123e 451c df3e 37ad cfbb
000001e0: 3900 b03e 8838 dbbd dbdc 6f3c 15a5 09bd
000001f0: e11e 44bd bd7b 723c 75a1 cd3c 5755 683d
00000200: 1e14 e3bd 6677 ccbd ec62 043d f6e3 0ebe
00000210: 1e45 28bd 3c2e 033e 1bd6 9bbd 03fa c2bd
00000220: 1d85 54be b1eb 583d 2844 f9bc f554 7a3c
00000230: 033e 8e3c 8249 25be 6364 4a3d f17d 8a3d
00000240: 68c1 b6bd c4f7 3bbe 3aad 953b 5cdd 9ebb
00000250: 3377 f3bc 1fda 303c 6db2 0fbe fb3d e7bb
00000260: 5a14 8d3d 3077 633c 89fe 003b 0d7c 5f3b
00000270: 5ca7 49be 2dd5 c2bd 07dd a03a 3dbe d33d
00000280: 1515 06be 52d8 afbd b7f9 133c bd16 133e
00000290: 56ae f03c 48a9 1fbe 0836 993d 1ef2 d13b
000002a0: df1b b93d 24e5 583e e48e 03be b9d8 053e
000002b0: ad91 1bbe fb52 80bd 88aa c33d 13fc 223c
000002c0: 766d 5cbe 8d97 86bd 96b6 2fbd cfdd ab3d
000002d0: 5f6f 07bb 880f a5bc 194f 91bd c6de f2bc
000002e0: 771b 8ebd c7a2 1ebe a4e4 243d bbff 4dbe
000002f0: e328 a23d 266b 253e 5624 cfbd 35f6 31be
00000300: 5a90 dfbc 20fd dabb 7d93 c03e 709e d1bc
00000310: 76c9 2dbe 2c67 133e 84c1 4dbe 2332 27be
00000320: 7c9b 55bc ae69 4abd e679 533e 6b3c 163c
00000330: 694f dfba 930f acbc 8f9e 463e 843a a53c
00000340: bbfa 19be f6a8 b93c 3d6c cdbd e8e7 12be
00000350: dbdd cc3d 297d 6dbd 0161 d8bc 42be 03bc
00000360: f449 353e b206 2bbd 08a6 bb3d 6952 49be
00000370: 866f 783d 0d3c 4bbd db89 893e 360c 3f3e
00000380: 3704 0f3e cc39 a23d c5b3 ab3d 2faa d13d
00000390: a269 4b3d 4748 76bd deb4 d4bd b851 0cbe
000003a0: df8c 9dbe 0346 aebc 34d7 50bd b9a7 5c3c
000003b0: c63a 503c a2ab ac3b f85d 933c b2d7 fcbd
000003c0: 1275 27be 0b20 a7bd 6d71 06be 0e0c 013e
000003d0: 1327 2cbe b6b6 953d 9dc1 d1be 518d 61ba
000003e0: 6ef2 0dbf b9b6 99bd 28c0 43bd 1a19 3ebc
000003f0: ffd0 4a3c 42db cf3d c97d 84bd ad8e 9f3d
-0.042566206 0.20123513 0.015026943 -0.09161841 0.029791629 0.022370644 -0.044236407 -0.06485691
-0.13492149 -0.05763749 0.053804614 -0.006556378 -0.015176645 -0.09356692 0.038703714 0.17207058
-0.05862342 -0.17140274 -0.0009476021 0.004620284 0.027961548 -0.008720371 0.14839663 -0.038989298
0.14875966 0.010259066 0.104660876 -0.1339806 -0.18287145 -0.076134555 -0.08931646 0.11787771
0.009809692 -0.19702074 0.007429562 0.07632709 0.14369097 -0.10355953 0.029189238 -0.033042695
0.15121578 0.18506387 -0.14680247 0.07126445 -0.08314966 -0.017112061 0.15524745 -0.07257708
-0.1467493 -0.21866068 0.15125048 0.051380273 -0.0016393849 0.01759727 -0.07776137 -0.040882338
0.05498425 -0.056675494 0.11162983 -0.12852433 0.060025413 -0.008327555 0.10940696 -0.101022735
-0.014771271 -0.010073245 0.32081208 -0.003061292 0.11171072 0.12207903 -0.042662192 -0.024938064
-0.10139575 0.0064841695 0.1227183 0.13380393 -0.00559701 -0.087537065 0.058776785 0.052345004
-0.13410375 0.045177896 -0.02594716 -0.00044961573 0.17699914 -0.064503275 -0.07581174 -0.084487356
-0.011397756 -0.032068897 -0.008994899 -0.14643566 0.09192939 -0.019480329 0.23956774 0.14598545
-0.09153424 -0.096175626 -0.026951713 0.03980189 -0.015494007 -0.017153537 -0.022797331 -0.0685828
-0.13183215 -0.18773714 0.07547077 -0.08874857 0.017936224 0.015332778 -0.038813427 0.030559173
0.038060572 0.059737604 -0.16634843 0.8123347 -0.0005681413 0.1435419 0.43576255 -0.0063377875
0.3437517 -0.10704142 0.014640058 -0.0336047 -0.04788101 0.014800009 0.025101403 0.05672201
-0.110878214 -0.09983711 0.0323209 -0.13954148 -0.04108154 0.12810606 -0.07609197 -0.09520342
-0.20753904 0.052959148 -0.030428007 0.015279044 0.017363554 -0.16141322 0.049412142 0.06762303
-0.08923608 -0.18356234 0.0045677694 -0.0048481654 -0.029719925 0.010794192 -0.14032908 -0.007056949
0.068886474 0.013883397 0.0019682965 0.003410104 -0.19692749 -0.09513316 0.0012272903 0.103390194
-0.1309398 -0.08586182 0.009031705 0.14364143 0.029380005 -0.1559192 0.07481009 0.0064070364
0.09038519 0.2118116 -0.12847477 0.13070954 -0.1519229 -0.06265827 0.09554011 0.0099477945
-0.21526131 -0.06571875 -0.042898737 0.08391916 -0.0020665748 -0.020149007 -0.07095165 -0.029647242
-0.06938832 -0.15491782 0.04025711 -0.20117085 0.07917955 0.16154155 -0.101143524 -0.17379077
-0.027290512 -0.006683007 0.37612525 -0.025588244 -0.16971382 0.14394826 -0.20093352 -0.1632772
-0.013037559 -0.04941719 0.2065197 0.009169678 -0.0017037216 -0.02100352 0.19396423 0.020169504
-0.15037052 0.022663575 -0.100304104 -0.14346278 0.10003253 -0.05798069 -0.026413443 -0.0080409665
0.17703992 -0.041754432 0.09162527 -0.19660343 0.060653232 -0.049617816 0.26862988 0.18657002
0.13966452 0.0792118 0.08383898 0.10237538 0.049661286 -0.060127523 -0.1038606 -0.13703048
-0.3077154 -0.021273619 -0.050986484 0.013467723 0.012709325 0.0052694837 0.017989144 -0.12345828
-0.16353253 -0.081604086 -0.13129206 0.12602255 -0.1681178 0.0731024 -0.40968028 -0.00086041266
-0.55448043 -0.07505555 -0.047790676 -0.011602664 0.01237893 0.10149242 -0.06469304 0.07790885

fc.bias f4 [4]
00000000: 7dd0 773e 8c81 243e 10af 673e f774 3c3e
0.24200626 0.16065043 0.22625375 0.18403994
