lstm_hdim_128_wsize_20_interval_7_nlayers_1_bs_512_lr_0.01_decay_0.95_epoch_11.pt (torch, 277987 bytes, 6 tensors)

lstm.weight_ih_l0 f4 [512, 4]
-0.006502302 -0.0061727543 -0.049678303 0.08487939 -0.42075375 0.27585223 -0.471004 0.06431042
0.040439982 0.06448428 0.08056622 0.08745397 -0.031857662 0.050071742 0.11466499 -0.14949843
0.049139854 -0.050010026 -0.005135252 0.102498464 -0.028775422 0.065383114 0.10411362 0.16215529
-0.0047482275 -0.02514445 0.10951693 -0.003022683 0.025442762 -0.047217783 -0.013191383 0.011684848
0.13875514 0.15339582 -0.105527535 -0.06302207 -0.55682814 0.19330752 -0.62317383 0.052563287
-0.16907258 -0.15930232 -0.072222434 -0.13178755 -0.08252497 -0.0465362 0.122878715 0.054810546
-0.12725309 -0.025458459 -0.7697629 -0.9458005 -0.016296124 0.096426845 0.00893971 -0.06445143
-0.18909433 0.16846697 0.075618125 -0.29223812 0.16635865 -0.025027603 -0.15914516 0.12559249
0.1153563 -0.010583213 0.04587311 -0.13217717 0.13109319 0.10690774 0.16559573 0.018044472
0.2785234 0.5826564 -5.1581616 -1.8543121 -0.0942566 -0.11748637 0.7031681 1.754194
-0.14708532 -0.12680867 -0.02541536 -0.17937747 -0.050091658 -0.052191038 -0.55735993 -0.36769444
-0.26436076 0.06923682 -0.0015899924 0.14999853 -0.11077486 -0.16110155 0.058835108 -0.16287132
0.12728621 -0.024410034 -0.07825649 0.11827485 0.07968814 0.00958564 0.12104335 0.4978439
0.09227408 -0.06625425 0.016603602 0.031244708 0.25372154 -0.0414557 -0.046834953 -0.1147112
0.07683438 0.1308282 0.08136462 0.061123505 -0.05433612 -0.17879629 -0.26707837 -0.10679272
0.15106663 -0.019319994 0.13742098 0.07528794 0.07082602 0.023736086 0.026411865 0.10105162
0.049089063 0.074380994 0.045507517 -0.0582145 0.2441524 -0.037649702 -0.12624034 -0.2887636
-0.027490875 -0.14640899 -0.18118525 -0.43245503 -0.0063198814 0.027955383 0.05482039 0.006218308
0.17093624 0.020281037 0.023654664 0.011459271 0.06101121 0.13488619 0.22705358 0.044480663
0.037270952 0.036433663 0.036481407 0.1126333 -0.030173464 0.060629908 0.03660212 -0.11256233
0.12296049 -0.030167384 -0.26027355 0.07685546 0.16140968 0.18173781 0.1147852 0.0923119
0.07995404 0.106584296 0.07808969 -0.020959666 0.021264747 0.05675105 0.07456383 -0.017247017
-0.17798743 0.030856349 -0.122293316 -0.28574312 -0.51833373 0.125143 0.40847734 -0.9112792
0.10983498 0.054567114 -0.02465493 0.09951257 0.112001106 -0.1490786 -0.037432227 -0.07702222
0.14434935 0.18150729 -0.12842694 0.043312114 0.31713155 -0.08652311 0.124885336 0.11342703
0.255204 0.29968068 0.46639484 -0.41172564 -0.052326262 0.11193614 -0.6365461 -0.27554417
-0.23804316 -0.26398483 0.21649335 5.256002 0.0016449812 -0.022853667 -0.28548822 -0.30615184
0.10053502 0.030007262 -0.17179677 0.08164128 0.25534078 0.22931466 1.6496253 1.1030549
-0.036802556 -0.1832124 0.02750218 -0.15406579 -0.21600565 0.15250354 -0.09427958 -0.1081137
-0.28275466 -0.16526982 -0.07474948 -0.08613298 0.07554047 0.1459673 -0.07370271 -0.07824194
0.054180417 -0.087497994 -0.08296093 0.09602714 -0.01553014 0.18288754 -0.0054080333 0.1580844
-0.470844 -0.018458597 0.41968566 0.038653243 -0.012689822 0.0863608 0.15021802 0.008474088
00000000: 4311 d5bb d144 cabb 7a7b 4bbd 3fd5 ad3d
00000010: 096d d7be 813c 8d3e 7027 f1be 2eb5 833d
00000020: 65a4 253d 5610 843d e7ff a43d 111b b33d
00000030: 2e7d 02bd 0718 4d3d 7ad5 ea3d 1e16 19be
00000040: df46 493d 50d7 4cbd 9e45 a8bb b7ea d13d
00000050: 6fba ebbc 95e7 853d 8639 d53d 090c 263e
00000060: 0597 9bbb bcfb cdbc 6a4a e03d 3518 46bb
00000070: 576d d03c 6f67 41bd ac20 58bc ce71 3f3c
00000080: d415 0e3e cb13 1d3e d21e d8bd b711 81bd
00000090: 4a8c 0ebf 68f2 453e 5288 1fbf 9a4c 573d
000000a0: 5d21 2dbe 2620 23be 5be9 93bd 51f3 06be
000000b0: da02 a9bd be9c 3ebd d6a7 fb3d 0681 603d
000000c0: a24e 02be 428e d0bc 2e0f 45bf fb1f 72bf
000000d0: 737f 85bc 707b c53d dd77 123c 1dff 83bd
000000e0: f2a1 41be 9b82 2c3e addd 9a3d 3ca0 95be
000000f0: ec59 2a3e b006 cdbc f3f6 22be 519b 003e
00000100: ec3f ec3d 3665 2dbc 71e5 3b3d 7459 07be
00000110: 4b3d 063e 72f2 da3d ed91 293e 00d2 933c
00000120: 9e9a 8e3e f828 153f a90f a5c0 195a edbf
00000130: 9b09 c1bd b29c f0bd d302 343f 6e89 e03f
00000140: 899d 16be 22da 01be e033 d0bc baae 37be
00000150: e92c 4dbd 45c6 55bd 24af 0ebf 7242 bcbe
00000160: 4b5a 87be 09cc 8d3d 4b67 d0ba 3799 193e
00000170: eedd e2bd cef7 24be 15fd 703d bdc7 26be
00000180: 5157 023e 8df7 c7bc f044 a0bd 163a f23d
00000190: 8933 a33d 170d 1d3c 93e5 f73d 65e5 fe3e
000001a0: 31fa bc3d 4fb0 87bd 4704 883c e7f4 ff3c
000001b0: cae7 813e 74cd 29bd 02d6 3fbd b5ed eabd
000001c0: 585b 9d3d d4f7 053e 7ea2 a63d a45c 7a3d
000001d0: 8d8f 5ebd 6016 37be 7fbe 88be 24b6 dabd
000001e0: 36b1 1a3e f744 9ebc 16b8 0c3e 9030 9a3d
000001f0: 3b0d 913d 2e72 c23c b25d d83c 27f4 ce3d
00000200: 9d11 493d 1055 983d 1766 3a3d 5472 6ebd
00000210: 1603 7a3e 9336 1abd 2645 01be d3d8 93be
00000220: 8b34 e1bc 3dec 15be a088 39be bf6a ddbe
00000230: 0217 cfbb b002 e53c 588b 603d f3c2 cb3b
00000240: e909 2f3e 6b24 a63c 6dc7 c13c abbf 3b3c
00000250: e4e6 793d 9b1f 0a3e bc80 683e 5b31 363d
00000260: 6da9 183d 773b 153d 876d 153d 4aac e63d
00000270: 572e f7bc 1157 783d 1bec 153d 1487 e6bd
00000280: b6d2 fb3d 9721 f7bc 9342 85be 6566 9d3d
00000290: 9448 253e 7a19 3a3e 8114 eb3d 050e bd3d
000002a0: f2be a33d de48 da3d 7ded 9f3d 9bb3 abbc
000002b0: 6833 ae3c ca73 683d ecb4 983d 9e49 8dbc
000002c0: 5642 36be 74c6 fc3c eb74 fabd ec4c 92be
000002d0: 85b1 04bf 7d25 003e f123 d13e 9849 69bf
000002e0: 29f1 e03d c481 5f3d 23f9 c9bc 3fcd cb3d
000002f0: d660 e53d 0fa8 18be 8952 19bd d3bd 9dbd
00000300: 51d0 133e 0cdd 393e 5a82 03be 0b68 313d
00000310: 115f a23e 0733 b1bd e2c3 ff3d 6e4c e83d
00000320: 19aa 823e bf6f 993e 4ecb ee3e b4cd d2be
00000330: 1054 56bd c63e e53d aff4 22bf 2014 8dbe
00000340: 96c1 73be 0529 87be 6fb0 5d3e 2b31 a840
00000350: 699c d73a 9d37 bbbc 832b 92be efbf 9cbe
00000360: 4ee5 cd3d cad1 f53c 7eeb 2fbe 8b33 a73d
00000370: 07bc 823e 76d1 6a3e ec26 d33f e730 8d3f
00000380: 47be 16bd 089c 3bbe 404c e13c 6cc3 1dbe
00000390: 9630 5dbe e329 1c3e a715 c1bd b76a ddbd
000003a0: 38c5 90be 7e3c 29be 4116 99bd 7d66 b0bd
000003b0: f6b4 9a3d 7478 153e 72f1 96bd 4f3d a0bd
000003c0: 49ec 5d3d 2632 b3bd 6ce7 a9bd e1a9 c43d
000003d0: 2172 7ebc df46 3b3e df35 b1bb e1e0 213e
000003e0: 7712 f1be 7c36 97bc 0ae1 d63e dd52 1e3d
000003f0: f9e8 4fbc eedd b03d c1d2 193e e7d6 0a3c

lstm.weight_hh_l0 f4 [512, 128]
-0.042435136 -0.16942254 0.002590181 0.08200839 0.076393455 -0.026308144 -0.05207209 0.06727103
-0.04836762 0.04681632 -0.0341696 -0.06184675 0.056493137 0.11828769 0.033053752 -0.1159294
0.07061557 0.12491728 -0.0033101712 0.055769317 0.13881037 -0.0989223 0.060104705 -0.042476505
-0.04348675 -0.049469657 -0.06853722 -0.0056587174 -0.0037478623 0.05106565 -0.00056933524 0.053653654
0.048435234 -0.059879825 -0.035772804 -0.0024237058 0.0060866815 0.08551042 0.004309212 -0.0035089627
-0.06688324 0.05035468 0.022696536 -0.06296389 0.036660712 -0.07030167 -0.055742808 0.012530852
0.041753016 0.07927949 -0.0707312 -0.100886814 0.07428078 0.07727316 -0.04128664 -0.08794052
-0.028455047 0.061309077 0.13082659 0.042553995 -0.12311118 0.048616134 -0.12136594 0.041001905
-0.08275463 -0.26013 0.004889379 0.17585114 0.09989231 0.02593687 0.12288896 0.10485616
-0.04252167 0.028316999 0.025392665 -0.12097578 0.011860125 -0.0045981603 -0.024469223 -0.11744925
0.012381292 -0.053884782 -0.02284975 0.11544284 -0.038348727 0.10241114 -0.025981706 0.024018558
-0.051378574 0.11337486 0.05641325 0.06535144 -0.0005731665 0.09960056 -0.09144843 0.0030255027
-0.017904272 0.018542286 -0.03160133 -0.02271035 -0.006443499 0.028750932 -0.09773055 0.021156525
-0.037716042 0.09900389 -0.055458426 0.058547825 0.113964364 -0.12511091 -0.09801105 -0.103455804
0.030398026 0.006474434 0.112952195 -0.10390212 0.022851981 0.06948024 0.09056204 0.047754984
0.034375027 0.113803506 0.059449118 -0.019441985 -0.097853735 0.08743764 0.02872541 0.24491252
0.19929075 0.06821792 -0.13133126 0.1672951 0.122650884 -0.17547819 0.26965773 0.22076115
0.20780385 -0.22073263 -0.1031644 -0.18467592 -0.25674987 0.20176649 -0.110702045 -0.21307297
0.28681675 0.2634706 -0.2005392 0.5061767 -0.0060678427 0.10426456 0.044607457 -0.031252872
-0.24529043 0.13235141 -0.18544562 0.29801947 0.29228994 0.20344023 0.14710225 -0.2503241
-0.23924519 0.16671628 -0.19855736 -0.20950025 -0.184427 0.308518 -0.2049912 -0.21601523
-0.23165767 -0.2268607 0.1961788 -0.18306749 0.17215659 0.016779805 -0.22192821 0.19996777
0.20378344 0.30606067 0.1896644 -0.295177 0.30821884 -0.049483825 0.12685354 0.026035815
0.05681208 0.24627987 -0.25890064 0.26094604 -0.2514947 -0.19727452 0.5019069 0.17750657
-0.23973556 0.03234067 -0.35886288 -0.079346344 0.13608605 -0.19654205 0.27786997 0.16448893
0.10546838 0.14068529 -0.18878287 -0.26722434 0.11819844 0.13702302 -0.17601934 -0.19898689
0.23025143 0.065166675 -0.08012575 0.15824626 -0.4440845 0.16207415 0.15060833 -0.09433174
-0.231704 0.47949225 -0.34685293 0.33229578 -0.09070068 0.18136366 -0.2590336 -0.33198142
-0.1800364 0.011920657 -0.15910544 -0.18967135 0.08298329 0.0897269 -0.14375414 0.090636976
0.20593917 0.3019445 0.073350675 0.16887598 -0.033951234 -0.063206755 0.13210599 0.14994673
0.21350801 0.14148769 0.35381103 -0.6240132 0.19202328 -0.15898669 0.1325163 0.24946122
-0.47991878 0.21271168 0.06800553 -0.17974235 0.20277165 0.06276058 -0.21342811 -0.17552137
00000000: 77d0 2dbd 1a7d 2dbe 07c0 293b 04f4 a73d
00000010: 2c74 9c3d 2d84 d7bc 8b49 55bd 65c5 893d
00000020: 201d 46bd 78c2 3f3d 6cf5 0bbd 0553 7dbd
00000030: 5965 673d d140 f23d 5f63 073d 656c edbd
00000040: e59e 903d a2d4 ff3d 75ef 58bb 5e6e 643d
00000050: 4e24 0e3e c697 cabd 5a30 763d d8fb 2dbd
00000060: 2a1f 32bd b2a0 4abd 3e5d 8cbd c36c b9bb
00000070: b29e 75bb 372a 513d 713f 15ba efc3 5b3d
00000080: 0664 463d 8c44 75bd 8186 12bd 09d7 1ebb
00000090: c972 c73b 1620 af3d 4a34 8d3b a0f6 65bb
000000a0: 15fa 88bd b540 4e3d 16ee b93c 36f3 80bd
000000b0: 8b29 163d 52fa 8fbd 9252 64bd 344e 4d3c
000000c0: 3605 2b3d 495d a23d 85db 90bd bf9d cebd
000000d0: 8620 983d 6441 9e3d 2e1c 29bd 291a b4bd
000000e0: 8f1a e9bc 3a1f 7b3d 68f7 053e 194d 2e3d
000000f0: b721 fcbd b621 473d b58e f8bd 9df1 273d
00000100: 427b a9bd c22f 85be 1537 a03b 5212 343e
00000110: 5794 cc3d 8f79 d43c 35ad fb3d d4be d63d
00000120: 342b 2ebd 0df9 e73c 4704 d03c 26c2 f7bd
00000130: f850 423c 2aac 96bb ae73 c8bc 3b89 f0bd
00000140: e7da 4a3c 4ab6 5cbd 662f bbbc 4c6d ec3d
00000150: 8e13 1dbd efbc d13d 96d7 d4bc 91c2 c43c
00000160: 5772 52bd 1431 e83d 9411 673d fad6 853d
00000170: 8d40 16ba 61fb cb3d 5149 bbbd 8347 463b
00000180: fbab 92bc fee5 973c 6570 01bd 0e0b babc
00000190: fd23 d3bb 1387 eb3c f426 c8bd 7350 ad3c
000001a0: 237c 1abd 8dc2 ca3d 6028 63bd d8cf 6f3d
000001b0: 2666 e93d 131d 00be 04ba c8bd a3e0 d3bd
000001c0: 4805 f93c 7d27 d43b 7b53 e73d a2ca d4bd
000001d0: 1434 bb3c a84b 8e3d 9778 b93d bb9a 433d
000001e0: d4cc 0c3d d011 e93d eb80 733d cc44 9fbc
000001f0: 8a67 c8bd 8112 b33d 8d51 eb3c 59ca 7a3e
00000200: e012 4c3e d6b5 8b3d b47b 06be 684f 2b3e
00000210: 6330 fb3d 8eb0 33be 9410 8a3e 360f 623e
00000220: 88ca 543e bc07 62be db47 d3bd af1b 3dbe
00000230: b874 83be e09b 4e3e c1b7 e2bd cd2f 5abe
00000240: a5d9 923e 9ee5 863e 265a 4dbe cc94 013f
00000250: c1d4 c6bb a888 d53d 4fb6 363d 0303 00bd
00000260: 6a2d 7bbe 2187 073e 75e5 3dbe 0296 983e
00000270: 07a7 953e a352 503e f9a1 163e 7b2a 80be
00000280: b1fc 74be acb7 2a3e 9f52 4bbe 3c87 56be
00000290: 6eda 3cbe 12f6 9d3e 37e9 51be 1933 5dbe
000002a0: ab37 6dbe 2c4e 68be 18e3 483e 0b76 3bbe
000002b0: d149 303e cd75 893c 2641 63be 5ac4 4c3e
000002c0: 9bac 503e fcb3 9c3e 6237 423e 7121 97be
000002d0: dcce 9d3e 8daf 4abd e5e5 013e 1049 d53c
000002e0: c9b3 683d ca30 7c3e a08e 84be b89a 853e
000002f0: eac3 80be 5502 4abe f87c 003f 48c4 353e
00000300: 3d7d 75be a677 043d e0bc b7be 5680 a2bd
00000310: 245a 0b3e 5242 49be f944 8e3e c96f 283e
00000320: ceff d73d ce0f 103e 4c50 41be a1d1 88be
00000330: 0612 f23d c34f 0c3e 6a3e 34be 38c3 4bbe
00000340: 08c7 6b3e 1b76 853d f818 a4bd 4f0b 223e
00000350: 0b5f e3be c4f6 253e 1239 1a3e 0031 c1bd
00000360: d043 6dbe 0280 f53e b596 b1be ac22 aa3e
00000370: 47c1 b9bd 65b7 393e 0da0 84be 78f9 a9be
00000380: 765b 38be dc4e 433c 89ec 22be 3539 42be
00000390: 25f3 a93d bdc2 b73d 4934 13be e19f b93d
000003a0: b8e1 523e 7898 9a3e e138 963d d3ed 2c3e
000003b0: 7310 0bbd 8b72 81bd cb46 073e a38b 193e
000003c0: d8a1 5a3e 26e2 103e b826 b53e 54bf 1fbf
000003d0: c0a1 443e 68cd 22be 5ab2 073e c372 7f3e
000003e0: eab7 f5be 17d1 593e 7c46 8b3d 610e 38be
000003f0: 5fa3 4f3e 9e88 803d e68c 5abe e0bb 33be

lstm.bias_ih_l0 f4 [512]
-0.06369594 0.09592161 -0.020977922 0.014131544 -0.0190788 0.04790197 0.08456372 0.017251553
0.028094046 0.17593886 -0.13253953 -0.07963562 -0.11681612 0.077526525 -0.16284336 0.036116652
0.052338175 0.100334845 0.5419899 0.08710845 -0.111699596 -0.16062927 -0.032457236 -0.16160855
0.05633874 -0.119168 -0.025531707 0.07501582 0.035929795 -0.19094756 -0.08819042 0.097038336
-0.044571064 -0.0042650774 -0.08534203 -0.05605396 -0.021430163 0.08566208 -0.08513812 0.005730689
0.06263976 0.081590116 -0.06680843 0.04519442 0.03091214 -0.03661184 -0.043671533 -0.059737436
0.029413445 0.091364935 0.21328655 -0.012926842 -0.13734795 -0.012126442 -0.030129958 0.2171823
-0.14492571 -0.13502537 -0.20921367 0.13917814 0.051757317 0.02613878 -0.011461362 -0.038072728
0.0493789 0.37640527 0.08255258 0.5349691 0.16525239 0.012465413 -0.07349073 0.0444517
0.035548493 0.051698126 0.041882526 0.016455544 -0.07498616 -0.05039205 -0.023830395 0.024331048
0.052955788 -0.10425175 -0.09609822 0.070861675 0.06478709 0.02750611 0.040724862 -0.09826664
-0.03866547 -0.08430075 -0.040834628 0.108719066 -0.03869965 -0.04317767 -0.0089057125 0.090639345
0.070693485 0.043906264 0.080844045 -0.0939909 -0.05062058 -0.11890015 -0.082861476 -0.08023007
-0.025667092 -0.038481314 0.0142797 -0.005454 -0.12883316 -0.03225655 -0.0783656 0.032949105
-0.04462697 0.067700066 -0.060726635 0.24145107 0.009965127 -0.13476348 0.17078209 0.066535905
0.14948462 -0.07673094 -0.07871708 0.008207795 -0.16142361 -0.023177668 -0.035484314 0.28907037
-0.10013765 -0.20186152 0.0010761687 0.0693646 -0.073169135 0.08102724 0.05170221 -0.0428559
0.06732756 0.06342951 -0.08205508 -0.09075931 -0.017293058 -0.089068435 0.07285937 -0.06379187
-0.06878943 0.045660734 -0.11288401 0.02714698 -0.14966147 -0.1037236 -0.033602744 -0.16767743
0.07868928 -0.084871694 -0.09748598 0.0219979 -0.0050941114 -0.16651097 -0.0888971 -0.058606688
0.08375039 -0.22579443 0.08042293 0.061014745 0.0056315744 0.041643932 0.025179788 -0.028273165
-0.01855252 0.004228444 0.021947123 0.039289065 -0.12773068 0.037713937 -0.012845475 -0.08383563
-0.025034672 0.042470917 0.059689164 -0.084722206 -0.22039865 -0.12953745 0.046518344 0.010057278
-0.06664701 0.00942751 0.38040614 -0.013247551 -0.025587616 -0.016222076 -0.14702532 0.041727077
-0.11432331 0.14518182 -0.091184266 -0.07459047 0.04753817 0.042892672 0.08269205 0.047541462
0.09514628 -0.0013575206 0.13408168 0.0664539 -0.072564445 0.032951593 -0.027558265 -0.040621787
0.0651518 -0.040779695 -0.10443863 0.008816675 -0.07450524 -0.07684146 0.07390266 0.2842544
-0.08271545 0.06361019 -0.1505299 0.065158784 -0.05590315 0.06532434 0.042326562 0.02078264
-0.052508578 0.028500011 -0.13467087 0.07911379 -0.119196996 -0.04321391 0.07152425 -0.032344487
-0.08810531 0.018053666 0.032258537 -0.084107466 -0.040554985 -0.04790269 -0.070837386 -0.041752316
-0.07832331 -0.22540739 -0.027579047 -0.26318318 0.010631216 -0.055187542 -0.08138974 0.041243322
0.08027229 -0.06506231 -0.1601567 0.063315526 -0.08577931 0.015055062 -0.03339056 0.005382893
00000000: 0473 82bd 8d72 c43d e4d9 abbc fe87 673c
00000010: 254b 9cbc db34 443d be2f ad3d 2153 8d3c
00000020: 7c25 e63c 5129 343e 71b8 07be 0018 a3bd
00000030: 4a3d efbd 3ac6 9e3d 69c0 26be 0eef 133d
00000040: 8e60 563d 5b7c cd3d dabf 0a3f ea65 b23d
00000050: c2c2 e4bd 007c 24be e1f1 04bd b67c 25be
00000060: 73c3 663d 5a0e f4bd df27 d1bc e5a1 993d
00000070: 1f2b 133d c287 43be 2e9d b4bd 09bc c63d
00000080: 2690 36bd 10c2 8bbb cdc7 aebd d698 65bd
00000090: 4f8e afbc 9a6f af3d e55c aebd 81c8 bb3b
000000a0: 4649 803d b818 a73d dcd2 88bd c91d 393d
000000b0: 753b fd3c 4cf6 15bd ece0 32bd 3eaf 74bd
000000c0: 77f4 f03c 8a1d bb3d ca67 5a3e 1bcb 53bc
000000d0: f1a4 0cbe fcad 46bc 1ad3 f6bc 0965 5e3e
000000e0: 6867 14be 1744 0abe 1c3c 56be b784 0e3e
000000f0: 7bff 533d ff20 d63c 70c8 3bbc 26f2 1bbd
00000100: 8841 4a3d 31b8 c03e 5411 a93d bcf3 083f
00000110: ec37 293e bb3b 4c3c 4f82 96bd fc12 363d
00000120: 4c9b 113d 6ac1 533d 038d 2b3d c7cd 863c
00000130: 5892 99bd e567 4ebd f637 c3bc e851 c73c
00000140: 2be8 583d f181 d5bd 25cf c4bd ed1f 913d
00000150: 18af 843d 7e54 e13c 1dcf 263d 0540 c9bd
00000160: af5f 1ebd dfa5 acbd 3642 27bd 1aa8 de3d
00000170: 8683 1ebd 12db 30bd 44e9 11bc 1fa1 b93d
00000180: bfc7 903d 0ed7 333d 9091 a53d 4d7e c0bd
00000190: 8657 4fbd ec81 f3bd 47b3 a9bd aa4f a4bd
000001a0: cb43 d2bc 959e 1dbd 67f5 693c 78b7 b2bb
000001b0: d7ec 03be 721f 04bd 257e a0bd a4f5 063d
000001c0: c5ca 36bd 55a6 8a3d 7ebc 78bd f33e 773e
000001d0: c644 233c 70ff 09be 80e1 2e3e fa43 883d
000001e0: 7f12 193e 1c25 9dbd 6c36 a1bd fd79 063c
000001f0: 3b4c 25be 18df bdbc 0058 11bd 0801 943e
00000200: f814 cdbd c9b4 4ebe 3b0e 8d3a 070f 8e3d
00000210: b3d9 95bd 9cf1 a53d b2c5 533d ab89 2fbd
00000220: 08e3 893d 55e7 813d 7e0c a8bd 04e0 b9bd
00000230: 2caa 8dbc 8369 b6bd 4b37 953d 50a5 82bd
00000240: 79e1 8cbd c006 3b3d bb2f e7bd 5863 de3c
00000250: db40 19be 0a6d d4bd 08a3 09bd a2b3 2bbe
00000260: d827 a13d 36d1 adbd bba6 c7bd f134 b43c
00000270: 81ec a6bb da81 2abe af0f b6bd 910d 70bd
00000280: 5385 ab3d a836 67be c7b4 a43d 99ea 793d
00000290: 1289 b83b d492 2a3d d845 ce3c 209d e7bc
000002a0: 74fb 97bc c28e 8a3b 74ca b33c 92ed 203d
000002b0: d5cb 02be ee79 1a3d d475 52bc 04b2 abbd
000002c0: 8315 cdbc fcf5 2d3d a07c 743d d682 adbd
000002d0: 2fb0 61be 77a5 04be 058a 3e3d 48c7 243c
000002e0: 3a7e 88bd d875 1a3c 98c4 c23e 420c 59bc
000002f0: 1f9d d1bc 29e4 84bc ce8d 16be 03ea 2a3d
00000300: 5722 eabd 8baa 143e d1be babd e3c2 98bd
00000310: 62b7 423d 3ab0 2f3d 735a a93d d6ba 423d
00000320: 0edc c23d d5ee b1ba b54c 093e fb18 883d
00000330: ab9c 94bd 40f8 063d dfc1 e1bc 0863 26bd
00000340: 4f6e 853d 9c08 27bd ece3 d5bd d173 103c
00000350: 3496 98bd 0e5f 9dbd 475a 973d cb89 913e
00000360: b866 a9bd 0f46 823d 8324 1abe f871 853d
00000370: b4fa 64bd c4c8 853d 9e5e 2d3d 5b40 aa3c
00000380: 3c13 57bd db78 e93c 29e7 09be 6906 a23d
00000390: 8e1d f4bd 1201 31bd 4e7b 923d a77b 04bd
000003a0: 8f70 b4bd 48e5 933c 8721 043d 8940 acbd
000003b0: fc1c 26bd 9c35 44bd 3113 91bd 7a04 2bbd
000003c0: f967 a0bd 32d1 66be 74ed e1bc f2bf 86be
000003d0: 8d2e 2e3c 550c 62bd aaaf a6bd c2ee 283d
000003e0: cc65 a43d 633f 85bd 1e00 24be 92ab 813d
000003f0: 10ad afbd 82a9 763c 8ac4 08bd fb62 b03b

lstm.bias_hh_l0 f4 [512]
-0.0043917205 0.081732884 0.059022125 0.084183484 -0.025357729 -0.0018272293 -0.07400517 0.040498994
-0.025801232 0.17370614 -0.061018545 0.03765671 -0.14342187 -0.08274183 -0.0676034 -0.033528272
0.00083970855 -0.042223066 0.5461295 0.078755714 -0.16721135 -0.14261965 -0.09058111 -0.17138648
-0.049575355 -0.020210007 -0.073595904 -0.06667972 0.02221207 -0.1735573 -0.08075078 0.05915499
0.023764558 -0.035443824 -0.07399683 0.029675184 0.057124257 0.037129838 -0.025727019 -0.016682768
0.06572884 -0.0139339585 0.048674632 0.01894895 -0.08081833 0.045152675 -0.08728262 -0.018617654
0.04351244 0.08684057 0.3453081 0.0017832813 -0.19996369 -0.027163235 0.067950204 0.3268309
-0.1469915 -0.13553134 -0.07225404 0.10350411 -0.020542117 0.053006314 -0.042289604 -0.020176101
0.04653831 0.2586215 0.04097923 0.4986618 0.22176865 0.10687688 -0.07414455 0.0680184
-0.09223736 -0.0069799568 0.07743791 -0.028682254 -0.06306393 -0.0009486384 0.06588396 -0.047500104
0.060682446 -0.013734288 -0.038039003 -0.0592773 0.026246045 0.06272267 0.09913382 -0.04783354
0.021972885 -0.029775187 -0.019260783 0.006767028 0.0066929995 -0.029818106 0.00883267 0.13297603
0.061654057 -0.009327801 0.083858 -0.059060264 -0.11327461 -0.11301448 0.03280902 -0.1584384
-0.1107067 -0.033314355 -0.07285392 -0.09959205 -0.06820651 -0.09824634 -0.042392276 0.0036339036
0.086533815 -0.009501547 0.048041437 0.2984619 0.04137056 -0.130469 0.12321552 -0.00488409
0.071140006 0.046466686 -0.23717394 -0.08447508 -0.06289152 0.04330395 -0.12238016 0.23616458
0.026841419 -0.24538408 0.027948791 -0.08087009 0.045893133 0.11160928 0.08659865 -0.039205715
-0.097611465 0.04194343 0.007449293 -0.020666827 -0.029828241 0.022895033 -0.045849174 0.018220637
0.031131597 0.00013539792 -0.13422409 0.025701523 -0.08841622 -0.15947236 -0.15795547 -0.058007266
-0.07219878 -0.21406883 -0.019829456 -0.058643945 0.00030988344 -0.11813737 -0.07880412 -0.078612715
0.12777689 -0.10880499 -0.012144313 -0.061668046 0.01735356 -0.041036516 0.073988296 0.08845809
-0.012311026 0.06338758 -0.075287014 -0.035007555 -0.12649332 0.036796473 0.06307335 -0.060120977
0.07281892 -0.019162452 0.042215 -0.0984139 -0.19778101 -0.11648152 0.043003432 0.14226072
-0.11859337 -0.030959118 0.31661403 0.06378981 0.044039574 -0.083604395 -0.123575166 0.064782724
-0.01653072 0.07869068 -0.120944045 0.01535738 0.06663246 -0.0036136594 -0.00076525577 0.030067485
-0.030345941 0.09218683 0.12686612 0.0076170354 -0.04532883 -0.022191545 0.044844862 -0.043309268
0.05995832 -0.091923796 -0.05361916 -0.085707754 -0.19176093 0.02408896 0.068072945 0.26594594
-0.04749838 0.045593854 -0.083580546 0.07469544 -0.08911562 -0.008317919 -0.022107998 0.09299336
-0.035169646 0.03425333 -0.12474529 0.006468852 -0.12541673 -0.1523125 -0.029343465 -0.122297466
-0.19388704 -0.05903215 -0.052239973 -0.020540964 -0.167893 -0.11565572 -0.10892014 -0.1036236
-0.09209839 -0.22077505 -0.006767232 -0.21440198 -0.045249835 -0.20286432 -0.19215626 -0.086341776
0.06994244 0.055264335 -0.14189331 0.029846735 -0.13144183 0.04524241 0.07803571 0.0662239
00000000: 6ce8 8fbb 9263 a73d 2fc1 713d 6468 ac3d
00000010: 03bb cfbc a47f efba 0690 97bd 46e2 253d
00000020: 1b5d d3bc 06e0 313e 95ee 79bd ec3d 1a3d
00000030: 2fdd 12be 8c74 a9bd a773 8abd f154 09bd
00000040: e31f 5c3a 18f2 2cbd 25cf 0b3f ad4a a13d
00000050: 7439 2bbe e30a 12be 9782 b9bd f07f 2fbe
00000060: 870f 4bbd 758f a5bc 73b9 96bd 618f 88bd
00000070: 16f6 b53c 01b9 31be aa60 a5bd 814c 723d
00000080: e4ad c23c 8b2d 11bd a68b 97bd 5f19 f33c
00000090: 20fb 693d 7515 183d 78c1 d2bc 4daa 88bc
000000a0: d89c 863d 424b 64bc 0d5f 473d d43a 9b3c
000000b0: 1584 a5bd 03f2 383d 3bc1 b2bd 0d84 98bc
000000c0: 1a3a 323d 78d9 b13d 39cc b03e febc e93a
000000d0: 48c3 4cbe 6f85 debc 7a29 8b3d 6156 a73e
000000e0: f184 16be bac8 0abe edf9 93bd f6f9 d33d
000000f0: f147 a8bc 261d 593d dd37 2dbd 5a48 a5bc
00000100: f49e 3e3d 0a6a 843e d6d9 273d 9950 ff3e
00000110: 5217 633e 44e2 da3d 19d9 97bd 3b4d 8b3d
00000120: f1e6 bcbd 1fb8 e4bb c497 9e3d 0cf7 eabc
00000130: a927 81bd 0cae 78ba 2bee 863d 788f 42bd
00000140: 288e 783d c705 61bc c9ce 1bbd c1cc 72bd
00000150: f201 d73c be74 803d ac06 cb3d 1aed 43bd
00000160: 7b00 b43c 18eb f3bc cac8 9dbc f2bd dd3b
00000170: f350 db3b 1a45 f4bc e7b6 103c de2a 083e
00000180: f788 7c3d a2d3 18bc bebd ab3d 2de9 71bd
00000190: 85fc e7bd 2374 e7bd c062 063d ad3d 22be
000001a0: 32ba e2bd a274 08bd 7034 95bd ebf6 cbbd
000001b0: dbaf 8bbd 6135 c9bd 86a3 2dbd c926 6e3b
000001c0: a438 b13d 60ac 1bbc 19c7 443d 00d0 983e
000001d0: 2d74 293d aa99 05be 6b58 fc3d b70a a0bb
000001e0: dab1 913d da53 3e3d badd 72be 4501 adbd
000001f0: 45cd 80bd 7c5f 313d 73a2 fabd 21d5 713e
00000200: 89e2 db3c f745 7bbe ddf4 e43c 389f a5bd
00000210: 70fa 3b3d 6893 e43d a25a b13d 2c96 20bd
00000220: 85e8 c7bd e0cc 2b3d 3319 f43b 7a4d a9bc
00000230: 5b5a f4bc 5d8e bb3c 58cc 3bbd 7243 953c
00000240: b107 ff3c 9af9 0d39 0a72 09be 008c d23c
00000250: 9013 b5bd b94c 23be 14bf 21be 0799 6dbd
00000260: f4dc 93bd dc34 5bbe 6271 a2bc a234 70bd
00000270: da77 a239 01f2 f1bd 0e64 a1bd b4ff a0bd
00000280: f2d7 023e 27d5 debd f1f8 46bc a297 7cbd
00000290: 0e29 8e3c e815 28bd 2d87 973d 8429 b53d
000002a0: 30b4 49bc 59d1 813d 1430 9abd 1564 0fbd
000002b0: 7787 01be e6b7 163d 9a2c 813d 6a41 76bd
000002c0: 1622 953d 93fa 9cbc a3e9 2c3d 3a8d c9bd
000002d0: 1b87 4abe dd8d eebd 5e24 303d cbac 113e
000002e0: 15e1 f2bd fa9d fdbc 3c1b a23e 3ba4 823d
000002f0: d762 343d c838 abbd fa14 fdbd ceac 843d
00000300: 6f6b 87bc 9428 a13d 83b1 f7bd 859d 7b3c
00000310: 9976 883d 25d3 6cbb 729b 48ba 1650 f63c
00000320: 0d98 f8bc 73cc bc3d 31e9 013e 5398 f93b
00000330: b9aa 39bd 0bcb b5bc 3faf 373d 0f65 31bd
00000340: db96 753d 8b42 bcbd c49f 5bbd 8c87 afbd
00000350: fa5c 44be 3656 c53c d469 8b3d 112a 883e
00000360: a98d 42bd 9fc0 3a3d 472c abbd ecf9 983d
00000370: 4082 b6bd e247 08bc d51b b5bc 4d73 be3d
00000380: 0c0e 10bd 384d 0c3d 757a ffbd aaf8 d33b
00000390: 3e6d 00be cff7 1bbe b561 f0bc 1877 fabd
000003a0: 538a 46be b2cb 71bd 95f9 55bd 8645 a8bc
000003b0: 25ec 2bbe e8dc ecbd 8611 dfbd 9c38 d4bd
000003c0: 159e bcbd db12 62be a8bf ddbb 318c 5bbe
000003d0: e457 39bd aabb 4fbe 9cc4 44be f5d3 b0bd
000003e0: fb3d 8f3d db5c 623d 7b4c 11be 2481 f43c
000003f0: b098 06be 1b50 393d 30d1 9f3d 65a0 873d

fc.weight f4 [4, 128]
-0.032967083 0.15756243 0.042460203 -0.06680072 0.06631803 0.0018607165 -0.05567961 -0.048462585
-0.10143353 -0.17995162 0.03325688 -0.04395841 -0.053334955 -0.06652782 0.021425072 0.16004613
-0.04639616 -0.14085236 -0.024897516 0.06034591 -0.008199063 -0.010046513 0.091681935 -0.06964045
0.122957066 -0.0595591 0.1197483 -0.13585778 -0.14145479 -0.080238596 -0.10311785 0.099283986
0.090588465 -0.15444729 0.09246254 0.069251046 0.12561229 -0.08327729 0.021937627 -0.0298712
0.10981905 0.15477398 -0.118067466 0.04409734 -0.046819605 0.05358213 0.13292451 -0.06981947
-0.115804896 -0.17717677 0.24816719 0.08675166 0.0048655677 0.13228384 -0.079858884 -0.1689529
0.08286789 -0.038712297 0.06862883 -0.09365742 0.04717563 -0.027107757 0.16746637 -0.06612962
-0.057558402 -0.05354857 0.21084997 0.0714946 0.1222458 0.08472249 -0.02730495 -0.01373367
-0.106604345 -0.031316213 0.119143575 0.1105188 0.033623382 -0.060387816 0.045128975 0.076839216
-0.10709927 0.037041206 -0.00052055175 0.0054750796 0.24695896 -0.048519216 -0.061404165 -0.04037713
-0.011800047 -0.1269192 -0.12429541 -0.110611156 0.04868075 -0.035489205 0.19006658 0.11961494
-0.05062299 -0.07767512 -0.14756182 0.032222208 -0.03399528 -0.041229315 -0.046986826 -0.08125144
-0.096487395 -0.15782218 0.18741935 -0.02443498 0.10210033 0.038823053 -0.086196944 -0.046572715
0.054645423 0.046990763 -0.13904789 0.650912 0.009614052 0.12281798 0.36639756 -0.015700039
0.32115173 -0.09043253 -0.032544944 -0.026502436 -0.08329467 0.0289772 0.04579045 0.07863941
-0.11401272 -0.18799962 0.047910728 -0.087815516 -0.109951675 0.093892016 -0.07001828 -0.062984146
-0.14715771 0.07705863 -0.036720302 0.13989405 0.11296738 -0.117964715 0.0704661 0.050530173
-0.075046174 -0.12338308 0.010828728 -0.14652343 0.024709199 0.032858342 -0.11129221 0.0033041886
0.028506702 -0.014580668 -0.02680019 -0.004498987 -0.13716012 -0.039185446 -0.0014790702 0.07115199
-0.08310594 -0.09408356 0.061120644 0.13057739 0.030891828 -0.12351363 0.050813902 0.0119406255
0.0480126 0.1428967 -0.10885977 0.093281515 -0.0969261 -0.048294753 0.051319703 0.008982811
-0.15378581 -0.018979026 -0.08566388 0.14517792 0.0071416986 0.034226015 -0.052713268 -0.05011702
0.010471898 -0.12519242 0.022308305 -0.14245443 0.08587389 0.12861264 -0.09993505 -0.12864074
-0.15648034 -0.094125666 0.2290553 -0.056285325 -0.15918823 0.1172181 -0.14747652 -0.1267968
-0.006050113 -0.0629769 0.17932716 0.02892928 -0.025046075 -0.03692043 0.14362793 0.007550004
-0.09190491 0.059730727 -0.03630662 -0.09401858 0.17134193 -0.04935951 -0.03345552 -0.017620774
0.13098872 -0.13099287 0.15229036 -0.13278346 0.04685685 -0.050927598 0.18278494 0.13381349
0.120764546 0.06252521 0.09168538 0.081559725 0.10152918 -0.07386193 -0.06500275 -0.097929195
-0.2407071 -0.002782699 -0.07130529 -0.012887391 -0.11463465 0.019578887 -0.025605936 -0.13292709
-0.13454881 -0.14326185 -0.0804246 0.08685928 -0.1371867 -0.013118177 -0.2438836 -0.08429547
-0.22467026 -0.06912778 -0.03579681 -0.0031421666 -0.019021332 0.12750708 -0.04143404 0.11092369
00000000: 7e08 07bd 0c58 213e c0ea 2d3d d1ce 88bd
00000010: bfd1 873d 49e3 f33a 4e10 64bd b480 46bd
00000020: 62bc cfbd 3d45 38be 5e38 083d bc0d 34bd
00000030: c175 5abd bd3f 88bd a283 af3c 22e3 233e
00000040: e609 3ebd 9a3b 10be e0f5 cbbc 462d 773d
00000050: 5d55 06bc 219a 24bc bdc3 bb3d a79f 8ebd
00000060: ead0 fb3d 3ef4 73bd 993e f53d 4d1e 0bbe
00000070: 86d9 10be 2254 a4bd 742f d3bd 6755 cb3d
00000080: 7286 b93d 6e27 1ebe 005d bd3d 7ed3 8d3d
00000090: 82a0 003e 498d aabd 8ab6 b33c 72b4 f4bc
000000a0: cfe8 e03d 127d 1e3e 5bcd f1bd 6a9f 343d
000000b0: eac5 3fbd f078 5b3d 5d1d 083e 83fd 8ebd
000000c0: 1e2b edbd d46d 35be 8a1f 7e3e dbaa b13d
000000d0: 576f 9f3b 6a75 073e 0e8d a3bd fd01 2dbe
000000e0: a4b6 a93d c990 1ebd 468d 8c3d 76cf bfbd
000000f0: 3c3b 413d 1611 debc 4e7c 2b3e f76e 87bd
00000100: 5cc2 6bbd bf55 5bbd 0ee9 573e c36b 923d
00000110: 025c fa3d fc82 ad3d a1ae dfbc 3003 61bc
00000120: 6153 dabd 6e45 00bd 8c01 f43d ae57 e23d
00000130: acb8 093d 3759 77bd 29d9 383d e15d 9d3d
00000140: dd56 dbbd 85b8 173d a375 08ba 4c68 b33b
00000150: cfe2 7c3e 16bc 46bd ef82 7bbd 7d62 25bd
00000160: fc54 41bc 1bf7 01be 988e febd 1a88 e2bd
00000170: 7765 473d 215d 11bd d0a0 423e adf8 f43d
00000180: 0d5a 4fbd 2214 9fbd 721a 17be 6ffb 033d
00000190: a23e 0bbd 12e0 28bd 4275 40bd 2867 a6bd
000001a0: 2f9b c5bd 239c 21be dcea 3f3e de2b c8bc
000001b0: fa19 d13d ec04 1f3d 0688 b0bd 08c3 3ebd
000001c0: e1d3 5f3d 6379 403d 9262 0ebe 2ba2 263f
000001d0: 4284 1d3c fe87 fb3d 7698 bb3e 5e9d 80bc
000001e0: 006e a43e b134 b9bd d94d 05bd a31b d9bc
000001f0: 6596 aabd 9861 ed3c c48e 3b3d b30d a13d
00000200: 807f e9bd f982 40be 0a3e 443d 9fd8 b3bd
00000210: 582e e1bd 754a c03d be65 8fbd d5fd 80bd
00000220: 83b0 16be ead0 9d3d 0768 16bd 6340 0f3e
00000230: 715b e73d 7c97 f1bd 8850 903d baf8 4e3d
00000240: cfb1 99bd 45b0 fcbd fa6a 313c 3d0a 16be
00000250: f26a ca3c 7896 063d 2ced e3bd 168b 583b
00000260: e386 e93c c1e3 6ebc 128c dbbc 3d6c 93bb
00000270: b473 0cbe eb80 20bd 5cdd c1ba 22b8 913d
00000280: 7233 aabd e2ae c0bd a459 7a3d 14b6 053e
00000290: dc10 fd3c b7f4 fcbd 3d22 503d 9da2 433c
000002a0: dca8 443d 8353 123e dff1 debd 610a bf3d
000002b0: 3181 c6bd b8d0 45bd 9c34 523d a42c 133c
000002c0: 077a 1dbe e779 9bbc 8b70 afbd 85a9 143e
000002d0: e904 ea3b 9430 0c3d dee9 57bd 8147 4dbd
000002e0: 5392 2b3c 7132 00be e8bf b63c 93df 11be
000002f0: a6de af3d 08b3 033e bfaa ccbd 66ba 03be
00000300: 623c 20be f5c4 c0bd 798d 6a3e 718b 66bd
00000310: 3d02 23be 0b10 f03d 1604 17be 05d7 01be
00000320: 0740 c6bb 08fa 80bd 8aa1 373e 19fd ec3c
00000330: 6d2d cdbc e039 17bd 3313 133e 0666 f73b
00000340: a438 bcbd 35a8 743d 40b6 14bd d08c c0bd
00000350: 4274 2f3e 332d 4abd a808 09bd 7159 90bc
00000360: e821 063e ff22 06be 01f2 1b3e 63f8 07be
00000370: f8ec 3f3d 7599 50bd fa2b 3b3e 6706 093e
00000380: 6753 f73d 380d 803d 8bc5 bb3d c908 a73d
00000390: 88ee cf3d ec44 97bd 2920 85bd 1a8f c8bd
000003a0: ec7b 76be f15d 36bb 8208 92bd a325 53bc
000003b0: 92c5 eabd e763 a03c 8ac3 d1bc 0a1e 08be
000003c0: 2ac7 09be 3cb3 12be a7b5 a4bd 47e3 b13d
000003d0: ac7a 0cbe 9fed 56bc 9fbc 79be 1aa3 acbd
000003e0: f60f 66be de92 8dbd ad9f 12bd cfec 4dbb
000003f0: a0d2 9bbc 3791 023e bdb6 29bd f62b e33d

fc.bias f4 [4]
0.19937173 0.10050817 0.20170438 0.17273682
00000000: 1a28 4c3e 3ad7 cd3d 988b 4e3e ece1 303e
