lstm_hdim_128_wsize_20_interval_7_nlayers_1_bs_512_lr_0.01_decay_0.95_epoch_9.pt (torch, 277987 bytes, 6 tensors)

lstm.weight_ih_l0 f4 [512, 4]
000000 47 f3 1b bb 54 1e a0 bb b7 de dc bc f6 b6 a7 3d
       -0.0023796128 -0.004886428 -0.026961667 0.08189194
000010 0d 98 ba be 56 4b 32 3e fb c0 ac be b9 c3 9d bd
       -0.3644413 0.17411551 -0.33740982 -0.07703347
000020 ed 7a 1f 3d 84 92 77 3d 18 55 e6 3d 88 eb 85 3d
       0.03893559 0.060442463 0.11246699 0.06539065
000030 d0 18 06 bd e3 2b 38 3d 03 4d d0 3d 18 9f 09 be
       -0.032738507 0.04496373 0.10170939 -0.13439596
000040 12 94 47 3d 4b 41 6b bd ca 89 1a 3c 89 27 e0 3d
       0.048725195 -0.057435315 0.009432266 0.10945041
000050 21 9b 4a bc b7 5f 95 3d 94 9d e9 3d 71 45 2b 3e
       -0.012366087 0.07293647 0.11407009 0.16725709
000060 f1 c2 af bb 83 e9 e0 bc ae 01 e9 3d 7c 7e 40 bc
       -0.005363815 -0.027455097 0.113772735 -0.011748906
000070 01 6d 01 3d b7 c6 1a bd 1e 8d 30 bc 59 b9 50 3c
       0.031598095 -0.037787165 -0.010775832 0.012739503
000080 76 35 0f 3e ba a4 15 3e b4 b8 c7 bd 9f b0 6f bd
       0.13985237 0.1461362 -0.09752026 -0.05851805
000090 7e 8a 0c bf b6 77 3d 3e 99 70 1b bf e1 3f 5e 3d
       -0.5489882 0.18502697 -0.60718685 0.05426014
0000a0 08 18 1e be b1 d0 14 be 5e d9 8f bd 76 c9 15 be
       -0.15438855 -0.14532734 -0.070238814 -0.14627632
0000b0 bf b6 bc bd e0 28 98 bd e0 64 84 3d 76 22 0b bc
       -0.092145436 -0.07429671 0.06464553 -0.008492103
0000c0 77 f5 e0 bd 84 da 10 bd 93 f9 01 bf db 75 4d bf
       -0.10984319 -0.035364643 -0.50771445 -0.8025796
0000d0 43 c0 51 bc fd 63 b9 3d 6f a0 a4 3a 1b 07 79 bd
       -0.012802186 0.090522744 0.001256002 -0.060797792
0000e0 9c fb 3f be c4 b0 27 3e f8 ea 84 3d e6 52 b3 be
       -0.18748325 0.16376024 0.06490129 -0.35024184
0000f0 99 50 21 3e b5 ca a9 bc 89 23 1b be aa 5c 0a 3e
       0.15753402 -0.020726541 -0.15150274 0.13511911
000100 f1 db fb 3d df 6f 18 bb 81 4a 6d 3d 71 15 ee bd
       0.1229781 -0.002326004 0.05793238 -0.116251834
000110 32 d5 04 3e b6 6b d3 3d 5b 09 32 3e 0c a4 df 3c
       0.12971953 0.103232786 0.17386381 0.027299903
000120 a4 5a 91 3e 63 32 0e 3f 93 b8 99 c0 a6 55 e4 bf
       0.28389466 0.55545634 -4.803781 -1.7838638
000130 36 02 6b bd 5f 4c 91 bd d0 2a f1 3e c5 dc a1 3f
       -0.057375155 -0.07094645 0.47102976 1.2645499
000140 60 42 10 be 23 85 f1 bd df d5 e7 bc 09 ac 20 be
       -0.1408782 -0.11792972 -0.028300224 -0.15690626
000150 3c 12 75 bd 07 01 87 bd 68 b9 d2 be e2 c9 a1 be
       -0.059831843 -0.06591993 -0.4115708 -0.31599337
000160 6e 0f 6f be 66 69 9d 3d d0 55 aa bc 80 d0 f2 3d
       -0.2334573 0.07686119 -0.020792872 0.118561745
000170 c6 77 d9 bd f0 16 20 be 24 0d 88 3d 77 71 32 be
       -0.10618548 -0.1563375 0.066431314 -0.17426096
000180 fa 12 fe 3d 52 88 5d bb 6b 1e 70 bd 42 5e f1 3d
       0.12405963 -0.0033803177 -0.05862276 0.117855564
000190 b6 f7 08 3d 1f 85 ed bc 5a c1 88 bc 5e 30 b6 3e
       0.03343936 -0.028994141 -0.01669376 0.35583776
0001a0 d0 8b c4 3d d5 ec 40 bd 18 6d a4 3d eb a1 27 3d
       0.095969796 -0.04710086 0.080286205 0.0409259
0001b0 fa 26 79 3e 66 2e 16 bd 73 a6 46 bd 6f 41 d0 bd
       0.24331275 -0.036665343 -0.048498582 -0.101687305
0001c0 cc fd 94 3d 8f a6 02 3e e0 b5 c4 3d 28 c7 81 3d
       0.072749704 0.1275885 0.096050024 0.06336814
0001d0 9f 24 77 bd ef d1 39 be 76 84 3d be 09 98 02 be
       -0.06033766 -0.1814649 -0.18507561 -0.1275331
0001e0 d1 8e 19 3e 1a 8d 74 bc e6 ab 0b 3e 86 8a bc 3d
       0.14995886 -0.014926219 0.13639793 0.09206109
0001f0 6f ba 91 3d d5 fe cb 3c 03 30 1c 3d e4 4b d2 3d
       0.071156375 0.024901787 0.038131725 0.10268381
000200 01 74 12 3d 69 34 8b 3d 5d 5a 0e bd 27 64 1d bd
       0.03575516 0.06797106 -0.034754146 -0.03842559
000210 ea 5d 7b 3e 4a ec f1 bc 87 56 c1 bd 4e 05 99 be
       0.24547544 -0.029531617 -0.09440332 -0.2988686
000220 b2 3d 82 bd 0e b7 27 be 78 6d 38 be 96 52 a9 be
       -0.06359424 -0.16378424 -0.18010509 -0.3307082
000230 77 8a 1b bb 81 01 c8 3c b4 62 83 3d 7d 3e 44 3c
       -0.0023733655 0.02441478 0.064153105 0.011977789
000240 8d e9 29 3e 42 c1 ee 3c fa a3 ff 3c 78 eb 66 3c
       0.16592999 0.029144887 0.03120612 0.014094226
000250 e0 74 82 3d 9f 11 02 3e aa de 75 3e 13 0c 9b 3c
       0.063699484 0.12702034 0.24010721 0.018926656
000260 76 9a 32 3d 51 32 35 3d 66 d1 22 3d 93 b5 ca 3d
       0.043604337 0.04423744 0.03975048 0.09897914
000270 aa 81 00 bd 97 35 6b 3d e1 d9 f1 3c 38 e9 bf bd
       -0.031373657 0.057424154 0.029522838 -0.09370655
000280 61 32 01 3e c5 f8 9d bb d0 e0 62 be 6e 37 8a 3d
       0.12616874 -0.0048209154 -0.22156072 0.067488536
000290 91 75 20 3e 95 1c 3a 3e 7b e4 00 3e 86 63 c3 3d
       0.15669848 0.18174966 0.12587158 0.09540467
0002a0 96 b5 9f 3d 96 c6 cf 3d 0e 17 bd 3d 1a c2 38 bc
       0.07798307 0.10145299 0.09232913 -0.011276746
0002b0 2b 5a 03 3d 87 43 6d 3d 46 20 ae 3d 3b 77 80 bb
       0.032068413 0.057925727 0.085022494 -0.0039204634
0002c0 e7 8f 26 be 09 69 36 3d ff 47 dd bd af 29 85 be
       -0.16265832 0.044533763 -0.10804748 -0.26008365
0002d0 b9 c2 ff be ae 00 00 3e 6b 61 ba 3e 1d 06 48 bf
       -0.4995325 0.1250026 0.3640245 -0.7813433
0002e0 cb b0 e4 3d 4c 15 87 3d 9b 6c c0 bc ca 12 d3 3d
       0.11166533 0.06595859 -0.023489287 0.10306318
0002f0 89 01 f6 3d d9 e3 08 be 78 23 21 bd d8 d5 7f bd
       0.120120116 -0.13368167 -0.039340466 -0.062459797
000300 10 13 18 3e d7 2b 34 3e 40 c5 cc bd c0 00 75 3d
       0.14851022 0.17594849 -0.0999856 0.05981517
000310 a7 da 9c 3e 56 d6 7c bd c9 1b eb 3d f0 8a f7 3d
       0.30635568 -0.061727844 0.11479909 0.12087047
000320 75 02 8f 3e fe 06 9e 3e a8 76 03 3f 16 93 c9 be
       0.27931562 0.3086471 0.5135293 -0.3937003
000330 7f e7 26 bd 7e d2 d1 3d 2e 40 1c bf fd 66 8b be
       -0.040748116 0.10245226 -0.6103543 -0.2722701
000340 97 c9 83 be 9f 2d 51 be 13 e5 c7 3e b4 d1 84 40
       -0.25739738 -0.2042756 0.39041957 4.1505985
000350 fb 0d 8d bb 09 93 11 bc 16 07 6c be 97 b5 9f be
       -0.004304645 -0.008885154 -0.23049578 -0.3119323
000360 91 3d c3 3d 58 3d d7 3c a6 02 df bd 0d ea 5f 3d
       0.09533227 0.026274368 -0.10889177 0.054666568
000370 9c db a3 3e 36 45 92 3e b0 69 c5 3f 66 a1 8d 3f
       0.32003486 0.2856843 1.5422878 1.106488
000380 b9 ee 30 bd e1 59 2e be 00 f9 25 3d 54 2d fe bd
       -0.043196414 -0.17026474 0.040520668 -0.124109894
000390 55 b5 4a be 9b 51 1b 3e 7e 1b aa bd f8 ba a9 bd
       -0.19795735 0.15167849 -0.08306025 -0.082876146
0003a0 1e c2 82 be e4 bb 19 be ca 84 98 bd cc 2b f7 bd
       -0.25538725 -0.15013081 -0.074472025 -0.120689005
0003b0 f1 0d ac 3d 5d 14 17 3e d2 c1 4d bd 10 b0 6c bd
       0.084010966 0.14753862 -0.05023367 -0.057785094
0003c0 ee dc 7f 3d 0d 75 97 bd 2b 51 7e bd ac a8 bf 3d
       0.062466554 -0.073953725 -0.062089127 0.093583435
0003d0 f4 bb e7 ba ad e1 37 3e 67 d1 42 bb c6 fa 1b 3e
       -0.0017679916 0.17957182 -0.0029726864 0.15232381
0003e0 74 a3 dc be cc d1 51 bb 29 9a 7a 3e 20 2a a4 3d
       -0.43093455 -0.0032015918 0.2447287 0.08015847
0003f0 86 74 a3 bb 02 f8 a4 3d 62 d2 2c 3e 91 bb 03 3d
       -0.004988256 0.08055116 0.1687713 0.0321613

lstm.weight_hh_l0 f4 [512, 128]
000000 c3 ec 2a bd 53 f1 33 be 5c ae 86 3b e0 95 a6 3d
       -0.0417297 -0.17572527 0.0041101407 0.08134055
000010 87 4b 9c 3d c2 b0 dd bc 5f 0a 52 bd a1 37 8b 3d
       0.07631593 -0.027061824 -0.051279422 0.0679772
000020 4c 4f 43 bd 5d 6a 3c 3d 47 dc 0c bd 59 50 69 bd
       -0.047683045 0.045999873 -0.03438976 -0.05696139
000030 84 1a 36 3d fe 52 f2 3d 03 7e 80 3c 66 29 ed bd
       0.04445888 0.11832236 0.015685087 -0.11580162
000040 48 be 90 3d b9 e8 ff 3d 2a 32 ca bb de 9a 98 3d
       0.07067543 0.1249556 -0.006170531 0.074514136
000050 61 73 0f 3e 86 76 cf bd 3a 0a 7d 3d 5a 41 35 bd
       0.14008857 -0.101300284 0.06177733 -0.044251777
000060 3a 8c 31 bd 97 8c 67 bd e0 6c 8b bd 1c 6f b1 bb
       -0.04334662 -0.05653056 -0.06807876 -0.0054148566
000070 cc c1 91 bb 1d 36 4e 3d 7d 5d d4 b9 ec ab 5d 3d
       -0.004448151 0.050344575 -0.00040505445 0.054119036
000080 d2 4c 4c 3d 6c 77 60 bd b7 c7 16 bd 1e 13 0a bb
       0.04987795 -0.05480139 -0.036811557 -0.0021068524
000090 7c ef be 3b bc f7 b0 3d 91 bb 66 3b 14 ad b5 bb
       0.0058268886 0.086410016 0.0035207013 -0.005544314
0000a0 70 69 82 bd c7 35 4d 3d 8b 0f bc 3c a8 5e 81 bd
       -0.06367767 0.050100114 0.02295663 -0.06316882
0000b0 6a 9a 14 3d 96 02 9e bd 53 96 67 bd cf d1 55 3c
       0.036280073 -0.07715337 -0.056539845 0.013050511
0000c0 e4 44 2a 3d 25 f2 a3 3d 19 ae 74 bd ec 75 c5 bd
       0.041569605 0.0800517 -0.059736345 -0.096416324
0000d0 ce 7d 91 3d f6 d0 a9 3d af a1 21 bd 9b d4 02 be
       0.071040735 0.08291809 -0.039460834 -0.12776415
0000e0 05 5f d7 bc de 22 7b 3d e0 01 16 3e c9 8a 2f 3d
       -0.026290426 0.06131255 0.14649153 0.042856965
0000f0 b2 f4 fd bd 2a 26 42 3d ca 27 fd bd 9b 62 27 3d
       -0.124001876 0.047399677 -0.12361105 0.040865522
000100 63 c7 9a bd b9 31 8f be 6d dd 3f 3c e8 20 e7 3d
       -0.07557561 -0.27967623 0.011710507 0.11285573
000110 75 e6 cd 3d 05 11 cf 3c 2c d5 fa 3d e9 95 d5 3d
       0.10053722 0.02527667 0.122476906 0.10428984
000120 6e 34 34 bd 7b 1c da 3c ea 74 4a 3c 57 14 f6 bd
       -0.043995313 0.026624909 0.012356976 -0.12015598
000130 5c 98 44 3c 87 32 d5 bb 54 57 ce bc 09 53 f3 bd
       0.011999216 -0.0065062675 -0.025188126 -0.11881072
000140 d3 e5 3b 3c a0 fe 46 bd a0 d1 a3 bc d7 d2 ed 3d
       0.011468369 -0.048582673 -0.019997418 0.1161248
000150 3f 19 41 bd 81 2b d1 3d 2a a6 db bc 39 b3 d4 3b
       -0.047143217 0.10213376 -0.026812632 0.0064910916
000160 37 ac 54 bd 51 5f de 3d 1e 68 4e 3d 3b 66 87 3d
       -0.05192205 0.10858024 0.050392263 0.06611296
000170 05 4b 27 bb 54 2b cd 3d d8 6a bd bd 7a 3f 3d 3b
       -0.0025526893 0.1001803 -0.092488945 0.0028876946
000180 8f 5b 95 bc 30 61 94 3c e7 57 ee bc 91 3b b5 bc
       -0.018232135 0.018112749 -0.02909465 -0.02212313
000190 c3 bc 23 bc c4 63 d9 3c 85 b0 c8 bd 57 6e 9b 3c
       -0.009993735 0.02653683 -0.097992934 0.018973513
0001a0 30 db 28 bd 13 5f c8 3d 3e 3b 85 bd 16 7a 75 3d
       -0.04122466 0.09783759 -0.0650544 0.059930883
0001b0 cc ec f2 3d 76 24 00 be a2 e8 d7 bd 31 b7 a1 bd
       0.11861572 -0.12513909 -0.10542418 -0.07896269
0001c0 65 89 02 3d cf 68 d1 3b 0e f3 e6 3d 09 e7 f3 bd
       0.03186931 0.006390668 0.11276828 -0.11909301
0001d0 b5 58 ba 3c 1c e7 8d 3d 89 f3 ba 3d c4 1c 43 3d
       0.022747377 0.06928846 0.09128482 0.047634855
0001e0 5f 4a ef 3c 90 b1 e7 3d 72 ad 73 3d 89 2d ad bc
       0.029210268 0.11313164 0.059491582 -0.021139877
0001f0 24 b9 cc bd ed d4 90 3d ea 5a e8 3c 45 4b 61 3e
       -0.0999625 0.07071862 0.028363664 0.2200137
000200 a0 d2 3d 3e 40 3a 84 3d 38 df e0 bd 4b fa 1a 3e
       0.18537378 0.06456423 -0.109800756 0.15134542
000210 b4 8e 0c 3e ca 79 2a be dc f9 83 3e 12 b8 59 3e
       0.13726312 -0.16648021 0.25776565 0.21261624
000220 d3 ee 3b 3e 01 1d 82 be d5 6e c6 bd c0 fc 36 be
       0.18352823 -0.25412753 -0.09689108 -0.17869854
000230 a6 02 e4 bd a4 9d 36 3e 06 c1 29 be ab aa 59 be
       -0.11133318 0.17833573 -0.16577539 -0.21256511
000240 c0 c9 8b 3e 4e da 78 3e e7 5c 0b be ef c6 9d 3e
       0.2730236 0.24302027 -0.13609658 0.30815837
000250 8d 66 00 3b 4a dc 66 3d 16 6f 1d 3d f5 de 08 bd
       0.0019592375 0.056362428 0.038436018 -0.033415753
000260 a9 94 6c be 59 b1 2b 3e d6 cc 50 be 2f 56 90 3e
       -0.23103584 0.16766872 -0.20390639 0.28190753
000270 82 27 8f 3e 3f 12 2d 3e 49 be fc 3d c9 41 75 be
       0.2795983 0.16901492 0.123409815 -0.23950876
000280 8f a0 0b be b9 fd 07 3e 9a 06 0f be 24 83 41 be
       -0.13635467 0.13280381 -0.13967362 -0.18897682
000290 b5 50 2d be 2b 85 8d 3e a2 21 4e be 0c 50 af bd
       -0.16925319 0.27640662 -0.20130017 -0.085601896
0002a0 ed 27 59 be 6e 51 50 be 76 a7 2d 3e 12 01 2f be
       -0.21206637 -0.20343563 0.16958413 -0.17090252
0002b0 da bc 1c 3e 91 cf af 3c 75 e2 5c be c7 cd 41 3e
       0.15306416 0.02146128 -0.21570762 0.18926154
0002c0 ce 5f 3c 3e 0a 09 97 3e 81 7c cc 3d fe 13 87 be
       0.18395922 0.29499084 0.09984685 -0.2638244
0002d0 ab fb 80 3e 38 5a 04 bd 60 f3 35 3e b7 39 fe 3d
       0.25192007 -0.0323126 0.17768621 0.12413352
0002e0 b3 8f eb 3c 19 ea 78 3e 2a 5a 5a be f5 dc 7c 3e
       0.028755045 0.24308051 -0.21323457 0.24693663
0002f0 55 89 63 be d6 b0 3b be bb a0 b5 3e 45 bf 21 3e
       -0.22220357 -0.18329176 0.3547419 0.1579562
000300 d8 56 81 3c c3 17 f8 3c ac 8b 5d be dd 8b e2 bd
       0.01578848 0.030284768 -0.21635312 -0.11061833
000310 a6 93 e2 3d 30 18 4c be 12 ca 8a 3e 81 0a 15 3e
       0.11063318 -0.19931102 0.27107292 0.14554788
000320 53 49 d7 3d 20 5f 27 3e 39 d7 22 be 5e df 87 be
       0.10512032 0.16344881 -0.15902413 -0.26537603
000330 47 ab 0d 3e 78 2c 03 3e bb 41 13 be 3a f2 3e be
       0.13834868 0.12809932 -0.14380543 -0.1864709
000340 ad 02 5f 3e 0c fe f4 3c 59 88 4a bd e8 20 1f 3e
       0.21778364 0.029906295 -0.049446438 0.15539896
000350 b2 4f c1 be 57 65 1b 3e ca c4 19 3e c1 bf 9c bd
       -0.37756115 0.15175377 0.15016475 -0.07653762
000360 37 67 53 be 3b 28 af 3e 85 f9 8a be 0b 92 a0 3e
       -0.20644842 0.3421038 -0.27143493 0.31361422
000370 d4 4f bb bd a5 70 28 3e 19 11 67 be 06 60 a0 be
       -0.091460854 0.1644922 -0.22565116 -0.3132326
000380 6e e9 18 be 7a 2f dc bc 42 8d cd bd 20 d8 3b be
       -0.14932796 -0.026878107 -0.100367084 -0.18344164
000390 7b f2 27 3d e4 48 ae 3d 13 2f c6 bd 02 72 be 3d
       0.04100273 0.085099965 -0.096769474 0.09299089
0003a0 f9 89 29 3e a0 85 93 3e bf 67 41 3d c4 ca 2f 3e
       0.16556539 0.28812885 0.04721808 0.17167193
0003b0 02 b2 44 bb 20 9a 8d bd 5b 5b 02 3e 5a 75 cb 3d
       -0.0030013327 -0.06914163 0.12730162 0.099344924
0003c0 0e 0a 58 3e 4b d2 0b 3e 80 52 a9 3e 3a b5 e3 be
       0.21097586 0.13654439 0.33070755 -0.44474202
0003d0 62 eb 31 3e e4 e8 2f be a8 e7 f9 3d 92 a9 62 3e
       0.17374948 -0.17178684 0.12202388 0.22134998
0003e0 bb 01 f8 be 70 b9 4a 3e dd 2b b6 3d 89 7c f0 bd
       -0.4843882 0.19797301 0.08895085 -0.11742503
0003f0 c3 bf 2e 3e 38 5a 81 3d 96 fe 51 be c9 04 5b be
       0.17065339 0.06316036 -0.20507273 -0.21388544

lstm.bias_ih_l0 f4 [512]
000000 bf 56 7a bd 6c 61 14 3d 0b 4c b2 bc 75 9f 86 3c
       -0.061117884 0.03622572 -0.021764776 0.016433457
000010 8d d2 cf bc 22 7a 76 3d 0d ad b4 3d bd 84 d0 3c
       -0.025368953 0.06017507 0.08822069 0.02545392
000020 0e c3 10 3d c3 50 2a 3e 9f 6c f4 bd 09 40 d4 bd
       0.03534227 0.1663237 -0.1193478 -0.10363776
000030 5e 56 05 be b4 af a8 3d 14 9d 22 be 05 b2 23 3d
       -0.13021228 0.08236638 -0.15880233 0.039964695
000040 39 da 83 3d 43 50 e5 3d 8a c4 08 3f 10 77 e1 3d
       0.06438107 0.11196949 0.53424895 0.110090375
000050 b9 af dd bd 59 47 32 be 7a 85 af bc 4c 56 21 be
       -0.10824532 -0.1741003 -0.021425951 -0.15755576
000060 58 03 81 3d 62 99 1e be de 11 87 bc 77 41 9a 3d
       0.06299466 -0.15488198 -0.016488012 0.07532018
000070 2b 16 32 3d 94 3f 47 be 20 5d a9 bd cf df d3 3d
       0.043478172 -0.19457847 -0.08269715 0.103454225
000080 bb 3c 5e bd 94 67 2c 3c e5 45 f1 bd 3a dd 48 bd
       -0.054257136 0.010522742 -0.117809094 -0.049039103
000090 43 c3 94 bc 4b 3c c8 3d d8 94 9d bd 5b e7 67 3b
       -0.018159514 0.09777125 -0.07694405 0.0035385701
0000a0 22 89 a0 3d 60 1a c2 3d 69 c5 78 bd ad c2 65 3d
       0.07838656 0.09477687 -0.06073514 0.05609386
0000b0 19 3c 1d 3d 02 3b 36 bd 38 81 ee bc 6d 5c 39 bd
       0.03838739 -0.044489868 -0.02911435 -0.04525416
0000c0 94 86 36 3d aa 1d c2 3d 00 02 6c 3e 24 5f 0e bb
       0.044561937 0.09478314 0.23047638 -0.0021724189
0000d0 cf b3 d4 bd 0d ee 1c bc 99 34 e3 bc a2 a3 90 3e
       -0.10385858 -0.00957824 -0.027735041 0.28249842
0000e0 5f 9c 18 be 96 fc fa bd ad bc 3e be e4 6c 1a 3e
       -0.14903401 -0.12255208 -0.18626662 0.15080601
0000f0 f1 2e 6f 3d 42 cc 0f 3d 89 5d 15 3b af 51 c7 bc
       0.058394376 0.035106905 0.0022791347 -0.024330942
000100 ac 88 e3 bc 81 01 bf 3e aa 38 a2 3d 13 b3 e6 3e
       -0.027775131 0.37305835 0.07920964 0.45058498
000110 05 59 11 3e f5 c4 ad 3c 22 06 7f bd d8 fc 50 3d
       0.14194115 0.02121208 -0.062261708 0.05102238
000120 22 b6 6c 3d d0 71 3c 3d 01 23 68 3d 39 94 c6 3c
       0.057790883 0.046006978 0.056674007 0.0242406
000130 b3 69 9b bd 5e a6 35 bd a1 1b 91 bc 7b 84 cd 3c
       -0.0758852 -0.044348113 -0.01771337 0.025087586
000140 f2 55 89 3d 28 7c e0 bd 43 f2 bc bd e1 89 98 3d
       0.06705846 -0.10961181 -0.09225895 0.07448173
000150 32 db b5 3d 26 2e 0b 3d e5 a0 d7 3c 5f c3 df bc
       0.08879699 0.033979557 0.026321838 -0.02731484
000160 90 9e e0 bc 36 5f b3 bd 26 33 20 bd 2e 09 ea 3d
       -0.027419358 -0.087583944 -0.03911128 0.11427532
000170 81 8e 1a bd de 56 19 bd f3 78 0b 3b ad 61 d2 3d
       -0.03773356 -0.03743636 0.0021281808 0.102725364
000180 46 eb 91 3d eb 80 53 3d 87 ba 74 3d d0 99 b3 bd
       0.07124953 0.051636618 0.0597482 -0.08769572
000190 e4 1b 39 bd 67 19 e4 bd d0 7a a3 bd 22 95 ad bd
       -0.045192614 -0.111376576 -0.07982409 -0.084757105
0001a0 3b c9 37 bc 4e 2f 08 bd 03 d1 8d 3c c6 01 c3 3a
       -0.011217411 -0.03324824 0.017311579 0.0014877848
0001b0 96 7c 04 be 05 3b 4d bd ff c6 af bd 9a bd db 3c
       -0.12938151 -0.050105114 -0.08582877 0.026823808
0001c0 b5 fa 32 bd 6e f1 85 3d 33 f8 58 bd 25 e2 81 3e
       -0.043696124 0.0654019 -0.052971076 0.25367847
0001d0 e7 ac be 3c 2f fe 0f be fb 3d 22 3e 6a 8e 4b 3d
       0.023275806 -0.14061807 0.15843956 0.049696364
0001e0 26 31 ee 3d 63 46 9c bd f6 af 73 bd cd db f7 ba
       0.11630468 -0.07630613 -0.05949398 -0.001891011
0001f0 d0 f1 25 be 7a 65 f9 bc 0d b8 ec bc 8f 7b ac 3e
       -0.16205525 -0.030443896 -0.028896356 0.33688018
000200 bd 69 ca bd 23 57 49 be 84 a0 af bb f8 47 8d 3d
       -0.09883449 -0.19662146 -0.005359711 0.068984926
000210 07 99 93 bd a2 26 b2 3d 9f 09 59 3d 71 da 21 bd
       -0.07206922 0.08698775 0.05298769 -0.039514963
000220 d0 8d 90 3d 80 08 42 3d 3f a9 9b bd f7 a8 cb bd
       0.070582986 0.047371387 -0.076006405 -0.09944337
000230 ec 21 3c bd dd 8a b4 bd 7a 71 9d 3d 0e 33 75 bd
       -0.045930788 -0.088155486 0.076876596 -0.059863143
000240 95 84 84 bd d7 1f 55 3d c1 17 ee bd 39 7e 38 bc
       -0.064706005 0.052032318 -0.116256244 -0.011260563
000250 54 48 19 be 5d bc c2 bd f5 d0 f6 bc 0d 5b 29 be
       -0.14968997 -0.09508584 -0.030128935 -0.1653864
000260 e7 18 ab 3d 6b 03 a2 bd 30 a6 af bd 70 4e cd 3c
       0.08354359 -0.07910808 -0.085766196 0.025061816
000270 74 24 e6 ba 07 66 2a be 69 64 b3 bd b5 51 63 bd
       -0.0017558471 -0.16640483 -0.08759386 -0.055497844
000280 9e 46 c2 3d 44 42 65 be 7e 73 4d bb 0a dc 82 3d
       0.094861254 -0.2238856 -0.0031349356 0.06389625
000290 ce d3 3a 3c fe ce 3e 3d b7 2b ce 3c 84 32 f2 bc
       0.011403037 0.046584122 0.02516733 -0.029565103
0002a0 a3 0f 65 bc 98 ca 33 3c 21 4b db 3c 8b 7c 31 3d
       -0.013980779 0.010973595 0.026769223 0.043331664
0002b0 d7 e4 02 be ec 4e 3d 3d 32 09 05 bc ce 45 9e bd
       -0.12782608 0.046217844 -0.008119868 -0.07728158
0002c0 8e 7c a7 bc c4 f4 3a 3d 68 8b 9c 3d eb 43 b0 bd
       -0.020445134 0.045643583 0.07643777 -0.08606704
0002d0 5a d5 85 be eb d3 05 be 53 51 37 3d ae 22 98 3c
       -0.26139337 -0.13069122 0.04475529 0.018571224
0002e0 7a 37 9a bd 67 40 64 3c 00 32 ad 3e 77 3d e0 bb
       -0.075301126 0.01393137 0.3382721 -0.0068432647
0002f0 c4 32 b6 bc 49 e8 22 bc 98 2f 35 be 0b 05 34 3d
       -0.022241004 -0.009943076 -0.17693937 0.04395012
000300 a2 6a 2d be f8 c3 f9 3d 28 8e 9f bd 8b 9c 68 bd
       -0.16935208 0.12195581 -0.07790786 -0.056789916
000310 1d 83 2b 3d d8 2d 3e 3d db ef ac 3d 5a 5f 51 3d
       0.041873086 0.04643044 0.08444186 0.051116325
000320 d2 76 bf 3d 59 c1 fd bb c3 0e fe 3d b6 b2 99 3d
       0.09348835 -0.007743996 0.12405159 0.075047895
000330 82 00 97 bd 8b 31 0f 3d d8 c2 cf bc 57 62 2b bd
       -0.07373144 0.034959357 -0.025361463 -0.04184183
000340 80 ab 8e 3d 69 04 5b bd 84 18 cc bd 72 a5 2b 3c
       0.06966305 -0.053471003 -0.099656135 0.010476457
000350 43 19 83 bd 95 cb 96 bd 78 08 89 3d 01 d1 89 3e
       -0.06401303 -0.07363049 0.066910684 0.2691727
000360 a0 52 9f bd 6f 86 80 3c 05 d0 18 be 3a 11 8d 3d
       -0.07779431 0.015689103 -0.14923103 0.06888051
000370 6d bc 10 bd 00 ff 7c 3d b4 03 3d 3d 38 0d ed 3c
       -0.035335947 0.061766624 0.04614611 0.028936967
000380 09 86 4d bd 4c df 05 3d 9d 63 07 be ac b2 a8 3d
       -0.050176654 0.032683656 -0.13221593 0.08237204
000390 5d 54 f7 bd cb 8f 58 bd 70 47 8f 3d a0 b1 18 bd
       -0.12076638 -0.052871507 0.069960475 -0.03727877
0003a0 ad 2e a5 bd 75 9b cb 3c 24 a6 e9 3c a4 d8 a7 bd
       -0.08065543 0.024854401 0.028521605 -0.08195618
0003b0 7a 6d 26 bd af c8 2d bd 02 0f 8f bd 65 8b 17 bd
       -0.04063175 -0.042427715 -0.069852844 -0.03699817
0003c0 6b 2f a2 bd a0 cb 62 be ca 39 a9 bc 93 79 80 be
       -0.079192005 -0.2214799 -0.020657439 -0.25092754
0003d0 cd 06 8a 3c ee 44 64 bd 57 81 bc bd 94 6b 0c 3d
       0.016848946 -0.0557298 -0.09204357 0.034282282
0003e0 b4 34 be 3d 1c 37 84 bd 09 af 14 be 06 07 44 3d
       0.09287396 -0.06455824 -0.14519896 0.04785826
0003f0 98 a4 bc bd 51 5c db 3b c6 56 04 bd 71 d9 a6 3b
       -0.09211081 0.0066943546 -0.032309316 0.005091839

lstm.bias_hh_l0 f4 [512]
000000 64 b8 ed ba d7 86 b4 3c 1e 88 6e 3d 3f 1f b1 3d
       -0.0018136618 0.022036953 0.05823528 0.08648538
000010 37 a1 01 bd 1b 25 2b 3c b7 12 90 bd 1d 7b 47 3d
       -0.031647887 0.010445858 -0.070348196 0.048701394
000020 94 fc 97 bc 78 07 28 3e 0a e6 43 bd ac b6 5f 3c
       -0.018553056 0.16409099 -0.047826804 0.013654392
000030 e6 94 20 be 12 8b 9f bd 04 2d 82 bd f9 23 f3 bc
       -0.156818 -0.077901974 -0.06356242 -0.029680239
000040 69 11 53 3c 6c 94 fa bc d5 d3 09 3f d3 5b d0 3d
       0.012882569 -0.030588351 0.53838855 0.10173764
000050 f1 af 27 be 3c d6 1f be fb ea a2 bd 86 59 2b be
       -0.1637571 -0.15609068 -0.07954975 -0.16733369
000060 50 cc 2f bd 7b 10 65 bd f7 33 84 bd cf ef 87 bd
       -0.042919457 -0.05592392 -0.06455224 -0.06637537
000070 35 cc f3 3c d3 70 35 be 9c 20 9a bd 06 4a 86 3d
       0.02976046 -0.1771882 -0.07525751 0.065570876
000080 43 a9 66 3c ce 36 a9 bc be 09 da bd 43 48 16 3d
       0.014078441 -0.020656016 -0.106463894 0.036690008
000090 b1 60 77 3d cc ae 49 3d 80 a1 8f bc 87 9f 9a bc
       0.060394946 0.049238965 -0.017533064 -0.018874897
0000a0 b4 dc a6 3d 53 da 43 ba 64 3f 60 3d aa 84 f4 3c
       0.081475645 -0.00074711925 0.054747954 0.029848415
0000b0 e5 34 96 bd 4e ad 18 3d 20 f1 94 bd fa 78 87 bb
       -0.073343076 0.03727465 -0.072725534 -0.0041342946
0000c0 6e 46 70 3d 98 d9 b8 3d 53 99 b9 3e eb 6a 4d 3c
       0.058660917 0.09025878 0.3624979 0.012537698
0000d0 3a 78 2a be 81 a5 c9 bc 20 11 90 3d 79 c7 c8 3e
       -0.16647425 -0.024615051 0.07034516 0.39214686
0000e0 e8 b9 1a be e1 05 fc bd 14 f6 49 bd 58 ca eb 3d
       -0.1510998 -0.12305809 -0.049306944 0.115132034
0000f0 ff d1 63 bc eb d8 7d 3d cd df e9 bc dd d6 d2 bb
       -0.013905047 0.061974447 -0.0285491 -0.006434305
000100 d7 cd fa bc 5a b3 82 3e 77 28 1a 3d 3f 1c d4 3e
       -0.03061573 0.2552746 0.037636247 0.414278
000110 6b 38 4b 3e 08 cc ec 3d d8 d9 80 bd 37 c2 98 3d
       0.1984574 0.115623534 -0.062915504 0.074589185
000120 83 59 8f bd 68 9a 4f bc c2 e2 bc 3d 9a 30 ab bc
       -0.06999495 -0.012671091 0.09222938 -0.020897198
000130 05 ff 82 bd 43 f6 a6 3b 2c 75 93 3d 32 76 3f bd
       -0.06396297 0.0050952747 0.07200083 -0.04674358
000140 ef 28 99 3d de 6b 9c bc 0a 15 0c bd ce f8 63 bd
       0.074785106 -0.019094404 -0.034199752 -0.0556572
000150 29 d9 4d 3d b3 b6 8d 3d 5e 87 ad 3d a0 62 bd 3c
       0.05025593 0.06919613 0.08473085 0.023118317
000160 a2 10 08 3d 3d 68 07 bd 86 aa 8f bc a2 e7 49 3c
       0.033218987 -0.033058394 -0.017537367 0.012323292
000170 55 f9 fa 3b 9a 3c c5 bc 3a bf a2 3c 12 8b 14 3e
       0.007659117 -0.024076749 0.019866575 0.14506176
000180 3c d0 7e 3d 7d 61 d1 ba 74 89 80 3d 2d 20 58 bd
       0.062210307 -0.0015974488 0.06276217 -0.05276506
000190 a4 de dc bd 9e 0b d8 bd bd d3 12 3d 6b e0 26 be
       -0.10784653 -0.10549091 0.03584646 -0.16296546
0001a0 52 22 c5 bd b1 0a e6 bc da fe 8e bd 71 bf bd bd
       -0.09625687 -0.02808127 -0.06982203 -0.0926503
0001b0 81 cf 8c bd 33 c3 ed bd 4a 35 4c bd 07 47 23 bb
       -0.06875516 -0.11609497 -0.049855508 -0.0024914162
0001c0 9d 20 b3 3d 6b 53 41 bc 64 8b 64 3d b9 12 9f 3e
       0.08746455 -0.011799674 0.055796996 0.31068972
0001d0 6f f9 5f 3d 6a 98 0b be 64 11 e3 3d b8 f5 b1 bc
       0.054681238 -0.1363236 0.110873014 -0.021723613
0001e0 e3 7b 1b 3d 60 11 40 3d 82 2e 5f be ec af c1 bd
       0.037959944 0.04689157 -0.21795085 -0.094573826
0001f0 70 18 82 bd 48 9c 13 3d 72 24 ed bd 1a 65 91 3e
       -0.06352317 0.036037713 -0.11579217 0.28397447
000200 96 8f e6 3c 51 e8 75 be d8 3b b0 3c 47 66 a6 bd
       0.028144639 -0.24014403 0.02151291 -0.081249766
000210 db 7b 40 3d 6e c8 f0 3d 91 fc b3 3d f2 e6 12 bd
       0.046993118 0.11756979 0.087884076 -0.035864778
000220 bd 3d c1 bd 65 0d d4 3c cb 26 5d 3c 36 71 f0 bc
       -0.09435604 0.025885293 0.0134980185 -0.029350858
000230 f9 79 6f bd f6 08 c3 3c f0 57 2b bd 8f 72 b5 3c
       -0.05846593 0.023807984 -0.04183191 0.022149352
000240 9c 3d 10 3d 6f 38 d5 3b 0a e6 0c be e2 2c 50 bc
       0.035215005 0.0065069715 -0.13759628 -0.012706013
000250 76 22 b5 bd 62 74 1a be 7c 30 1e be bd 36 64 bd
       -0.088444635 -0.15083459 -0.15448183 -0.055716265
000260 e5 eb 89 bd fd 4d 55 be 90 de 04 bc e1 a7 63 bd
       -0.067344464 -0.20830531 -0.008109704 -0.055580024
000270 c6 15 6f 3b 58 ba f1 bd c8 b8 9e bd c7 a1 9a bd
       0.0036481484 -0.118031204 -0.07750088 -0.07550388
000280 a4 38 0e 3e 61 ec da bd 80 ff c3 bd 39 ca 70 bd
       0.13888794 -0.10689617 -0.09570217 -0.058786605
000290 b3 70 bd 3c be d9 13 bd 91 80 97 3d 2d 84 b2 3d
       0.023125028 -0.036096327 0.07397569 0.08716617
0002a0 b2 99 fd bb c9 a1 8f 3d e5 4f 90 bd 34 aa fd bc
       -0.007739269 0.0701328 -0.07046489 -0.030964948
0002b0 79 a0 01 be e4 8c 39 3d 25 da 8a 3d fc 68 5b bd
       -0.12658872 0.04530038 0.06779889 -0.053566918
0002c0 50 88 9e 3d 09 fd 82 bc e3 83 71 3d 4f 4e cc bd
       0.07740843 -0.015989797 0.058963668 -0.09975874
0002d0 ab 81 74 be c7 ea f0 bd ac eb 28 3d ac 64 1a 3e
       -0.2387759 -0.1176353 0.04124038 0.15077466
0002e0 30 4d 02 be bc b8 d8 bc a4 88 8c 3e e2 c1 8f 3d
       -0.12724757 -0.026455276 0.27448 0.07019402
0002f0 11 18 42 3d c1 5c 9e bd 4f 2c 1d be 4b 3a 89 3d
       0.047386233 -0.07732535 -0.15348934 0.067005716
000300 d2 8d 92 bd e7 2e 63 3d da 80 dc bd a1 d0 07 3d
       -0.07155956 0.05546465 -0.10766764 0.03315795
000310 eb b8 79 3d 4a 32 9f b8 e6 0d 81 3a 8b cc 09 3d
       0.060967367 -7.591078e-05 0.0009846061 0.033642333
000320 76 16 03 bd 17 b8 af 3d c1 47 ef 3d 4d cd 84 3c
       -0.032003842 0.08580034 0.11683608 0.016211176
000330 7f 72 3e bd 65 58 a5 bc bb ae 40 3d 5e 64 36 bd
       -0.04649591 -0.020183751 0.047041636 -0.04452931
000340 a4 08 84 3d 71 40 d6 bd ff 08 48 bd 70 21 ac bd
       0.064469606 -0.1046151 -0.048836704 -0.08404815
000350 76 9e 39 be 3f a4 df 3c 04 30 7a 3d 47 71 80 3e
       -0.18126854 0.027299998 0.061080948 0.25086424
000360 64 65 2e bd b0 84 18 bb 51 83 a8 bd 2e 99 a0 3d
       -0.042577162 -0.0023272447 -0.082281716 0.07841717
000370 21 63 8c bd b0 91 42 bc ab d1 95 bc 7e 26 cf 3d
       -0.06854845 -0.011875555 -0.018288454 0.10114764
000380 d9 80 06 bd 11 70 1d 3d 54 73 fa bd b8 5e 1f 3c
       -0.032837722 0.038436953 -0.12229028 0.009727173
000390 a1 08 02 be 73 db 25 be 20 31 fd bc 11 49 02 be
       -0.12698604 -0.16196994 -0.030907214 -0.12723185
0003a0 66 e9 3e be b2 f0 55 bd 04 48 65 bd 0a a6 96 bc
       -0.18643722 -0.052231498 -0.055976883 -0.01838972
0003b0 43 00 2c be 6d a6 e1 bd 57 0d dd bd 0e 7c ca bd
       -0.16796975 -0.11018071 -0.1079356 -0.09886943
0003c0 87 65 be bd 49 0d 5e be aa e4 21 39 5c ff 4e be
       -0.092967086 -0.21684755 0.0001543934 -0.202146
0003d0 20 e0 1f bd cd 49 50 be 74 ad 4f be 83 15 bf bd
       -0.0390321 -0.20340653 -0.20281011 -0.09330275
0003e0 e3 0c a9 3d 5d 6d 64 3d 66 fb 01 be f5 c1 6b 3c
       0.08254411 0.05576836 -0.12693557 0.014389505
0003f0 68 14 0d be 55 11 17 3d 09 08 a2 3d d3 07 87 3d
       -0.13777316 0.036881763 0.07911689 0.06593289

fc.weight f4 [4, 128]
000000 bb 26 01 bd 97 4b fe 3d c4 73 34 3d 42 45 83 bd
       -0.031531077 0.12416761 0.044055715 -0.06409694
000010 11 5e 87 3d 83 a5 c7 ba e2 00 61 bd fa a8 35 bd
       0.066097386 -0.0015231821 -0.054932483 -0.0443506
000020 37 c1 c1 bd d6 70 4c be 6e d9 fa 3c e0 68 0d bd
       -0.09460681 -0.19964918 0.030621257 -0.034523845
000030 ed d3 04 bd fd a6 81 bd c3 e2 16 3c 67 c2 1b 3e
       -0.03242867 -0.063306786 0.009209338 0.15210877
000040 13 04 31 bd 78 e1 09 be bc 2b ff bc d0 d6 eb 3d
       -0.043216776 -0.13464916 -0.031148784 0.115155816
000050 44 3a 11 bc 93 e0 da ba 8f 11 a9 3d dd 95 8d bd
       -0.008863989 -0.0016699008 0.08255302 -0.0691335
000060 a2 82 f0 3d 7e 61 8c bd 70 d5 e6 3d 0f 7b 05 be
       0.11743666 -0.06854533 0.11271179 -0.13035224
000070 40 b2 09 be b0 dc a2 bd a0 bb cb bd 60 0b c5 3d
       -0.13446903 -0.07952249 -0.09947896 0.0962131
000080 ca ac bd 3d 77 d4 17 be ff c5 be 3d 6a 1f 86 3d
       0.092614725 -0.14827143 0.093151085 0.065489605
000090 2c 64 f7 3d d1 ee 97 bd 5a 05 a5 3c 9a 50 fe bc
       0.12079653 -0.074185975 0.020144153 -0.031044293
0000a0 43 28 d5 3d 11 17 18 3e 06 c0 ea bd fa 9f 22 3d
       0.1040807 0.14852549 -0.11462407 0.039703347
0000b0 7d e1 2e bd 7e 50 86 3d ab 1a 02 3e 68 2d 8c bd
       -0.04269551 0.065583214 0.12705486 -0.06844598
0000c0 d6 7a db bd 5d 94 2b be ca e8 7c 3e 0a b9 a5 3d
       -0.107167885 -0.16755815 0.24698177 0.08091934
0000d0 bb 25 54 3c 34 70 f8 3d 67 6f 91 bd 58 53 3a be
       0.012948449 0.12130776 -0.071013264 -0.18195856
0000e0 70 da a1 3d b3 a8 0b bd 86 74 55 3d 2e e7 b0 bd
       0.07902992 -0.03409643 0.05211308 -0.08637844
0000f0 39 ef 28 3d da f1 f9 bc 7c d7 1f 3e 16 b2 7d bd
       0.041243766 -0.030510832 0.15609545 -0.061937414
000100 d1 78 69 bd 66 ba 82 bd 0b 3d 4a 3e 87 e8 d7 3d
       -0.056999985 -0.06383209 0.19749849 0.10542398
000110 6d 53 f1 3d 59 f5 a7 3d e3 fd ac bc ae c0 61 bc
       0.1178349 0.08201093 -0.021117156 -0.013778849
000120 67 13 d0 bd ef 8b 0c bd 2c 10 e6 3d 1c fd d8 3d
       -0.10159951 -0.03431314 0.11233553 0.10595152
000130 8d 22 03 3d a6 8c 6d bd df d3 34 3d 9c 00 98 3d
       0.032015372 -0.05799546 0.04414737 0.07421991
000140 d9 b3 cb bd 4e 6c 32 3d 36 5f 0d 3c f7 f8 0c 3c
       -0.099464126 0.04356032 0.008628657 0.00860428
000150 2b 41 5e 3e 2e 74 3b bd 36 8c 77 bd 62 56 01 bd
       0.21704547 -0.045765094 -0.06043645 -0.03157652
000160 9a 08 4d bc 50 7c 0c be 48 98 e4 bd bf c7 d4 bd
       -0.012514258 -0.13719296 -0.11161858 -0.10389661
000170 98 6b 3c 3d e3 10 1b bd 36 3c 39 3e c7 00 e6 3d
       0.046001047 -0.0378579 0.18089375 0.11230617
000180 0b e0 43 bd 4c a0 9e bd 4f 95 0a be df 1b ed 3c
       -0.047821086 -0.07745418 -0.13533519 0.028943954
000190 27 18 0a bd 6e 82 2d bd ff a6 2b bd af 11 a6 bd
       -0.03371444 -0.042360716 -0.041907307 -0.08108842
0001a0 32 e6 b3 bd 54 61 1d be 5f 2c 32 3e a2 9b b5 bc
       -0.08784141 -0.15369159 0.17399739 -0.022168938
0001b0 dd 0a c7 3d aa fe 1f 3d e2 e5 c9 bd be c8 5e bd
       0.09718869 0.039061226 -0.098583 -0.05439066
0001c0 20 c1 72 3d 83 28 0f 3d d7 09 08 be ee 8f 19 3f
       0.05926621 0.034950744 -0.13285004 0.59985244
0001d0 e7 c1 4d 3c 7c 26 e8 3d 59 26 9f 3e ea 48 4b bc
       0.012558437 0.11335465 0.31083944 -0.012407521
0001e0 d9 c5 97 3e 7c 01 b0 bd f9 7a 0a bd 3e 7a ec bc
       0.29643133 -0.08594033 -0.033808682 -0.028866883
0001f0 7b ce 9f bd e7 8b 0e 3d 1f eb 3d 3d 57 0e 84 3d
       -0.07803055 0.03480139 0.046366807 0.064480476
000200 76 1f e3 bd 75 36 39 be bf 2d 51 3d 58 5c a8 bd
       -0.11089985 -0.1808718 0.051069017 -0.08220738
000210 6e 49 da bd cf 8e b2 3d 2c 2f 8c bd 40 5d 6e bd
       -0.10658537 0.08718645 -0.06844935 -0.0581944
000220 8a 35 0e be 93 55 8c 3d d6 c4 11 bd a5 05 17 3e
       -0.13887611 0.068522595 -0.035588108 0.14748247
000230 33 39 cc 3d fb 13 e6 bd 63 47 9d 3d aa a7 3e 3d
       0.099718474 -0.1123428 0.076796316 0.046546616
000240 2e 25 95 bd 2b 78 ed bd ea 21 cc 3c 5f 48 57 be
       -0.07282482 -0.11595186 0.024918515 -0.21023701
000250 f0 c1 c1 3c 7e 65 10 3d ef 6a d5 bd 28 8f e0 3a
       0.023652047 0.03525304 -0.104207866 0.0017132508
000260 fd 3f bb 3c d8 7b a2 bd 7e d1 cd bc 3e e8 a7 bb
       0.02285766 -0.079337776 -0.025124308 -0.005124121
000270 ca 5f 07 be 95 08 23 bd 52 88 02 bb ef 8e 8e 3d
       -0.13220134 -0.039803106 -0.001991768 0.06960856
000280 0b 01 9f bd 9d aa b7 bd 8c 45 a5 3d 72 bb 05 3e
       -0.07763871 -0.08968089 0.08069906 0.13059786
000290 fc e5 f4 3c 9f ca f9 bd b6 34 3f 3d 97 83 56 3c
       0.029894821 -0.1219685 0.04668113 0.013092897
0002a0 83 37 2d 3d b5 09 09 3e a4 6a d7 bd 93 c8 b3 3d
       0.04228927 0.13382609 -0.10518387 0.08778491
0002b0 98 33 c2 bd 5d 46 61 bd d6 7b 2f 3d 3c 4d 49 3c
       -0.09482497 -0.054998744 0.04284271 0.0122864805
0002c0 e7 d4 14 be b6 3e 42 bc c8 e8 a0 bd 13 c7 14 3e
       -0.14534341 -0.011855772 -0.078568995 0.14529066
0002d0 12 e8 25 bc ad f6 06 3d 26 3e 2c bd 4c 12 69 bd
       -0.010126131 0.032950092 -0.042051457 -0.056902215
0002e0 f6 e0 e3 3c 59 b2 f7 bd 1f ca fc 3b 13 66 0a be
       0.02781723 -0.12094564 0.0077145244 -0.135155
0002f0 fd 45 aa 3d 0e eb f9 3d 75 ce f0 bd e0 ca fa bd
       0.083141305 0.12203036 -0.117581286 -0.122457266
000300 d7 71 30 be a0 cc 15 be 9b 2a 52 3e 29 c2 8c bd
       -0.17230926 -0.1462884 0.20524065 -0.068729706
000310 d9 da 24 be 79 ac de 3d 4d e0 0f be 06 8e fa bd
       -0.16099109 0.1087274 -0.14050408 -0.1223412
000320 49 65 e2 bb 55 00 72 bd 53 78 2d 3e 16 6a 09 3d
       -0.006909047 -0.059082348 0.16940431 0.033548437
000330 ad c1 cd bc 8a 23 2e bd 41 ab 0b 3e 27 e0 d6 3b
       -0.025116766 -0.04251436 0.13639547 0.0065574828
000340 1a 95 af bd 8b 00 93 3d 6a 40 11 bd 9b fa b3 bd
       -0.08573361 0.07177838 -0.03546182 -0.087880336
000350 fe 3f 3e 3e df eb 46 bd 17 6c 15 bd a7 b7 88 bc
       0.18579099 -0.048564788 -0.036480036 -0.016689135
000360 66 cf 01 3e 0c da e7 bd cf 08 0b 3e 07 53 fc bd
       0.12676772 -0.11320886 0.13577579 -0.12320524
000370 99 23 49 3d fa 2c 4b bd 90 2b 2d 3e a4 41 04 3e
       0.049106214 -0.04960344 0.16911149 0.12915665
000380 71 84 f5 3d a5 0c 62 3d 7b 17 a5 3d 54 80 a4 3d
       0.11988152 0.05518784 0.08061119 0.08032289
000390 75 67 da 3d 78 ab 9a bd 3e 24 7e bd f7 85 bf bd
       0.10664264 -0.07552236 -0.062046282 -0.09351724
0003a0 cc 34 78 be 61 c4 fa ba ee 90 82 bd be 7a 48 bc
       -0.2423889 -0.0019132012 -0.063752994 -0.012236295
0003b0 03 4e e5 bd 2f c7 80 3c 64 90 28 bd 4e a6 05 be
       -0.1119652 0.015719978 -0.041153327 -0.13051721
0003c0 3c 84 05 be 9d be 10 be 1f e1 96 bd a0 cd ab 3d
       -0.13038725 -0.14135213 -0.07367157 0.08388829
0003d0 0a 1a 08 be c6 9d a3 bc 57 25 5e be 8f 3d b3 bd
       -0.13291183 -0.019972693 -0.21693932 -0.08751976
0003e0 da 3b 49 be 36 a3 8b bd d7 a1 11 bd fd 1b b8 3b
       -0.19651738 -0.068182394 -0.035554733 0.005618571
0003f0 e7 16 bb bc 95 c2 fd 3d e6 34 28 bd 98 cd af 3d
       -0.02283807 0.12390629 -0.041066073 0.08584136

fc.bias f4 [4]
000000 7e 39 47 3e 07 df c0 3d a1 39 48 3e f6 93 2e 3e
       0.19455525 0.09417539 0.19553234 0.1704863
