lstm_hdim_128_wsize_20_interval_7_nlayers_1_bs_512_lr_0.01_decay_0.95_epoch_35.pt (torch, 277987 bytes, 6 tensors)

lstm.weight_ih_l0 f4 [512, 4]
000000 70 02 95 bd 41 a5 a9 bc 70 23 19 be 30 b8 02 3e
       -0.072758555 -0.020708682 -0.14954925 0.12765574
000010 52 53 08 bf fd b1 c3 3e e4 be cb be fd 9b 71 3e
       -0.53252137 0.38221732 -0.39794075 0.23594661
000020 bd d9 13 be ab b9 cb bd 00 f6 0f 3d e7 65 6b 3d
       -0.1443853 -0.09947523 0.035146713 0.05747023
000030 7a f2 06 be 8b ec da bc 8e 7f 0c 3e fc c7 1d be
       -0.13178435 -0.02672412 0.13720533 -0.15408319
000040 f9 99 33 ba 26 f7 9f bd 91 db 6c be 7e 16 5f 3e
       -0.0006851252 -0.07810812 -0.23130633 0.21785924
000050 16 de 48 be 08 57 88 bb e7 93 d2 3b 5b 74 00 3e
       -0.19615969 -0.0041607656 0.0064263227 0.12544386
000060 6f 33 9d bd d2 68 7e bd 8f 52 18 3c ec 41 ce bd
       -0.07675826 -0.062111683 0.009297027 -0.10071167
000070 5f 2f 4f bd e7 8a e9 bd f9 60 c0 bc 8e 56 0c be
       -0.050582286 -0.11403447 -0.02348374 -0.13704893
000080 f7 bc 17 3e 25 13 6a 3e a8 84 f9 bd 41 81 e6 bd
       0.14818178 0.22858866 -0.12183505 -0.11255122
000090 e0 0a 1d bf 54 8c fb 3d 8d 12 41 bf 55 0a 60 3e
       -0.6134472 0.12282625 -0.7541893 0.21878941
0000a0 f0 63 5a be 19 1f 6b be 6a 97 49 bd 59 bd 5e be
       -0.21327186 -0.22961082 -0.049216665 -0.21751918
0000b0 fd 96 19 b9 78 ea 25 3d 7d 0e b1 3d e7 31 60 3e
       -0.00014647465 0.04050681 0.086453415 0.21894036
0000c0 b0 e2 03 be 8a 5b 9a bd 57 ee 98 bf 3f 28 0f c0
       -0.12879443 -0.07536991 -1.1947736 -2.2368314
0000d0 58 ca 90 bd 54 18 ed 3d 02 83 e4 bc 61 cf 1e be
       -0.07069844 0.11576906 -0.0278945 -0.15508796
0000e0 d9 b8 43 be 7e 4e 16 3e df e2 21 bf 70 57 2f bf
       -0.19113483 0.1467838 -0.632368 -0.68492794
0000f0 88 15 5c 3e 74 cf 2a 3c b1 ce 5e be be 9d db 3d
       0.21492589 0.010425437 -0.21758534 0.10723446
000100 0c 4a e0 3c 28 44 a2 bd 51 49 83 bd cb 94 05 bf
       0.027379058 -0.07923156 -0.06410468 -0.52180165
000110 cb 0c 0c 3e 6c 89 0d 3e c1 cf fa 3d d9 04 6c bc
       0.13676755 0.13821954 0.12246657 -0.014405453
000120 bd 22 6e 3e 12 63 21 3f bb 8a ca c0 58 b3 05 c0
       0.23255439 0.63041794 -6.329435 -2.0890713
000130 7a e4 d5 be 15 04 d8 be bb 54 26 40 6c 76 62 40
       -0.41775876 -0.42190614 2.5989215 3.538478
000140 cd 37 73 be dd ba 6e be b2 21 2a 3e d6 43 19 bf
       -0.23751755 -0.2331347 0.16614416 -0.59869134
000150 8c b5 4c bd 5d 75 3b bd f4 c4 fa bf b3 d7 8d bf
       -0.049977824 -0.045766223 -1.9591355 -1.1081451
000160 5b 44 f5 be 6d 50 ec bc cc 08 a9 3c 71 25 ee 3d
       -0.47903714 -0.028846944 0.020634077 0.11628235
000170 fb a6 67 be c8 00 39 be 6f 60 6d be 46 b5 ca be
       -0.22622292 -0.18066704 -0.23181318 -0.39591426
000180 53 4e 90 3d 4e 09 35 be da d1 9f bd 39 e2 5b 3e
       0.07046189 -0.1767933 -0.07803698 0.21473016
000190 6d 2b 68 bd db e9 f4 bd c8 d0 9a 3e 10 75 05 40
       -0.05668204 -0.11958667 0.30237412 2.08527
0001a0 00 07 d0 3c f5 0f 53 be f3 75 2a be b0 15 87 3e
       0.025393963 -0.20611556 -0.16646557 0.26383734
0001b0 0b ce af 3e 92 c0 14 bd 20 8e c7 bd 2f 86 b1 bd
       0.34336886 -0.03631646 -0.09743905 -0.086681716
0001c0 31 9a b5 3d 2e 5b 20 3e 4d b8 af 3c 2e a8 0b 3e
       0.088673 0.15659782 0.021450186 0.13638374
0001d0 f1 5a 23 be 7a 1e ca be ee 31 ff be 17 35 cd 3e
       -0.1595266 -0.39476377 -0.4984278 0.40079567
0001e0 8a d7 8d 3d 09 34 0c be 3e df 65 3e 2b 31 38 be
       0.069258764 -0.13691725 0.22448441 -0.17987506
0001f0 ec 32 aa 3d fe b5 0d 3d 8f 56 91 bc 9d a0 54 bc
       0.08310494 0.03459739 -0.01774147 -0.012977746
000200 b8 6d 7a 3d 17 c0 1f 3c 46 ee 7e 3e b5 45 0e 3e
       0.061139792 0.009750388 0.24895582 0.13893779
000210 22 a5 1b 3e fe 26 0e be 78 a9 c6 be ca 0b de be
       0.15199712 -0.13882062 -0.3880117 -0.4336837
000220 c0 8e 53 3e 94 78 f3 bb 23 07 43 3e 92 a5 c4 bf
       0.20659924 -0.0074301455 0.19045691 -1.5363028
000230 fd 37 62 bd 93 0f 89 3c 64 5a 7a 3c a7 a6 5f bd
       -0.055229176 0.01673106 0.01528034 -0.05460229
000240 f2 a2 15 3e d1 81 90 bd 6b 6c 2a 3c 4c ea 46 be
       0.1461294 -0.070560105 0.010401825 -0.19425315
000250 c6 12 43 3c 57 0f 1c 3e 83 83 60 3e 4c 81 0e 3e
       0.011906331 0.15240227 0.21925168 0.1391651
000260 73 31 0c bd 6f 86 df bb 82 e0 35 be 90 01 1e 3e
       -0.034226846 -0.0068214457 -0.17761424 0.15430284
000270 92 c4 e2 bd e8 c6 4b bd 44 54 44 3e 71 ce 60 be
       -0.11072649 -0.04975024 0.1917277 -0.21953751
000280 00 02 27 3e 04 81 c9 bd d8 53 cf be 8c 01 6a be
       0.16309357 -0.09839061 -0.40493655 -0.22852153
000290 0c 04 39 3e 20 93 5f 3e 3f ab ac 3d a9 6c 01 3d
       0.1806795 0.21833467 0.084311 0.031597767
0002a0 7a 0a a4 3d 37 cd 0f 3e 44 53 56 be 3e b9 96 bd
       0.08009811 0.14043127 -0.20930201 -0.07359551
0002b0 9d dc 71 bd ba 23 63 3d 6f 4f 1f 3d 6f 15 ed bd
       -0.059048284 0.055453993 0.038894113 -0.11576354
0002c0 0d 11 a0 be 8f 57 c1 bd 71 24 3c be 7e 64 c6 be
       -0.3126301 -0.094405286 -0.18373276 -0.38748544
0002d0 9d d5 07 bf e1 3a f0 3d 6f 20 3b 3f e5 e1 a6 bf
       -0.53060323 0.1172998 0.73096365 -1.3037688
0002e0 12 64 98 3d a2 01 b4 3c ea c9 3f be a4 68 b3 3d
       0.07440962 0.021973435 -0.18729368 0.08760193
0002f0 d9 02 83 bd a7 90 b3 be db fb 1a be 47 90 62 be
       -0.063970275 -0.35071298 -0.15135138 -0.2212535
000300 4a 7f 05 3e 51 ce 6e 3e 67 16 90 be 82 ef 78 3d
       0.13036838 0.23320891 -0.28142092 0.060775287
000310 d5 9c a2 3e 9a dd 4e be 5e fa 2b bd a4 81 46 3c
       0.31760278 -0.20201722 -0.041986816 0.01211587
000320 34 3d ef 3d 3d d1 2c 3e 64 3e 17 3e 78 c4 ea be
       0.116815954 0.16876693 0.14769894 -0.4585302
000330 87 98 2e bd 2f 12 e3 3d b6 12 02 bf 51 9e f0 be
       -0.04262593 0.110874526 -0.508098 -0.46995786
000340 38 7b c6 bd 95 65 a3 be 9d d3 fa 3d 12 5c fa 40
       -0.09691471 -0.31913438 0.12247393 7.823739
000350 8b 83 50 3d 68 26 66 bd e7 4c 77 bf aa b9 14 bf
       0.0509067 -0.05618897 -0.9660172 -0.580958
000360 45 eb f6 3d e5 0c ce 3d c1 6b 91 bd 04 35 9d 3c
       0.12056593 0.10061053 -0.071006306 0.019190319
000370 b8 0a 3c bd 61 f8 bd bd b7 2e fb 3f 37 d2 00 3f
       -0.04590866 -0.0927589 1.9623631 0.5032076
000380 be ab 03 be 55 97 c0 be 9a 59 86 bc bd 17 e4 be
       -0.12858483 -0.37615457 -0.016400147 -0.4454936
000390 22 78 9b be d4 02 14 3e 97 1d eb bd 10 9c 86 be
       -0.30365092 0.14454204 -0.11480253 -0.2629094
0003a0 87 04 ba be 74 96 7f be 48 a6 82 3d ca 77 3c bd
       -0.3633158 -0.24959737 0.06379372 -0.046012677
0003b0 51 32 45 3c 4d 41 20 3e 60 2e 61 be c1 c9 30 be
       0.012035922 0.1564991 -0.21990347 -0.17264463
0003c0 ae 8d 69 bd 97 83 46 be 09 d2 cf be 2d 13 83 3e
       -0.057019882 -0.19386135 -0.40589932 0.25600567
0003d0 3b b7 f7 bd 9b c0 5d 3e e3 bd 7b 3d 33 a8 33 3e
       -0.12095495 0.21655504 0.061460387 0.17544632
0003e0 70 03 1b bf e6 be 25 be 1f 69 de 3e 4d cb 42 bd
       -0.6055212 -0.16186103 0.43439576 -0.047557164
0003f0 64 ba b2 bd 1e d5 a3 3d f2 1a f1 3c 7d 8f 00 be
       -0.087269574 0.07999633 0.029431794 -0.12554736

lstm.weight_hh_l0 f4 [512, 128]
000000 81 c9 9c bc e8 fc 97 be b3 12 86 3b c1 3a b6 3d
       -0.019139053 -0.2968514 0.0040915846 0.08897925
000010 02 d7 5f 3e 4e a6 71 3d fd 8b 30 bd 42 f9 71 3d
       0.21859363 0.05899649 -0.043102253 0.0590756
000020 8e 6a 22 bc 55 6c e6 3e 85 35 bb bd 21 7c 01 be
       -0.0099131 0.45004526 -0.091410674 -0.12645008
000030 62 94 00 3f 13 8a 1b 3e c6 98 6e bd f9 40 25 bc
       0.50226414 0.1518939 -0.058251165 -0.0100862915
000040 d8 38 5a 3d 24 c8 b5 3d 49 67 1d bf 26 cd ad 3f
       0.053276867 0.088760644 -0.61485726 1.3578231
000050 05 2a 5a 3e b1 5d aa 3e 1f 0c 72 bc 05 39 c2 bd
       0.21305092 0.33274606 -0.014773398 -0.09483532
000060 c9 7d 63 bc d3 38 8a be d5 a2 e9 bc aa ba a7 bd
       -0.01388497 -0.26996478 -0.028520027 -0.081899
000070 03 b5 af bc a6 9a ca 38 62 d4 79 bc 28 36 0e 3d
       -0.021448618 9.660916e-05 -0.01524839 0.034719616
000080 cb 2c 71 bd 2e 87 f5 bd c5 56 ed be 7a 47 8e bc
       -0.05888061 -0.11988674 -0.46355262 -0.017368067
000090 e2 93 91 3c 3b 41 36 3d e3 8c 0b 3d f4 36 a0 bd
       0.017770711 0.044495802 0.034069907 -0.078229815
0000a0 70 e0 06 be 62 5e b1 3d 9e 10 17 3c 9f 8e 9e bd
       -0.13171554 0.0866058 0.00922027 -0.077420466
0000b0 52 c0 bc 3d 8c 99 24 bd c3 0b 3c 3d 25 ff 60 3c
       0.0921637 -0.040185496 0.045909654 0.013732706
0000c0 75 1b 08 3c 99 c1 a1 3c 16 e1 c5 be 0b 47 9a be
       0.0083073275 0.019745635 -0.3864829 -0.30132326
0000d0 35 58 4e bf d5 8b e2 39 a2 a4 05 be 0d 10 da bd
       -0.80603343 0.00043210262 -0.13051084 -0.10647593
0000e0 23 84 d3 bd 14 be f6 3d b1 f1 f6 be 36 3f 01 3d
       -0.103279375 0.12047973 -0.4823127 0.031554423
0000f0 65 ad 1a be 61 bd a6 3d 90 02 63 bd 87 f2 06 3d
       -0.15105207 0.0814159 -0.055422366 0.032946136
000100 e9 1f a5 3e c7 70 8c 3e e8 66 ac bc da 37 73 3a
       0.32250908 0.27429792 -0.021045163 0.0009278037
000110 aa 5f 30 be 2d 5f 0a 3e 2a 77 0e 3e 21 fb d7 3d
       -0.17223993 0.13512869 0.13912645 0.10545946
000120 06 a2 0f be 92 76 0f 3e 14 0a d8 3e c5 7e 07 be
       -0.14026651 0.14010075 0.4219519 -0.13231952
000130 e3 71 f5 3c fc d4 77 3c 32 1a 0e be 11 b6 93 bc
       0.029961532 0.015126463 -0.1387718 -0.018031152
000140 83 71 c4 bb 87 5f a2 3e 86 80 5b be 5f 30 ce 3d
       -0.005994977 0.31713507 -0.21435747 0.1006782
000150 6b e7 e2 3e 1b 19 ed 3d 6d da 36 3c 62 cc 8e bd
       0.44317183 0.11577054 0.011160475 -0.06972577
000160 de 74 5b bd 45 c2 aa 3e ee 08 5b be 48 a7 98 bc
       -0.05357825 0.3335134 -0.21390125 -0.018634453
000170 31 dc 83 bd d8 06 04 3e 62 37 0a bb b4 0b 34 3d
       -0.064384826 0.12893236 -0.002109014 0.043956473
000180 d2 29 c2 bd d1 fd 36 3d 34 f6 4c be e8 cf ac bc
       -0.09480633 0.044675652 -0.20015794 -0.021095231
000190 3c 74 a7 bc 76 f7 c1 be 4a 32 07 be d8 bb 31 3d
       -0.020441167 -0.3788411 -0.13202778 0.043392032
0001a0 02 87 1c 3e c7 36 35 3d b9 97 b4 3e 62 e0 b2 bc
       0.15285876 0.044241693 0.35272005 -0.02183551
0001b0 2e f5 ea 3e 15 6e 3f be 61 f2 59 be 3a b5 d6 bd
       0.45890182 -0.18694337 -0.21283866 -0.10483785
0001c0 03 a8 bf 3d 9d 34 b8 3c 37 4c 16 3e 0e 72 8c be
       0.093582176 0.022486025 0.14677511 -0.27430767
0001d0 2f 79 82 3d c2 28 de bd fa a1 4d 3e 2d 36 46 be
       0.0637077 -0.10847618 0.2008132 -0.19356604
0001e0 92 69 6d 3e be 98 52 3e 3f 7d aa 3c df 09 69 bd
       0.23184803 0.20566079 0.020811675 -0.05689418
0001f0 f2 28 ce 3c 08 a1 2c 3f aa 37 87 3d 4d 9f 63 3f
       0.025166009 0.67433214 0.06602414 0.8891495
000200 66 2c b5 3e 76 81 6a bf e6 05 26 bf 32 cf 9c 3e
       0.35385436 -0.9160379 -0.6485275 0.30626827
000210 70 b8 75 3e 3d 54 8a be ef 69 17 3f e7 d4 ab 3e
       0.23996139 -0.27017394 0.59146017 0.3356087
000220 1f 58 f9 3e a8 50 ed be ba 8d 13 bf 4b 2d 15 3f
       0.48700044 -0.46350598 -0.5763813 0.58272237
000230 12 5c c5 bf 53 ff 08 3f 41 71 c4 be bc a6 a2 be
       -1.5418723 0.53514594 -0.38367656 -0.31767833
000240 69 b0 e9 3e 7d 45 fa 3e 55 e0 9e bf 43 cf 8e 3e
       0.45642403 0.4888114 -1.2412211 0.27892503
000250 fd 70 17 3c b7 32 16 3f 50 dc d9 3d ab 94 11 bf
       0.009243247 0.58671135 0.106377244 -0.56867474
000260 cb 8f d2 be 13 96 12 be b2 9e a1 3e 62 a3 6a 3f
       -0.4112533 -0.14315061 0.31566387 0.9165555
000270 b2 10 c2 3e 30 12 a5 bd 39 ec 32 3f da d6 32 be
       0.37903363 -0.080601096 0.698917 -0.17464772
000280 0e 91 dc bf ef c1 be 3e 4d 8d 9a bf e2 97 8f be
       -1.7231767 0.37257335 -1.2074372 -0.28045565
000290 23 e6 fb be 31 c4 25 3f 54 cf 2f 3e 3b c0 d1 bf
       -0.49199018 0.6475249 0.17168933 -1.6386789
0002a0 d0 76 91 be 3c 33 0f bf b7 52 d4 3e 34 19 91 be
       -0.2841096 -0.5593755 0.41469356 -0.2833954
0002b0 a0 01 f3 3d a5 33 17 3f a4 99 67 be e4 44 8a be
       0.11865544 0.5906318 -0.22617203 -0.27005684
0002c0 75 a5 ce 3e 0c 14 f2 3e 27 f1 88 3f c5 bb 12 3e
       0.4036061 0.4728092 1.0698594 0.14329441
0002d0 63 db 66 3f 50 2a bd be 35 39 e7 be 6d ff 47 bf
       0.9017851 -0.36946344 -0.45160833 -0.78124124
0002e0 ec 9b ca 3e 13 2b cf 3d 44 b0 6a bf 9c de fc 3e
       0.39572084 0.10115638 -0.9167521 0.49388587
0002f0 83 9b da be 40 cd 87 be 71 1d 41 3f 5c 9b d9 3e
       -0.4269677 -0.2652378 0.7543555 0.42501342
000300 7b d2 8d be 70 3d 7e be 37 08 79 be 3d ba 3d bf
       -0.27699646 -0.24828124 -0.2431954 -0.741123
000310 6c c2 18 3f 23 d2 09 bd c3 cf aa 3e 22 68 19 3f
       0.59671664 -0.033647668 0.33361635 0.5992452
000320 b2 cd 7c 3e db b9 b9 bd 3a dc 11 bf bd fe ac 3e
       0.24687842 -0.09068652 -0.56976664 0.337881
000330 8f da 66 be c4 0d 72 3e fd 07 03 bf 87 d4 d5 be
       -0.22544311 0.23638064 -0.51184064 -0.41763708
000340 55 a8 a4 3e be 91 34 3f af cf 4a bf 58 dd 22 3d
       0.32159677 0.70534885 -0.7922315 0.03976187
000350 9a 0a 3f bf 8b 8e 3b 3e 97 8d 54 3e 9e e9 11 bf
       -0.7462555 0.18316095 0.20757137 -0.56997097
000360 29 0d d4 be 54 95 8b 3f 97 bc 89 bf 4d 0c 14 3f
       -0.4141629 1.0904946 -1.0760678 0.5783127
000370 2f 33 dc be c3 a0 80 3d 7b 98 17 bf c9 e4 16 bf
       -0.430078 0.06280663 -0.5921704 -0.5894285
000380 6f ba 67 bf ba 9c 24 3f f8 8d 03 bf ec d4 49 bd
       -0.9051885 0.64301646 -0.513885 -0.049275324
000390 a1 7f 83 3f b6 aa c7 bd c6 12 a0 bf 40 56 a2 3c
       1.0273324 -0.097493574 -1.2505729 0.019816518
0003a0 7c 60 f3 bd 78 17 d0 3e b8 b1 42 3e 7a e2 cd 3c
       -0.11883637 0.40642905 0.19013107 0.025132407
0003b0 b6 0c c2 3d 4c 7d 4c 3f 32 67 53 bf 56 c2 dd 3e
       0.09475081 0.7987869 -0.8257934 0.4331233
0003c0 6b 03 2c 3f 4a 5a a8 be 65 9d 37 3f 29 53 b4 bf
       0.67192715 -0.32881385 0.7172454 -1.4087878
0003d0 25 6d e8 3e e2 0a fd 3d 18 1b d5 bd a4 63 23 3f
       0.4539577 0.12355591 -0.10405558 0.63823915
0003e0 ee 4c 49 3f 2f d0 f1 bd 11 a6 f2 3d 30 23 38 bf
       0.7863301 -0.11807286 0.11848081 -0.7192869
0003f0 55 c9 82 3d 01 16 e0 3d 57 f8 35 bd 47 8f 0d bf
       0.06386057 0.10941697 -0.04442629 -0.5529675

lstm.bias_ih_l0 f4 [512]
000000 a1 9b e2 bd 91 6f ed 3d 68 f3 4f be 11 f5 20 be
       -0.1106484 0.11593545 -0.20307696 -0.15718485
000010 ca 2f 93 bc 79 b9 7b bd f6 fe aa ba cc 1f 96 bd
       -0.017967124 -0.061456177 -0.0013045955 -0.073302835
000020 67 7a 4f bc f6 62 1f 3e a8 86 1b be 04 4d 69 bd
       -0.01266346 0.15565094 -0.15188086 -0.056958213
000030 e8 0d 6b be bd 19 05 3c f7 02 3f be 67 ff a3 3c
       -0.22954524 0.008123812 -0.18653475 0.020019246
000040 c7 02 1e bd 0d 4a 1d 3d 20 86 0b 3f 05 d0 48 be
       -0.038576867 0.0384007 0.54501534 -0.19610603
000050 c2 a8 43 be fe 36 ca bd e2 e2 0d be b5 84 38 be
       -0.19107345 -0.0987377 -0.1385608 -0.18019374
000060 e7 39 ca bc 28 e6 8c be a6 e5 fe bd b8 ad 98 3d
       -0.024685813 -0.27519345 -0.12446146 0.07455009
000070 8c d0 f2 bc 67 85 b7 be c0 98 6b be d6 e8 20 3d
       -0.029640459 -0.35843965 -0.23007488 0.03928455
000080 e6 b1 be bd 8b 09 30 be 6b 48 71 3d 6e df 15 be
       -0.09311275 -0.1719114 0.058906954 -0.14636013
000090 58 f2 b5 bd 81 e3 26 bd f5 5a 20 be c7 eb 00 be
       -0.08884114 -0.04074431 -0.15659697 -0.12589942
0000a0 4f 94 44 bc 2a c3 65 3c 98 67 fc bd ea 21 2b bd
       -0.01199825 0.0140235815 -0.123244464 -0.04178039
0000b0 a7 ce 6b bd 54 49 17 bd a4 a5 0d be 88 85 91 be
       -0.057570126 -0.036935166 -0.13832718 -0.2842219
0000c0 fb 9a 82 bd 07 ba 45 3d ee e9 95 3d 19 2f 41 bd
       -0.063772164 0.048273113 0.07320009 -0.047164056
0000d0 f2 20 bf bd af 01 d1 bc 6a 08 06 bd b7 86 26 be
       -0.09332456 -0.025513498 -0.032722868 -0.16262327
0000e0 95 53 14 be 2f 75 51 be 37 ec b6 be 54 f8 41 3d
       -0.14485009 -0.20454858 -0.35727093 0.047355965
0000f0 84 02 84 bd 77 45 fb bc 51 ea 33 be ac 7b 0e be
       -0.06445792 -0.030672772 -0.17569853 -0.13914365
000100 2f 60 16 3e f2 a3 b1 3e d4 d8 29 3e 59 d3 1d 3f
       0.14685129 0.34695393 0.1658662 0.61650616
000110 08 07 9a 3e 3f 48 85 bd b4 f8 19 be a5 7b 57 bd
       0.3008349 -0.065079205 -0.15036279 -0.05260815
000120 64 8d 1c be 4e ef 11 be 01 aa 10 bc 7c 23 9d bc
       -0.15288311 -0.14251444 -0.008829595 -0.01918196
000130 5e ea 18 bd 74 6a 18 be c1 b4 99 bd ee 33 09 be
       -0.037332885 -0.14884359 -0.07505179 -0.13398716
000140 f4 88 59 bd d3 e0 56 bd b3 04 08 be 6f 68 a8 3c
       -0.053109124 -0.052460503 -0.13283043 0.02055761
000150 bc 4f 95 bc 41 8f b9 bd 2f f4 39 bb 29 6f 8b be
       -0.018226497 -0.09060527 -0.0028374305 -0.27233246
000160 d8 33 f0 bd 67 74 55 be 48 ae c4 bd b9 d1 46 3d
       -0.117286384 -0.20845185 -0.09603554 0.04853985
000170 52 91 7e be 29 b1 f2 bd 79 cc 3d bd 8a 06 44 3c
       -0.24860123 -0.11850197 -0.04633758 0.01196445
000180 be dc a3 3c 05 db 63 3c 0c c1 4f 3d 10 88 6a be
       0.020002719 0.013907199 0.050721213 -0.22903466
000190 9c fe cb bc 3b da 4c be 7a 42 82 bd ec 94 70 be
       -0.02490168 -0.20005123 -0.06360336 -0.23494309
0001a0 72 b8 9c bd ce eb f9 bd 4e ab 8f bd fc 87 61 bd
       -0.07652368 -0.12203179 -0.07015096 -0.055061325
0001b0 3e 66 10 be 98 3b d7 bc b2 31 f0 bd c7 07 8d 3d
       -0.14101502 -0.026273534 -0.11728229 0.06886249
0001c0 f8 c6 a8 bd dc 77 fe 3c ab e4 15 be a9 c9 89 3e
       -0.08241075 0.031063013 -0.14638011 0.26911667
0001d0 5a 6c 2f bd 07 63 b6 be 48 04 4f 3e a9 9a 85 3c
       -0.04282794 -0.35622427 0.20216477 0.0163091
0001e0 e3 f9 17 3f 5a 53 05 be 19 c8 7d be 73 01 01 bd
       0.5936567 -0.13020077 -0.24783362 -0.031495523
0001f0 cc af 57 be 68 b2 ed ba 17 9e 23 be d4 dc 98 3d
       -0.21063155 -0.0018134834 -0.15978275 0.074639946
000200 30 27 11 be 2a 47 42 be 7e b3 bc bd 99 99 5c 3d
       -0.14175105 -0.1897246 -0.09213923 0.05385742
000210 88 c8 48 bd 3a 4f bc 3d 2f 84 7c 3d ba b9 9c bd
       -0.049019367 0.09194799 0.061649498 -0.07652612
000220 3c 53 2e 3d 24 85 d8 3d 82 b5 c6 bd d6 74 e9 bd
       0.042559847 0.105722696 -0.097025886 -0.11399238
000230 83 91 90 be ec 21 f8 bd cc b5 35 3e 51 99 af bc
       -0.28236017 -0.12115845 0.17745131 -0.021435412
000240 8d 52 de bd 40 15 55 3c fb 64 19 be 63 c0 a4 3d
       -0.10855589 0.013005555 -0.14979927 0.08044507
000250 0a ec b1 bd 52 9b 24 be 86 2b 1b be f3 90 47 bd
       -0.08687599 -0.16074875 -0.15153322 -0.04872222
000260 e4 31 c9 3c aa c9 f0 bd de 6b 9c bd b6 e0 8b bc
       0.024559923 -0.11757214 -0.076377615 -0.017074924
000270 37 39 06 bd c0 d4 81 be a9 c1 8f bd 82 60 c1 bd
       -0.032769408 -0.25357628 -0.070193596 -0.094422355
000280 e3 70 1b 3e 7a 18 ba be e3 a4 02 3e 71 bd ef 3c
       0.15179782 -0.363468 0.12758212 0.029265137
000290 bb 5c cf bc e7 31 24 bd 76 4e 2d 3d 5c 90 72 bd
       -0.025312772 -0.040086653 0.042311154 -0.059219703
0002a0 9d 4e b4 bd 97 63 c2 bc c4 b6 75 3d 67 5b a1 3c
       -0.08804057 -0.023729129 0.059988752 0.019696904
0002b0 13 c9 10 be 57 95 8a bb 0c a9 43 bd 0d f1 ca bd
       -0.14139204 -0.0042292285 -0.047768638 -0.09909258
0002c0 ad cc 81 bd 95 cc d5 3b c4 01 8c 3d df 5f 8a bd
       -0.06337867 0.006524632 0.06836274 -0.06756567
0002d0 6e f6 0b be 27 f6 fe bd df 14 f7 bb f5 c1 71 bd
       -0.13668224 -0.124492936 -0.00754033 -0.059022862
0002e0 4d 5d 27 be 00 51 7c bc 2d 70 04 3f 17 12 20 bd
       -0.16344185 -0.015400171 0.51733667 -0.03907975
0002f0 5c 26 38 bd 4f 16 1a bd af f7 5a be ea f5 8f 3c
       -0.044958457 -0.03761893 -0.21383546 0.017573316
000300 01 20 43 be 8d 2a a2 3d e8 33 4d be df 60 ff bd
       -0.19055177 0.07918272 -0.20039332 -0.124696486
000310 b5 dd e5 3d 09 1d 15 3d 19 bc 91 3d 66 c3 8d b9
       0.11223928 0.036404643 0.07115955 -0.000270392
000320 b4 d3 57 3e d6 53 19 bc f3 4f 36 3e ce 01 cc 3d
       0.21076852 -0.009358367 0.17803936 0.09961282
000330 ba 43 d8 bd c8 25 a3 bc e5 63 e3 bc c1 b7 0a bc
       -0.10559793 -0.019915476 -0.027757594 -0.008466662
000340 9c 76 03 3c 79 90 15 bd 78 cf 15 be ef 7b 7e bd
       0.008023884 -0.036514733 -0.14629924 -0.06212991
000350 29 39 10 be 28 87 cc bd 33 fb a4 bd e1 4c 08 3f
       -0.14084305 -0.099867165 -0.08055725 0.5324231
000360 2f f0 da bd 0a 19 0e 3e f0 30 ea bd e1 64 ad 3d
       -0.10690343 0.13876739 -0.11435115 0.08466507
000370 e6 bb 44 be 2a 17 40 3e b6 85 33 3d 12 03 60 3c
       -0.19212303 0.18758836 0.04382869 0.013672607
000380 07 f1 a8 bd d8 d4 ae bc c0 82 41 be 2f a6 4d 3d
       -0.08249097 -0.021341726 -0.18897533 0.050207313
000390 0d 34 1b bd da b4 21 be 85 0d 33 3c 6b 02 96 3b
       -0.037891436 -0.15791646 0.010928516 0.004577925
0003a0 0f 40 fe bd 12 6d 89 bc 69 36 40 3d 60 27 92 bd
       -0.12414562 -0.016775642 0.04692689 -0.071364164
0003b0 a4 40 76 bd b1 56 c6 bd f4 7b 16 be ab ed b1 bd
       -0.06012024 -0.09684504 -0.14695722 -0.0868791
0003c0 f6 74 2b bd c4 3a 7a be e4 6d a4 bd 33 c4 a2 be
       -0.04185959 -0.2443648 -0.080287725 -0.31790313
0003d0 b2 80 0c bb 3c 8c 12 be 44 62 1b be 8a 67 88 3d
       -0.0021439013 -0.14311308 -0.15174204 0.066603735
0003e0 a0 65 26 3c d6 d2 5c bd a0 b0 39 be 29 2f f4 3d
       0.010156065 -0.053912006 -0.18133783 0.119230576
0003f0 17 2d 40 be a5 fe a9 3d 1f 16 9c bd 41 bd 1d bc
       -0.187672 0.08300523 -0.07621407 -0.009627641

lstm.bias_hh_l0 f4 [512]
000000 21 4e 52 bd 58 60 d0 3d d0 0f fc bd be 72 b2 bd
       -0.05134404 0.10174626 -0.123077035 -0.087132916
000010 a1 9f c6 bc 3a b5 e3 bd f9 b5 23 be ba 06 4d bd
       -0.024246039 -0.111185506 -0.15987386 -0.050055243
000020 06 50 88 bd ab 19 1d 3e f7 93 a4 bd d2 20 77 3d
       -0.06655888 0.15341823 -0.080360346 0.060334034
000030 47 26 83 be b4 cb 1b be 53 f9 ba bd 6d 44 4b bd
       -0.2561514 -0.15214425 -0.09129586 -0.049625803
000040 72 79 b8 bd 51 50 d5 bd 6b 95 0c 3f b3 5d 51 be
       -0.09007539 -0.1041571 0.54915494 -0.204459
000050 e9 80 7c be cd 54 a5 bd 9a 67 49 be f9 87 42 be
       -0.2465855 -0.08072815 -0.19668427 -0.18997182
000060 de bb 05 be 42 77 34 be 94 aa 30 be 9c 83 89 bd
       -0.13059947 -0.17623618 -0.1725257 -0.067145556
000070 6b 98 31 bd 08 9e ae be 7d fa 63 be a7 ab b7 3a
       -0.043358248 -0.34104943 -0.22263522 0.0014012948
000080 61 f9 ca bc f5 f6 4f be 4b e0 8f 3d f0 57 78 bd
       -0.024777116 -0.2030905 0.07025202 -0.06063074
000090 80 89 28 bc 7e d6 b6 bd 14 09 c7 bd 57 df 17 be
       -0.010286689 -0.0892763 -0.097185284 -0.14831291
0000a0 80 f7 11 bc a5 e9 a6 bd be 52 fe bb 30 51 8b bd
       -0.008909106 -0.08150033 -0.0077613285 -0.06802595
0000b0 07 5d 2d be 02 9f 37 3d ee 4d 3a be c9 ef 78 be
       -0.16930018 0.044829376 -0.1819379 -0.24310221
0000c0 f9 75 4b bd d4 31 33 3d 82 25 52 3e 59 ee 04 bd
       -0.049673054 0.04374869 0.2052212 -0.03245387
0000d0 db ae 1f be 12 18 26 bd fb d9 85 3d 0d fc 58 bd
       -0.15594046 -0.0405503 0.06535717 -0.05297475
0000e0 1e 71 16 be d2 f9 51 be 12 99 61 be 95 67 3f 3c
       -0.14691588 -0.20505455 -0.22031048 0.011682411
0000f0 12 0a 0c be fd 61 79 bb a7 7b 53 be 6a 50 f8 bd
       -0.13675717 -0.003805279 -0.20652638 -0.12124713
000100 8b 77 13 3e 4f ab 6a 3e 44 8d fe 3d e5 87 14 3f
       0.14401071 0.22916912 0.12429288 0.5801986
000110 b6 f6 b6 3e 22 4a f0 3c 18 a4 1a be 83 e8 ed bc
       0.357351 0.029332224 -0.1510166 -0.029041534
000120 dc b3 8f be 4c 05 4e be 77 f0 da 3c 02 ba 83 bd
       -0.2806691 -0.20119208 0.02672599 -0.064319625
000130 cd 29 d0 bc 63 92 cb bd 92 3b 70 3c ff c1 52 be
       -0.025410557 -0.099400304 0.01466264 -0.20581816
000140 f2 e2 39 bd b4 e1 1b 3d d4 21 99 bd f6 6b e0 bd
       -0.045382448 0.038057044 -0.07477155 -0.10958092
000150 11 85 68 bd 94 df 62 bd e6 9e 63 3d 88 39 63 be
       -0.056767527 -0.055389002 0.05557146 -0.22189915
000160 27 08 68 bd e8 9e 1d be 5f 7f 98 bd 25 c7 5a bd
       -0.0566484 -0.15392649 -0.07446169 -0.053412575
000170 f4 15 50 be eb 54 d7 bd c2 48 ea bc d2 6a 5e 3d
       -0.20320874 -0.10514244 -0.028599147 0.05430109
000180 3e a0 33 3c 34 15 21 bd 77 19 5c 3d 28 c3 46 be
       0.010963498 -0.03932686 0.053735223 -0.19410384
000190 84 50 b3 bd 4b d3 46 be 8b 44 55 3d 56 55 a0 be
       -0.087555915 -0.1941654 0.05206732 -0.31315106
0001a0 c9 70 25 be d1 56 ef bd 1e 0f 21 be c5 c7 18 be
       -0.16156305 -0.11686481 -0.15728423 -0.14919956
0001b0 92 a2 a4 bd 70 f4 bc bd 80 85 a6 bd aa fc 21 3d
       -0.0803882 -0.0922631 -0.08130932 0.0395476
0001c0 15 ae 47 3d ea fb 3c bd ec 0f 1a bd 36 fa a6 3e
       0.048750002 -0.04613868 -0.03761284 0.3261277
0001d0 74 25 3b bc 23 30 b4 be ff 4e 1e 3e 30 bc 61 bd
       -0.011422504 -0.35192975 0.15459822 -0.05511111
0001e0 a4 eb 03 3f bf 76 e5 bb 3b 05 d0 be 4b 51 fe bd
       0.51531434 -0.007002681 -0.4062899 -0.12417849
0001f0 bc 94 e5 bd b8 70 84 3d 58 99 7c be 54 0c b2 3c
       -0.112100095 0.06466812 -0.24667871 0.021734394
000200 e0 07 72 bc 4d d8 6e be 84 aa 85 bd 79 61 c5 bd
       -0.014772385 -0.233247 -0.06526664 -0.09637732
000210 9e 72 8f 3d 06 f1 fa 3d ee b9 c5 3d 01 40 95 bd
       0.07004283 0.12253003 0.09654604 -0.072875984
000220 c6 a1 fa bd 2f 84 ac 3d 17 76 f6 bb 71 d0 33 bd
       -0.12237887 0.084236495 -0.0075214016 -0.043899957
000230 80 fc 96 be 41 a7 16 bc 2f 9c 70 3d d7 1f 78 3d
       -0.29489517 -0.00919515 0.0587427 0.06057724
000240 f8 78 0d bc 90 33 05 bd 2e 3f 2f be 91 ca a1 3d
       -0.008634798 -0.032519877 -0.17113945 0.078999646
000250 ee f5 d1 bc 46 b1 5d be e6 40 8d be f9 a4 79 3d
       -0.025629964 -0.21649656 -0.27588576 0.060948346
000260 21 5c 01 be fb b0 7c be a6 90 a7 3a 9e 1f c8 bd
       -0.126328 -0.24676888 0.0012784197 -0.097716555
000270 4c 2d e0 bc a7 20 52 be 10 2c 76 bd 60 59 ea bd
       -0.02736535 -0.20520268 -0.060100615 -0.11442828
000280 12 86 48 3e f9 64 7c be c6 6b 0f 3d bd 51 bf bd
       0.19582394 -0.24647893 0.03501489 -0.09341762
000290 c0 ab 5e bc 5a 6d fb bd d4 9c ba 3d 13 91 6b 3d
       -0.013590753 -0.122767165 0.09111944 0.0575114
0002a0 2e 86 a7 bd 28 1f 11 3d ac 8e 18 bd fb a3 5f bd
       -0.081798896 0.035430104 -0.037245438 -0.054599743
0002b0 b5 84 0f be af a5 a8 bb 30 9b e6 3c ca 5f 9a bd
       -0.14015467 -0.005146704 0.028150171 -0.075378016
0002c0 bf 35 0d 3d c2 b9 61 bd 8f 70 50 3d 40 6a a6 bd
       0.034475084 -0.055108793 0.050888594 -0.08125734
0002d0 b8 9a e9 bd 0e 39 e4 bd fa 20 35 bc 76 df 95 3d
       -0.114064634 -0.11143695 -0.0110552255 0.073180124
0002e0 cb 8e 5c be 02 81 64 bd fb 36 e8 3e 68 79 1b 3d
       -0.21538846 -0.055787094 0.45354447 0.03795758
0002f0 dd 15 ca 3c 09 0b d7 bd 5d f4 42 be ab 6a 26 3d
       0.024668628 -0.10500152 -0.1903853 0.04062907
000300 7a f8 bd bd 65 f0 4f 3c 4b ad 6b be 90 54 0e bd
       -0.09275909 0.012691592 -0.23015325 -0.034748614
000310 24 7c 06 3e 2a 82 25 bc 61 7c 49 bc b9 5c 91 bc
       0.13133293 -0.010101834 -0.012297721 -0.017744409
000320 27 a5 ae 3d 97 69 ac 3d 6f ec 2e 3e 98 04 27 3d
       0.08527594 0.08418577 0.1708238 0.040775865
000330 60 7c a0 bd 41 b8 99 bd 49 de 36 3d 12 c0 36 bc
       -0.07836223 -0.07505847 0.04464558 -0.011154192
000340 e4 7d 39 3b 84 86 b3 bd 3a 8a c3 bd 1c 6a 20 be
       0.0028303796 -0.08765891 -0.09547849 -0.15665478
000350 86 25 84 be 16 5c 8b 3a b0 eb b0 bd 18 9d 03 3f
       -0.25809878 0.0010632302 -0.08638704 0.5141158
000360 52 d0 92 bd 2b 4c f7 3d 92 28 42 bd e3 ec c0 3d
       -0.0716864 0.12075075 -0.047401972 0.094201826
000370 3e be 66 be a5 5c e9 3d ea cd a8 bc 93 e3 af 3d
       -0.22533509 0.11394624 -0.020606 0.08588328
000380 78 6e 85 bd 77 66 7f bc c9 58 37 be e3 ce b7 bc
       -0.06515211 -0.015588394 -0.17904963 -0.022437518
000390 f6 ad 34 bd 4b b6 88 be d6 31 b8 bd 37 d9 ae bd
       -0.044111215 -0.26701578 -0.089938805 -0.08537524
0003a0 04 72 6b be 41 3a c0 bd b5 e4 19 bd 09 80 ff bb
       -0.22992712 -0.09386111 -0.037571628 -0.0077972454
0003b0 0d f5 3f be 4b 8c 28 be 40 7b 3d be 02 52 18 be
       -0.18745823 -0.16459768 -0.18504047 -0.14875033
0003c0 41 e1 63 bd 67 7c 75 be 08 9d 73 bd 4f ca 89 be
       -0.05563474 -0.23973237 -0.05947593 -0.26912162
0003d0 84 ab 6d bd 69 e2 94 be 9c 67 86 be af c7 79 bd
       -0.0580249 -0.29078987 -0.26250923 -0.06098145
0003e0 5d 35 36 b9 37 04 88 3d fd fc 26 be e5 a3 af 3d
       -0.00017376752 0.06641429 -0.16307445 0.08576182
0003f0 65 ef 6e be 78 d1 e7 3d 70 3a 10 3d 3f c5 51 3d
       -0.2333351 0.1131925 0.03521198 0.0512135

fc.weight f4 [4, 128]
000000 fc 2c 2e bd f1 62 3b 3e 91 ac 16 3c a8 99 bc bd
       -0.04252337 0.18299462 0.0091964165 -0.09208995
000010 7d 11 c2 3c 82 c9 b3 3c de 50 1d bd b8 54 87 bd
       0.02368998 0.021946672 -0.0384072 -0.06607956
000020 dd eb 0e be 7d bf 4a bd e4 06 71 3d 46 47 e6 b9
       -0.13957162 -0.049499024 0.058844462 -0.0004392212
000030 92 a3 b2 bc fb a5 c0 bd 36 da 0e 3d c2 53 26 3e
       -0.021806512 -0.09406658 0.03487607 0.16242889
000040 fb 66 4f bd 12 df 32 be 19 f1 56 3a 5a db d6 3b
       -0.05063532 -0.17467907 0.00081993785 0.0065569105
000050 4b 50 38 3d 15 e4 95 bb 8b 30 22 3e ff ee 48 bd
       0.04499845 -0.0045743086 0.1583883 -0.04905605
000060 3d 2c 1a 3e 32 63 f1 3b 7c 3b bb 3d 19 af e7 bd
       0.15055938 0.0073665613 0.09142205 -0.11312694
000070 f9 18 41 be a8 98 95 bd 2b d3 af bd 09 dc fa 3d
       -0.18857183 -0.073045075 -0.08585199 0.122489996
000080 95 e8 d0 3b da 02 3e be 0e d0 d2 3b 00 1e 97 3d
       0.006375382 -0.18555775 0.0064334935 0.07378769
000090 b8 4a 16 3e 25 df d3 bd 8b 20 db 3c 93 72 9d bc
       0.1467694 -0.10345296 0.026748916 -0.019219672
0000a0 5c cf 17 3e f0 1e 41 3e 6f 5f 0c be b8 b7 98 3d
       0.14825195 0.18859458 -0.1370828 0.074569166
0000b0 cb 40 b1 bd ac 09 a4 bc 63 2f 21 3e 98 79 8d bd
       -0.086549364 -0.020024143 0.15740733 -0.06907958
0000c0 dd 02 1a be 55 ca 61 be 2e 65 09 3e 94 10 2d 3d
       -0.15040155 -0.2204984 0.13417503 0.04225214
0000d0 49 d7 50 ba 20 e4 5e 3c 5b b7 8c bd 35 a6 0b bd
       -0.00079666503 0.013604194 -0.0687091 -0.034094054
0000e0 47 3b 3a 3d 33 ce 3c bd 57 96 e0 3d 60 34 07 be
       0.045466688 -0.046095084 0.10966175 -0.13203573
0000f0 ae b4 62 3d 87 c9 6f bc ec bd c1 3d 45 71 d5 bd
       0.05534809 -0.01463545 0.09460053 -0.10421995
000100 ca 90 62 bc e1 f9 e3 bb 75 83 a8 3e 19 57 08 3b
       -0.013828466 -0.006957278 0.32912794 0.0020803867
000110 3c 38 c3 3d 97 5e 03 3e 45 f8 23 bd 09 95 d8 bc
       0.0953221 0.12829052 -0.04003169 -0.026438253
000120 95 1d ae bd a6 b5 93 3b ee d2 f4 3d 6e 33 0e 3e
       -0.08501736 0.004507738 0.11954294 0.13886806
000130 19 83 34 bc 94 eb b9 bd cb eb 76 3d fe ea 36 3d
       -0.011017584 -0.09078136 0.060283463 0.0446577
000140 c6 a4 0a be 8a 3f 27 3d e4 86 08 bd 74 8d 44 3b
       -0.13539419 0.04083208 -0.033331767 0.002999154
000150 e4 79 15 3e a7 7c 8c bd 4d 6f 6c bd bb 4a b2 bd
       0.14597279 -0.06859713 -0.057723332 -0.0870566
000160 e4 01 89 bc 1e 5a ff bc 52 3d 3d bb 7e f2 17 be
       -0.016724534 -0.0311709 -0.002887566 -0.14838597
000170 9a 41 a5 3d 9e 68 94 bc 0f dc 7a 3e e6 1e 18 3e
       0.08069153 -0.018116292 0.24498008 0.14855537
000180 90 bd c5 bd 40 82 bf bd 73 23 f2 bb cf 44 13 3d
       -0.09655297 -0.09351015 -0.00738948 0.035954293
000190 e3 df 98 bc 19 b2 81 3b 1f ad 67 bc 96 c6 c6 bc
       -0.018661445 0.0039579985 -0.014140396 -0.024264615
0001a0 a0 9b 03 be ee 7c 42 be 40 83 80 3d db 8d a2 bd
       -0.12852335 -0.1899297 0.06275034 -0.07937213
0001b0 0e 28 9d 3c a5 be 68 3c c8 89 16 bd 21 f5 fd 3c
       0.019184139 0.014205609 -0.036752492 0.031000676
0001c0 36 3b 2a 3d ea a0 45 3d e5 96 2e be d6 5c 53 3f
       0.041560374 0.048249163 -0.17049749 0.8256353
0001d0 21 38 59 3a 75 51 dd 3d dc fc e0 3e 52 93 7c bb
       0.0008286257 0.10806552 0.43942916 -0.0038539958
0001e0 cb c0 a6 3e 5a f2 c0 bd 27 84 e2 3c a4 ac 0d bd
       0.32568964 -0.09421225 0.027650906 -0.03458847
0001f0 46 d7 1d bd 07 91 9b 3c f5 35 99 3c ee cc 48 3d
       -0.03853538 0.018990053 0.018702487 0.04902356
000200 de b3 d0 bd 5d 7c ab bd bf fb 03 3d 67 a0 22 be
       -0.10190557 -0.0837333 0.032222506 -0.15881501
000210 10 a1 0f bd ef 54 ff 3d bd f4 94 bd db c5 c8 bd
       -0.03506571 0.12467372 -0.072732426 -0.09803363
000220 8f fb 5b be 3c 10 44 3d a3 71 f9 bc ff a4 4d 3c
       -0.2148268 0.047867045 -0.030449694 0.012551545
000230 9c 9e b7 b9 73 39 25 be 36 a4 4b 3d ba 09 8b 3d
       -0.00035022653 -0.16135196 0.04971715 0.067889646
000240 20 a1 af bd f4 19 43 be b4 32 16 3b 98 aa 82 b8
       -0.08575654 -0.19052869 0.0022918405 -6.2306586e-05
000250 29 97 7c bd 1b a4 a2 3c 12 25 03 be 1a d1 87 bc
       -0.061667595 0.019853642 -0.1280711 -0.0165792
000260 aa ac 92 3d 0e 15 fb 3b 3f af a3 3c c0 1f ca bb
       0.07161839 0.007662422 0.019981025 -0.0061683357
000270 05 92 50 be 74 a1 e3 bd e4 9e 33 3c 70 1f ea 3d
       -0.20368202 -0.11114779 0.010963175 0.114317775
000280 69 8f 05 be 65 cd c2 bd c7 c9 ec 3b b0 39 13 3e
       -0.13042988 -0.09511832 0.007226202 0.14377475
000290 fc 84 b8 3c f2 e6 22 be f1 b6 98 3d 77 63 40 bb
       0.02252435 -0.15908411 0.07456768 -0.002935616
0002a0 e5 9c bf 3d 11 21 61 3e c7 33 01 be f0 5d 0a 3e
       0.09356097 0.2198527 -0.12617408 0.13512397
0002b0 95 41 29 be 5a 4f 66 bd b6 59 c4 3d f2 97 c0 3b
       -0.16528924 -0.05622802 0.095874235 0.0058774883
0002c0 e2 1a 63 be 35 c7 89 bd cb 08 27 bd 57 9e 92 3d
       -0.22178224 -0.06727449 -0.04077987 0.07159107
0002d0 4e 71 48 ba b6 75 8f bc 3d 41 93 bd e2 3c df bc
       -0.0007646278 -0.017512184 -0.071901776 -0.02725071
0002e0 74 33 ab bd 1c 86 20 be 9c ef ff 3c 75 25 55 be
       -0.08359423 -0.15676159 0.031242184 -0.2081507
0002f0 77 ba 8d 3d 85 70 28 3e b4 7a d4 bd 79 a4 36 be
       0.06920331 0.16449173 -0.10374966 -0.17836179
000300 5d 12 ae bc e2 eb a7 bb 79 19 c6 3e 8f b8 a3 bc
       -0.02124899 -0.005124555 0.3869131 -0.019985465
000310 b6 33 20 be 25 00 15 3e f6 41 55 be ef a0 28 be
       -0.15644726 0.14550836 -0.20825943 -0.16467641
000320 d1 fa e6 bc 8d 7d 4a bd e6 63 4f 3e b5 d5 18 3c
       -0.02819577 -0.04943614 0.20252952 0.0093282955
000330 2b 26 85 bb db ec 30 bc e5 7d 4b 3e 4f 3d 08 3d
       -0.004063388 -0.010798658 0.19872244 0.033261593
000340 e3 4c 22 be 0d f6 96 3c 80 59 c2 bd a7 21 21 be
       -0.15849642 0.018427873 -0.09489727 -0.15735494
000350 d4 6b ac 3d cd ba 4d bd 90 d0 d1 bc 05 ef fa bb
       0.08419004 -0.050226975 -0.025612146 -0.007657888
000360 18 c3 3c 3e ac 93 ed bc 71 8c 99 3d cc 0a 4f be
       0.18433797 -0.02900108 0.0749749 -0.20218962
000370 a8 f9 05 3d 8c 1b 62 bd 7f e3 8d 3e 0c 0b 46 3e
       0.032708794 -0.055202052 0.27712628 0.19340152
000380 a3 a3 0a 3e 5d 88 9e 3d 4f d1 79 3d 2e fd db 3d
       0.13538985 0.07740853 0.060990628 0.107416496
000390 98 47 4b 3d b5 bb 26 bd e4 dc c7 bd c3 29 d4 bd
       0.049628824 -0.040706355 -0.097589284 -0.10359528
0003a0 81 11 9b be f9 17 bd bc 70 09 1d bd 86 b1 e6 3c
       -0.30286792 -0.02308272 -0.03833908 0.028160822
0003b0 38 c4 b8 3c ba 38 cc 3a 71 46 12 3d 85 c2 cb bd
       0.022554502 0.0015580871 0.03571171 -0.09949211
0003c0 c1 5d 1d be 66 6a 3f bd 14 a1 08 be a3 be 0a 3e
       -0.15367796 -0.04673233 -0.13342696 0.13549285
0003d0 2f 61 2f be b9 6f 72 3d b8 32 d6 be 8c 9b a5 39
       -0.17126916 0.05918858 -0.4183557 0.00031587144
0003e0 fe c6 15 bf 0f 6c 82 bd 15 b3 2b bd ec 3e 6f bc
       -0.58506763 -0.06368267 -0.041918833 -0.014602404
0003f0 23 09 c7 3c 46 d4 b9 3d b8 00 94 bd 3e fa 87 3d
       0.024296349 0.09073691 -0.072266996 0.06639527

fc.bias f4 [4]
000000 49 6a 7c 3e a1 e0 2c 3e d1 9b 69 3e 76 fb 3c 3e
       0.2464992 0.16882564 0.22813345 0.184553
