lstm_hdim_128_wsize_20_interval_7_nlayers_1_bs_512_lr_0.01_decay_0.95_epoch_14.pt (torch, 277987 bytes, 6 tensors)

lstm.weight_ih_l0 f4 [512, 4]
0	0xbc4cf6e0	-0.012510031
1	0xbbdbdd94	-0.006709764
2	0xbd80458d	-0.06263266
3	0x3ddd77ea	0.108138874
4	0xbf041902	-0.5160066
5	0x3ebb8091	0.36621526
6	0xbed6c920	-0.4195032
7	0x3e08c6fc	0.13357157
8	0x3d084334	0.033267215
9	0x3d837c0f	0.06420147
10	0x3db0a01f	0.08624291
11	0x3df8b15b	0.12143203
12	0xbd027c34	-0.03185673
13	0x3d66c1db	0.05633722
14	0x3e083ea3	0.13305144
15	0xbe24d163	-0.160955
16	0x3d52b971	0.051446382
17	0xbd1c4b1e	-0.038157575
18	0xbd0e70d1	-0.03477556
19	0x3df4c66e	0.1195191
20	0xbd510a52	-0.051035233
21	0x3d6a368a	0.05718092
22	0x3db1d915	0.08683983
23	0x3e2fa488	0.17152607
24	0xbb7fb20a	-0.0039016032
25	0xbcaa5e82	-0.020797018
26	0x3dddb1fc	0.108249635
27	0x3c40fbb7	0.0117787635
28	0x3c84d0ef	0.016212909
29	0xbd6c4043	-0.057678472
30	0xbc57a06f	-0.013160809
31	0x3c2cc2a0	0.010544449
32	0x3e108a48	0.1411525
33	0x3e2b3085	0.16717727
34	0xbdda5cf1	-0.106622584
35	0xbda9cdda	-0.08291216
36	0xbf11c6bb	-0.56943864
37	0x3e44228c	0.19153804
38	0xbf27fef2	-0.6562339
39	0x3d819eb0	0.06329095
40	0xbe3dac0c	-0.18522662
41	0xbe3ba51c	-0.18324703
42	0xbd1cbc44	-0.03826548
43	0xbe262051	-0.16223265
44	0xbd717745	-0.058951635
45	0xbbe3ad08	-0.006948117
46	0x3d6db42d	0.058033157
47	0x3e09b340	0.13447285
48	0xbe2d8f64	-0.1694923
49	0xbd49b9d7	-0.049249496
50	0xbf56306b	-0.8366763
51	0xbf850356	-1.0391643
52	0xbcaed5cb	-0.021342179
53	0x3dd22c9b	0.10262414
54	0x3c659b05	0.01401401
55	0xbd95be99	-0.07311744
56	0xbe3b23be	-0.18275353
57	0x3e3855de	0.18001506
58	0x3a89f586	0.0010525442
59	0xbe946703	-0.28984842
60	0x3e354839	0.17703332
61	0xbcce1eb4	-0.025161125
62	0xbe1d53d0	-0.15364003
63	0x3e008bba	0.12553301
64	0x3dd0d619	0.10197086
65	0xbcb1c007	-0.021698011
66	0x3d03c55d	0.032170642
67	0xbe2980e6	-0.16553077
68	0x3e0839d5	0.13303311
69	0x3de9f331	0.11423338
70	0x3e239ddb	0.15978186
71	0x3b8f24e7	0.004368413
72	0x3e974732	0.29546505
73	0x3f217851	0.63074213
74	0xc0adcf22	-5.431535
75	0xbfee544a	-1.8619473
76	0xbe14750a	-0.14497772
77	0xbe28dfa3	-0.1649156
78	0x3f89c202	1.0762331
79	0x400f91bb	2.2432697
80	0xbe21c48b	-0.15797631
81	0xbe0de63f	-0.13857363
82	0xbcb6c1f8	-0.022309288
83	0xbe65999c	-0.22421879
84	0xbd17de6b	-0.03707735
85	0xbcd2d8b3	-0.025738096
86	0xbf5d7568	-0.8650727
87	0xbf0ed272	-0.55789864
88	0xbe9ff49b	-0.31241307
89	0x3d43133e	0.047625773
90	0x3d8a5e22	0.06756236
91	0x3e429a3f	0.19004153
92	0xbe049e03	-0.12950902
93	0xbe36cc7c	-0.17851442
94	0xbccc45c2	-0.024935607
95	0xbe65d726	-0.22445354
96	0x3dfaba74	0.12242594
97	0xbd5a781f	-0.053337213
98	0xbdd68e08	-0.10476309
99	0x3e00458c	0.1252653
100	0x3d95bc42	0.07311298
101	0xbbf1aca1	-0.0073753153
102	0x3eac402a	0.33642703
103	0x3f84a63d	1.0363232
104	0x3dc1bf78	0.09460348
105	0xbda357f3	-0.07975759
106	0x3b241271	0.0025035406
107	0x3d7b2aa9	0.06131998
108	0x3e86af22	0.2630549
109	0xbd41d341	-0.047320608
110	0xbd50525c	-0.050859794
111	0xbdf67e88	-0.12035853
112	0x3da279eb	0.0793341
113	0x3e09b052	0.13446167
114	0x3d4cdd9d	0.050016034
115	0x3d86a670	0.06574714
116	0xbd4a352d	-0.04936712
117	0xbe389bab	-0.18028133
118	0xbebbc8b6	-0.36676568
119	0xbd44a721	-0.04801095
120	0x3e1b2f6c	0.15154809
121	0xbcd7a1dd	-0.0263223
122	0x3e42a5d0	0.19008565
123	0x3d8c635d	0.068548895
124	0x3d89aa3e	0.06721924
125	0x3ca283cf	0.019838242
126	0x3bb33dc1	0.005470008
127	0x3dc3e4a0	0.09565091
128	0x3d87b218	0.066257656
129	0x3da40ec7	0.08010631
130	0x3e3e75fb	0.18599693
131	0xbcffc1df	-0.031220375
132	0x3e7225ff	0.23647307
133	0xbd408c86	-0.047009014
134	0xbe115ea5	-0.1419626
135	0xbe8752f1	-0.26430467
136	0x3da6b437	0.08139842
137	0xbda1b113	-0.07895102
138	0x3c5b59e1	0.013388128
139	0xbf4cb32c	-0.79960895
140	0xbc1bb55e	-0.0095036905
141	0x3d0281f8	0.03186223
142	0x3d302795	0.0430065
143	0x3c59f678	0.013303392
144	0x3e3283c2	0.17433074
145	0x3c3058c6	0.010763353
146	0x3d6aab16	0.057292067
147	0x3a61ad54	0.0008608897
148	0x3d680b91	0.056651656
149	0x3e1356db	0.14388601
150	0x3e611aff	0.21982954
151	0x3dc71049	0.09719903
152	0x3cd736ff	0.026271341
153	0x3ce266ca	0.027636904
154	0x3c642f57	0.013927302
155	0x3e0b439c	0.1360001
156	0xbd24ae61	-0.040205363
157	0x3d4a6305	0.04941084
158	0x3dd34a55	0.10316912
159	0xbdcea543	-0.10090115
160	0x3deeac92	0.11654009
161	0xbd766522	-0.06015504
162	0xbe9dfbb0	-0.30856085
163	0x3da80d52	0.08205666
164	0x3e293234	0.16523057
165	0x3e3f3ae9	0.18674816
166	0x3ddc9d10	0.10772145
167	0x3dbbed75	0.09176151
168	0x3daf09f6	0.08546822
169	0x3df0891f	0.11744904
170	0x3d8afe16	0.06786744
171	0xbd069c90	-0.032864153
172	0x3bd82295	0.0065959194
173	0x3d609aad	0.05483501
174	0x3d8d0bb9	0.068870015
175	0xbd4a0a50	-0.04932624
176	0xbe48e58f	-0.1961882
177	0x3c4fdb66	0.012686586
178	0xbdfc84c0	-0.123300076
179	0xbea4598a	-0.32099563
180	0xbf057b67	-0.5214142
181	0x3e05dbaf	0.13072084
182	0x3eeb0226	0.45900077
183	0xbf84f831	-1.0388242
184	0x3dde7dea	0.1086386
185	0x3d45c03d	0.048279036
186	0xbd14a6fe	-0.03629207
187	0x3dc941db	0.09827014
188	0x3dd261e2	0.10272576
189	0xbe27a7f7	-0.16372667
190	0xbd4fc3ce	-0.050723843
191	0xbdd43eff	-0.10363578
192	0x3e1208f0	0.14261222
193	0x3e459755	0.1929601
194	0xbe13af61	-0.1442237
195	0x3d444452	0.047916718
196	0x3ea40867	0.3203766
197	0xbde8acc3	-0.11361077
198	0x3dede540	0.116159916
199	0x3de0b3d4	0.109717995
200	0x3e71608f	0.2357199
201	0x3e922b0a	0.2854846
202	0x3ee3007b	0.44336304
203	0xbedbfae8	-0.42964864
204	0xbd921893	-0.071335934
205	0x3ddab065	0.10678176
206	0xbf1cdcb4	-0.61274266
207	0xbe8a6c04	-0.27035534
208	0xbe494ead	-0.19658919
209	0xbe908076	-0.28223008
210	0x3e031325	0.12800272
211	0x40c4e086	6.1524076
212	0x3c07ceed	0.008289081
213	0xbd2c4244	-0.042055383
214	0xbe9966b5	-0.29961172
215	0xbeb469f8	-0.35237098
216	0x3dca7daa	0.0988725
217	0x3d092f7c	0.03349255
218	0xbe420572	-0.1894739
219	0x3dd1c330	0.10242307
220	0x3e4849ed	0.1955945
221	0x3e316b97	0.17326199
222	0x3fe1c9d8	1.7639723
223	0x3f5b8565	0.8575042
224	0xbd897711	-0.06712163
225	0xbe80fafb	-0.25191483
226	0x3d124662	0.035711654
227	0xbe81a681	-0.25322345
228	0xbe6f090e	-0.23343298
229	0x3e1c005b	0.1523451
230	0xbdc1b9b1	-0.09459246
231	0xbe0824ae	-0.13295242
232	0xbea2ebee	-0.31820625
233	0xbe4aede1	-0.19817306
234	0xbd805b2f	-0.06267392
235	0xbdb1afa8	-0.08676082
236	0x3d8ca9a4	0.06868294
237	0x3e189985	0.14902313
238	0xbdb133cf	-0.0865246
239	0xbddbc23c	-0.10730407
240	0x3d389268	0.0450615
241	0xbdce888d	-0.10084639
242	0xbdc5517f	-0.09634685
243	0x3dfbbc0e	0.12291728
244	0xbd0f7345	-0.03502204
245	0x3e3edf03	0.1863976
246	0x3c19fbbd	0.009398398
247	0x3e429bc5	0.19004734
248	0xbf04298b	-0.5162589
249	0xbd5a4f80	-0.053298473
250	0x3ee6a546	0.4504797
251	0x3dab89d6	0.083758995
252	0xbccbbb7f	-0.024869679
253	0x3dbae78b	0.091261946
254	0x3e07df26	0.13268718
255	0xbc82ff70	-0.015990943

lstm.weight_hh_l0 f4 [512, 128]
0	0xbd313cd6	-0.04327091
1	0xbe2da2f8	-0.16956699
2	0x3a808d47	0.0009807729
3	0x3da98d80	0.08278942
4	0x3d9f67a0	0.07783437
5	0xbcc64994	-0.024205007
6	0xbd5b57a2	-0.05355037
7	0x3d86d619	0.06583805
8	0xbd4bd430	-0.049762905
9	0x3d7ded74	0.06199403
10	0xbd0cbbae	-0.034358673
11	0xbda93dd6	-0.082637474
12	0x3d2469b6	0.040139876
13	0x3df0f955	0.11766306
14	0x3d8be83e	0.06831406
15	0xbdec6925	-0.11543492
16	0x3d8f785f	0.07005381
17	0x3dfd8579	0.123789735
18	0xbc2a0863	-0.010377976
19	0x3ce7f8bd	0.02831685
20	0x3e0a1764	0.13485485
21	0xbdc05647	-0.09391456
22	0x3d4f1813	0.05056007
23	0xbd22a497	-0.039707746
24	0xbd2e468d	-0.04254775
25	0xbd862841	-0.065506466
26	0xbd8d1e0b	-0.06890496
27	0xbbe56202	-0.007000209
28	0xbb8c0023	-0.0042724772
29	0x3d5748e9	0.052559767
30	0xba7d3be0	-0.0009660106
31	0x3d5a1229	0.053239975
32	0x3d3dd4f9	0.046345685
33	0xbd96f52e	-0.07370983
34	0xbcf9acf6	-0.030477982
35	0xbb105d48	-0.0022028256
36	0x3be0e421	0.0068631326
37	0x3dac9a42	0.0842786
38	0x3bb68c5f	0.0055709328
39	0xbaec336a	-0.0018020694
40	0xbd88abbf	-0.06673383
41	0x3d5460dd	0.05185019
42	0x3cb6e458	0.02232568
43	0xbd7f707e	-0.06236314
44	0x3d168cca	0.03675536
45	0xbd90fbb6	-0.0707926
46	0xbd5b2692	-0.05350358
47	0x3c426bea	0.011866549
48	0x3d28a792	0.041175433
49	0x3d9cfdea	0.07665618
50	0xbdb6ede1	-0.089320906
51	0xbdd557eb	-0.1041716
52	0x3d74de84	0.05978252
53	0x3da0f1e6	0.078586385
54	0xbd31fb4c	-0.043452546
55	0xbd8e5084	-0.06948951
56	0xbcd5caba	-0.026097644
57	0x3d79ae0b	0.060956996
58	0x3da67d97	0.08129423
59	0x3d281bcb	0.04104213
60	0xbdfae7c3	-0.12251236
61	0x3d4f1441	0.050556425
62	0xbdefe593	-0.1171371
63	0x3d2506eb	0.0402898
64	0xbdfcc220	-0.12341714
65	0xbe6d4faa	-0.2317492
66	0xbae888d4	-0.0017740973
67	0x3e931c9a	0.2873276
68	0x3dc858a9	0.097825356
69	0x3ce57755	0.028011004
70	0x3dfc3289	0.12314326
71	0x3dd7f2e4	0.105443746
72	0xbd26de4f	-0.040739354
73	0x3d0c253b	0.034215193
74	0x3d34e342	0.044162042
75	0xbdf865d2	-0.12128796
76	0x3c3f253f	0.011666595
77	0xbb3a0a3c	-0.0028387448
78	0xbcbc0b7d	-0.022954697
79	0xbdec360e	-0.115337476
80	0x3c4f29dc	0.012644257
81	0xbd7a3b7d	-0.06109189
82	0xbce0121b	-0.027352383
83	0x3de93fba	0.11389108
84	0xbce95320	-0.02848202
85	0x3dd25cbd	0.10271595
86	0xbcbd2cc5	-0.023092637
87	0x3d085deb	0.033292692
88	0xbd4d9f1f	-0.050200578
89	0x3e004ce2	0.12529328
90	0x3d75a72f	0.05997389
91	0x3d80486f	0.062638156
92	0x3b7884bd	0.0037920915
93	0x3dcb6b81	0.09932614
94	0xbdb44094	-0.0880138
95	0x3b8e4851	0.004342117
96	0xbc8bc61f	-0.017062245
97	0x3c94320b	0.018090269
98	0xbd077247	-0.033067968
99	0xbcbef6d0	-0.023311049
100	0xbb04571f	-0.002019353
101	0x3c8e8ca6	0.01740105
102	0xbdc65a89	-0.09685237
103	0x3cb93895	0.022609988
104	0xbd11290e	-0.035439543
105	0x3dcc0e57	0.099636726
106	0xbd40451a	-0.0469409
107	0x3d64a8ec	0.05582516
108	0x3dde682f	0.10859715
109	0xbe032419	-0.12806739
110	0xbdb7e2da	-0.089788154
111	0xbe0b0b5f	-0.13578556
112	0x3ceb56a9	0.028727846
113	0x3bc887b3	0.006119692
114	0x3de5a144	0.112123996
115	0xbdaeec23	-0.08541133
116	0x3cb7b75f	0.022426305
117	0x3da3e26e	0.080021724
118	0x3dbff3af	0.09372651
119	0x3d43cf2b	0.047804993
120	0x3d2c4351	0.042056385
121	0x3dea4858	0.1143958
122	0x3d6fd744	0.058554903
123	0xbcc318c3	-0.023815518
124	0xbdc03963	-0.09385946
125	0x3dce9286	0.10086541
126	0x3cf07430	0.029352278
127	0x3e88695c	0.26642883
128	0x3e7b3ce6	0.2453495
129	0x3d083b8a	0.033259906
130	0xbe4b146d	-0.1983201
131	0x3e5b37ba	0.21407977
132	0x3e012b41	0.12614156
133	0xbe50f90e	-0.20407507
134	0x3ea6f7e6	0.32611006
135	0x3e7ff16e	0.24994442
136	0x3e923d56	0.2856242
137	0xbe64c8de	-0.2234225
138	0xbe2eca74	-0.17069417
139	0xbda7d2ad	-0.0819448
140	0xbf247eb6	-0.64255846
141	0x3e935cd6	0.28781766
142	0xbe1f241b	-0.15541117
143	0xbe51dc99	-0.20494308
144	0x3eaae99d	0.33381358
145	0x3ea0ce4c	0.31407392
146	0xbee649e7	-0.44978258
147	0x3ee61d16	0.44944066
148	0xbca8dbeb	-0.020612678
149	0x3e5b27f8	0.21401966
150	0x3d9d71cb	0.0768772
151	0xbd98bd3c	-0.074579686
152	0xbe8e422c	-0.2778486
153	0x3dd1b5f8	0.10239786
154	0xbdf407b9	-0.119155355
155	0x3ebab52f	0.36466357
156	0x3ea13f4b	0.314936
157	0x3e456481	0.1927662
158	0x3e8576b8	0.26067138
159	0xbe7c2afd	-0.24625774
160	0xbf08f0a2	-0.53492177
161	0x3e7e63db	0.2484278
162	0xbf0a1fed	-0.53954965
163	0xbe836fc8	-0.2567122
164	0xbe7b0a04	-0.2451554
165	0x3ed86112	0.4226156
166	0xbe5c808c	-0.21533412
167	0xbf257241	-0.6462746
168	0xbe8afd37	-0.27146313
169	0xbe9947b3	-0.29937515
170	0x3e81eef3	0.25377616
171	0xbe5f1417	-0.21785007
172	0x3e46a795	0.19399865
173	0x3de20353	0.1103579
174	0xbe70481e	-0.2346501
175	0x3e61be4b	0.22045247
176	0x3e853e71	0.26024202
177	0x3eae7c1d	0.34079066
178	0x3edd8760	0.43267345
179	0xbeaf5d68	-0.3425095
180	0x3ef5cff7	0.48010227
181	0xbd8e8ece	-0.069608316
182	0x3c8f0c50	0.017461926
183	0xbe7948dd	-0.24344201
184	0x3e11f1ec	0.14252442
185	0x3e7e96d2	0.24862221
186	0xbef9b228	-0.48768735
187	0x3e9d6863	0.30743703
188	0xbeb9bc9c	-0.3627671
189	0xbe76bd84	-0.24095732
190	0x3f583f60	0.844717
191	0x3e6a26a9	0.2286631
192	0xbf15a64f	-0.5845689
193	0xbd0b5ed9	-0.034026
194	0xbec6ee0e	-0.38853496
195	0xbeac311c	-0.33631217
196	0x3e80f338	0.2518556
197	0xbe1d0b1c	-0.15336269
198	0x3e956aef	0.29183146
199	0x3e6784ce	0.22609255
200	0x3dabe97f	0.08394145
201	0x3cd0ef6f	0.025504796
202	0xbe926dbf	-0.28599355
203	0xbe7e93c0	-0.2486105
204	0x3d726de1	0.05918682
205	0x3e089d24	0.13341194
206	0xbe8b545d	-0.27212802
207	0xbe8b33db	-0.27188
208	0x3e843dea	0.25828487
209	0x3e3344dd	0.17506738
210	0xbe75014e	-0.23926279
211	0x3e3867bb	0.1800832
212	0xbf1a81b9	-0.6035419
213	0x3e387999	0.18015136
214	0x3de5c441	0.11219073
215	0xbe8193a5	-0.25307956
216	0xbe990b8c	-0.29891622
217	0x3f44004f	0.7656297
218	0xbf07f133	-0.53102416
219	0x3ec9fabf	0.39449117
220	0xbe32258d	-0.17397137
221	0x3e56ea13	0.2098773
222	0xbeb272c7	-0.34853193
223	0xbec4ef71	-0.3846393
224	0xbe8ceb7f	-0.2752342
225	0x3e0e5e1c	0.13903087
226	0xbe952c79	-0.29135492
227	0xbe3eee66	-0.1864563
228	0x3e7dd4f9	0.24788274
229	0x3d6afd3f	0.05737042
230	0xbeb3862e	-0.35063308
231	0x3d69cb47	0.057078626
232	0x3e6e58c7	0.23276053
233	0x3ea303d7	0.31838867
234	0x3e1ba208	0.15198529
235	0x3e26e68b	0.16298883
236	0xbd936314	-0.07196632
237	0x3d04d210	0.032426894
238	0xbb5aeefe	-0.003340661
239	0x3e85a9c5	0.26106086
240	0x3e8390eb	0.256965
241	0x3e229511	0.15877177
242	0x3eda4a7e	0.42634958
243	0xbf731e93	-0.9496853
244	0x3e7bd019	0.24591102
245	0xbd1cbb1e	-0.038264386
246	0x3e312459	0.17299022
247	0x3ec053fb	0.37564072
248	0xbec72267	-0.38893434
249	0x3e712ec8	0.23553002
250	0x3cac807f	0.021057365
251	0xbe8ff500	-0.28116608
252	0x3e76084d	0.24026604
253	0x3db2d7dc	0.08732578
254	0xbe7612d5	-0.24030621
255	0xbe5fb6c0	-0.21847057

lstm.bias_ih_l0 f4 [512]
0	0xbd87fd4e	-0.06640111
1	0x3e0d52be	0.13801095
2	0xbcdc7e28	-0.026915625
3	0x3c12879a	0.008943463
4	0xbbec104e	-0.007204092
5	0x3d0651c7	0.032792833
6	0x3da74c22	0.08168818
7	0x3bd8ec78	0.006619986
8	0x3cae93cd	0.021310711
9	0x3e331381	0.17487909
10	0xbe144836	-0.14480671
11	0xbd509ecd	-0.050932694
12	0xbe121e60	-0.142694
13	0x3d8f60a8	0.070008576
14	0xbe24c318	-0.16090047
15	0x3d02e4ba	0.031956412
16	0x3d1708a8	0.03687349
17	0x3db2c271	0.08728493
18	0x3f1178a7	0.56824726
19	0x3d722f7b	0.059127312
20	0xbdf00335	-0.11719362
21	0xbe0952aa	-0.1341044
22	0xbd63dfab	-0.05563323
23	0xbe3483d3	-0.17628412
24	0x3d35588b	0.044273894
25	0xbe11a5c8	-0.14223397
26	0xbcf5e589	-0.030016677
27	0x3d92a066	0.071595
28	0x3ccd3c01	0.025053026
29	0xbe41be35	-0.18920214
30	0xbdc835ec	-0.0977591
31	0x3daf953a	0.085733846
32	0xbd0a9f5d	-0.033843387
33	0xbcd3ea4d	-0.02586856
34	0xbc1d1769	-0.009588101
35	0xbd856065	-0.065125264
36	0xbcc9fd7d	-0.024657005
37	0x3d888095	0.0666515
38	0xbdc58790	-0.09644997
39	0xbbf70023	-0.007537858
40	0x3d3531f6	0.0442371
41	0x3d863493	0.065529965
42	0xbd905914	-0.0704824
43	0x3cf20706	0.029544365
44	0x3cab3da5	0.020903418
45	0xbce54c05	-0.02799035
46	0xbd6f007d	-0.058350075
47	0xbd9917a3	-0.074752115
48	0x3c363ebf	0.011123358
49	0x3dafeb7e	0.085898384
50	0x3e450bfc	0.19242853
51	0xbd1d283c	-0.03836845
52	0xbe011603	-0.12606053
53	0xbc800cd9	-0.015631126
54	0xbd1774bb	-0.036976557
55	0x3e1b19e7	0.151466
56	0xbe2b4699	-0.1672615
57	0xbe1806ec	-0.1484639
58	0xbe808a94	-0.25105727
59	0x3e02aa53	0.12760286
60	0x3d31ef14	0.043440893
61	0x3c6690f0	0.014072642
62	0xbd2b3b87	-0.041804817
63	0xbd638f08	-0.055556327
64	0x3df51eea	0.11968787
65	0x3ebed66e	0.37272972
66	0x3dd132c8	0.10214764
67	0x3f10e879	0.56604725
68	0x3e439a3a	0.19101802
69	0x3b8955c0	0.0041911304
70	0xbdad71b0	-0.0846895
71	0x3d0ab44a	0.033863343
72	0xbacecde5	-0.0015777914
73	0x3c8caeb3	0.017173147
74	0x3cfb5542	0.030680303
75	0x3c0f747a	0.0087557975
76	0xbd95aa16	-0.07307832
77	0xbd7a1506	-0.061055206
78	0xbd0115be	-0.031514876
79	0x3ca9a602	0.020709042
80	0x3d0050f1	0.03132719
81	0xbdd513e1	-0.10404182
82	0xbdc66f50	-0.096892
83	0x3d8126e7	0.06306248
84	0x3d5a98b7	0.053368296
85	0x3cb06d25	0.02153642
86	0x3d54f054	0.051987007
87	0xbe2c1587	-0.16805087
88	0xbd511717	-0.05104741
89	0xbdf83d71	-0.12121094
90	0xbd7dc80a	-0.06195835
91	0x3dd27df9	0.102779336
92	0xbddb79bb	-0.107165776
93	0xbd474f51	-0.048659626
94	0xbcb562e8	-0.022141889
95	0x3d9d9943	0.07695248
96	0x3d91d9df	0.07121634
97	0x3cca1a6d	0.024670804
98	0x3de4d8fd	0.111742
99	0xbdd07715	-0.10178963
100	0xbcf13485	-0.029443989
101	0xbe02e0a4	-0.12781006
102	0xbd9ae1b3	-0.0756258
103	0xbdb935d9	-0.09043474
104	0xbd1e4f70	-0.038649976
105	0xbd35df48	-0.04440239
106	0x38b3517e	8.550564e-05
107	0xbbb8f4ee	-0.0056444323
108	0xbde43718	-0.11143321
109	0x3d210165	0.03930797
110	0xbdaf140c	-0.085487455
111	0x3d7d12c7	0.061785486
112	0xbd713ffd	-0.058898915
113	0x3d97b1b6	0.074069425
114	0xbd92cace	-0.07167588
115	0x3e79e510	0.24403787
116	0xbb8b7bb9	-0.0042566922
117	0xbe17396a	-0.14767995
118	0x3e31bbe5	0.17356832
119	0x3d923160	0.07138324
120	0x3e56b5a3	0.20967726
121	0xbda6371a	-0.081159785
122	0xbe035955	-0.12827046
123	0x3b8d5929	0.0043136072
124	0xbe2506c5	-0.16115864
125	0xbc5d9e02	-0.0135264415
126	0xbd312f80	-0.04325819
127	0x3e7259c2	0.23667052
128	0xbdd184b0	-0.10230386
129	0xbe4cebce	-0.20011827
130	0xbaa69521	-0.0012709239
131	0x3d914a49	0.07094247
132	0xbd97b1d8	-0.07406968
133	0x3d9afdbf	0.075679295
134	0x3d56f334	0.05247803
135	0xbd3cc5ea	-0.046087183
136	0x3d82fada	0.063955024
137	0x3d7f6c1a	0.062358953
138	0xbdbb0887	-0.09132486
139	0xbdcf29fe	-0.10115431
140	0xbc4d9248	-0.012547083
141	0xbdba0c14	-0.09084335
142	0x3d78c420	0.060733914
143	0xbd8a9af0	-0.06767833
144	0xbd977652	-0.07395615
145	0x3d1c4598	0.038152307
146	0xbde6bc2d	-0.112663604
147	0x3d70cb34	0.05878754
148	0xbe168a2d	-0.14701147
149	0xbde95c8d	-0.11394606
150	0xbd1cf7f3	-0.0383224
151	0xbe2252a6	-0.1585184
152	0x3d8b7cbb	0.068109
153	0xbd90f621	-0.07078195
154	0xbdcfca04	-0.10145953
155	0x3c88d80e	0.016704585
156	0xbc1d9fb2	-0.009620594
157	0xbe321df6	-0.17394242
158	0xbdbafd01	-0.09130288
159	0xbd82fbe2	-0.06395699
160	0x3d8f7754	0.07005182
161	0xbe6a1871	-0.22860886
162	0x3e2c94b1	0.16853596
163	0x3d6eacea	0.058270372
164	0xba9bb2a0	-0.0011878796
165	0x3d01b07f	0.03166246
166	0x3cc0052e	0.02343997
167	0xbcfba9d9	-0.030720638
168	0xbcea844f	-0.028627543
169	0xbb941295	-0.0045188167
170	0x3c821378	0.015878424
171	0x3d00effe	0.031478874
172	0xbe051e03	-0.1299973
173	0x3baed1e9	0.005335082
174	0xbc8a82a0	-0.01690799
175	0xbdb4b94f	-0.08824407
176	0xbd02f145	-0.031968374
177	0x3d0eeb7f	0.034892555
178	0x3d40c6e7	0.047064688
179	0xbdb57237	-0.088596754
180	0xbe1d704e	-0.15374872
181	0xbe0525e7	-0.1300274
182	0x3d00d261	0.031450633
183	0xbc675699	-0.014119768
184	0xbdac47fe	-0.08412169
185	0x3bc83bb0	0.006110631
186	0x3edf9574	0.4366871
187	0xbc9f35ce	-0.019434836
188	0xbcec35f0	-0.028834313
189	0xbcbd0b0f	-0.023076562
190	0xbe2502ff	-0.16114424
191	0x3d1a0978	0.037606686
192	0xbdcd894a	-0.100359514
193	0x3e16c8bf	0.14725016
194	0xbdf085ba	-0.11744256
195	0xbdaa70d8	-0.083223045
196	0x3d2da8c3	0.04239727
197	0x3d29554e	0.04134112
198	0x3da73323	0.081640504
199	0x3d2bdfd9	0.041961525
200	0x3dc05c3a	0.09392591
201	0xbcce771a	-0.025203276
202	0x3e0ade73	0.1356142
203	0x3d6a54c2	0.057209738
204	0xbd94b239	-0.07260556
205	0x3ceac8aa	0.028660137
206	0xbd00732c	-0.031359836
207	0xbd209e92	-0.039213724
208	0x3d6c67d8	0.05771622
209	0xbcc6454f	-0.02420297
210	0xbdf4b7bb	-0.11949106
211	0x3b71833a	0.0036851899
212	0xbdba43d1	-0.09094966
213	0xbd9f7b9e	-0.0778725
214	0x3d8e34a1	0.06943632
215	0x3ea7b838	0.32757735
216	0xbdb63708	-0.08897215
217	0x3db5e456	0.08881442
218	0xbe25b73f	-0.16183184
219	0x3d78c591	0.06073529
220	0xbdcac825	-0.09901456
221	0x3d9d4b95	0.07680432
222	0x3d0afc47	0.033931997
223	0x3c7e475e	0.015519945
224	0xbd5ca2d1	-0.05386621
225	0x3c3c6044	0.011497561
226	0xbe1a84f8	-0.15089786
227	0x3d99320d	0.074802496
228	0xbe0baaeb	-0.13639419
229	0xbcd3196d	-0.02576896
230	0x3da38002	0.079834
231	0xbd2e8bb9	-0.04261372
232	0xbdcacc4d	-0.099022485
233	0x3c6705c7	0.0141004985
234	0x3d0fd72a	0.035117306
235	0xbda8fee1	-0.08251739
236	0xbd428734	-0.04749222
237	0xbd60d714	-0.054892614
238	0xbdbb1f76	-0.0913686
239	0xbd8b5005	-0.06802372
240	0xbda0ca8b	-0.07851132
241	0xbe63ec2f	-0.22258066
242	0xbd12551a	-0.03572569
243	0xbe8df444	-0.27725422
244	0x3bb438cb	0.0054999343
245	0xbd7a26f3	-0.0610723
246	0xbdccd3fc	-0.1000137
247	0x3d7465a3	0.05966724
248	0x3d923d25	0.07140569
249	0xbd898fa8	-0.067168534
250	0xbe2c6f78	-0.16839397
251	0x3da4110f	0.08011066
252	0xbdab42dd	-0.083623625
253	0x3d039d30	0.032132328
254	0xbd0c673c	-0.03427814
255	0x3b959bf1	0.004565709

lstm.bias_hh_l0 f4 [512]
0	0xbbe88cc4	-0.0070968587
1	0x3dfd967f	0.123822205
2	0x3d596f0e	0.053084426
3	0x3da1c853	0.07899537
4	0xbc5ce7e4	-0.013483021
5	0xbc8abe3c	-0.016936414
6	0xbd9d73a2	-0.07688071
7	0x3cf4ac8a	0.02986743
8	0xbd057762	-0.032584555
9	0x3e30ca36	0.17264637
10	0xbd9616d0	-0.0732857
11	0x3d87e78c	0.06635961
12	0xbe2d5ce7	-0.1692997
13	0xbdb8da1e	-0.090259776
14	0xbd867933	-0.06566086
15	0xbd1a5f45	-0.037688512
16	0xbc6f9d5e	-0.014624922
17	0xbd6265fa	-0.055273034
18	0x3f1287f2	0.57238686
19	0x3d4ff8f3	0.050774526
20	0xbe30d9b3	-0.17270546
21	0xbdedc31d	-0.116094805
22	0xbde8f977	-0.11375707
23	0xbe3e870d	-0.18606205
24	0xbd7c7a6f	-0.0616402
25	0xbd31422f	-0.04327601
26	0xbd9fe8ee	-0.078081
27	0xbd8f90e0	-0.070100546
28	0x3c39b7ad	0.011335296
29	0xbe2fef74	-0.17181188
30	0xbdb8f968	-0.090319455
31	0x3d43feee	0.04785054
32	0x3d0d47bf	0.03449225
33	0xbd69aa74	-0.057047322
34	0x3ae64e3b	0.0017570922
35	0x3ca8c967	0.020603849
36	0x3d5cc386	0.053897403
37	0x3c946eed	0.0181193
38	0xbd17b5f5	-0.037038762
39	0xbcf55c6c	-0.029951297
40	0x3d41d91d	0.047326196
41	0xbcf5b60e	-0.029994037
42	0x3d3852a8	0.045000702
43	0x3b58333b	0.003298952
44	0xbdba038b	-0.09082707
45	0x3d5c424c	0.053774163
46	0xbdd0d10d	-0.10196123
47	0xbd09c1ff	-0.033632275
48	0x3cce9f36	0.025222402
49	0x3da6a76c	0.08137402
50	0x3ea61e4d	0.32444993
51	0xbcc1cf05	-0.023658285
52	0xbe41345a	-0.18867627
53	0xbcfb3b4b	-0.030667922
54	0x3d7a47aa	0.0611035
55	0x3e85b0cc	0.26111448
56	0xbe2d6422	-0.16932729
57	0xbe188b8f	-0.14896987
58	0xbde9abf8	-0.114097536
59	0x3dbc4564	0.09192923
60	0xbcec68e0	-0.028858602
61	0x3d27b0ed	0.040940214
62	0xbd94c09d	-0.072633006
63	0xbd1a4112	-0.037659712
64	0x3def4d9e	0.11684726
65	0x3e828847	0.25494596
66	0x3d781cb9	0.060574267
67	0x3f079d05	0.5297397
68	0x3e7d79a0	0.24753428
69	0x3dc9f02b	0.098602615
70	0xbdaec87a	-0.085343316
71	0x3d6b3bc1	0.057430033
72	0xbe0477eb	-0.1293637
73	0xbd2a011e	-0.04150497
74	0x3d87a6a3	0.0662358
75	0xbd15053c	-0.036381945
76	0xbd7a7ecd	-0.061156083
77	0xbc3e3f68	-0.011611797
78	0x3d6e629c	0.05819951
79	0xbd51655d	-0.05112206
80	0x3d1ff6ee	0.03905385
81	0xbc5d9596	-0.013524434
82	0xbd1f0f36	-0.038832866
83	0xbd895f5f	-0.06707644
84	0x3c72edd8	0.014827214
85	0x3d6875ba	0.056752898
86	0x3de21730	0.11039579
87	0xbdf0e196	-0.11761777
88	0x3c1d2330	0.009590909
89	0xbd889252	-0.066685334
90	0xbd256a2d	-0.04038446
91	0x3a58dab2	0.0008272334
92	0xbd7d05d1	-0.061773125
93	0xbd1096cf	-0.035300072
94	0xbb904b23	-0.0044034882
95	0x3df44dda	0.119289115
96	0x3d7ead3d	0.06217693
97	0xbce9fd87	-0.028563274
98	0x3deb052b	0.11475595
99	0xbd88ed5b	-0.06685897
100	0xbdbc9de0	-0.092098
101	0xbdf9b372	-0.121924296
102	0x3d2405dd	0.040044654
103	0xbe2cb0c8	-0.16864312
104	0xbdfd50f7	-0.123689584
105	0xbd20b555	-0.03923543
106	0xbdb24646	-0.0870481
107	0xbdcc5adb	-0.09978267
108	0xbd501a7f	-0.05080652
109	0xbcda93b3	-0.026681757
110	0xbd4acf87	-0.04951432
111	0x3d04ff95	0.032470305
112	0x3d93fe10	0.07226193
113	0xbb4d4553	-0.0031321838
114	0x3d17edcf	0.037092026
115	0x3e9a2308	0.30104852
116	0x3cde671d	0.027148778
117	0xbe12d3a6	-0.1433855
118	0x3e01069c	0.12600178
119	0xb81b0f56	-3.6969162e-05
120	0x3e067c11	0.13133265
121	0x3d2c2fc2	0.042037733
122	0xbe92cdf2	-0.2867275
123	0xbdb4faf9	-0.08836932
124	0xbd80424b	-0.062626444
125	0x3d58e789	0.052955184
126	0xbe054710	-0.1301539
127	0x3e3c2cca	0.1837646
128	0x3cca233c	0.024675004
129	0xbe797cf6	-0.24364075
130	0x3cd1baa9	0.025601702
131	0xbda263f6	-0.07929222
132	0x3d384a2c	0.04499261
133	0x3dd99f8b	0.106261335
134	0x3db2f167	0.0873745
135	0xbd2dd26b	-0.042437
136	0xbdced0b3	-0.100984
137	0x3d276a58	0.0408729
138	0xbaee9d50	-0.0018204842
139	0xbcfe7559	-0.031061815
140	0xbccd7957	-0.025082273
141	0x3cad0417	0.021120114
142	0xbd6d76bc	-0.057974562
143	0x3c6ada04	0.014334206
144	0x3cd4b479	0.025964962
145	0xbbf199d9	-0.0073730764
146	0xbe09384c	-0.13400382
147	0x3d6adf8e	0.057342105
148	0xbdafa61b	-0.08576604
149	0xbe2dc475	-0.16969474
150	0xbe26943b	-0.16267483
151	0xbd48150e	-0.048848204
152	0xbda98811	-0.08277906
153	0xbe4cc747	-0.19997893
154	0xbcc2feba	-0.023803104
155	0xbd82f185	-0.063937224
156	0xbb8a2b40	-0.0042165816
157	0xbe00952b	-0.12556903
158	0xbda65160	-0.0812099
159	0xbdabf4c8	-0.08396298
160	0x3de9a1e4	0.11407831
161	0xbde498ac	-0.11161932
162	0x3d9b956d	0.0759686
163	0xbd83eab0	-0.064412475
164	0x3c2c9736	0.010534098
165	0xbd50f83d	-0.05101799
166	0x3d93f6fe	0.072248444
167	0x3db02656	0.08601062
168	0xbcb762f1	-0.022386046
169	0x3d5fce87	0.05464032
170	0xbda69dd2	-0.081355706
171	0xbd2f61a9	-0.042817745
172	0xbe03d9a5	-0.12875994
173	0x3b90c197	0.004417609
174	0x3d71b55b	0.059010845
175	0xbd84280c	-0.06452951
176	0x3d86eee1	0.06588531
177	0xbcdb0f9f	-0.026740847
178	0x3cf267df	0.029590545
179	0xbdd17c9b	-0.10228845
180	0xbe06473a	-0.13113108
181	0xbdef8ed6	-0.11697166
182	0x3ce4d974	0.027935721
183	0x3df1d5c4	0.11808351
184	0xbe0b556c	-0.13606805
185	0xbd0c6509	-0.034276042
186	0x3ebeec18	0.372895
187	0x3d6bf09a	0.057602502
188	0x3d27166c	0.040792868
189	0xbdb9428f	-0.09045898
190	0xbe0cffad	-0.13769408
191	0x3d78793a	0.060662486
192	0xbb283a3f	-0.0025669483
193	0x3da56511	0.080759175
194	0xbe16bc41	-0.1472025
195	0x3bdc5bf4	0.006724829
196	0x3d7bde93	0.06149156
197	0xbba940f2	-0.005165213
198	0xbaee21d5	-0.0018168042
199	0x3cc89a30	0.024487585
200	0xbd014bb8	-0.03156635
201	0x3d8bf662	0.06834103
202	0x3e037aef	0.12839864
203	0xbad544bc	-0.0016271095
204	0xbd39d5b6	-0.045369826
205	0xbcd8f2db	-0.02648299
206	0x3d281d0d	0.04104333
207	0xbd2ba099	-0.041901205
208	0x3d572213	0.05252273
209	0xbd9a4f9d	-0.07534716
210	0xbd8ca3ad	-0.06867156
211	0xbdba09e9	-0.090839215
212	0xbe5533d3	-0.2082055
213	0x3cbce3f4	0.023057915
214	0x3d82442e	0.063606605
215	0x3e9e587e	0.3092689
216	0xbd5c2e4f	-0.0537551
217	0x3d90fe90	0.07079804
218	0xbdc251e8	-0.094882786
219	0x3d8feac0	0.07027197
220	0xbe07667e	-0.13222691
221	0x3b4f3c3c	0.0031621596
222	0xbcf9e082	-0.030502561
223	0x3db3ac27	0.0877307
224	0xbd159da1	-0.03652728
225	0x3c8d51b4	0.017250873
226	0xbe105b07	-0.14097224
227	0x3b0d644c	0.0021574674
228	0xbe120966	-0.14261398
229	0xbe0a1abc	-0.13486761
230	0xbcac4ec9	-0.021033661
231	0xbe07bf8a	-0.1325666
232	0xbe51b833	-0.20480423
233	0xbd80fe6a	-0.06298526
234	0xbd4a43f3	-0.049381208
235	0xbc9b3ec2	-0.018950824
236	0xbe3306ad	-0.17483015
237	0xbdfb2d9a	-0.12264557
238	0xbe048ee3	-0.12945132
239	0xbe05032f	-0.12989496
240	0xbdbd00a7	-0.0922864
241	0xbe5f2dd8	-0.21794832
242	0xbc745962	-0.014913889
243	0xbe69f4d1	-0.22847296
244	0xbd4e5c60	-0.050381064
245	0xbe55c259	-0.20874919
246	0xbe57d6c6	-0.21078023
247	0xbd8b1872	-0.06791772
248	0x3d7a2aa9	0.06107584
249	0x3d59bc37	0.05315801
250	0xbe19bbd5	-0.15013058
251	0x3d3f0b8f	0.046641883
252	0xbe0463a9	-0.12928642
253	0x3d7f42dd	0.062319625
254	0x3d9dffe9	0.077148266
255	0x3d85f3ff	0.06540679

fc.weight f4 [4, 128]
0	0xbd11a505	-0.035557766
1	0x3e537bc3	0.2065268
2	0x3d2dcdde	0.04243266
3	0xbd9164df	-0.07099318
4	0x3d83986e	0.06425558
5	0x3bc63bfa	0.00604963
6	0xbd6c5871	-0.05770153
7	0xbd5c26f8	-0.0537481
8	0xbddf8e93	-0.10915866
9	0xbe0f8add	-0.14017816
10	0x3d1c1128	0.0381023
11	0xbca11085	-0.019661197
12	0xbd803ad9	-0.06261224
13	0xbd9220b9	-0.071351476
14	0x3cde4d91	0.027136596
15	0x3e2b7e06	0.16747293
16	0xbd506afd	-0.050883282
17	0xbe169b82	-0.14707759
18	0xbc828154	-0.01593081
19	0x3c9e3792	0.019313607
20	0xbc12324e	-0.008923126
21	0xbca127c1	-0.019672276
22	0x3dca41b5	0.09875814
23	0xbd8df15e	-0.06930803
24	0x3e041e33	0.12902145
25	0xbc48cc10	-0.012255684
26	0x3dfdac77	0.12386411
27	0xbe1030c3	-0.14081101
28	0xbe199de2	-0.15001634
29	0xbd99506e	-0.07486044
30	0xbddaf76f	-0.106917255
31	0x3dd0b6a8	0.10191089
32	0x3db3ae9b	0.08773538
33	0xbe273862	-0.16330102
34	0x3d43c6e8	0.047797114
35	0x3d9487bd	0.072524525
36	0x3e0618d4	0.13095409
37	0xbdbbbac6	-0.091664836
38	0x3cc82f3c	0.024436586
39	0xbce44143	-0.02786315
40	0x3df5860c	0.11988458
41	0x3e255bbd	0.16148277
42	0xbdfcdadc	-0.123464316
43	0x3d47559e	0.048665635
44	0xbd566b92	-0.05234868
45	0x3d155e9f	0.03646719
46	0x3e0d90c9	0.13824762
47	0xbd90c9d3	-0.07069745
48	0xbdfc06f4	-0.12306014
49	0xbe3fe30a	-0.18738952
50	0x3e766388	0.24061406
51	0x3dd0b9b7	0.10191672
52	0xbbbe5256	-0.005808155
53	0x3e1c909a	0.15289536
54	0xbdb74448	-0.089485705
55	0xbe0aea44	-0.13565928
56	0x3dbcba78	0.092152536
57	0xbd321207	-0.043474223
58	0x3dbd4ad2	0.092427865
59	0xbdd01bdf	-0.10161566
60	0x3d56e184	0.052461162
61	0xbcb3cad1	-0.021947296
62	0x3e2a5156	0.1663259
63	0xbd92e69a	-0.0717289
64	0xbd0c8d53	-0.034314465
65	0xbd080a7e	-0.03321313
66	0x3e6cc5ac	0.23122281
67	0x3d7ecefc	0.062209114
68	0x3e044164	0.1291557
69	0x3db2f5ff	0.08738326
70	0xbd07ff6c	-0.033202574
71	0xbc827922	-0.015926901
72	0xbde459ce	-0.111499414
73	0xbc82e08b	-0.015976211
74	0x3df9e669	0.122021504
75	0x3dec3bf8	0.11534876
76	0x3d0c98bf	0.034325358
77	0xbd8206d4	-0.063489586
78	0x3d48062f	0.048834022
79	0x3da137ae	0.07871948
80	0xbde900fd	-0.113771416
81	0x3cbaf3c3	0.022821313
82	0xbc735df1	-0.01485394
83	0x3ad855cc	0.0016505062
84	0x3e8d4af2	0.2759624
85	0xbd4e6647	-0.050390508
86	0xbd864180	-0.06555462
87	0xbd5dbfbc	-0.05413793
88	0xbc2fa972	-0.010721551
89	0xbdccc9a7	-0.099994
90	0xbdfab136	-0.122408316
91	0xbdf50ca2	-0.119653
92	0x3d48e130	0.04904288
93	0xbd062e9a	-0.032759286
94	0x3e4df32a	0.20112291
95	0x3e013457	0.12617622
96	0xbd596f89	-0.053084884
97	0xbda746dc	-0.08167812
98	0xbe26fdc5	-0.16307743
99	0x3d0b2fe3	0.033981215
100	0xbcd1e092	-0.025619779
101	0xbcfab4d1	-0.030603798
102	0xbd449435	-0.047992904
103	0xbda57616	-0.08079164
104	0xbdd77ef1	-0.10522259
105	0xbe25bf70	-0.16186309
106	0x3e3c855c	0.18410248
107	0xbcfbcb91	-0.030736716
108	0x3dce9029	0.1008609
109	0x3d178e26	0.037000798
110	0xbda24a86	-0.079243705
111	0xbd1c832b	-0.03821103
112	0x3d523163	0.05131663
113	0x3d78f8d1	0.060784165
114	0xbe15e165	-0.14636762
115	0x3f35713d	0.7087591
116	0x3bde8363	0.006790565
117	0x3e071fff	0.131958
118	0x3ed09573	0.4073902
119	0xbc30ac8f	-0.010783329
120	0x3eb1de1f	0.34739777
121	0xbdbef7a3	-0.09324577
122	0xbd014355	-0.031558353
123	0xbd051e6e	-0.032499723
124	0xbdb12443	-0.086494945
125	0x3cac8c00	0.021062851
126	0x3d3aa221	0.045564774
127	0x3da4abab	0.080405556
128	0xbdee7491	-0.11643327
129	0xbe4bbe8c	-0.19896907
130	0x3d2e3b3f	0.04253697
131	0xbdc6b6c9	-0.09702832
132	0xbde74c14	-0.112938076
133	0x3dcf4abd	0.10121677
134	0xbd951439	-0.07279248
135	0xbd8c241c	-0.06842825
136	0xbe242864	-0.16031033
137	0x3da5ea96	0.08101384
138	0xbd0f23fa	-0.03494642
139	0x3df508e3	0.11964586
140	0x3deb83a7	0.1149972
141	0xbe034bef	-0.12821935
142	0x3d5f0709	0.05445007
143	0x3d659ca4	0.056057587
144	0xbda0b1a5	-0.07846383
145	0xbe09955a	-0.1343588
146	0xba890d52	-0.001045624
147	0xbda5848b	-0.08081921
148	0x3cdb2fcf	0.026756195
149	0x3c9a1bdd	0.018812114
150	0xbe02a235	-0.1275719
151	0x37225ff1	9.678291e-06
152	0x3d129ca4	0.035793915
153	0x3d616ed7	0.055037346
154	0xbd070153	-0.032960247
155	0xbbbe09fc	-0.00579953
156	0xbe16e432	-0.14735487
157	0xbd1c5689	-0.038168464
158	0xbab60f2e	-0.0013890022
159	0x3d93d88b	0.07219037
160	0xbdd45905	-0.10368542
161	0xbdd256bb	-0.10270449
162	0x3d7b0182	0.061280735
163	0x3e06dabd	0.1316938
164	0x3d04a826	0.03238692
165	0xbe0607ff	-0.13088988
166	0x3d614d3a	0.05500529
167	0x3c821c80	0.01588273
168	0x3d551837	0.052025046
169	0x3e1fb971	0.15598084
170	0xbdebf7ea	-0.11521895
171	0x3dce9783	0.10087492
172	0xbdd32314	-0.10309425
173	0xbd536d9b	-0.0516182
174	0x3d7b6ec6	0.06138494
175	0x3bc3e9be	0.005978792
176	0xbe2a359d	-0.16622014
177	0xbce05cb5	-0.027387956
178	0xbda54b11	-0.080709584
179	0x3e13fb03	0.14451222
180	0x3af9ba82	0.0019052776
181	0x3d31988d	0.043358374
182	0xbd8302ab	-0.06396993
183	0xbd2a8873	-0.041634034
184	0xbc0bb5d1	-0.008527235
185	0xbe06826c	-0.1313569
186	0x3d092f38	0.033492297
187	0xbe1cc2fc	-0.15308756
188	0x3db5be28	0.0887416
189	0x3e0b340e	0.13594076
190	0xbdc25792	-0.09489359
191	0xbe0d1faf	-0.13781618
192	0xbdee141b	-0.116249286
193	0xbd6422ca	-0.05569724
194	0x3e836497	0.2566268
195	0xbd86aa3d	-0.06575439
196	0xbe2afb40	-0.16697407
197	0x3e03ead4	0.12882549
198	0xbe1fe00c	-0.15612811
199	0xbe09d346	-0.134595
200	0xbb753d13	-0.0037420436
201	0xbd8ab9f0	-0.06773746
202	0x3e43539d	0.19074865
203	0x3cbe57b8	0.023235187
204	0xbcc16cc4	-0.023611434
205	0xbd03a51c	-0.032139882
206	0x3e1d73ec	0.15376252
207	0x3c1c190e	0.009527458
208	0xbdcc1ea4	-0.09966782
209	0x3ce7ceb8	0.028296813
210	0xbd0b2e16	-0.033979498
211	0xbdd1ac48	-0.10237938
212	0x3e1683ac	0.14698666
213	0xbd543122	-0.05180467
214	0xbcf02e6c	-0.02931901
215	0xbc25d551	-0.010121659
216	0x3e0dbc0d	0.13841267
217	0xbe03ace3	-0.1285892
218	0x3e27209f	0.16321038
219	0xbe148304	-0.14503103
220	0x3d4d4a00	0.0501194
221	0xbd4ebf24	-0.050475255
222	0x3e4e7313	0.20161085
223	0x3e11313e	0.1417894
224	0x3dffc91d	0.12489531
225	0x3d8b97a9	0.06816036
226	0x3de5d769	0.11222727
227	0x3dac42c9	0.08411176
228	0x3dc6fd7e	0.097163185
229	0xbd9cfe71	-0.07665718
230	0xbd8db5d3	-0.06919446
231	0xbdd919bd	-0.10600612
232	0xbe7db6a6	-0.24776706
233	0xbbaefaef	-0.005339972
234	0xbd9721a5	-0.07379464
235	0xbc303def	-0.010756954
236	0xbde5f6a1	-0.11228681
237	0x3cef4a33	0.029210186
238	0xbc8a1949	-0.01685776
239	0xbe18b195	-0.14911492
240	0xbe14bac5	-0.14524372
241	0xbe164059	-0.14672984
242	0xbdbc0618	-0.0918085
243	0x3dbe7290	0.09299195
244	0xbe138816	-0.14407381
245	0x3b327d00	0.002723515
246	0xbe926d26	-0.285989
247	0xbda8b20b	-0.08237084
248	0xbe938c4a	-0.2881797
249	0xbd9467d5	-0.07246367
250	0xbd11531f	-0.03547966
251	0xbc44d522	-0.012013705
252	0xbc9d5410	-0.019205123
253	0x3dfdbc10	0.12389386
254	0xbd31ead8	-0.043436855
255	0x3df872ef	0.12131297

fc.bias f4 [4]
0	0x3e52f1f0	0.20600104
1	0x3de2723b	0.11056944
2	0x3e554a6e	0.20829174
3	0x3e34a3ed	0.17640658
