lstm_hdim_128_wsize_20_interval_7_nlayers_1_bs_512_lr_0.01_decay_0.95_epoch_18.pt (torch, 277987 bytes, 6 tensors)

lstm.weight_ih_l0 f4 [512, 4]
000000 d3 d0 91 bc 63 55 74 bb 46 b5 a1 bd 82 97 d3 3d
       -0.01779977 -0.003728234 -0.07895903 0.10331632
000010 86 32 0a bf ff f9 d4 3e 53 ec e0 be 87 1e 01 3e
       -0.5398334 0.41596982 -0.439303 0.12609302
000020 27 19 e0 3a 42 a8 17 3d 50 eb 09 3e 91 ec d8 3d
       0.001709734 0.037025698 0.13468671 0.105919965
000030 bd b0 39 bd 5e c4 4b 3d eb ed c5 3d 29 88 33 be
       -0.045334566 0.049747817 0.0966452 -0.1753241
000040 a7 42 0c 3d a1 82 32 bd d1 c5 bb bd 54 74 05 3e
       0.034243252 -0.04358161 -0.0916859 0.13032657
000050 d6 e0 a6 bd 1e 4f 41 3d 67 b8 93 3d 4b f1 1a 3e
       -0.08148353 0.047194593 0.07212906 0.15131108
000060 6c 4f 7b bc 0a df da bc 9a 41 bd 3d bf fe 6d bc
       -0.01533876 -0.026717681 0.09241028 -0.014526068
000070 f7 1f 98 3b bb e8 8c bd ca d5 5f bc c6 a4 ee bb
       0.0046424824 -0.06880327 -0.013661811 -0.007282826
000080 30 94 0f 3e 9d 44 3b 3e 23 a1 d7 bd f8 f5 cf bd
       0.14021373 0.18287893 -0.10528781 -0.10154337
000090 fb 14 15 bf 6c f9 3a 3e 10 4e 28 bf 92 85 e1 3d
       -0.5823514 0.1825921 -0.65744114 0.11011805
0000a0 56 a2 55 be b5 cb 5d be 5a 04 28 bd 50 5d c3 bd
       -0.20862707 -0.2165974 -0.041019775 -0.09539282
0000b0 fb 22 23 bd f0 d2 96 3c 59 69 b0 3d 61 e3 2a 3e
       -0.03982828 0.01841113 0.086138435 0.166883
0000c0 b7 34 11 be 2b 2d 36 bd 74 0f 3d bf 42 84 99 bf
       -0.14180265 -0.04447667 -0.73851705 -1.1993487
0000d0 83 b8 0c bd dd d2 d8 3d 01 0f 7e bc fd 8f cd bd
       -0.03435565 0.10587094 -0.015506507 -0.10037229
0000e0 a1 db 4a be e1 6d 2f 3e f2 5e 87 be 46 78 bf be
       -0.19810344 0.17131759 -0.26439625 -0.3739645
0000f0 2a 33 3d 3e ca 60 c4 bc 7b 1b 1f be c1 7c e4 3d
       0.18476549 -0.023971934 -0.15537827 0.111566074
000100 17 02 aa 3d f8 81 23 bd 8b 7e 1b bc 9b fe 70 be
       0.0830118 -0.03991887 -0.009490619 -0.23534624
000110 c9 74 0b 3e 85 c1 fa 3d 9b 52 17 3e 01 e8 38 bb
       0.13618769 0.12243942 0.14777605 -0.0028214457
000120 8b 33 9d 3e f5 d7 29 3f 92 9a b6 c0 a8 26 f3 bf
       0.30703387 0.6634515 -5.7063684 -1.8996172
000130 b4 03 5d be df 00 77 be 0e 73 ce 3f b2 c2 2b 40
       -0.21583444 -0.24121426 1.6128862 2.6837583
000140 78 af 39 be 05 10 27 be 0f a9 c2 ba 4a 60 91 be
       -0.18133342 -0.16314705 -0.0014851409 -0.28393775
000150 33 41 0d bd a8 c1 f8 3b 62 d2 77 bf 90 47 51 bf
       -0.034486007 0.007591445 -0.96805394 -0.8174982
000160 f3 eb c1 be 80 dd ca 3b 7a d9 11 bc bb 63 0e 3e
       -0.37875327 0.0061909556 -0.008901948 0.13905232
000170 9a 83 51 be c7 ca 78 be 40 fb 70 be 6c 6d bb be
       -0.20460358 -0.24296103 -0.23533344 -0.3660692
000180 c1 91 fa 3d e3 93 a6 bd 69 86 02 be 2b b4 1d 3e
       0.122348316 -0.08133676 -0.12746586 0.1540076
000190 c2 76 6c 3c b7 ea 5d bd fa 31 d9 3e 7d 82 c3 3f
       0.014432611 -0.05417892 0.42420942 1.5274197
0001a0 b4 7b 8d 3d d6 97 f5 bd 5f 72 83 bd 56 79 8e 3d
       0.0690836 -0.11991851 -0.06418299 0.06956737
0001b0 95 ad 8b 3e 40 09 61 bd f9 18 9c bd e2 af f7 bd
       0.2728087 -0.054940462 -0.07621951 -0.12094094
0001c0 1b 2f a7 3d 0b 55 0d 3e 36 f2 5e ba 6c cc ac 3d
       0.081632815 0.13801973 -0.000850472 0.08437428
0001d0 b0 16 28 bd ea 60 42 be b0 d0 ea be bc 88 eb 3b
       -0.04103726 -0.18982282 -0.4586234 0.007187931
0001e0 c4 46 f5 3d 00 2f 6f bd 80 08 1b 3e 8e b1 35 3d
       0.11976388 -0.058394432 0.15139961 0.044358782
0001f0 2d 34 80 3d c8 f9 84 3c cd 42 09 bc 0e 5d c6 3d
       0.06259952 0.016232386 -0.008377743 0.096857175
000200 69 dd 9d 3d 42 63 a0 3d a1 ed 76 3e da 24 49 3c
       0.07708246 0.07831432 0.24114086 0.0122768525
000210 9a 2d 60 3e 14 ac 93 bd 27 52 78 be ba cf a6 be
       0.21892396 -0.07210556 -0.24250089 -0.32580358
000220 76 e3 08 3e 65 50 32 bd 52 2c 87 3e 57 51 73 bf
       0.1336802 -0.0435337 0.26401 -0.9504599
000230 75 cd 98 bc 61 e2 f2 3c 9d bd ec 3c e1 1e 27 3c
       -0.018652657 0.029648961 0.028899008 0.010200233
000240 8f ed 30 3e 70 80 c9 bb 83 1b 87 3d f8 65 ee bc
       0.17278121 -0.006149344 0.06597044 -0.029101357
000250 e2 fa 16 3d 2e 18 16 3e 90 07 43 3e b2 50 09 3e
       0.036860354 0.14657661 0.19045854 0.13409689
000260 8c 88 69 3c 07 29 a6 3c 6e 76 68 bd 73 3a 0a 3e
       0.014253747 0.020283235 -0.05675357 0.13498859
000270 9a e5 82 bd ce e2 c7 3c 6f 21 02 3e b5 69 0a be
       -0.06391449 0.024400141 0.12708066 -0.13516887
000280 8a 83 04 3e 22 d6 a0 bd 7d 83 b3 be 05 c2 13 3d
       0.12940803 -0.078533426 -0.35061255 0.036073703
000290 ac 3e 2e 3e c0 29 45 3e 33 83 ce 3d 12 6d 9d 3d
       0.17016095 0.19254208 0.10083618 0.07686819
0002a0 e0 4e b8 3d 68 9c 06 3e b9 91 d3 3a 00 9c 2c bd
       0.08999419 0.13145602 0.0016141451 -0.04214096
0002b0 a0 d2 44 bc 57 8d 5d 3d 6a 2d 3c 3d 42 fd 94 bd
       -0.012013108 0.05408987 0.045941748 -0.072748676
0002c0 be 71 60 be dd 28 14 bc 46 d9 f7 bd 41 ad af be
       -0.21918389 -0.009042946 -0.121019885 -0.3431187
0002d0 66 dc 07 bf d8 dc 04 3e c1 06 15 3f ab 90 8f bf
       -0.53070676 0.1297487 0.5821343 -1.1216024
0002e0 c2 55 d9 3d 45 77 34 3d 01 c2 86 bd d6 1a bd 3d
       0.1061206 0.044059057 -0.06579972 0.09233634
0002f0 7a 33 b0 3d c6 18 41 be 0c 0c 47 bd 57 7d 06 be
       0.086035684 -0.18857107 -0.048595473 -0.13133751
000300 c7 02 0a 3e 37 d8 4e 3e c8 12 2a be 76 66 43 3d
       0.13477622 0.20199667 -0.16608727 0.047705136
000310 1b 90 a4 3e d2 61 14 be 91 1d c7 3d 4e fa ba 3d
       0.32141194 -0.1449044 0.09722436 0.09129773
000320 03 61 4a 3e 2d 05 83 3e e0 57 a9 3e 97 b6 ea be
       0.1976357 0.25589886 0.33074856 -0.4584243
000330 48 3b a5 bd 2f 96 d5 3d c3 87 16 bf 50 ea 8b be
       -0.080679476 0.10429036 -0.58800906 -0.27327204
000340 90 1d 13 be 73 c9 8e be a4 01 03 3e 57 cc d8 40
       -0.14366746 -0.2788807 0.12793595 6.774944
000350 93 30 03 3d 1c 8e 40 bd 03 d2 ba be 97 9c c7 be
       0.032028746 -0.047010526 -0.3648835 -0.38986656
000360 fd 8f e1 3d 88 7b 82 3d 6b 98 f4 bd 38 d1 c4 3d
       0.11013792 0.06371218 -0.11943134 0.09610218
000370 4c a6 f4 3d a6 60 b4 3d d8 bc e5 3f 38 7f 17 3f
       0.11945781 0.08807497 1.7948256 0.59178495
000380 0e b7 a9 bd ce 7b 9c be f5 aa 36 3d f6 ec 96 be
       -0.08286868 -0.30563205 0.04459663 -0.29477662
000390 d8 70 84 be 62 e4 16 3e a5 ce d9 bd 75 8d 24 be
       -0.25867343 0.14735559 -0.106351174 -0.16069587
0003a0 2b 54 ac be d5 8d 62 be f3 d3 20 3c 69 88 3d bd
       -0.33657965 -0.22124417 0.009816158 -0.04627267
0003b0 fe 28 5d 3d 15 32 1b 3e 14 63 c8 bd ae 06 0f be
       0.05399417 0.15155824 -0.09784523 -0.13967392
0003c0 09 5e dc 3c 12 4e f4 bd 3b d7 0b be 4d 33 0c 3e
       0.026900308 -0.11928953 -0.13656323 0.13691445
0003d0 f9 bd 7f bd e6 da 40 3e 17 a7 b5 3c 8f b2 46 3e
       -0.06243703 0.18833503 0.022174401 0.19404052
0003e0 fe 77 10 bf 64 4a a6 bd b4 ee f6 3e e5 f5 91 3d
       -0.56433094 -0.08119658 0.4822899 0.07126979
0003f0 fa a8 21 bd c5 35 c1 3d 8a 11 d3 3d 47 dd 2a bd
       -0.03946779 0.09434084 0.1030608 -0.041714933

lstm.weight_hh_l0 f4 [512, 128]
000000 db 8e 36 bd e2 e8 5f be c3 c5 47 3b 68 ee a7 3d
       -0.04456983 -0.21866181 0.0030482865 0.08199769
000010 9b a1 ad 3d 82 8c a1 bc 83 32 68 bd 3f 66 80 3d
       0.084780894 -0.01972032 -0.056688797 0.06269502
000020 04 4c 57 bd e0 b9 9e 3d b4 7b 14 bd 41 7f 34 bd
       -0.05256273 0.077502966 -0.036250785 -0.04406667
000030 ea 97 89 3d b7 4a eb 3d 5d 5d ef 3d 1b 79 e4 bd
       0.067184284 0.1148886 0.116877295 -0.111559115
000040 90 31 8b 3d 6a 42 f5 3d e4 3e 3a bd be b3 49 3e
       0.06796563 0.11975558 -0.045470133 0.19697472
000050 5a 36 04 3e 1b cc 8d bd 60 4d 2c 3d 1c 3e 3e bd
       0.12911358 -0.06923696 0.042065978 -0.04644595
000060 37 92 24 bd 32 bc 18 be e5 ea 87 bd 6a 2f 38 bc
       -0.040178504 -0.14915541 -0.066365995 -0.011241773
000070 78 cb 06 bc 94 10 5d 3d b3 2c 03 bb 52 15 64 3d
       -0.008227222 0.05397089 -0.0020015656 0.055684395
000080 bc bb 21 3d 2c f1 b0 bd e8 9b c1 bd 25 5a a2 b9
       0.039485678 -0.0863975 -0.09453565 -0.0003096621
000090 22 c3 18 3c 6f 3b a4 3d 22 6c 03 3c 4d 0b 04 bc
       0.009323867 0.080191486 0.008021386 -0.008059335
0000a0 58 f4 62 bd 6b d1 63 3d a7 d9 a1 3c a1 6a 7c bd
       -0.055408806 0.05561964 0.019757105 -0.061625127
0000b0 20 a7 11 3d f1 fa 9c bd 90 55 42 bd e9 83 22 3c
       0.035559773 -0.07665051 -0.04744488 0.009919145
0000c0 1f a1 18 3d 8c 62 90 3d 5d e1 ec bd 41 4c d5 bd
       0.037263032 0.07050046 -0.11566422 -0.10414935
0000d0 dc 31 55 bd c7 53 bc 3d fc 8b 4b bd de 42 92 bd
       -0.052049503 0.09195667 -0.049694046 -0.0714166
0000e0 37 f2 5a bc 69 e5 74 3d e7 d8 ba bc 98 f3 1e 3d
       -0.013363413 0.059789095 -0.022808505 0.038806528
0000f0 c1 da f9 bd 31 40 5f 3d a7 7c eb bd 60 04 19 3d
       -0.12199927 0.054504577 -0.11498385 0.037357688
000100 83 6e f6 bd 68 c3 4f be b5 2a 82 bb 32 1b b6 3e
       -0.12032797 -0.20289385 -0.003972376 0.35567623
000110 66 c0 b8 3d 5c 87 10 3d 1f 8b f9 3d d2 ee d4 3d
       0.09021072 0.03528534 0.12184738 0.10397114
000120 95 bb 27 bd 69 06 3e 3d 64 f4 a0 3d 01 68 f4 bd
       -0.040950377 0.046392832 0.07859114 -0.119339
000130 75 fd 35 3c 44 88 75 bb 28 d6 a4 bc 48 a3 e4 bd
       0.011107792 -0.0037465254 -0.020121649 -0.11163956
000140 2c 50 24 3c 5f 28 56 bd 32 7c 03 bd 3d f3 e1 3d
       0.01002888 -0.052284595 -0.032100864 0.11032722
000150 14 a9 4d 3c cf 60 d2 3d b1 59 c0 bc c8 1c 80 3c
       0.012552518 0.10272371 -0.023480268 0.015638724
000160 fc ed 41 bd c0 c7 01 3e 68 ed 56 3d 7e 28 68 3d
       -0.0473461 0.12673855 0.052472502 0.05667924
000170 e4 7e 03 3b 5b d9 c9 3d 8d 11 a3 bd 40 b0 0d 3c
       0.0020064646 0.098559104 -0.07962332 0.008647978
000180 78 27 7c bc 1c 08 a8 3c ca 83 1b bd d8 4b b9 bc
       -0.015390269 0.02051168 -0.03796748 -0.022619173
000190 4c 57 9e ba ba c2 18 bd 23 6b cb bd d7 58 b3 3c
       -0.001208046 -0.03729508 -0.09932544 0.021892948
0001a0 75 4c 09 bd f9 0a c4 3d 44 04 18 bd 87 66 4f 3d
       -0.03352018 0.09572405 -0.037113443 0.050634887
0001b0 2a d1 c6 3d 1e dc 06 be 96 2c da bd 2a b0 33 be
       0.09707864 -0.13169906 -0.10653035 -0.1754767
0001c0 0e 9b c3 3c d0 30 3d 3b 47 9b de 3d 83 c1 8c bd
       0.023877647 0.0028868206 0.108694606 -0.06872847
0001d0 32 8b aa 3c 8c 4f a6 3d 46 9e 9f 3d 27 0a 08 3d
       0.020818327 0.08120641 0.0779386 0.033212807
0001e0 06 41 7c 3d 75 70 e7 3d 4b 3b 6e 3d e1 a1 01 bd
       0.06158545 0.11300746 0.058162015 -0.03164852
0001f0 77 e1 c2 bd 07 6a 14 3e 6b 7b 01 3d 52 e1 a4 3e
       -0.0951566 0.14493571 0.03161184 0.32203156
000200 64 fd 7b 3e b1 da 7e bd 6c 07 d1 be 6f 83 81 3e
       0.2460838 -0.06222028 -0.40825975 0.25295588
000210 9d af c2 3e ff 7d 38 be 9c ff c9 3e b6 93 82 3e
       0.38024607 -0.18016814 0.39452827 0.2550332
000220 d4 48 b0 3e 5f bd 69 be 3f 1b 86 be d3 ba 90 3e
       0.34430563 -0.22826146 -0.26192662 0.28267536
000230 91 75 92 bf 2d 66 cc 3e fe b3 72 be 78 c0 2f be
       -1.1442128 0.39921704 -0.23701474 -0.17163265
000240 d7 ac ca 3e 5e d2 ad 3e c6 0a 36 bf 9c 00 ad 3e
       0.3958499 0.3394956 -0.7111019 0.33789527
000250 84 36 9f bc 15 29 d5 3e 12 3e eb 3d b4 d6 1b be
       -0.019435175 0.41632906 0.11486448 -0.15218621
000260 d9 d6 8d be 2e 17 87 3d 0a 49 89 3d 09 6c e9 3e
       -0.27702978 0.06596218 0.06703384 0.45590237
000270 2e f7 9e 3e e1 06 80 3e b6 a3 57 3e 47 10 58 be
       0.31047958 0.25005248 0.21058545 -0.2109996
000280 9f ba 85 bf ee 6d 90 3e 15 8a 84 bf 67 87 83 be
       -1.0447577 0.2820887 -1.0354639 -0.2568924
000290 39 20 9f be 01 22 06 3f a2 14 11 be 90 40 a2 bf
       -0.3107927 0.52395636 -0.14168027 -1.2675953
0002a0 b1 35 8a be 44 a6 b8 be b1 5c 97 3e 1f 33 6c be
       -0.26994088 -0.3606435 0.29562905 -0.23066376
0002b0 35 8d e9 3d d5 1c ca 3e aa 07 48 be a9 b7 19 3e
       0.11403886 0.39475122 -0.19534174 0.15011467
0002c0 ce db 94 3e 7a ea aa 3e f0 e3 31 3f 9f 35 a4 be
       0.29073948 0.33382016 0.6948843 -0.3207216
0002d0 c1 77 11 3f 0c da 25 bb 8d 43 63 be 88 5f 0e bf
       0.56823355 -0.0025306968 -0.22193737 -0.5561452
0002e0 7a 78 60 3e 65 6a 6b 3e b2 23 43 bf ef c4 ab 3e
       0.21920958 0.22989805 -0.7622634 0.33548686
0002f0 e8 0a de be 89 ac 7a be 24 3e a1 3f c7 04 8c 3e
       -0.43367696 -0.2447988 1.2597089 0.27347395
000300 d5 3e 13 bf 60 af 10 be 5c f7 7b be 4e 08 8e be
       -0.5751775 -0.141294 -0.24606079 -0.2774071
000310 5f fc b0 3e 8a cc 0c bd 41 3b 9c 3e c3 46 b4 3e
       0.34567544 -0.03437475 0.30513957 0.35210237
000320 b8 c5 2e 3e 60 c1 28 bd db 52 ac be fc 33 13 be
       0.17067611 -0.04120004 -0.33656964 -0.14375299
000330 a1 92 72 bd 27 79 15 3e 01 40 aa be f8 b6 90 be
       -0.059221867 0.14596997 -0.33251956 -0.28264594
000340 81 57 84 3e 77 d2 8f 3e 8e f9 16 bf e7 f5 12 3e
       0.2584801 0.2809026 -0.5897454 0.14351617
000350 b1 88 29 bf 63 6d 3c 3e c5 1f 00 3e bc 4f d8 be
       -0.662242 0.18401103 0.12512119 -0.42248333
000360 35 ea a3 be f9 75 7a 3f 7e dc 21 bf 49 35 d9 3e
       -0.32014623 0.9783626 -0.6322707 0.42423466
000370 ed 2b 94 be 27 09 8f 3e dd 16 ce be 47 37 d7 be
       -0.28939763 0.2793667 -0.40251818 -0.4203436
000380 a6 cf b6 be 7f 2e c5 3e 7c 60 ef be c2 7d 29 be
       -0.35705298 0.38512036 -0.467533 -0.16551879
000390 1b 0a 06 3f 13 70 9c bc af 80 18 bf e3 a0 a6 bc
       0.5235917 -0.01909641 -0.59571356 -0.020340389
0003a0 1c b4 08 3e ab d6 96 3e 85 b4 bb 3e b1 4e 88 3c
       0.13349956 0.29460654 0.36661163 0.016639085
0003b0 1a 3a 30 be a6 3f 45 3e 66 d3 b9 be 37 74 90 3e
       -0.17209664 0.19262561 -0.36294097 0.28213665
0003c0 13 8b b4 3e 8b e3 15 3e 81 b9 f6 3e ea fb 95 bf
       0.35262355 0.14637582 0.48188403 -1.1717503
0003d0 9c f0 8b 3e 5d d7 8f 3e 39 62 94 3d 76 03 0d 3f
       0.27332008 0.28093997 0.07245297 0.55083406
0003e0 72 09 86 3b 26 3b 82 3e 1b 58 19 3d 22 9d ce be
       0.0040904814 0.25435752 0.03743754 -0.40354258
0003f0 35 88 6c 3e 7b 94 80 3c 6a ad 6c be 93 5c 8f be
       0.23098834 0.015695801 -0.23113027 -0.28000316

lstm.bias_ih_l0 f4 [512]
000000 e7 5b 89 bd 39 db 1f 3e 3c 01 72 bd f6 54 5a bc
       -0.06706982 0.1561097 -0.05908321 -0.01332592
000010 d4 94 2c bc 7f 78 59 3c c9 f3 88 3d dd 72 ef bb
       -0.01053353 0.013273357 0.06687123 -0.007307394
000020 1c 81 27 3c 05 3c 2e 3e 50 eb 21 be 51 42 46 bd
       0.010223653 0.17015083 -0.15812421 -0.048403088
000030 6e d2 18 be e2 22 65 3d c9 13 2e be 7c d5 c4 3c
       -0.14924023 0.05594147 -0.16999735 0.024027579
000040 d6 ed 64 3c 8c bd 94 3d d7 04 16 3f a5 b5 d2 bb
       0.01397272 0.07262716 0.58601135 -0.006430345
000050 57 29 09 be ac e1 c5 bd 7b 9e ce bd df aa 72 be
       -0.13394676 -0.09662184 -0.100888215 -0.23697995
000060 81 5c 0f 3d 69 5e 50 be 9e a6 74 bd 00 cb 86 3d
       0.035000328 -0.20348515 -0.05972921 0.06581688
000070 e5 98 21 3c 66 de 41 be d7 56 0a be 21 fb 92 3d
       0.009863113 -0.18932495 -0.1350969 0.07176805
000080 a2 a0 f2 bc 85 81 8a bd e0 d3 a8 3c 67 3e a7 bd
       -0.029617611 -0.06762985 0.020608842 -0.08166199
000090 b7 1f 0d bd 05 85 07 3d f4 d4 df bd 81 33 11 bd
       -0.034454074 0.03308584 -0.109292895 -0.03544951
0000a0 bc 5d 19 3d c3 c0 3c 3d 0b 8f 97 bd 91 45 28 3c
       0.037442908 0.04608227 -0.0740033 0.010270492
0000b0 16 c0 19 3c 9f 6c 13 bd 26 0d 9b bd 5e a1 ce bd
       0.009384176 -0.03599226 -0.07570867 -0.10089372
0000c0 a6 39 77 bc 75 6e 9a 3d 2a c8 22 3e 57 60 6b bd
       -0.015089428 0.07540599 0.15896669 -0.057464924
0000d0 28 ec c7 bd 44 a5 13 bc 63 d1 d9 bc 26 32 60 3d
       -0.0976184 -0.00901157 -0.026589101 0.054735325
0000e0 98 49 22 be 81 c3 2b be 04 84 94 be 68 11 df 3d
       -0.15848386 -0.16773798 -0.2900697 0.10891992
0000f0 44 4a da 3c fa 42 a8 bb 1a 7c 95 bd d2 8b 9c bd
       0.02664674 -0.0051349374 -0.07299061 -0.07643856
000100 32 5d 1f 3e 21 e4 bf 3e a0 03 00 3e dc 16 12 3f
       0.15562895 0.37478736 0.12501383 0.5706613
000110 10 8f 76 3e 4f a4 27 bc cb a8 cb bd 49 f8 69 3c
       0.24078012 -0.010232045 -0.09944304 0.014280387
000120 97 d0 f3 bc 17 8f 27 bd 75 3c 75 3c 08 f5 23 3b
       -0.02976255 -0.040907945 0.014968027 0.0025017876
000130 1d d5 6f bd 7c 0d 9c bd a9 91 2c bd e7 c1 2f 3c
       -0.05855285 -0.076197594 -0.0421311 0.010727382
000140 b4 af 0c 3c 04 b9 ba bd f8 e0 e6 bd fb c1 5b 3d
       0.008586813 -0.0911732 -0.11273378 0.05365179
000150 fd dd 3b 3d f3 c1 21 3c 85 b7 4d 3d 73 d6 59 be
       0.045866 0.009872901 0.050223846 -0.21273212
000160 f7 c4 8e bd 9f 7e 16 be 5a e9 8d bd 18 88 ba 3d
       -0.06971162 -0.1469674 -0.06929274 0.09107989
000170 a9 5b 19 be e6 73 7e bd 91 4b 0e bd 94 31 5d 3d
       -0.14976372 -0.062122248 -0.034740034 0.05400236
000180 02 9b 83 3d 1d e3 28 3c be d5 e7 3d 8e 0c f4 bd
       0.0642605 0.010308054 0.11320065 -0.11916457
000190 d4 f8 a1 bc a7 c3 11 be af e9 88 bd 86 31 c6 bd
       -0.01977197 -0.14234792 -0.066851966 -0.096774146
0001a0 5d bd 4b bd 6f 7b 79 bd 65 c6 89 bc bf 38 2b bc
       -0.049741138 -0.06090873 -0.016818235 -0.010450541
0001b0 b6 04 e2 bd 98 af 1b 3d c7 a9 cc bd f4 d4 73 3d
       -0.11036055 0.038009256 -0.0999332 0.05952926
0001c0 3d d4 9d bd a5 7b 97 3d 65 9b b6 bd 2e 65 7b 3e
       -0.07706497 0.0739663 -0.08916358 0.24550316
0001d0 52 ec b9 bc 21 3a 86 be 21 d8 38 3e f1 d9 ba 3d
       -0.022695694 -0.26216224 0.18051197 0.091236
0001e0 17 58 95 3e 96 b6 b3 bd d5 0e 2f be b3 3f 2f bc
       0.2916877 -0.0877506 -0.17095502 -0.010696339
0001f0 45 86 2d be d8 6e 04 bc 97 0a 72 bd 3f bd 3d 3e
       -0.16945751 -0.008083068 -0.05909213 0.18529223
000200 b3 d6 de bd 7a 5a 43 be 93 cf 6f bc 25 97 83 3d
       -0.108807944 -0.19077483 -0.014636892 0.06425313
000210 d2 3d 99 bd 05 d6 97 3d 7a 23 4a 3d a2 aa 4a bd
       -0.074824944 0.07413868 0.04935024 -0.049479134
000220 16 8c 69 3d 5a ff 7a 3d b1 90 ae bd 01 25 02 be
       0.057018362 0.06127868 -0.085236914 -0.12709428
000230 b1 29 08 bd ba 45 c3 bd 36 19 a8 3d ff 3b 90 bd
       -0.033242885 -0.09534784 0.082079336 -0.07042693
000240 a9 82 a6 bd 45 0e 01 3d 30 f0 04 be 1f 96 bb 3d
       -0.0813039 0.03150775 -0.1298225 0.09159493
000250 08 54 18 be 8b 4d 31 be b8 a9 8c bd e3 87 30 be
       -0.14875805 -0.17314737 -0.06868309 -0.17239337
000260 e5 cf 7f 3d 1e 62 bb bd dd 21 d2 bd d1 25 61 3c
       0.062454123 -0.09149574 -0.10260365 0.013741926
000270 83 c7 8a bc 94 03 47 be 83 46 d3 bd 9b ed 91 bd
       -0.016940838 -0.19434959 -0.103161834 -0.07125398
000280 0c 2b a4 3d 4c 56 86 be 16 e2 30 3e 4b ab 4b 3d
       0.08016023 -0.26237714 0.17273745 0.049723905
000290 2a 19 4b bc f2 41 9d 3c f1 fe a7 3c 47 29 4b bd
       -0.012396136 0.019196484 0.020507308 -0.049599912
0002a0 20 19 1c bd ea de 41 bc 61 e1 37 3c 04 7d ce 3c
       -0.0381099 -0.011832932 0.011223168 0.025206096
0002b0 db f3 08 be 2f e7 da bc 6a 60 a2 bc a4 04 c5 bd
       -0.13374273 -0.026721565 -0.019821364 -0.09620026
0002c0 3c bd 26 bd 51 ad ec 3c 92 8a 2c 3d 9a 3c a1 bd
       -0.04070781 0.028891237 0.04212434 -0.07872887
0002d0 dd c0 0e be 71 12 f0 bd b9 5e 7b 3c 50 54 9b bc
       -0.13940759 -0.117222674 0.015342408 -0.018961102
0002e0 ec 04 d2 bd 5c 96 2d 39 09 37 ff 3e f2 39 c9 bc
       -0.10254845 0.00016554579 0.49846676 -0.024563763
0002f0 db 68 11 bd fb 46 02 bd 38 78 29 be 51 72 06 3d
       -0.03550039 -0.031805974 -0.16549766 0.032823864
000300 5f cd be bd 1a 2f 10 3e e1 c3 14 be 40 5b dd bd
       -0.09316515 0.14080468 -0.14527847 -0.1080842
000310 3c 80 44 3d fb 16 19 3d 38 77 a5 3d 5e 7b f8 3c
       0.047973856 0.03737543 0.0807938 0.030332264
000320 5c 09 cd 3d 90 96 90 bc 90 ba 11 3e 9d 23 42 3d
       0.10011551 -0.017649919 0.14231324 0.047397245
000330 fc 1e a0 bd 35 9d 9b 3c 34 7a 0c bd 17 a3 0f bd
       -0.0781841 0.01899586 -0.03429623 -0.035067644
000340 e7 85 51 3d cb 89 56 bc 31 11 10 be 15 d8 65 bb
       0.05115309 -0.013094376 -0.14069058 -0.0035071422
000350 a3 64 ec bd 71 bd a1 bd a0 69 21 3d 1c 07 c6 3e
       -0.115426324 -0.07897461 0.039407372 0.386773
000360 64 c4 ca bd a6 57 ea 3d f9 9d 1f be a9 51 7f 3d
       -0.0990074 0.11442499 -0.15587606 0.062333737
000370 e4 5c d3 bd fb dd cb 3d 7f a4 f7 3c c6 8d 23 3c
       -0.10320452 0.09954449 0.030229805 0.009982532
000380 b8 1b 7d bd ff 84 74 3b a1 23 53 be 70 3b 8a 3d
       -0.061794013 0.0037310717 -0.2061906 0.06749618
000390 96 7a f9 bd c7 55 28 bd 84 0b a9 3d 90 7b 18 bd
       -0.121815845 -0.04109743 0.082541496 -0.037227213
0003a0 3b 65 00 be 06 64 41 3b c2 5d 4b 3d 62 09 b6 bd
       -0.12538616 0.0029509082 0.04964996 -0.088885084
0003b0 31 81 85 bd 90 43 17 bd 27 a0 ce bd 71 23 a4 bd
       -0.06518782 -0.036929667 -0.100891404 -0.080145724
0003c0 32 98 9d bd b9 9a 62 be 54 ae 40 bd 9b 31 94 be
       -0.076950446 -0.22129335 -0.047041252 -0.28944096
0003d0 cf 5b 13 bb db 81 fb bd 0a 97 fe bd 90 be 90 3d
       -0.0022485142 -0.12280627 -0.12431152 0.07067597
0003e0 49 17 54 3d 90 53 8f bd 53 4d 29 be 9f 82 d6 3d
       0.05178002 -0.0699836 -0.16533403 0.10474133
0003f0 cc 50 e3 bd 9c c6 53 3d 3e 4d 1b bd 84 d6 6c bb
       -0.11099395 0.05170308 -0.03791546 -0.0036138603

lstm.bias_hh_l0 f4 [512]
000000 b0 76 fe bb b8 53 11 3e ca 59 ab 3c a3 59 68 3d
       -0.0077656135 0.14192092 0.020916838 0.05672611
000010 4e ba 89 bc b8 52 15 bd fb cb bb bd bd 94 82 3c
       -0.01681247 -0.03645584 -0.091697656 0.015940065
000020 02 e1 32 bd ba f2 2b 3e 22 5d b1 bd cc 15 8d 3d
       -0.043671615 0.16791812 -0.08660342 0.06888923
000030 f5 10 34 be 51 a9 d5 bd b7 1a 99 bd 52 d9 3a bd
       -0.17584594 -0.10432685 -0.074757986 -0.04561741
000040 89 b4 19 bd dd 37 8f bd 22 14 17 3f f9 34 72 bc
       -0.037525687 -0.06993077 0.59015095 -0.0147831375
000050 7e 01 42 be 7b ff a0 bd 07 d4 22 be 19 ae 7c be
       -0.18945882 -0.07861229 -0.15901195 -0.24675788
000060 3e 3b 91 bd 3c 12 d6 bd d5 c2 dc bd 46 66 9b bd
       -0.07091378 -0.10452697 -0.10779349 -0.075878665
000070 2d 9d 7c bb a5 0f 30 be 94 b8 02 be ce ca 0a 3d
       -0.0038545833 -0.17193468 -0.12765723 0.033884816
000080 bc 96 1e 3d 21 5c ca bd 32 e2 02 3d 13 45 85 3b
       0.03871797 -0.098808534 0.031953998 0.004067072
000090 8f a2 34 3d 99 12 7d bc b0 50 4c bd af 01 6d bd
       0.04410034 -0.015446329 -0.049881637 -0.057862934
0000a0 e3 04 26 3d 6a 83 4a bd ce e6 29 3d d8 dd 82 bc
       0.040532004 -0.049441732 0.041479878 -0.015974924
0000b0 e5 9a d1 bd b8 7b 3b 3d f0 5d f4 bd 78 d5 74 bd
       -0.10234622 0.045772284 -0.1193198 -0.059773892
0000c0 2b d0 81 ba 63 2a 91 3d 57 fc 94 3e a1 1f 2f bd
       -0.0009903958 0.07088163 0.2909877 -0.042754773
0000d0 73 14 24 be 16 01 c5 bc d8 69 92 3d 3b 54 28 3e
       -0.16023426 -0.02404837 0.07149094 0.16438381
0000e0 21 67 24 be 24 48 2c be b9 c8 1c be 32 02 96 3d
       -0.16054966 -0.16824394 -0.15310945 0.073246375
0000f0 62 fe 3a bd 91 08 b2 3c fb 9e d4 bd 8d c9 6f bd
       -0.045652755 0.0217326 -0.103818856 -0.058541823
000100 8e 74 1c 3e 01 96 83 3e db e2 aa 3d 68 cb 08 3f
       0.15278837 0.2570038 0.083440505 0.53435373
000110 36 37 98 3e 3c 66 ac 3d 95 ff cc bd 80 05 1b 3d
       0.29729623 0.08417937 -0.10009686 0.037847042
000120 5e 54 21 be c2 f3 cb bd b4 f1 4e 3d f0 a2 2e bd
       -0.1575484 -0.099586025 0.050523475 -0.042635858
000130 af ff 3e bd c6 2b db bc b1 e6 42 3d f5 47 7a bd
       -0.046630558 -0.026754271 0.047583286 -0.06110378
000140 e0 a3 85 3c c3 e3 2b ba ae f2 5f bd 50 a5 9c bd
       0.016313493 -0.00065570715 -0.054674797 -0.07648718
000150 45 06 f0 3b b0 af 38 3d c0 7a de 3d c0 31 26 be
       0.007324966 0.045089424 0.108632565 -0.16229916
000160 74 a8 14 bc 2a 52 bd bd d2 74 43 bd f3 21 32 bc
       -0.0090733655 -0.09244187 -0.04771883 -0.010872352
000170 6f c0 d5 bd 62 bb 47 bd 0c 47 8b bc 62 4d c5 3d
       -0.104370944 -0.048762687 -0.017001651 0.096339
000180 99 2f 62 3d 28 d3 2f bd ea 01 ee 3d d4 82 ac bd
       0.055221174 -0.042925984 0.11621459 -0.08423391
000190 e7 ce a8 bd b7 bc 0b be ca f5 47 3d 89 2e 33 be
       -0.082425885 -0.13646208 0.048818387 -0.1749822
0001a0 f7 03 0a be 7c 51 64 bd b7 e4 d4 bd a0 32 d6 bd
       -0.13478075 -0.055741772 -0.103951864 -0.10458875
0001b0 ce b5 4b bd 4e 37 e5 bc 94 fd 82 bd 8b 83 f7 3c
       -0.04973393 -0.027980473 -0.063960224 0.030214092
0001c0 8c 93 5d 3d c9 06 54 bb 70 99 a0 3c 1f e3 9a 3e
       0.05409579 -0.0032352677 0.019604415 0.30251405
0001d0 87 b3 0e 3c 3d 07 84 be d8 22 08 3e bd 54 a2 3c
       0.008709795 -0.25786772 0.13294542 0.019815797
0001e0 b9 76 5a 3e f4 30 11 3d b5 a8 a8 be 8e b8 d3 bd
       0.21334352 0.035447076 -0.32941213 -0.103379354
0001f0 68 41 91 bd 59 33 6f 3d e8 7d 15 be 47 90 07 3e
       -0.070925534 0.05839858 -0.1459881 0.13238631
000200 44 db 94 3c a2 eb 6f be 74 78 48 3c 1a 17 b0 bd
       0.01817096 -0.2342973 0.0122357495 -0.08598156
000210 28 32 35 3d d1 77 d6 3d 91 89 ac 3d 23 b7 3b bd
       0.044237286 0.10472072 0.08424676 -0.04582895
000220 73 05 dd bd a7 fd 22 3d 85 d6 8b 3b bb 7a 69 bd
       -0.10792055 0.039792683 0.004267516 -0.05700181
000230 cd 81 3b bd 65 1d 88 3c 7a 08 16 bd 55 d2 3d 3c
       -0.045778085 0.016615579 -0.036629178 0.011585792
000240 30 83 98 3c 32 aa 65 bc 66 ca 1a be 4d a0 b8 3d
       0.018617243 -0.0140176285 -0.15116271 0.0901495
000250 ab 39 b3 bd b2 63 6a be 21 ab 45 be 04 75 80 bd
       -0.08751234 -0.22889593 -0.19303562 -0.06272319
000260 d8 1c b5 bd 47 fd 61 be 64 5e cc bc c1 02 89 bd
       -0.08843392 -0.22069274 -0.024947353 -0.066899784
000270 f2 04 3d bc c9 7a 15 be e2 9a be bd 81 e6 ba bd
       -0.011536824 -0.1459762 -0.09306885 -0.091259964
000280 9e 55 fe 3d 9e e0 14 be 45 30 a4 3d 8a 6b 95 bd
       0.12418674 -0.1453881 0.08017019 -0.07295902
000290 0a ba 30 ba e2 03 82 bd 75 f5 8d 3d 20 7c 89 3d
       -0.0006741589 -0.06348397 0.06931583 0.06713128
0002a0 59 88 02 bd 27 d9 41 3d 7e 26 b0 bd 27 13 49 bd
       -0.031868313 0.047326233 -0.08601092 -0.04909053
0002b0 7d af 07 be 40 6b e2 bc 8b c6 65 3d 61 73 94 bd
       -0.13250537 -0.027639031 0.05609755 -0.07248569
0002c0 b8 11 6a 3d 96 1c 06 bd 37 ef c9 3c fe 46 bd bd
       0.057145804 -0.032742105 0.0246502 -0.09242056
0002d0 97 2f ef bd 66 55 d5 bd 32 c8 41 3c 7c eb e7 3d
       -0.11678999 -0.10416679 0.011827515 0.11324212
0002e0 ed 33 1e be f3 be 24 bd ad 8d de 3e 89 ee 56 3d
       -0.15449496 -0.040221166 0.43467465 0.05247358
0002f0 85 c8 0b 3d 53 23 cb bd e6 74 11 be 13 e2 64 3d
       0.034126777 -0.09918847 -0.1420475 0.055879664
000300 df a0 97 3b b6 31 98 3d 44 3d 33 be cd 92 94 bc
       0.0046273316 0.074313566 -0.1750384 -0.018136406
000310 0f 5b 89 3d d9 99 15 bc f1 8d 2e bb a0 ab 52 3c
       0.06706821 -0.009130918 -0.0026634897 0.012858301
000320 34 e3 cf bc 73 6e 9b 3d 0c 57 0a 3e 87 6d 3b bc
       -0.025376894 0.07589426 0.13509768 -0.011439688
000330 18 af 50 bd 1d 0f 14 bd 05 16 1c 3d 1e a5 1a bd
       -0.050948232 -0.036147226 0.038106937 -0.037755124
000340 22 40 3c 3d 8b 8f 83 bd 43 0e b8 bd d4 c4 c8 bd
       0.0459596 -0.06423863 -0.08987095 -0.09803167
000350 3c 44 6e be 97 dc b3 3c b2 88 09 3d 62 a7 bc 3e
       -0.23268217 0.021955771 0.03357763 0.36846453
000360 87 a4 82 bd e4 71 c5 3d 3d 1f b6 bd d6 30 93 3d
       -0.06379037 0.096408635 -0.08892677 0.07187049
000370 d4 b0 0b be b9 30 d4 3c 4b 1a 0c bd fa 54 a8 3d
       -0.13641673 0.025902139 -0.034204762 0.08219333
000380 88 16 36 bd 66 64 1b 3c b0 f9 48 be 35 b7 a8 bb
       -0.04445508 0.009484386 -0.19626498 -0.005148793
000390 c4 1b 03 be 0b cd 19 be 9f 20 96 bc 82 3b 02 be
       -0.1280356 -0.15019624 -0.018326102 -0.12718013
0003a0 41 b7 6c be 05 d4 97 bd 5b bd 0e bd ca 68 cf bc
       -0.23116781 -0.074134864 -0.034848552 -0.025318522
0003b0 8f 25 45 be e5 63 d6 bd 39 4f 0e be cf 6c 11 be
       -0.19252609 -0.10468272 -0.13897409 -0.14201663
0003c0 4e ce b9 bd 62 dc 5d be 1b df d6 bc 7c 6f 76 be
       -0.090725526 -0.216661 -0.026229432 -0.24065965
0003d0 3c 19 6e bd bf 7c 8a be 51 b8 70 be 71 19 69 bd
       -0.058129534 -0.270483 -0.23507811 -0.05690903
0003e0 99 c7 29 3d 5a 34 4e 3d b0 99 16 be 5b f7 91 3d
       0.041450117 0.050342895 -0.14707065 0.071272574
0003f0 b6 6a 20 be 24 b6 a7 3d e9 8c 96 3d 14 67 6a 3d
       -0.15665707 0.081890374 0.07351095 0.05722721

fc.weight f4 [4, 128]
000000 e9 ee 22 bd 69 49 7b 3e bb 8f 20 3d bd 71 9d bd
       -0.039778624 0.24539723 0.039199572 -0.076877095
000010 bf 18 70 3d 71 68 28 3c f3 fb 6b bd 95 64 70 bd
       0.05861735 0.010278807 -0.057613324 -0.058689672
000020 6f 4c f1 bd 36 17 de bd 01 7b 1f 3d b6 ab 82 bc
       -0.11782157 -0.10844271 0.038935665 -0.015951019
000030 1a f4 04 bd 53 6b a1 bd 36 e3 0c 3d 18 cd 31 3e
       -0.032459356 -0.078817986 0.034396373 0.17363393
000040 3e bc 67 bd 80 65 1d be 40 13 3a bc 4f 00 2c 3c
       -0.056576006 -0.1537075 -0.011357129 0.01049812
000050 0d 28 41 bb d5 94 b4 bc 5f c7 de 3d f3 37 83 bd
       -0.0029473335 -0.022043625 0.10877871 -0.06407156
000060 d9 f7 09 3e ae 55 55 3c 25 96 02 3e 3b 9c 15 be
       0.13473453 0.013020916 0.12752588 -0.14610378
000070 81 38 21 be 6e 88 86 bd 7c 54 da bd d2 c8 d8 3d
       -0.15744211 -0.06568991 -0.10660645 0.105851784
000080 8f 80 9e 3d 8c 3a 2d be 64 fa 07 3d 16 f0 99 3d
       0.07739364 -0.16916865 0.033197775 0.07516496
000090 17 d6 0a 3e 46 67 c7 bd 93 1c db 3c 68 71 f5 bc
       0.13558231 -0.09736495 0.026747024 -0.029961303
0000a0 1a 15 0a 3e fb 36 2c 3e fe 90 04 be 94 9d 5d 3d
       0.13484612 0.16817848 -0.12945935 0.054105356
0000b0 f4 a3 6c bd 66 a5 3b 3c 80 77 12 3e 1f e6 93 bd
       -0.057773545 0.011453008 0.14303398 -0.072216265
0000c0 25 96 05 be 99 e1 48 be c8 c4 5d 3e f2 0c dc 3d
       -0.13045557 -0.19617309 0.21657097 0.107446566
0000d0 a9 3a fd bb 53 ed 20 3e 8e e8 d8 bd b1 8a e3 bd
       -0.00772794 0.15715532 -0.10591231 -0.11110438
0000e0 d8 2c b9 3d 38 c6 49 bd cf d9 d9 3d 96 0c e1 bd
       0.090417564 -0.0492613 0.10637247 -0.10988729
0000f0 b4 13 7a 3d bf 10 72 bc 15 1b 20 3e 2d 01 a3 bd
       0.061053947 -0.0147745 0.15635331 -0.07959209
000100 4b ca 9f bc c4 19 97 bc c4 21 86 3e 94 d4 e2 3c
       -0.01950564 -0.018444903 0.26197636 0.027689256
000110 f9 44 08 3e 53 81 b9 3d 6e 2d 1d bd cc da 99 bc
       0.13307561 0.0905787 -0.038373403 -0.018781088
000120 3d 21 f0 bd 61 4c 69 bb 5f 6d 00 3e 22 59 f8 3d
       -0.1172509 -0.0035598504 0.12541722 0.12126376
000130 8e 06 12 3d dd db 8b bd 95 c7 5b 3d fd eb a4 3d
       0.035650782 -0.06829045 0.053657133 0.08052824
000140 b3 5f f7 bd e4 69 56 3c a3 d4 97 bc 0a e7 8a ba
       -0.120788 0.01308677 -0.01853401 -0.001059742
000150 fb 99 93 3e f9 dd 54 bd da 19 88 bd a1 80 7c bd
       0.28828415 -0.051969502 -0.06645556 -0.061646108
000160 8d ed 00 bc 93 08 9d bd fc a3 a6 bd fe 16 04 be
       -0.0078691365 -0.07667651 -0.08136746 -0.12899396
000170 01 d3 77 3d e8 ce e2 bc f5 df 59 3e 24 b2 08 3e
       0.060503963 -0.027686551 0.21276839 0.13349205
000180 26 50 60 bd 76 db ae bd b2 e1 14 be 47 a3 12 3d
       -0.054763936 -0.085379526 -0.14539221 0.035800245
000190 1b 4d b8 bc 56 ee 10 bd 7b 0b 2b bd 15 1b b3 bd
       -0.022497704 -0.035383545 -0.041758996 -0.087454
0001a0 34 42 e6 bd 85 63 2c be 80 18 21 3e 0e e6 12 bd
       -0.11243096 -0.16834839 0.15732002 -0.03586393
0001b0 24 57 9f 3d 08 35 08 3d c3 2c 8d bd 33 16 58 bc
       0.07780293 0.0332537 -0.06893303 -0.013188886
0001c0 66 eb 45 3d 6f f3 91 3d 09 ae 1c be b7 ed 40 3f
       0.048320197 0.071265094 -0.15300764 0.75362724
0001d0 e7 21 da 39 10 de 03 3e 5d 58 da 3e 10 bd ac bc
       0.0004160546 0.12877679 0.4264554 -0.021086246
0001e0 4e 0a b7 3e 2b 77 c5 bd 91 e4 e9 bc 37 35 25 bd
       0.3575005 -0.0964187 -0.028551372 -0.040333953
0001f0 62 c6 bc bd d0 44 55 3c 25 7f 38 3d 93 34 9c 3d
       -0.09217526 0.013016894 0.04504313 0.07627215
000200 67 a8 ef bd ae 4c 4b be 3e 36 1a 3d 51 be d3 bd
       -0.11702042 -0.1985347 0.037649386 -0.10339034
000210 a5 b4 d8 bd a8 a4 e4 3d 49 d4 96 bd a1 46 9b bd
       -0.1058133 0.11164218 -0.07364709 -0.07581831
000220 d4 f2 32 be 2c 80 9f 3d d4 8e d5 bc 2c 90 d1 3d
       -0.17475444 0.07788119 -0.026069082 0.10232577
000230 7b 3f f3 3d fe 6f 0c be c1 03 4c 3d e0 b5 7a 3d
       0.11877342 -0.13714597 0.049808268 0.061208606
000240 70 c2 a3 bd 47 66 16 be ff 8e 2a 3c 0f 46 1b bd
       -0.079960704 -0.14687453 0.0104100695 -0.03790861
000250 7b b1 c3 3c b3 f6 5a ba 2e 55 07 be 97 36 10 bb
       0.02388834 -0.0008352801 -0.13216087 -0.0022005194
000260 8c 58 39 3d 1d 44 1d 3d 21 b0 0a bd 2e 86 23 bb
       0.04525046 0.038395036 -0.033859376 -0.0024951803
000270 b3 95 25 be 0e 08 10 bd 78 23 c5 bb 55 af 9a 3d
       -0.16170387 -0.03516393 -0.006016191 0.07552973
000280 3a 59 f8 bd a4 e6 b9 bd a8 39 07 3d d7 f9 07 3e
       -0.121263936 -0.09077194 0.03301397 0.132789
000290 8b 2f 0e 3d 01 f8 0e be e9 24 76 3d 3f a3 c5 3c
       0.03471331 -0.13961793 0.060093794 0.024125693
0002a0 48 38 78 3d b9 c4 2f 3e 05 ce ed bd 1e c8 dc 3d
       0.06060055 0.17164887 -0.11611561 0.10780357
0002b0 2c a6 e3 bd 67 d9 76 bd a1 e4 98 3d ff b5 08 3c
       -0.11115679 -0.060265925 0.074654825 0.0083441725
0002c0 56 3b 38 be 2c 5b 1f bd 00 3c 8e bd f2 d1 15 3e
       -0.17991385 -0.038905308 -0.06945038 0.14630869
0002d0 5f d1 fd ba 5e 01 2e 3d 45 de 92 bd 39 b7 2d bd
       -0.0019364766 0.042481773 -0.07171301 -0.042411063
0002e0 96 0d ef bc 6b 49 0b be 44 b9 45 3d 1f 0b 2a be
       -0.029181283 -0.13602225 0.048272386 -0.16605805
0002f0 31 70 b7 3d 5d 16 12 3e bc 7a cc bd bb 36 15 be
       0.08956946 0.14266343 -0.09984347 -0.1457166
000300 71 7e ab bd e0 e4 2c bd db 21 9a 3e 85 f2 7d bd
       -0.08373726 -0.04221046 0.30103955 -0.061998863
000310 49 25 37 be c9 22 0c 3e a8 a7 28 be 0a de 0f be
       -0.17885317 0.13685144 -0.16470206 -0.14049545
000320 6d 7f 82 bb 51 31 8e bd 0e fa 4c 3e 5d 2f 9a 3c
       -0.0039824755 -0.06943 0.20017263 0.018821413
000330 18 56 bb bc 65 6d e4 bc 25 0c 26 3e ed 11 2b 3c
       -0.022868201 -0.027884195 0.1621557 0.010441286
000340 ea c7 df bd d1 e9 df 3c 63 c2 34 bd 3b a2 e2 bd
       -0.109268025 0.027333172 -0.044130694 -0.11066099
000350 eb 85 06 3e 97 d7 64 bd 76 4c b9 bc c9 4f d8 3b
       0.13137023 -0.055869665 -0.022619467 0.006601308
000360 27 8f 13 3e 1f dc dd bd 4c 0d 11 3e fc f0 23 be
       0.14410077 -0.108330004 0.14165229 -0.16009897
000370 07 d6 6c 3d 85 d4 2c bd 47 a6 62 3e 19 d8 1c 3e
       0.0578213 -0.042194862 0.22133742 0.1531681
000380 61 c0 00 3e 4f 22 92 3d 70 c3 01 3e f9 e0 b3 3d
       0.12573387 0.0713545 0.1267221 0.087831445
000390 13 c6 cf 3d 1b 5a 96 bd 29 b4 9b bd 74 5c e0 bd
       0.101452015 -0.07341405 -0.07602722 -0.10955134
0003a0 a7 ae 83 be 98 13 10 bc c7 ab 76 bd 0a 79 3c bc
       -0.25719187 -0.008793734 -0.060222413 -0.011503467
0003b0 e6 03 5a bd f0 11 0a 3d 43 f8 ec bb 1d 80 13 be
       -0.053226374 0.033708513 -0.0072317435 -0.1440434
0003c0 ee 76 23 be 11 9c 14 be 19 0c d6 bd 4e d5 ba 3d
       -0.15963337 -0.1451266 -0.10451526 0.09122716
0003d0 97 a5 1a be 67 38 9a 3c 1f 03 a5 be 96 b2 8a bd
       -0.1510223 0.018825723 -0.32228944 -0.06772344
0003e0 29 4c c1 be b3 4d 9d bd 5f 95 f6 bc 46 ce cc bc
       -0.37753418 -0.076808356 -0.030100523 -0.025000703
0003f0 a5 a6 90 bc 16 b3 f5 3d c4 52 43 bd 09 c2 f4 3d
       -0.017657587 0.119970486 -0.047686353 0.11951072

fc.bias f4 [4]
000000 84 cc 5c 3e 13 2b fa 3d 6a c4 5c 3e b4 d1 37 3e
       0.21562392 0.12215247 0.21559301 0.17951089
