lstm_hdim_128_wsize_20_interval_7_nlayers_1_bs_512_lr_0.01_decay_0.95_epoch_17.pt (torch, 277987 bytes, 6 tensors)

lstm.weight_ih_l0 f4 [512, 4]
-0.017489119 -0.0054301503 -0.06263616 0.10969489 -0.54539746 0.40756482 -0.425157 0.10424503
0.010333723 0.0444398 0.085956946 0.10831523 -0.04199997 0.051469196 0.10050017 -0.17478132
0.039474085 -0.040462922 -0.07573797 0.1134097 -0.07495846 0.049299642 0.07833847 0.15750094
-0.011551266 -0.024427421 0.104494445 -0.0019797108 0.0066441935 -0.067171134 -0.008554892 -0.0016735212
0.14110231 0.17957923 -0.105641164 -0.09669647 -0.5833288 0.18282588 -0.6607015 0.10540056
-0.20575647 -0.21112768 -0.06911771 -0.11842878 -0.041357882 0.015799591 0.11576668 0.18354674
-0.14218473 -0.039515983 -0.7354615 -1.1697351 -0.03119193 0.10533466 0.0019482111 -0.09190024
-0.19012488 0.17821549 -0.1969364 -0.35436705 0.18367323 -0.024659289 -0.14923117 0.11718737
0.08766917 -0.035385717 0.0064950185 -0.21129811 0.13520905 0.120157 0.14763176 -0.0040597836
0.30928677 0.66047 -5.6387053 -1.8868717 -0.18527214 -0.211091 1.4920131 2.5992098
-0.17591755 -0.15719073 -0.013780365 -0.2625583 -0.050973486 -0.014905599 -0.9193538 -0.78770036
-0.37171397 0.009494478 -0.0163013 0.12336326 -0.15497015 -0.19402824 -0.10634511 -0.29072073
0.121881336 -0.07644279 -0.12258573 0.1475155 0.027117075 -0.04479051 0.40446973 1.4256539
0.07726117 -0.108186945 -0.03621466 0.058732145 0.27205148 -0.052953675 -0.060806636 -0.11166735
0.08106661 0.1367242 0.00915583 0.0778415 -0.047733888 -0.193418 -0.44227764 -0.001234078
0.12990417 -0.048714917 0.16429509 0.040764857 0.06340749 0.016402837 -0.0042114565 0.09674829
0.072003186 0.076199524 0.23527947 0.00084005226 0.22443967 -0.06514819 -0.20720164 -0.31611705
0.13103397 -0.045018494 0.19082898 -0.9460384 -0.015856832 0.030682895 0.03067112 0.011498062
0.17318326 -0.0026703433 0.07600733 -0.018922899 0.044914324 0.14873824 0.20527439 0.12340202
0.015830776 0.020535829 -0.02591055 0.1354599 -0.057345953 0.031046715 0.14212324 -0.1316585
0.12725627 -0.07335457 -0.35239297 0.04544974 0.16931392 0.19037634 0.10308753 0.08053205
0.08746306 0.12629825 0.02142938 -0.03483025 -0.008001428 0.05406209 0.052184973 -0.065852016
-0.213413 -0.0038063966 -0.12373109 -0.34514406 -0.5246279 0.13531673 0.55445266 -1.1103106
0.10651226 0.044004265 -0.059105486 0.09594085 0.09024532 -0.18250053 -0.037863247 -0.12373627
0.13752364 0.20031218 -0.15277122 0.043376107 0.32112566 -0.13931534 0.1011548 0.095335744
0.20736907 0.2646917 0.37902373 -0.45473936 -0.08142989 0.102557704 -0.6010272 -0.26471427
-0.15436691 -0.27861822 0.104265854 6.648088 0.025464442 -0.04820538 -0.34123152 -0.3967379
0.105501406 0.05369032 -0.15447809 0.08065414 0.1471792 0.11803373 1.7623092 0.64393437
-0.07237467 -0.2857036 0.07933332 -0.27078724 -0.25537923 0.14688322 -0.102474004 -0.15432048
-0.3335666 -0.2176621 -0.023597244 -0.047655795 0.056374088 0.1495017 -0.09070192 -0.13048476
0.031208942 -0.1153495 -0.107303336 0.14067462 -0.058107022 0.18635856 0.022218738 0.19358675
-0.558911 -0.07968883 0.48514536 0.045686506 -0.03724627 0.09303295 0.10887015 -0.0359077
00000000: 5745 8fbc 67ef b1bb 6347 80bd b7a7 e03d
00000010: 2b9f 0bbf 56ac d03e 2eae d9be 6b7e d53d
00000020: c74e 293c 8206 363d 320a b03d 60d4 dd3d
00000030: 2908 2cbd 5dd1 523d 08d3 cd3d e0f9 32be
00000040: 94af 213d 73bc 25bd 821c 9bbd 5843 e83d
00000050: d283 99bd 6cee 493d eb6f a03d ed47 213e
00000060: 8541 3dbc 041c c8bc 2f01 d63d 09be 01bb
00000070: 89b7 d93b 0591 89bd d129 0cbc 0e5a dbba
00000080: 207d 103e 9ee3 373e 655a d8bd cd08 c6bd
00000090: 0955 15bf b536 3b3e bc23 29bf 40dc d73d
000000a0: d3b1 52be db31 58be 968d 8dbd ca8a f2bd
000000b0: e266 29bd 256e 813c 1517 ed3d adf3 3b3e
000000c0: e098 11be 83db 21bd 3447 3cbf e1b9 95bf
000000d0: 3886 ffbc b3b9 d73d 1e5b ff3a 3136 bcbd
000000e0: 19b0 42be 1f7e 363e b2a9 49be 996f b5be
000000f0: d614 3c3e 4702 cabc 0ed0 18be efff ef3d
00000100: e58b b33d 9df0 10bd 2ad4 d43b 885e 58be
00000110: 3e74 0a3e e014 f63d c82c 173e ef07 85bb
00000120: d65a 9e3e 9014 293f 4670 b4c0 0385 f1bf
00000130: fbb7 3dbe 3d28 58be 49fa be3f 7459 2640
00000140: bb23 34be 9bf6 20be 0ac7 61bc 0b6e 86be
00000150: 93c9 50bd 9d36 74bc c55a 6bbf bba6 49bf
00000160: 4b51 bebe ba8e 1b3c 4e8a 85bc e0a5 fc3d
00000170: 7fb0 1ebe 57af 46be 77cb d9bd 59d9 94be
00000180: ec9c f93d 0a8e 9cbd 3a0e fbbd 4e0e 173e
00000190: a124 de3c 4176 37bd a816 cf3e d47b b63f
000001a0: 1b3b 9e3d 1e91 ddbd d355 14bd 1e91 703d
000001b0: 554a 8b3e f4e5 58bd 6110 79bd dab1 e4bd
000001c0: 4006 a63d 6e01 0c3e 5602 163c 5d6b 9f3d
000001d0: 9c84 43bd 5e0f 46be 3772 e2be c9c0 a1ba
000001e0: 9905 053e 4b89 47bd f93c 283e 0df9 263d
000001f0: c9db 813d 3e5f 863c 4200 8abb f823 c63d
00000200: 6876 933d 7f0e 9c3d 1aed 703e f436 5c3a
00000210: 83d3 653e 6a6c 85bd ab2c 54be 18da a1be
00000220: c52d 063e 5065 38bd ac68 433e 932f 72bf
00000230: 30e6 81bc b25a fb3c 0042 fb3c 5e62 3c3c
00000240: f456 313e ed00 2fbb bba9 9b3d 3204 9bbc
00000250: 15f8 373d d64e 183e 7333 523e 33ba fc3d
00000260: 8baf 813c c13a a83c 5d42 d4bc 00b6 0a3e
00000270: 97e3 6abd ae55 fe3c c188 113e 7cd1 06be
00000280: 784f 023e ec3a 96bd da6c b4be 8229 3a3d
00000290: a160 2d3e 04f2 423e 8e1f d33d fded a43d
000002a0: d51f b33d 5454 013e ab8c af3c 2aaa 0ebd
000002b0: 6c18 03bc 3670 5d3d e9bf 553d 6cdd 86bd
000002c0: f088 5abe bd74 79bb ba66 fdbd b9b6 b0be
000002d0: 044e 06bf 7890 0a3e 9cf0 0d3f a81e 8ebf
000002e0: 1a23 da3d d13d 343d 9818 72bd a37c c43d
000002f0: 8ad2 b83d 6be1 3abe 7e16 1bbd 7169 fdbd
00000300: ffd2 0c3e a31e 4d3e 0f70 1cbe 25ab 313d
00000310: 956a a43e aea8 0ebe 3f2a cf3d 633f c33d
00000320: 8f58 543e ac85 873e 660f c23e 99d3 e8be
00000330: b7c4 a6bd c609 d23d ebdc 19bf a188 87be
00000340: 5c12 1ebe 0ca7 8ebe 5689 d53d 23bd d440
00000350: ce9a d03c 0173 45bd e6b5 aebe 3b21 cbbe
00000360: 1f11 d83d 62ea 5b3d 812f 1ebe ff2d a53d
00000370: 25b6 163e abbb f13d 5993 e13f e2d8 243f
00000380: 2c39 94bd be47 92be 8279 a23d a0a4 8abe
00000390: 11c1 82be 8e68 163e e4dd d1bd 3006 1ebe
000003a0: 3ec9 aabe d0e2 5ebe 024f c1bc b932 43bd
000003b0: 84e8 663d f916 193e eec1 b9bd cc9d 05be
000003c0: e5a9 ff3c 5c3c ecbd dac1 dbbd 020d 103e
000003d0: a101 6ebd c7d4 3e3e 1204 b63c 9b3b 463e
000003e0: cb14 0fbf e633 a3bd f964 f83e c621 3b3d
000003f0: 8b8f 18bd 0f88 be3d 50f7 de3d f413 13bd

lstm.weight_hh_l0 f4 [512, 128]
-0.04453479 -0.20712394 0.0021214709 0.08208946 0.08378898 -0.021124845 -0.056861807 0.06355501
-0.051518794 0.069286674 -0.03743733 -0.047590446 0.061248314 0.11493968 0.106600724 -0.1129722
0.06801187 0.121365145 -0.032263547 0.13304721 0.12863255 -0.07564045 0.03613478 -0.042527832
-0.041266583 -0.1286835 -0.06909581 -0.0099562565 -0.0064864336 0.05585114 -0.00041135878 0.054425932
0.039674576 -0.09427084 -0.08026807 -0.0011453576 0.008937277 0.082837656 0.007547228 -0.006383099
-0.059517123 0.05419504 0.020318607 -0.061984405 0.036675632 -0.075213276 -0.04943432 0.009344342
0.03901505 0.07236138 -0.105068766 -0.106245995 -0.02480924 0.08413588 -0.047501735 -0.04805192
-0.020693159 0.06035565 -0.020423546 0.039637864 -0.12174945 0.053523008 -0.10434043 0.037903726
-0.11891798 -0.20790985 -0.009312553 0.34714988 0.09160784 0.03379474 0.12272139 0.10522849
-0.03938415 0.043541446 0.07248908 -0.120423466 0.011522974 -0.0027930972 -0.019323684 -0.11253055
0.011425813 -0.058064707 -0.028247776 0.11103369 -0.0014752446 0.103553094 -0.023234785 0.023068026
-0.047150735 0.12799849 0.056086365 0.05781757 0.004996148 0.09776325 -0.0818012 0.0067697847
-0.014894024 0.019661214 -0.034638617 -0.023534415 0.0004323801 -0.008877655 -0.098080695 0.018713925
-0.031405557 0.09789114 -0.039443813 0.05178438 0.09506552 -0.13326345 -0.109962374 -0.20291515
0.026164964 0.0037861748 0.109114744 -0.06674378 0.021155424 0.08119975 0.08542245 0.038110953
0.059304927 0.113777615 0.053662006 -0.029299047 -0.08915966 0.12992594 0.032067906 0.29697055
0.25085682 -0.032744464 -0.36854497 0.2521808 0.30039904 -0.19082838 0.3977455 0.25699565
0.3363994 -0.22853923 -0.23805624 0.19663757 -1.0504504 0.39154094 -0.21594891 -0.18586643
0.39362234 0.33751616 -0.66069335 0.33557177 -0.017896997 0.38786626 0.11159973 -0.13549142
-0.27950755 0.0955765 0.028206507 0.42930287 0.31464422 0.26917896 0.18777652 -0.22345167
-0.9113116 0.28948554 -0.9361309 -0.25633606 -0.3045394 0.5059599 -0.17001249 -1.1398824
-0.27371335 -0.351322 0.29229876 -0.23026288 0.13601124 0.35049155 -0.20789003 0.18731771
0.2871011 0.33923626 0.6600462 -0.33152524 0.54512274 -0.028234527 -0.16440964 -0.50566685
0.2119262 0.23869202 -0.6684019 0.33045545 -0.42110685 -0.25220674 1.2536296 0.2708262
-0.60781133 -0.1194855 -0.24093404 -0.28920004 0.32114196 -0.07084951 0.30266827 0.33217654
0.1397226 -0.027842043 -0.33642408 -0.16641873 -0.027097013 0.13082212 -0.3428052 -0.28892943
0.26102886 0.2497171 -0.52344537 0.1605291 -0.67906076 0.17493385 0.13121648 -0.3672148
-0.32627657 0.93048847 -0.60682005 0.4240141 -0.2492967 0.29427788 -0.39752087 -0.41627634
-0.32913738 0.33258066 -0.41567257 -0.16819538 0.50104797 0.028336158 -0.51378065 0.017691772
0.17319655 0.29974923 0.32833564 0.051430177 -0.14671426 0.13057643 -0.3061557 0.25901073
0.28811994 0.16256903 0.47557485 -1.1538891 0.2686406 0.19743675 0.11902159 0.5251991
-0.11104389 0.25609303 0.035035677 -0.3741035 0.26871845 0.0162326 -0.25551182 -0.27003592
00000000: 1d6a 36bd 4c18 54be 6008 0b3b 851e a83d
00000010: 8f99 ab3d 030e adbc ede7 68bd 2129 823d
00000020: 5f05 53bd 2ce6 8d3d e357 19bd 33ee 42bd
00000030: 83df 7a3d 7f65 eb3d 7b51 da3d f85d e7bd
00000040: cf49 8b3d 4a8e f83d c826 04bd 873d 083e
00000050: 40b8 033e 61e9 9abd 1002 143d aa31 2ebd
00000060: 2607 29bd 9cc5 03be 1b82 8dbd 911f 23bc
00000070: 268c d4bb 2ac4 643d a4ab d7b9 baed 5e3d
00000080: cf81 223d 1211 c1bd 9663 a4bd d31f 96ba
00000090: a86d 123c caa6 a93d bd4e f73b 5129 d1bb
000000a0: 3ac8 73bd 9efb 5d3d 3573 a63c 5ce3 7dbd
000000b0: 3039 163d 6b09 9abd a47b 4abd 0319 193c
000000c0: 3fce 1f3d 3432 943d 4b2e d7bd 8097 d9bd
000000d0: bf3c cbbc 6f4f ac3d 2e91 42bd 17d2 44bd
000000e0: b384 a9bc 7c37 773d 484f a7bc 505b 223d
000000f0: c757 f9bd f13a 5b3d 6fb0 d5bd f040 1b3d
00000100: 458b f3bd 52e6 54be ae93 18bc a1bd b13e
00000110: e49c bb3d 5a6c 0a3d 5a55 fb3d 0982 d73d
00000120: 4651 21bd 8458 323d 2875 943d 94a0 f6bd
00000130: dbca 3c3c 650c 37bb b44c 9ebc 6b76 e6bd
00000140: 5533 3b3c 42d5 6dbd e167 e7bc a265 e33d
00000150: ff5c c1ba a513 d43d e056 bebc 28f9 bc3c
00000160: 2121 41bd 0912 033e d1ba 653d 1ed2 6c3d
00000170: bab6 a33b 1938 c83d 6387 a7bd 12d5 dd3b
00000180: 1006 74bc 8e10 a13c 39e1 0dbd 3fcb c0bc
00000190: 13b1 e239 9573 11bc 88de c8bd f24d 993c
000001a0: 1da3 00bd 267b c83d d68f 21bd dc1b 543d
000001b0: b6b1 c23d 3776 08be f433 e1bd fdc8 4fbe
000001c0: e857 d63c 7921 783b 8d77 df3d f7b0 88bd
000001d0: 244e ad3c 0e4c a63d f7f1 ae3d 3b1a 1c3d
000001e0: b9e9 723d 3d04 e93d b1cc 5b3d 8e04 f0bc
000001f0: 5799 b6bd 4e0b 053e a359 033d 860c 983e
00000200: 4e70 803e 0f1f 06bd edb1 bcbe d81d 813e
00000210: e7cd 993e 8468 43be 4ca5 cb3e ef94 833e
00000220: 8b3c ac3e 3006 6abe 04c5 73be 5c5b 493e
00000230: 2975 86bf 0e78 c83e b621 5dbe c553 3ebe
00000240: de88 c93e ebce ac3e 3323 29bf 10d0 ab3e
00000250: b99c 92bc 6896 c63e 668e e43d 43be 0abe
00000260: 9d1b 8fbe 9dbd c33d 5511 e73c 96cd db3e
00000270: 0c19 a13e d3d1 893e 7d48 403e 84d0 64be
00000280: b84b 69bf 7337 943e 46a6 6fbf 7b3e 83be
00000290: 97ec 9bbe 9786 013f c117 2ebe abe7 91bf
000002a0: 2824 8cbe 7ae0 b3be 2fa8 953e 08ca 6bbe
000002b0: 8846 0b3e a173 b33e 20e1 54be 37d0 3f3e
000002c0: eafe 923e 60b0 ad3e caf8 283f adbd a9be
000002d0: 2a8d 0b3f 184c e7bc 005b 28be 6273 01bf
000002e0: 2f03 593e ae6b 743e 631c 2bbf 7531 a93e
000002f0: 519b d7be 3e21 81be ef76 a03f bba9 8a3e
00000300: 8699 1bbf d0b4 f4bd 6ab7 76be 0712 94be
00000310: b86c a43e 8c19 91bd 56f7 9a3e 0b13 aa3e
00000320: 7113 0f3e ff14 e4bc c73f acbe ac69 2abe
00000330: 8efa ddbc 3cf6 053e 2a84 afbe 8fee 93be
00000340: 93a5 853e d7b5 7f3e 8400 06bf be61 243e
00000350: edd6 2dbf dc21 333e 9d5d 063e 9403 bcbe
00000360: b90d a7be 7e34 6e3f 8f58 1bbf 6018 d93e
00000370: a247 7fbe 97ab 963e db87 cbbe 2c22 d5be
00000380: b284 a8be 0348 aa3e 09d3 d4be 693b 2cbe
00000390: ae44 003f 3b21 e83c 2187 03bf 56ee 903c
000003a0: 705a 313e bb78 993e 9c1b a83e 73a8 523d
000003b0: 433c 16be d4b5 053e 71c0 9cbe 0e9d 843e
000003c0: 7584 933e 7f78 263e 8c7e f33e a3b2 93bf
000003d0: 438b 893e dc2c 4a3e 97c1 f33d 7373 063f
000003e0: fb6a e3bd a01e 833e 9281 0f3d 7e8a bfbe
000003f0: 7795 893e 3bfa 843c 72d2 82be 2642 8abe

lstm.bias_ih_l0 f4 [512]
-0.067881666 0.1526636 -0.05063188 -0.0075764284 -0.008289018 0.017637758 0.07146564 -0.0047268188
0.013324903 0.16898492 -0.15644802 -0.046086248 -0.14161141 0.059469897 -0.16365576 0.02588774
0.019675696 0.07566027 0.5857567 0.022308612 -0.12966451 -0.12072089 -0.09675747 -0.18675792
0.035958804 -0.19068813 -0.05106172 0.067602076 0.01315557 -0.19577384 -0.12358887 0.07451652
-0.033100568 -0.056565657 0.02065488 -0.07733321 -0.032508887 0.04405713 -0.10755915 -0.027817512
0.04069908 0.049827702 -0.07510505 0.014703375 0.012296146 -0.028654762 -0.07247855 -0.094264835
-0.008564808 0.0767319 0.16803637 -0.055840116 -0.103651546 -0.011555859 -0.031547405 0.0878167
-0.15289502 -0.1650055 -0.28279915 0.11245977 0.030531708 -0.001976814 -0.070165925 -0.07225786
0.1533875 0.36502776 0.120175086 0.57175064 0.22682762 -0.005996418 -0.09739935 0.018130934
-0.024411626 -0.026020614 0.018560138 0.0019652871 -0.06535911 -0.06996445 -0.039006416 0.013032653
0.014431121 -0.10061858 -0.11046956 0.05407035 0.047569446 0.016222168 0.049632452 -0.21006389
-0.0655118 -0.14139591 -0.06919971 0.09284923 -0.13850084 -0.062778644 -0.03287098 0.059497684
0.06656211 0.012681294 0.11736235 -0.115121864 -0.02882969 -0.1495161 -0.07187743 -0.09642557
-0.048760325 -0.056468345 -0.013485472 -0.014110913 -0.107833765 0.044160713 -0.09871656 0.05916067
-0.072765775 0.07770139 -0.0853451 0.24547201 -0.019553002 -0.22654127 0.17917128 0.0872992
0.26979017 -0.08553411 -0.15825735 -0.010153814 -0.17070468 -0.006837965 -0.052336127 0.20073418
-0.10692318 -0.2000996 -0.0086527625 0.065873116 -0.076689154 0.073122226 0.05079511 -0.04895235
0.059242684 0.059779454 -0.0887429 -0.12600097 -0.0059272037 -0.09423213 0.07487485 -0.06984694
-0.078563124 0.032493714 -0.12762637 0.08199292 -0.15174344 -0.16896 -0.06423543 -0.16215126
0.0629086 -0.08899221 -0.10065554 0.013085414 -0.015234266 -0.19381608 -0.098837465 -0.0689375
0.07302933 -0.25609186 0.1543763 0.052253842 -0.009888637 0.023425836 0.020727621 -0.040836647
-0.034183532 -0.010426725 0.011175232 0.026176177 -0.13353932 -0.016780706 -0.020369204 -0.09499186
-0.038026787 0.02828789 0.03870309 -0.08217453 -0.14184825 -0.12603949 0.014489284 -0.018691145
-0.08092219 0.0001273882 0.48554474 -0.02374845 -0.033387206 -0.030660324 -0.18129872 0.033356637
-0.08869564 0.14740346 -0.13984977 -0.09725738 0.04024217 0.0366266 0.079281546 0.035614062
0.09392028 -0.017442578 0.14135872 0.048637033 -0.07668193 0.022307793 -0.03233103 -0.03719176
0.053196725 -0.005774178 -0.13897309 -0.0025732864 -0.11014905 -0.07627848 0.048227776 0.37264648
-0.09641035 0.11102355 -0.15356068 0.060488008 -0.10066303 0.08926783 0.029900987 0.011647799
-0.059294358 0.0042011845 -0.19385771 0.06958075 -0.13796636 -0.061857454 0.07898424 -0.042401772
-0.1274038 0.0058173835 0.040155355 -0.09256717 -0.06218146 -0.057444792 -0.105815 -0.06823087
-0.078125335 -0.22165711 -0.044410434 -0.28655306 -0.00050039013 -0.13965444 -0.12220192 0.075883664
0.053229857 -0.06926608 -0.16528194 0.10262544 -0.1088238 0.04937738 -0.03421027 -0.003693282
00000000: 8b05 8bbd d953 1c3e 6063 4fbd b043 f8bb
00000010: a9ce 07bc 0f7d 903c 945c 923d 6ee3 9abb
00000020: b250 5a3c 620a 2d3e e933 20be efc4 3cbd
00000030: 9502 11be b596 733d 6095 27be 8712 d43c
00000040: ed2e a13c c6f3 9a3d 27f4 153f 8dc0 b63c
00000050: c6c6 04be 843c f7bd c828 c6bd 783d 3fbe
00000060: 8a49 133d c043 43be 1826 51bd f572 8a3d
00000070: 768a 573c f078 48be 291c fdbd 1e9c 983d
00000080: 7694 07bd 64b1 67bd 6c34 a93c e060 9ebd
00000090: 0a28 05bd 4075 343d f947 dcbd 8de1 e3bc
000000a0: 14b4 263d 2218 4c3d add0 99bd 6de6 703c
000000b0: c675 493c 64bd eabc a26f 94bd ec0d c1bd
000000c0: 6953 0cbc 9d25 9d3d ba11 2c3e 9bb8 64bd
000000d0: 4347 d4bd c954 3dbc da37 01bd 3ed9 b33d
000000e0: 8390 1cbe 34f7 28be 0dcb 90be 4f51 e63d
000000f0: a21d fa3c 6f8d 01bb 27b3 8fbd eefb 93bd
00000100: 9d11 1d3e ebe4 ba3e 5b1e f63d 405e 123f
00000110: 8045 683e 9a7d c4bb 4f79 c7bd 5387 943c
00000120: e4fa c7bc 2f29 d5bc 6e0b 983c 0ccc 003b
00000130: ffda 85bd 8649 8fbd 31c5 1fbd e986 553c
00000140: 8270 6c3c 1d11 cebd dd3d e2bd df78 5d3d
00000150: 2ed8 423d 5ae4 843c 664b 4b3d fd1a 57be
00000160: 0d2b 86bd 17ca 10be 94b8 8dbd bd27 be3d
00000170: 2ad3 0dbe 1792 80bd b9a3 06bd d8b3 733d
00000180: b751 883d 34c5 4f3c ac5b f03d 03c5 ebbd
00000190: 3e2c ecbc c01a 19be 7934 93bd c57a c5bd
000001a0: e8b8 47bd 5a4b 67bd 2bf2 5cbc 7531 67bc
000001b0: f3d7 dcbd dde1 343d e82b cabd 7552 723d
000001c0: 3906 95bd e821 9f3d 69c9 aebd 045d 7b3e
000001d0: 9e2d a0bc 6ffa 67be ad78 373e ecc9 b23d
000001e0: f021 8a3e 822c afbd 370e 22be 2f5c 26bc
000001f0: 35cd 2ebe 0211 e0bb 685e 56bd 438d 4d3e
00000200: 8afa dabd e9e6 4cbe 51c4 0dbc 7ce8 863d
00000210: 340f 9dbd 1bc1 953d 890e 503d 4282 48bd
00000220: 75a8 723d 4ddb 743d d6be b5bd 6606 01be
00000230: fd38 c2bb c6fc c0bd fc57 993d ea0b 8fbd
00000240: b4e5 a0bd 2118 053d 7db0 02be e7eb a73d
00000250: a262 1bbe da03 2dbe dd8d 83bd fb0a 26be
00000260: 39d6 803d 8c41 b6bd 7e24 cebd 3464 563c
00000270: 2599 79bc b977 46be 4c6b cabd 1b2f 8dbd
00000280: 6790 953d 791e 83be d214 1e3e 2008 563d
00000290: f303 22bc 8ae7 bf3c f9cc a93c 5444 27bd
000002a0: 0804 0cbd dbd4 2abc 5218 373c 6c6f d63c
000002b0: 88be 08be b177 89bc 51dd a6bc 188b c2bd
000002c0: fac1 1bbd 01bc e73c 2287 1e3d 1f4b a8bd
000002d0: ab40 11be 7f10 01be 7664 6d3c 2c1e 99bc
000002e0: 88ba a5bd 8293 0539 5299 f83e 1c8c c2bc
000002f0: 06c1 08bd 5c2b fbbc 5fa6 39be f8a0 083d
00000300: 0fa6 b5bd eff0 163e c734 0fbe e12e c7bd
00000310: f9d4 243d c605 163d 5d5e a23d 0de0 113d
00000320: 4759 c03d bde3 8ebc 57c0 103e a037 473d
00000330: 6a0b 9dbd d5be b63c 8b6d 04bd 6356 18bd
00000340: cfe4 593d 5135 bdbb f64e 0ebe 95a4 28bb
00000350: d395 e1bd e437 9cbd 7d8a 453d 85cb be3e
00000360: ca72 c5bd 5160 e33d 033f 1dbe 46c2 773d
00000370: 6b28 cebd 0dd2 b63d eaf2 f43c 69d6 3e3c
00000380: a4de 72bd 17aa 893b a382 46be 5a80 8e3d
00000390: 0e47 0dbe 3e5e 7dbd 7dc2 a13d 7bad 2dbd
000003a0: 2476 02be c09f be3b f179 243d db93 bdbd
000003b0: fdb1 7ebd 3b4b 6bbd 89b5 d8bd a0bc 8bbd
000003c0: 2d00 a0bd 15fa 62be b7e7 35bd 15b7 92be
000003d0: 9d2c 03ba 9301 0fbe 0045 fabd e568 9b3d
000003e0: 8d07 5a3d 60db 8dbd ab3f 29be 492d d23d
000003f0: 03df debd f03f 4a3d 1120 0cbd fd0a 72bb

lstm.bias_hh_l0 f4 [512]
-0.008577438 0.13847482 0.029368194 0.0624756 -0.014567962 -0.03209144 -0.08710325 0.018520627
-0.040570404 0.1667522 -0.084927194 0.07120604 -0.16821712 -0.10079846 -0.06841636 -0.04375723
-0.03182273 -0.06689765 0.5898963 0.013955807 -0.18517657 -0.10271134 -0.15488112 -0.19653586
-0.0699552 -0.09173016 -0.09912601 -0.07409347 -0.00056212593 -0.17838357 -0.116149224 0.036633275
0.03523505 -0.08774438 0.03200006 0.008395845 0.046045527 -0.004475047 -0.04814792 -0.050230924
0.043788176 -0.0456963 0.04037804 -0.01154204 -0.09943431 0.053109743 -0.11608967 -0.053144917
0.0055342237 0.07220753 0.30005747 -0.041129965 -0.16626735 -0.02659267 0.06653269 0.19746512
-0.15496081 -0.16551147 -0.14583921 0.07678623 -0.041767813 0.024890726 -0.10099413 -0.054361116
0.15054692 0.24724416 0.0786017 0.53544307 0.283344 0.088414945 -0.098053165 0.041697606
-0.15219739 -0.08469872 0.054115586 -0.04317239 -0.05343681 -0.020521067 0.05070797 -0.058798455
0.022157801 -0.010101119 -0.052410576 -0.07606866 0.00902838 0.051438704 0.10804113 -0.15963092
-0.004873575 -0.08687048 -0.047625843 -0.009103005 -0.09310813 -0.049419113 -0.015132609 0.10183428
0.0575227 -0.040552765 0.12037631 -0.0801912 -0.09148364 -0.14363027 0.043792944 -0.17463353
-0.1338 -0.051301386 -0.10061914 -0.10824912 -0.047207143 -0.021829 -0.06274353 0.029845536
0.058395013 0.0004998603 0.02342289 0.3024828 0.01185248 -0.22224681 0.13160473 0.015878959
0.19144578 0.037663538 -0.3167145 -0.10283678 -0.07217269 0.05964371 -0.13923204 0.14782827
0.020055678 -0.24362208 0.018219877 -0.084361576 0.042373095 0.103704266 0.08569159 -0.045302164
-0.1056963 0.038293462 0.00076151575 -0.055908512 -0.018462395 0.017731313 -0.04383367 0.012165792
0.021358019 -0.013031656 -0.14896658 0.08054749 -0.090497755 -0.22470851 -0.18858798 -0.052481122
-0.08797946 -0.21818921 -0.02299918 -0.067556344 -0.009830255 -0.1454427 -0.088744484 -0.08894349
0.117055826 -0.13910285 0.06180909 -0.070429035 0.001833339 -0.059254635 0.06953614 0.07589457
-0.02794196 0.048732415 -0.08605887 -0.04812046 -0.13230196 -0.017698174 0.05554969 -0.0712773
0.05982683 -0.033345472 0.021228965 -0.095866226 -0.11923063 -0.112983584 0.010974389 0.1135121
-0.13286869 -0.04025933 0.42175263 0.053288884 0.03623996 -0.0980428 -0.15784855 0.056412436
0.009096854 0.08091238 -0.1696097 -0.007309635 0.05933642 -0.009879778 -0.0041757706 0.018140139
-0.031572085 0.076101646 0.13414316 -0.010199876 -0.049446065 -0.032835327 0.040072136 -0.03987924
0.048003234 -0.056918405 -0.08815337 -0.09709776 -0.22740485 0.02465194 0.04239803 0.35433802
-0.061193343 0.09300717 -0.086611554 0.07002467 -0.13387546 0.015625479 -0.034533564 0.08385863
-0.041955426 0.0099544935 -0.1839321 -0.0030642457 -0.14418614 -0.17095622 -0.021883365 -0.13235462
-0.23318538 -0.071268395 -0.04434316 -0.029000616 -0.1895198 -0.12519783 -0.1438977 -0.13010181
-0.091900416 -0.21702477 -0.023598613 -0.23777159 -0.056381423 -0.28733104 -0.23296858 -0.0517013
0.042899955 0.051060487 -0.14701855 0.069156684 -0.15448695 0.07956465 0.077216186 0.05714778
00000000: 6288 0cbc 58cc 0d3e 9195 f03c 6ae6 7f3d
00000010: 76ae 6ebc 5072 03bd 3063 b2bd 92b8 973c
00000020: 272d 26bd 17c1 2a3e 4fee adbd 79d4 913d
00000030: 1c41 2cbe 6c6f cebd e01d 8cbd c83a 33bd
00000040: 8d58 02bd a301 89bd 7203 173f e6a6 643c
00000050: ed9e 3dbe 535a d2bd 2899 1ebe b240 49be
00000060: ac44 8fbd 06dd bbbd 9402 cbbd 51be 97bd
00000070: a25b 13ba 2faa 36be a5df edbd c60c 163d
00000080: a152 103d 53b3 b3bd 7f12 033d ba8e 093c
00000090: 3c9a 3c3d 6aa3 92bb c136 45bd f1be 4dbd
000000a0: 3b5b 333d 0b2c 3bbd 7263 253d d31a 3dbc
000000b0: 37a4 cbbd 9a89 593d 6cc0 edbd 7cae 59bd
000000c0: 6f58 b53b 8be1 933d 22a1 993e e577 28bd
000000d0: fd41 2abe dfd8 d9bc 4a42 883d 4c34 4a3e
000000e0: 0cae 1ebe d77b 29be e056 15be 1942 9d3d
000000f0: ba14 2bbd a3e7 cb3c 03d6 cebd c3a9 5ebd
00000100: f928 1a3e 932d 7d3e eef9 a03d cc12 093f
00000110: 7712 913e e512 b53d 19d0 c8bd 1ccb 2a3d
00000120: a2d9 1bbe 8676 adbd 4ea8 5d3d 88d5 30bd
00000130: 8ee0 5abd cc1b a8bc 29b3 4f3d a6d6 70bd
00000140: 4784 b53c 2a7f 25bc 79ac 56bd e3c9 9bbd
00000150: c5eb 133c 64b1 523d ab44 dd3d 4a76 23be
00000160: 83b2 9fbb 26e9 b1bd 5113 43bd c524 15bc
00000170: 7aaf bebd b26b 4abd c3ee 77bc 7e8e d03d
00000180: ec9c 6b3d a81a 26bd db87 f63d 493b a4bd
00000190: c65b bbbd d013 13be 3b60 333d 22d3 32be
000001a0: de02 09be 6721 52bd 6811 cebd b7b1 ddbd
000001b0: 475c 41bd bbd2 b2bc ae7f 80bd a07e f43c
000001c0: 9c2f 6f3d 0f09 033a 5ce1 bf3c 07df 9a3e
000001d0: e730 423c ab94 63be 64c3 063e 9714 823c
000001e0: 5d0a 443e 1545 1a3d 6728 a2be 179c d2bd
000001f0: 46cf 93bd f64c 743d d892 0ebe 4b60 173e
00000200: ce4b a43c 1178 79be da41 953c c3c5 acbd
00000210: 698f 2d3d e762 d43d 137f af3d c38e 39bd
00000220: 4d77 d8bd 9bd9 1c3d 75a0 473a 5300 65bd
00000230: 733e 97bc 4241 913c ef8a 33bd 0853 473c
00000240: 03f7 ae3c ba82 55bc b28a 18be 15f6 a43d
00000250: e356 b9bd fd19 66be 351d 41be 72f6 56bd
00000260: 932e b4bd fe6c 5fbe c768 bcbc fb5a 8abd
00000270: 140f 21bc eeee 14be abbf b5bd 0128 b6bd
00000280: f7ba ef3d fa70 0ebe 872b 7d3d 193d 90bd
00000290: a64c f03a fdb4 72bd f768 8e3d 9d6e 9b3d
000002a0: 8ae6 e4bc a49b 473d a23f b0bd f619 45bd
000002b0: 2a7a 07be c3fb 90bc 1288 633d d5f9 91bd
000002c0: fa0c 753d 4395 08bd 5ee8 ad3c 8355 c4bd
000002d0: 302f f4bd f063 e7bd eccd 333c 0879 e83d
000002e0: bb0e 08be f8e6 24bd f6ef d73e 7245 5a3d
000002f0: 5a70 143d aaca c8bd 0da3 21be ba10 673d
00000300: f90a 153c 64b5 a53d 2aae 2dbe aa85 efbb
00000310: bf0a 733d cbde 21bc e7d4 88bb a19a 943c
00000320: bb51 01bd 2edb 9b3d d35c 093e 611d 27bc
00000330: f587 4abd 567e 06bd ae22 243d 6a58 23bd
00000340: 0a9f 443d 4623 69bd c189 b4bd 31db c6bd
00000350: d1dc 68be def2 c93c 8fa9 2d3d cb6b b53e
00000360: dfa5 7abd 8b7a be3d 6661 b1bd 1869 8f3d
00000370: a616 09be 0101 803c 1173 0dbd 13be ab3d
00000380: 74d9 2bbd 2c18 233c b258 3cbe 83d1 48bb
00000390: 88a5 13be 260f 2fbe be44 b3bc f887 07be
000003a0: 26c8 6ebe 2af5 91bd 2ca1 35bd b392 edbc
000003b0: 7a11 42be dc33 00be eb59 13be 6939 05be
000003c0: 4936 bcbd be3b 5ebe e151 c1bc 657a 73be
000003d0: 35f0 66bd 0e1d 93be 518f 6ebe bec4 53bd
000003e0: ddb7 2f3d cd24 513d 088c 16be 05a2 8d3d
000003f0: d431 1ebe cbf2 a23d 8523 9e3d ca13 6a3d

fc.weight f4 [4, 128]
-0.039012015 0.23823285 0.041303866 -0.07620369 0.061598133 0.009221504 -0.057865553 -0.05785964
-0.11635799 -0.11512903 0.03799 -0.015312652 -0.039592825 -0.07766103 0.031090915 0.17279923
-0.05553471 -0.15260938 -0.011364838 0.014102139 -0.0045395433 -0.027010048 0.10680013 -0.06589905
0.13329303 0.008887794 0.12701513 -0.14487918 -0.15657265 -0.06849408 -0.10739303 0.10507832
0.0818222 -0.1662578 0.040597577 0.07493665 0.13455223 -0.09706299 0.026184943 -0.029085469
0.13128923 0.16673975 -0.12913682 0.0530876 -0.05597801 0.017497279 0.14208612 -0.07109301
-0.12938951 -0.19406307 0.22199559 0.10674909 -0.009715373 0.15709862 -0.1028239 -0.1268909
0.09181714 -0.04876766 0.10725777 -0.10829181 0.059035663 -0.016083663 0.1542144 -0.07849923
-0.019958861 -0.020550616 0.25824618 0.036524862 0.13098782 0.09014698 -0.03828011 -0.01957618
-0.11780893 -0.00897278 0.12437628 0.1196862 0.035223253 -0.067761555 0.053081114 0.07997385
-0.119317226 0.009006399 -0.01816564 -0.0012816004 0.28643405 -0.051766854 -0.06590376 -0.05934045
-0.008416452 -0.08397787 -0.09468778 -0.1269323 0.05759207 -0.029432083 0.21025585 0.13205537
-0.053943407 -0.083966814 -0.15543427 0.0357284 -0.025464145 -0.036400672 -0.04565279 -0.08704647
-0.10996712 -0.16671345 0.16458182 -0.03421343 0.08787556 0.033084232 -0.07231526 -0.019300468
0.050402254 0.069567434 -0.15158947 0.7452495 0.001748314 0.13552278 0.42201146 -0.01812634
0.35515338 -0.09608386 -0.029538302 -0.036493134 -0.09229301 0.01601419 0.044712164 0.07711512
-0.11687722 -0.20161983 0.03946901 -0.1022106 -0.10816246 0.109442875 -0.07365895 -0.07417778
-0.17162871 0.080383435 -0.028722104 0.10791498 0.115196966 -0.13497652 0.050800703 0.06078877
-0.07994003 -0.14448114 0.0068412335 -0.049632773 0.024210623 0.0028661697 -0.12893698 -0.0014119418
0.04374033 0.044821255 -0.03361298 -0.0037932866 -0.15915483 -0.03709386 -0.004435253 0.07567297
-0.11932177 -0.09405863 0.039220266 0.13241264 0.034635324 -0.13680796 0.059170827 0.020630032
0.058708537 0.16832602 -0.11673028 0.106654055 -0.10914318 -0.058533944 0.07203065 0.0073066573
-0.17693993 -0.036977828 -0.072212055 0.14476365 -0.0015755775 0.04215647 -0.07165256 -0.044460915
-0.021115512 -0.13535863 0.04209877 -0.16319554 0.08931932 0.14141868 -0.10154393 -0.14445443
-0.09244797 -0.04436636 0.28989115 -0.06327231 -0.17542297 0.13657634 -0.16248696 -0.13987072
-0.003907109 -0.073899634 0.19929849 0.020600898 -0.022755072 -0.029464753 0.16002811 0.009760241
-0.107049346 0.027905155 -0.040151864 -0.10774217 0.13598418 -0.054514155 -0.025037259 -0.002005748
0.14253834 -0.112199225 0.14560348 -0.15716682 0.054019738 -0.045639157 0.21724819 0.15075135
0.124932416 0.07178357 0.1259141 0.08690257 0.104119465 -0.065544285 -0.076515034 -0.10632799
-0.25244033 -0.0085472 -0.06490464 -0.012089299 -0.07250492 0.03359463 -0.00785206 -0.14155737
-0.15526702 -0.14679328 -0.101781 0.08913316 -0.14926653 0.011244935 -0.31220087 -0.071201526
-0.35312074 -0.07530492 -0.028264046 -0.028495425 -0.017406747 0.12210819 -0.046813414 0.122010835
00000000: 10cb 1fbd 50f3 733e 3e2e 293d ae10 9cbd
00000010: 534e 7c3d cb15 173c 6e04 6dbd 3bfe 6cbd
00000020: 194d eebd c5c8 ebbd 679b 1b3d ebe1 7abc
00000030: 162c 22bd bf0c 9fbd 60b2 fe3c 48f2 303e
00000040: 5d78 63bd a245 1cbe 9633 3abc a80c 673c
00000050: 73c0 94bb 2d44 ddbc 07ba da3d 15f6 86bd
00000060: f87d 083e 1c9e 113c 4110 023e 355b 14be
00000070: 9554 20be a046 8cbd e0f0 dbbd 4d33 d73d
00000080: 6692 a73d 7c3f 2abe a549 263d 6378 993d
00000090: 0fc8 093e f6c8 c6bd ce81 d63c a644 eebc
000000a0: af70 063e d3bd 2a3e 713c 04be 6272 593d
000000b0: 3349 65bd 7456 8f3c 067f 113e 3699 91bd
000000c0: af7e 04be 78b8 46be d052 633e 449f da3d
000000d0: 3a2d 1fbc 76de 203e 5695 d2bd b0ef 01be
000000e0: a00a bc3d 99c0 47bd f6a9 db3d 19c8 ddbd
000000f0: 61cf 713d e3c1 83bc 61ea 1d3e 34c4 a0bd
00000100: c480 a3bc c459 a8bc d838 843e 189b 153d
00000110: ac21 063e fb9e b83d 9bcb 1cbd 3a5e a0bc
00000120: cf45 f1bd 9102 13bc feb8 fe3d 0a1e f53d
00000130: 4246 103d 92c6 8abd 956b 593d 54c9 a33d
00000140: 975c f4bd 938f 133c 1cd0 94bc 60fb a7ba
00000150: 7ca7 923e 7b09 54bd 8df8 86bd f90e 73bd
00000160: 29e5 09bc 97fc abbd abeb c1bd 8afa 01be
00000170: aae5 6b3d 8d1b f1bc 4f4d 573e 8639 073e
00000180: c3f3 5cbd cbf6 abbd 292a 1fbe f157 123d
00000190: 2f9a d0bc df18 15bd 6cfe 3abd 6b45 b2bd
000001a0: 7136 e1bd eeb6 2abe 2388 283e 6223 0cbd
000001b0: 1af8 b33d 5583 073d 061a 94bd 041c 9ebc
000001c0: 9872 4e3d 5f79 8e3d 453a 1bbe acc8 3e3f
000001d0: af27 e53a 7cc6 0a3e e311 d83e b17d 94bc
000001e0: aad6 b53e 9dc7 c4bd 4ffa f1bc d379 15bd
000001f0: 1e04 bdbd 3130 833c 1a24 373d 88ee 9d3d
00000200: 535d efbd 6e75 4ebe 42aa 213d cb53 d1bd
00000210: 4884 ddbd 9623 e03d 81da 96bd 85ea 97bd
00000220: 70bf 2fbe 12a0 a43d 9e4a ebbc 8702 dd3d
00000230: 63ec eb3d 4937 0abe 6614 503d a5fd 783d
00000240: 99b7 a3bd ddf2 13be 6d2c e03b bc4b 4bbd
00000250: 5b55 c63c 59d6 3b3b 0e08 04be e810 b9ba
00000260: 0f29 333d 7e96 373d c4ad 09bd ca98 78bb
00000270: 7cf9 22be bbef 17bd 9955 91bb 6efa 9a3d
00000280: f95e f4bd d0a1 c0bd 6ea5 203d 2e97 073e
00000290: c5dd 0d3d 6317 0cbe 1c5d 723d 5000 a93c
000002a0: 5d78 703d a85d 2c3e 4910 efbd 716d da3d
000002b0: 7686 dfbd 4ac1 6fbd ce84 933d af6c ef3b
000002c0: be2f 35be 1076 17bd eae3 93bd ec3c 143e
000002d0: 9c83 ceba 43ac 2c3d 94be 92bd a61c 36bd
000002e0: 70fa acbc 749b 0abe c36f 2c3d bb1c 27be
000002f0: 0ced b63d 0fd0 103e 44f6 cfbd ddeb 13be
00000300: 5c55 bdbd 80b9 35bd 9d6c 943e ea94 81bd
00000310: 14a2 33be abda 0b3e fb62 26be 453a 0fbe
00000320: 3507 80bb b158 97bd e714 4c3e 37c3 a83c
00000330: d868 babc 1160 f1bc 69de 233e 6be9 1f3c
00000340: b03c dbbd 5a99 e43c 4876 24bd eda7 dcbd
00000350: 703f 0b3e 3c4a 5fbd f01a cdbc de72 03bb
00000360: 92f5 113e b5c8 e5bd 1419 153e 57f0 20be
00000370: cd43 5d3d 20f0 3abd 4f76 5e3e 905e 1a3e
00000380: 91dc ff3d 4403 933d a0ef 003e faf9 b13d
00000390: 963c d53d 153c 86bd eab3 9cbd 7dc2 d9bd
000003a0: dc3f 81be 8e09 0cbc b9ec 84bd 3212 46bc
000003b0: 767d 94bd 869a 093d eda5 00bc 6af4 10be
000003c0: 51fe 1ebe fa50 16be 8f72 d0bd 728b b63d
000003d0: 53d9 18be ad3c 383c cbd8 9fbe 1bd2 91bd
000003e0: 3ecc b4be 7739 9abd 008a e7bc 3d6f e9bc
000003f0: 9898 8ebc dc13 fa3d 6cbf 3fbd d1e0 f93d

fc.bias f4 [4]
0.21334688 0.119726606 0.21373235 0.17940217
00000000: 9b77 5a3e 3933 f53d a7dc 5a3e 34b5 373e
