lstm_hdim_128_wsize_20_interval_7_nlayers_1_bs_512_lr_0.01_decay_0.95_epoch_12.pt (torch, 277987 bytes, 6 tensors)

lstm.weight_ih_l0 f4 [512, 4]
00000000: 6fbf 05bc 9b26 cebb c1db 60bd 9741 bd3d
00000010: bd96 e8be f87e a03e 7887 e4be c051 e83d
00000020: e6fe 253d 08f7 873d 7b03 b53d da1c db3d
00000030: 497d 01bd 9e43 563d 5bf2 fe3d a2d3 21be
00000040: 8d10 5b3d 4aac 30bd 9056 bebb dc1b b73d
00000050: e847 17bd c7bc 7a3d 32d7 dc3d abb8 2a3e
00000060: 8c37 83bb 6d64 bebc bd32 e23d 25c8 663a
00000070: a7a1 bb3c c07a 50bd eb0e 6ebc 2ade 863c
00000080: 73aa 0e3e cea4 213e d234 e0bd a1a6 85bd
00000090: b80a 0fbf a588 483e 6f00 22bf 0b3b 5d3d
000000a0: 83c6 32be 00fd 2abe d056 a5bd 5a34 f3bd
000000b0: 15c9 91bd cc3c e5bc 3d46 c53d 7a81 b93d
000000c0: 2cce 2dbe 5860 82bd c375 5cbf d623 6abf
000000d0: 9443 8ebc 7b9e ca3d 16bf 2b3b 6e5d 8dbd
000000e0: e72b 3cbe 0c5f 333e 9c38 373d db01 93be
000000f0: 0e6e 2d3e bd1f d7bc f96b 25be b7bc fb3d
00000100: eb42 e33d 76b0 6cbc 2bed 1a3d f739 11be
00000110: f73d 063e 2991 de3d 0280 253e ff61 573c
00000120: fa79 933e 7f5d 1b3f e1fe a7c0 a0d1 ecbf
00000130: b12b d9bd 1b38 03be 6158 523f 2e2e fa3f
00000140: 7b38 1bbe 6437 07be 2093 9bbc dc0b 44be
00000150: 6f4c 4dbd 416e 46bd 2a5d 21bf bca2 cfbe
00000160: 8f33 8fbe 2fbb 813d 820e babb b5a3 183e
00000170: 83a9 e5bd 9783 26be 3d52 3c3d f0aa 36be
00000180: 5051 003e cc3a 11bd 89c4 b5bd 8662 f63d
00000190: e8e7 bd3d 4122 9d3c 4c08 793e be80 2a3f
000001a0: 4267 c23d 301f 8dbd 4622 033c 89db 063d
000001b0: d237 843e fdfd 2ebd 609c 49bd e932 f5bd
000001c0: 3cd6 9c3d 401e 063e 6ffc 883d 7492 6c3d
000001d0: 9875 61bd 3d84 3abe 575d 8bbe 0575 cabd
000001e0: 248f 1e3e 71de 98bc db87 233e 7505 a03d
000001f0: eb30 8f3d bc27 ba3c ad6d 853c 135a c63d
00000200: 0729 643d d81d 9e3d 60ab d93d 6c33 62bd
00000210: 486d 743e 540c 32bd 2683 0fbe 8c3d 95be
00000220: bb3d 133a 846e 08be 3375 13be 319f 08bf
00000230: b672 fabb d3e6 f13c b886 423d 4f48 123c
00000240: c020 303e cf6d 883c 27ab 013d e1a4 4b3c
00000250: 8bb5 7b3d c1e5 0e3e 9cf2 6c3e 2f08 903d
00000260: 4a23 093d 7b60 063d 2879 f73c 04cd 003e
00000270: 7b09 0bbd 2b9f 693d f478 753d a999 e5bd
00000280: 3898 f53d bc8c 2cbd 39ce 8bbe 1fe4 a23d
00000290: 9ac4 243e 7d1a 3a3e 3b6e dd3d ea75 b93d
000002a0: 3083 a63d be05 e03d 3d74 973d 3a5f a3bc
000002b0: ea9a 7e3c 1b98 613d f2e2 953d 484f c4bc
000002c0: e7da 3cbe 9cdc c63c 4afd f4bd d697 97be
000002d0: 331f 05bf 6392 033e 15f9 e03e 91cd 77bf
000002e0: 5831 de3d a4ae 4e3d 77fe d5bc 1104 ce3d
000002f0: 4860 df3d bc9e 1dbe a1d9 36bd 7cf9 afbd
00000300: 2bc8 113e 1495 3c3e 8e94 0ebe 3a56 2c3d
00000310: acad a23e 0e5a c7bd 1c4d fd3d ea84 e43d
00000320: 207b 803e 96d4 983e 6ff3 e73e 95d6 d4be
00000330: d1d4 70bd 4437 e43d ebf3 20bf fd7e 8ebe
00000340: 66df 76be 0ade 94be 0299 343e 7bc4 b440
00000350: 3bde ba3b 9804 e7bc 00f1 99be 14b2 a2be
00000360: 6412 c33d e0e7 cf3c 4b56 4ebe 9233 c73d
00000370: 0ead 693e 5401 513e 362a d83f 8eae 813f
00000380: b598 21bd 407c 4abe 8f11 283d f981 44be
00000390: 9d05 62be a413 1d3e 63ce cabd 3a05 f1bd
000003a0: b810 9abe 4ab0 37be 2e7a c9bd 17fa babd
000003b0: 518a 973d 029a 163e 1344 a5bd 1e5e acbd
000003c0: b724 503d fb2a bebd 62ea b8bd d125 d43d
000003d0: 5101 b1bc 9079 3c3e 6fd8 1738 c78b 2f3e
000003e0: f1ca f8be 3592 fabc 8260 ec3e ef02 dc3c
000003f0: fe39 8bbc d6b1 b33d 355c 0f3e 0c53 0bbb
-0.008163317 -0.006291223 -0.054897074 0.09241026 -0.45427504 0.3134687 -0.44634604 0.113437176
0.040526293 0.06638914 0.088385545 0.106988624 -0.03161362 0.05231058 0.124485694 -0.15803388
0.05348258 -0.043133058 -0.005808659 0.08940861 -0.03693381 0.06121519 0.10783233 0.16672008
-0.0040044244 -0.023241246 0.11044834 0.00088036276 0.02290423 -0.050898314 -0.014529924 0.016463358
0.13932209 0.15785524 -0.10947575 -0.065259226 -0.5587573 0.19583376 -0.6328191 0.054011386
-0.17458539 -0.16698074 -0.08073199 -0.1187522 -0.071184315 -0.027983092 0.096325375 0.09057899
-0.1697318 -0.06366032 -0.8611719 -0.9146093 -0.017366208 0.09893509 0.0026206425 -0.06902586
-0.18376122 0.17516726 0.04473172 -0.28712353 0.16936514 -0.026260251 -0.1615447 0.12291854
0.11096748 -0.014446368 0.037823837 -0.14182268 0.13109575 0.10867531 0.16162112 0.013145923
0.28803998 0.6068954 -5.249863 -1.8501472 -0.106040366 -0.12814371 0.82166106 1.9545343
-0.15158264 -0.13204724 -0.018991053 -0.19145149 -0.05012172 -0.04844499 -0.6303278 -0.40553844
-0.27969024 0.063345306 -0.005677999 0.149062 -0.112139724 -0.16261135 0.045976866 -0.17838645
0.12531018 -0.035456464 -0.08875377 0.120305106 0.09272748 0.019181373 0.24319571 0.66602695
0.09492351 -0.06890714 0.008003777 0.03292421 0.25823838 -0.04272269 -0.049221396 -0.11972601
0.076580495 0.13097477 0.06688773 0.057756856 -0.055043787 -0.18214507 -0.2721965 -0.09885601
0.15484291 -0.018660756 0.15969793 0.07813541 0.06991752 0.022724025 0.016287649 0.09685149
0.05570319 0.07720536 0.1062839 -0.05522482 0.23869812 -0.04346879 -0.14014873 -0.2914852
0.00056168035 -0.13323408 -0.14400177 -0.53367907 -0.007643069 0.02952901 0.04749176 0.0089283725
0.17199993 0.016653923 0.031657364 0.012429447 0.06145243 0.13954832 0.23139423 0.07032811
0.03348092 0.032806855 0.030209139 0.12578207 -0.03394459 0.05703656 0.059929803 -0.11210949
0.11991924 -0.042126402 -0.27305773 0.07953667 0.16090623 0.18174167 0.108120404 0.090556934
0.08130491 0.10938595 0.073952176 -0.019942869 0.015539864 0.0550767 0.07318677 -0.023963585
-0.1844288 0.024275117 -0.119623736 -0.2960803 -0.5200073 0.12848811 0.43940035 -0.96798044
0.10849255 0.05045952 -0.026122315 0.10059369 0.10907036 -0.15392584 -0.04464114 -0.08592507
0.14236514 0.18416244 -0.13923857 0.04207442 0.31773126 -0.097339734 0.12368223 0.11158164
0.25093937 0.2984969 0.45302913 -0.41569963 -0.058796708 0.111433536 -0.6287219 -0.2783126
-0.24108657 -0.29075652 0.17636493 5.6489844 0.0057027615 -0.028200433 -0.3006668 -0.31776488
0.09524992 0.025379121 -0.20150106 0.09726633 0.22819921 0.20410663 1.6887882 1.0131395
-0.039452273 -0.1977396 0.04103237 -0.19190206 -0.22072454 0.15339524 -0.099026464 -0.11768575
-0.3009088 -0.17938343 -0.09837757 -0.09129732 0.07399429 0.14707187 -0.08069625 -0.08416389
0.050816264 -0.092855416 -0.0902908 0.103587754 -0.021607073 0.18405747 3.6202775e-05 0.17143165
-0.48592332 -0.030587295 0.4616738 0.026856868 -0.016995426 0.08774154 0.14000018 -0.0021259217

lstm.weight_hh_l0 f4 [512, 128]
00000000: 10f7 2ebd 9867 29be d1ad e53a fd76 a83d
00000010: d787 9d3d 52c0 d2bc 7abe 56bd 5ebf 883d
00000020: 5d5f 48bd a83f 533d 93a9 0bbd 3226 98bd
00000030: 0bbc 3a3d 793c f23d eb2d 3b3d 5616 edbd
00000040: f243 903d 43fb fe3d 145d 3ebb 2ebf 333d
00000050: 06d3 0c3e 1d5a c7bd e0cb 6f3d 5cf1 30bd
00000060: 9f38 30bd f1c9 45bd 0cd4 8cbd f4b3 c5bb
00000070: ea01 7fbb 611f 553d 799b edb9 166a 5a3d
00000080: 335e 443d 111a 7ebd 2341 23bd 47f4 26bb
00000090: 5970 ce3b a548 ae3d ee2a 9b3b 2d9c 24bb
000000a0: 7c6e 89bd 97c7 503d cf08 ba3c 7a5c 80bd
000000b0: 6a78 163d 7363 8ebd 925e 61bd dade 483c
000000c0: 44ef 293d 4497 a03d 3f4f 9ebd bf8c d0bd
000000d0: d5f8 913d 5317 9e3d b333 2bbd d06c a9bd
000000e0: 9272 f0bc a337 7a3d 83ee f53d 88c5 2b3d
000000f0: c15e fbbd 31ac 493d 4162 efbd adbf 263d
00000100: 8baf bebd 7e08 7dbe 2bbe c03a 6ff0 563e
00000110: 752c cc3d 44ec da3c 59c5 fb3d 3fea d63d
00000120: f13c 2bbd 720b f83c 014b 073d 2b7a f8bd
00000130: 93e7 403c ba81 69bb bb90 c4bc 14d0 eebd
00000140: 43be 4a3c 0685 67bd 3c97 c2bc dd98 eb3d
00000150: 88ba 18bd 36e5 d13d 6852 cbbc 3564 e53c
00000160: df45 51bd 144d ef3d aa13 763d d1e2 833d
00000170: b8e8 d039 a8ea cb3d c2f1 b8bd 3474 6a3b
00000180: 1cfd 92bc 483b 973c 3e49 07bd bc20 bdbc
00000190: 0a8e c0bb 884e b43c 9263 c7bd 1f71 9f3c
000001a0: 65b4 17bd dbd0 ca3d ffca 5ebd 70d1 6c3d
000001b0: 4d74 e73d 16ae 00be 9031 c2bd 7e2b ecbd
000001c0: bdfc f73c 9ee8 db3b 2fd7 e63d f8b3 cabd
000001d0: 5e9f ba3c 644e 933d 0e51 c33d 2221 433d
000001e0: 1855 163d 36b6 e93d 2755 703d 5cbf 9abc
000001f0: de19 c5bd f245 b53d 93c1 ed3c ed05 843e
00000200: 3e74 613e 553f 873d 148a 16be d21b 323e
00000210: 3514 083e 65c6 40be 5e56 913e e4cc 6d3e
00000220: e7a0 713e 32bb 65be 12a7 06be 30a8 23be
00000230: c236 9cbe a706 653e c856 f7bd c915 59be
00000240: 93ed 993e 94c1 903e ccd7 8abe e003 fa3e
00000250: 40db 40bb e78c e13d 0c0d 483d 51cc 34bd
00000260: 07a4 84be aed8 e03d 040e 29be 1829 a63e
00000270: 481d 9a3e d36f 3e3e 029c 313e 2edc 81be
00000280: 521d aabe 16be 453e e064 8dbe 7840 67be
00000290: 8821 50be 74df b03e feac 59be 4539 bbbe
000002a0: 79ec 7cbe ca02 82be 6ae8 5e3e 9842 4bbe
000002b0: b488 473e 19b5 3d3d 37f0 69be e451 553e
000002c0: 7d64 653e 0078 a33e 2bbd 923e 625a a4be
000002d0: 1b6c d03e 2f0a 84bd 07d2 be3d 5f99 d3bd
000002e0: 282c d73d 49be 7f3e cf49 b1be cbb7 8f3e
000002f0: 9918 96be 01ca 5bbe c805 153f 28ab 463e
00000300: 4266 bfbe 22e2 213c 8dd5 dcbe ccd5 f0bd
00000310: 2fe7 333e acc6 3fbe 13e0 903e d175 3d3e
00000320: 5580 c53d 9ace cb3d f5d6 67be add9 89be
00000330: c6ae d03d 2459 133e 2d32 54be 877a 64be
00000340: 8ddc 763e 7c18 e63d d4a7 ebbd d220 283e
00000350: 6bf0 03bf aef9 2f3e df25 163e 08cc 17be
00000360: 3ad5 82be a26b 183f 6cff d4be 013f b63e
00000370: 4900 dabd 8d0e 3d3e ed87 95be d9fc b4be
00000380: 37df 54be 6641 143d 4583 41be 2015 46be
00000390: 4be5 ec3d c7ff a73d 35ae 5ebe bda6 983d
000003a0: f017 6d3e 69f4 9e3e c728 a23d 4901 373e
000003b0: 10e6 30bd d003 24bd 90a6 d93d 3570 173e
000003c0: 9924 853e d2c3 183e e1b2 c03e 969c 41bf
000003d0: e9bb 583e adbb ffbd 0595 183e 478e 933e
000003e0: fe42 dbbe 3db8 643e 2c7e 633d ad11 58be
000003f0: b109 593e 3a8f cb3d 8687 65be 033c 47be
-0.042716086 -0.16543424 0.0017523115 0.0822582 0.07691925 -0.025726471 -0.052427746 0.066771254
-0.04891907 0.05157438 -0.034097265 -0.0742916 0.045589488 0.118279405 0.045698088 -0.11576526
0.070442095 0.12450268 -0.0029047178 0.043883495 0.13752374 -0.097339846 0.05854404 -0.04319893
-0.043022748 -0.04828829 -0.06876382 -0.006033415 -0.0038911053 0.05203188 -0.0004532 0.053323828
0.047941398 -0.062036578 -0.03985704 -0.002547519 0.006300014 0.085099496 0.004735342 -0.0025117502
-0.06710526 0.050971594 0.022709278 -0.062676385 0.03673593 -0.06952562 -0.05502183 0.012260163
0.041487947 0.07841352 -0.07729959 -0.10183095 0.07127539 0.077192925 -0.04179735 -0.082727075
-0.029351506 0.061088216 0.12008383 0.041936427 -0.12273932 0.04923648 -0.11688662 0.04071014
-0.09310826 -0.24710271 0.0014705112 0.20990156 0.09969417 0.026723988 0.122935005 0.10493898
-0.041806165 0.030278895 0.033030514 -0.12132677 0.011773962 -0.0035630302 -0.023994794 -0.116607815
0.0123744635 -0.056523345 -0.023753755 0.11503766 -0.037287265 0.10248797 -0.024819568 0.028001884
-0.051092025 0.11684623 0.060077347 0.06439746 0.0003984624 0.099568665 -0.09030487 0.003577483
-0.017942958 0.018460885 -0.033028834 -0.023086898 -0.0058763074 0.022010103 -0.097357884 0.01946312
-0.037037272 0.09903117 -0.05439281 0.057816923 0.113014795 -0.12566409 -0.094821095 -0.11531733
0.030271882 0.0067110797 0.11271512 -0.098976076 0.02278107 0.07192686 0.09536944 0.04763902
0.036702245 0.11411707 0.058674958 -0.018890075 -0.096240744 0.08851232 0.029022967 0.2578577
0.22016999 0.066038765 -0.1470111 0.17393425 0.13288958 -0.18825682 0.28386205 0.23222691
0.23596536 -0.2243469 -0.1314967 -0.15982127 -0.30510527 0.22365819 -0.12077099 -0.21199717
0.30064067 0.28272688 -0.27117765 0.4883108 -0.0029427558 0.11013203 0.048840567 -0.044140164
-0.25906393 0.10978828 -0.16509253 0.32453227 0.30100465 0.18597345 0.17344669 -0.25363296
-0.33225495 0.19310793 -0.27616024 -0.22583187 -0.20325291 0.3454548 -0.21257398 -0.3656713
-0.24699582 -0.25392753 0.21768346 -0.19849622 0.19485742 0.046315286 -0.22845541 0.2083202
0.22401614 0.3192749 0.2865995 -0.32100207 0.40707478 -0.06447255 0.09317403 -0.103319876
0.10506469 0.24974932 -0.34626624 0.2806991 -0.29315642 -0.21463777 0.58211946 0.19401228
-0.37382704 0.009880574 -0.43131676 -0.117595285 0.17568658 -0.18728131 0.28295955 0.18501975
0.09643618 0.099515155 -0.22640593 -0.26923886 0.101895854 0.14389473 -0.20722266 -0.22312365
0.24107571 0.11235139 -0.1150662 0.1641877 -0.51538724 0.17185089 0.14662884 -0.14823925
-0.25553304 0.59539235 -0.4160112 0.35594943 -0.10644586 0.18462582 -0.29205266 -0.35349157
-0.20788275 0.03619518 -0.18897732 -0.19343996 0.11567172 0.082030825 -0.21746142 0.07453678
0.23153663 0.31045845 0.07917934 0.17871584 -0.043188155 -0.0400427 0.106274724 0.14788897
0.26004484 0.1491845 0.37636474 -0.75629556 0.21165432 -0.12486968 0.14900596 0.28819486
-0.42824548 0.22335906 0.05554025 -0.21100493 0.21195103 0.09939428 -0.2241498 -0.19456486

lstm.bias_ih_l0 f4 [512]
00000000: b598 83bd 8934 ea3d bdb8 abbc ad0a 4e3c
00000010: 632b 49bc 9af9 293d af22 ac3d c4e1 623c
00000020: b913 d33c 512d 363e ff2b 0cbe 5a4d 81bd
00000030: 741f 1dbe 9c14 9a3d 250c 24be 141f 0c3d
00000040: 808b 403d 64c0 c23d 2f9e 0e3f b406 ac3d
00000050: 92cf eabd dfff 20be cf55 21bd ad26 26be
00000060: 8c76 533d 8c6e e6bd 9f14 cabc 5dbe 993d
00000070: a35b 003d 360a 46be 158b b4bd c892 bf3d
00000080: ae22 24bd 9c99 61bc 374a 89bd 4cd4 71bd
00000090: 02c8 b7bc 0f32 a63d 0197 b6bd 9dce c43a
000000a0: 432e 613d 9d70 9a3d ce14 8dbd b81c 1f3d
000000b0: af8d db3c 8808 00bd 280c 4bbd 0ef3 83bd
000000c0: 7fc0 b43c df07 b73d bc33 563e 1ce1 b1bc
000000d0: 27f3 1abe e84f 3ebc 02e1 18bd 93ba 403e
000000e0: 4c47 17be a2ef 0ebe 0112 68be 8d57 0a3e
000000f0: c8e2 473d 7f19 b53c e437 b1bc 7f5e 38bd
00000100: bc17 9e3d fe47 c23e dc7e c23d ffb5 0a3f
00000110: 6230 323e 9f8e 2d3c 7a03 9fbd b7f9 2b3d
00000120: 7783 ce3c fdd8 2a3d 86d1 2a3d 93f5 5b3c
00000130: 5433 96bd 501c 5abd d70b d6bc af17 c03c
00000140: 10c9 333d 9662 c8bd b43f c5bd f6ec 8b3d
00000150: e9b2 7e3d f52f d63c 086d 313d 3548 febd
00000160: 4a7a 2fbd 9955 bfbd e9ea 3abd 790a d93d
00000170: e60b 14bd 56f3 37bd cfc7 6ebc 8fbf af3d
00000180: 8dee 913d 6e86 113d c598 b53d c47f c2bd
00000190: c9cf 34bd f4e4 f4bd 4387 a5bd b9fe a9bd
000001a0: fb04 f9bc 566a 28bd cfba 073c d16b c4bb
000001b0: e06c febd cd73 03bc a841 9abd 51c9 223d
000001c0: fa6e 46bd 4928 883d 01c1 85bd 7aa3 783e
000001d0: 76f1 993b dd4a 17be 002a 2f3e b0b3 8e3d
000001e0: b2be 2f3e 06cd 9fbd 08e2 acbd dd32 163c
000001f0: 3344 21be 5a17 9abc 9552 17bd a5ec 883e
00000200: ddbe cebd a6c0 50be e8bc 143b 914f 903d
00000210: 0db4 91bd f4a3 9d3d e804 553d 5547 35bd
00000220: 0419 883d 6604 853d 93da a6bd 69db babd
00000230: d10b 57bd bfbb b7bd 0e9a 7a3d 8deb 86bd
00000240: fc3d 90bd bf22 2e3d 52fb e8bd 8ec6 063d
00000250: 6734 1abe 57a3 05be b32f 15bd f909 2dbe
00000260: 6e2e 983d 5a08 acbd 9081 c6bd 8250 a73c
00000270: 1235 eabb 3ea3 2fbe e0bb b4bd 31e8 77bd
00000280: ac15 a23d e49e 67be 0c18 1b3e 9f07 763d
00000290: 1099 553b 3454 243d fd3f ca3c 1c06 eebc
000002a0: 7e38 bdbc 7f40 36b8 2e83 a03c 683e 143d
000002b0: b88f 04be be97 063d 1443 6fbc a65a aebd
000002c0: 9c81 e9bc ba62 203d cc64 553d 6333 b2bd
000002d0: 191b 44be 6e94 03be b897 313d 2784 013b
000002e0: 9a4b 75bd f9df 063c e85a c33e bfd8 83bc
000002f0: 5ef2 dcbc 0347 9dbc a884 19be 94b1 213d
00000300: cc90 dbbd 3c9f 1a3e fce1 c1bd c466 adbd
00000310: 8a10 413d bbb0 2c3d ed58 a73d 63b4 3a3d
00000320: 24b1 c73d 9ded 5abc 5f24 093e fe52 803d
00000330: f4ee 92bd 3b7f 053d 32a3 ebbc 8fec 24bd
00000340: 7b37 793d c277 d4bc b50b debd 6725 db3b
00000350: 0bf0 a5bd 11d5 9dbd 56af 943d efea 983e
00000360: a939 acbd 4eca 963d 3b87 1ebe f3b1 7f3d
00000370: 4996 63bd 156e 8a3d 0cdf 1c3d c40f 943c
00000380: 3fd4 59bd f80a b13c 5c7c 0dbe 3a40 a13d
00000390: dbad ffbd ea61 fcbc 23aa 9a3d 6818 16bd
000003a0: 4d88 b9bd ba48 833c 07e9 003d 3e74 acbd
000003b0: d0e8 29bd e7ce 52bd 3a01 a0bd 9d7f 3cbd
000003c0: 154d 97bd 8053 68be 287d 01bd 3113 88be
000003d0: be2c 023c b998 9ebd 31f4 b9bd 04e0 443d
000003e0: 0d3a a93d 6624 87bd cf35 1abe bf4a 8a3d
000003f0: 45f3 9ebd f159 a33c 0476 06bd 5c55 973b
-0.06425611 0.114358015 -0.020962114 0.0125757875 -0.012278411 0.041497804 0.08405053 0.013847772
0.02576624 0.17790724 -0.13688658 -0.06313582 -0.1534403 0.07523462 -0.16020258 0.034209326
0.047008038 0.09509352 0.5571012 0.08399716 -0.11465372 -0.15722607 -0.039388474 -0.16225691
0.051626727 -0.11251554 -0.024668036 0.07507012 0.03133739 -0.19339833 -0.0881559 0.09354168
-0.040072136 -0.0137695335 -0.067036085 -0.059040353 -0.022434238 0.08115017 -0.089155205 0.0015015189
0.05497576 0.075410105 -0.06888734 0.038845748 0.026800958 -0.031258136 -0.04957214 -0.064428434
0.022064446 0.08937048 0.20918173 -0.021713786 -0.15131818 -0.011615731 -0.03732396 0.18821172
-0.14773291 -0.139586 -0.22663118 0.1350996 0.04880026 0.022106884 -0.021633096 -0.045011993
0.07719371 0.3794555 0.09496853 0.54183954 0.17401269 0.010593086 -0.07764335 0.041986194
0.025209172 0.041710842 0.041703723 0.013425249 -0.07334009 -0.053249657 -0.026128693 0.023448793
0.04389292 -0.09784429 -0.09631291 0.06832306 0.06218234 0.026145915 0.04331687 -0.12416116
-0.042841233 -0.09342498 -0.045634184 0.105977006 -0.03614416 -0.044909798 -0.014574005 0.08581459
0.07125578 0.035528593 0.08867029 -0.094970256 -0.044143472 -0.11957732 -0.0808244 -0.083005376
-0.030397883 -0.041117035 0.008284285 -0.005994298 -0.1242311 -0.0080232145 -0.07532054 0.03974277
-0.04844568 0.06648309 -0.06530953 0.24281111 0.004697974 -0.14774652 0.17105865 0.069678664
0.17162588 -0.07802777 -0.084415495 0.0091674 -0.15748672 -0.018809963 -0.03694399 0.26743045
-0.10094998 -0.2038599 0.0022695605 0.07046426 -0.0711442 0.07697287 0.052006632 -0.04425748
0.06645396 0.064949796 -0.081471585 -0.091238804 -0.052501503 -0.089713566 0.061182074 -0.065878965
-0.070430726 0.042513605 -0.113760605 0.0329042 -0.15059052 -0.1305059 -0.036422443 -0.16898336
0.07430731 -0.084000304 -0.09692681 0.020424131 -0.0071474398 -0.17152116 -0.08824897 -0.06052417
0.0791429 -0.22619206 0.15145892 0.06006586 0.0032592453 0.040119365 0.024688715 -0.029055648
-0.023098227 -4.3452248e-05 0.019593801 0.036192328 -0.1294545 0.032859556 -0.014603395 -0.085133836
-0.028504185 0.039156653 0.05209808 -0.087012075 -0.19150962 -0.1284959 0.04335758 0.0019762607
-0.059886552 0.00823211 0.38155293 -0.016094564 -0.026971038 -0.0191989 -0.1499201 0.039475992
-0.10720977 0.15099806 -0.09466931 -0.084668666 0.047134914 0.04216073 0.08171258 0.045582186
0.09750584 -0.0133623155 0.1339278 0.062658295 -0.07174483 0.03259204 -0.028764341 -0.040264662
0.060843926 -0.025936011 -0.10842077 0.0066878083 -0.08102425 -0.07706655 0.07260005 0.2986674
-0.08409435 0.07362805 -0.15481274 0.062425565 -0.055563245 0.06759278 0.03829865 0.018073924
-0.05318093 0.021611676 -0.1381697 0.07873578 -0.12484332 -0.030808408 0.07551982 -0.03664437
-0.090592004 0.01602589 0.031472232 -0.08420609 -0.041481793 -0.05146685 -0.07812734 -0.04602014
-0.07387749 -0.22688103 -0.0316135 -0.26577142 0.007945238 -0.07743973 -0.09079779 0.0480652
0.082630254 -0.06598739 -0.15059589 0.06752538 -0.07761244 0.019940348 -0.032827392 0.00461833

lstm.bias_hh_l0 f4 [512]
00000000: 1a43 a2bb 8e25 cd3d c3d1 713d b738 a93d
00000010: 8e05 98bc 2edd 06bc 159d 98bd 27f1 173d
00000020: de6e e6bc 06e4 333e 66de 85bd 37d3 5d3d
00000030: ff5d 38be 2a26 aebd 350b 85bd eb24 11bd
00000040: 6c24 93bb 0d6a 42bd 7aad 0f3f 77eb 9a3d
00000050: e83f 2ebe c28e 0ebe 87b4 c7bd e729 30be
00000060: 6e5c 5ebd 9420 5ebc a9f4 94bd e972 88bd
00000070: 1f57 903c 753b 34be 914e a5bd 01fa 633d
00000080: d788 e73c b61b 38bd 211c 64bd 68a2 da3c
00000090: 4ade 653d 709a 053d f9a9 f3bc 7e4f abbc
000000a0: 6ad5 6d3d 07c6 a4bc 23db 3e3d 6a71 4e3c
000000b0: 87ef adbd c3df 4e3d d8d6 bebd cbf1 bebc
000000c0: 2320 143d cdc3 ad3d 2eb2 ae3e e37e e5bb
000000d0: 7e11 5bbe 6756 dabc 68db 783d 2881 983e
000000e0: d564 19be 4574 0fbe a1a5 b7bd ad9f cb3d
000000f0: 8081 c0bc 6699 483d b1e1 56bd 1221 debc
00000100: 7046 983d d7f9 853e dab4 5a3d 8b6a 013f
00000110: c80f 6c3e a00c d73d 445a a0bd 9640 863d
00000120: c313 d2bd f6fe 8abc 0d3a 9e3d 08e5 01bd
00000130: 4b91 7bbd b472 79bb 3d39 823d 8e2c 46bd
00000140: 0d6f 533d 1915 f0bb ebaf 1cbd a332 7dbd
00000150: 55ab c13c 2d57 7b3d 8f55 d03d b8fe 96bd
00000160: 33cb 913c f254 1fbd 291a c5bc bde3 833b
00000170: f886 173c d33a 01bd 9061 4f3b 143a 033e
00000180: 9dd6 7e3d 110b 91bc f3c4 bb3d 16ec 75bd
00000190: a4b8 dabd 2bd7 e8bd bfba 0e3d 3015 25be
000001a0: 7d6a ecbd 6340 13bd c87b a1bd 3b12 cdbd
000001b0: fd42 82bd 1694 97bd 982a 21bd 76d8 2a3c
000001c0: 8766 a93d bb9c 2fbc 7701 323d 4682 993e
000001d0: 36e1 133d 17e5 12be 72e9 fc3d 8740 e4ba
000001e0: 4e0a bf3d e103 393d 89b3 78be 250a abbd
000001f0: 5a7a 71bd 5e43 433d b09f fdbd 53ac 5b3e
00000200: f03a d53c d351 7dbe 97bb ee3c ae5e a3bd
00000210: be45 443d c045 dc3d 3afa b13d d653 26bd
00000220: 89b2 c9bd 0d07 323d fc9b 033c 0e3b adbc
00000230: f131 85bd 6945 b63c dca0 6bbd 892a 843c
00000240: d095 f13c bf60 45bb d657 0abe e4da 003d
00000250: 9efa b6bd 86b9 3ebe 38a2 24be 70f2 72bd
00000260: 5ed6 9cbd 7450 5abe c8dc 9dbc dba6 76bd
00000270: 3e84 e4ba d634 fcbd 3f10 a0bd 07ed a4bd
00000280: 3c40 fc3d 86a5 dfbd 4938 713d 4c3d 80bd
00000290: cf73 753c 8854 2ebd ba85 963d 3b8f b33d
000002a0: 2017 8abc 4823 723d e801 9fbd 3f13 1cbd
000002b0: 5a4b 03be b7d5 023d e125 7b3d b792 7bbd
000002c0: 1607 8e3d 1321 b8bc cfd1 0d3d c73d cebd
000002d0: 05f2 2cbe d76b ecbd 1132 233d 6066 093e
000002e0: a908 e5bd 75b4 03bd 8cb1 a23e 299f 793d
000002f0: 2eb8 2e3d 8151 b1bd 5681 01be a910 803d
00000300: 6f4a 1abc 0712 ad3d add4 febd 42fd ac3b
00000310: 23a3 873d 9365 8ebb 0cb1 e4ba 2743 e63c
00000320: ba43 e5bc 7e36 a43d dbc0 013e 2371 7a3b
00000330: 2c4f 36bd 0bbd b8bc 95be 323d 96ee 2fbd
00000340: b6f1 633d 30dc 9dbd 53ef 6bbd b7e3 b3bd
00000350: f209 4bbe 2d7e c33c e3be 883d 358b 8f3e
00000360: 9633 48bd 15c9 633d c4f1 b3bd ed60 933d
00000370: 05d0 b5bd 513a c6bb ef1a d6bc 2ae7 b83d
00000380: 0fcf 12bd 892c e03c 6d52 03be 2a95 c73b
00000390: 6435 06be ca43 0fbe 4fa6 cfbc b4a2 01be
000003a0: 2b16 49be ef19 7abd 1932 59bd 5114 a9bc
000003b0: 21df 2cbe 9429 f4bd 8fff edbd 28f6 dcbd
000003c0: 3183 b3bd 2995 63be 9cf9 30bc b532 5ebe
000003d0: 5b58 44bd f584 66be e866 4ebe 4fdb a2bd
000003e0: 3c12 943d c692 5e3d 2c82 07be ed7e 0b3d
000003f0: 9477 fcbd b152 4d3d 7ef8 a03d 910f 863d
-0.004951847 0.100169286 0.059037935 0.082627706 -0.018557336 -0.008231444 -0.07451836 0.037095215
-0.028129037 0.17567453 -0.0653656 0.05415651 -0.18004607 -0.08503373 -0.06496278 -0.0354356
-0.004490426 -0.04746442 0.5612408 0.075644426 -0.17016566 -0.13921645 -0.0975123 -0.17203484
-0.054287367 -0.013557572 -0.07273228 -0.066625424 0.017619668 -0.17600806 -0.08071626 0.055658344
0.028263493 -0.044948302 -0.05569089 0.02668877 0.056120194 0.032617986 -0.029744135 -0.020911928
0.058064856 -0.020113958 0.046595704 0.012600282 -0.08492952 0.050506365 -0.09318322 -0.023308655
0.03616346 0.08484612 0.34120315 -0.0070036515 -0.21393391 -0.026652528 0.060756117 0.29786038
-0.1497987 -0.14009197 -0.08967138 0.09942565 -0.02349925 0.048974417 -0.05246133 -0.027115379
0.0743531 0.26167175 0.05339513 0.50553197 0.23052895 0.10500455 -0.07829717 0.065552875
-0.102576755 -0.016967278 0.07725916 -0.03171256 -0.06141786 -0.0038062753 0.063585736 -0.048382334
0.05161958 -0.007326734 -0.038253706 -0.06181587 0.023641268 0.061362434 0.10172569 -0.073728025
0.017797088 -0.03889937 -0.024060326 0.0040249513 0.009248488 -0.03155024 0.0031643845 0.12815124
0.06221639 -0.017705472 0.091684245 -0.060039602 -0.10679749 -0.11369165 0.034846064 -0.16121364
-0.115437485 -0.035950076 -0.078849375 -0.10013243 -0.06360433 -0.07401292 -0.03934726 0.010427585
0.08271509 -0.01071852 0.04345843 0.29982203 0.03610345 -0.14345203 0.12349214 -0.001741425
0.09328137 0.045169715 -0.24287237 -0.08351544 -0.058954574 0.04767167 -0.123839736 0.21452455
0.02602908 -0.24738245 0.029142184 -0.07977043 0.047918074 0.10755491 0.08690305 -0.040607296
-0.09848506 0.043463755 0.008032795 -0.021146324 -0.06503666 0.022249894 -0.057526454 0.016133564
0.029490381 -0.003011748 -0.13510069 0.03145875 -0.0893452 -0.18625459 -0.16077507 -0.059313238
-0.07658075 -0.21319753 -0.019270316 -0.06021772 -0.0017434431 -0.12314765 -0.07815599 -0.08053022
0.12316939 -0.10920243 0.05889157 -0.062616915 0.014981224 -0.042561084 0.07349725 0.087675534
-0.01685673 0.059115678 -0.077640355 -0.038104292 -0.12821713 0.031942096 0.06131542 -0.061419215
0.06934945 -0.022476709 0.034623917 -0.10070377 -0.16889198 -0.11544006 0.03984267 0.13417959
-0.111832924 -0.03215452 0.31776083 0.060942803 0.042656116 -0.08658124 -0.12646994 0.06253178
-0.00941716 0.08450704 -0.124429084 0.005279214 0.06622913 -0.0043456047 -0.0017447784 0.028108193
-0.027986396 0.08018206 0.12671225 0.0038214407 -0.044509098 -0.02255108 0.043638784 -0.042952143
0.055650435 -0.07708013 -0.057601284 -0.087836675 -0.19828013 0.023863876 0.06677034 0.28035894
-0.04887732 0.05561169 -0.087863475 0.071962215 -0.08877567 -0.0060494323 -0.02613589 0.09028466
-0.035841998 0.027364986 -0.12824412 0.00609078 -0.13106304 -0.13990703 -0.025347857 -0.12659723
-0.19637363 -0.06105989 -0.053026292 -0.02063957 -0.16881992 -0.11921993 -0.116210096 -0.10789138
-0.08765257 -0.22224869 -0.010801699 -0.2169903 -0.047935825 -0.22511657 -0.20156443 -0.07951986
0.072300404 0.054339193 -0.1323325 0.034056593 -0.12327495 0.05012769 0.07859896 0.06545938

fc.weight f4 [4, 128]
00000000: 62ef 08bd 2724 313e c8bd 293d 0415 89bd
00000010: 6404 863d eaba 2d3b 7507 64bd cfa1 4bbd
00000020: c21d d4bd 27ba 2bbe 9fee 103d 6346 2cbd
00000030: 1665 7dbd 2d47 89bd 07c0 cf3c d37e 263e
00000040: 93c6 40bd cbaf 11be bf86 b2bc ff52 143d
00000050: 4a9c 06bc a7fa 73bc 1d03 c73d 832a 8cbd
00000060: 760c 003e b443 42bd a08c fa3d b9a2 0dbe
00000070: 4861 13be b087 a0bd 18c9 d5bd 02b2 cd3d
00000080: 49e6 b83d a902 1ebe eede ad3d c093 8f3d
00000090: c44e 023e de7a b0bd ea2e b93c 60c9 e7bc
000000a0: 1dc8 e63d df86 203e 68fa f2bd 5a76 393d
000000b0: f48f 49bd 81d8 3e3d ed8d 093e c2f2 8ebd
000000c0: f5d6 f1bd c2bf 38be 9a17 7d3e e664 c23d
000000d0: a3ce 0bbc f4a8 103e dce9 a9bd f1bf 21be
000000e0: 627f b63d dd5c 22bd 81fa ae3d a63c c4bd
000000f0: 3c26 483d 9c1a d8bc fc62 273e 54e3 88bd
00000100: d4f1 75bd 3427 3abd 2602 5c3e f034 913d
00000110: b9b1 003e e813 af3d bc1a ebbc 2df1 59bc
00000120: cc0c ddbd fea7 c8bc 091b f73d 3cf7 e63d
00000130: 0f7a 0b3d 218e 7bbd a9c6 3a3d 793d 9e3d
00000140: 3c3b e0bd dd8e 133d 2714 00bc 39ab a53b
00000150: d994 843e cb46 4abd 1825 7abd 1c71 35bd
00000160: 1f3b 4bbc 19a5 f7bd 3924 03be 465f e7bd
00000170: 53c8 3f3d e078 0dbd b0ca 453e a82d f93d
00000180: defb 55bd 855f a1bd 4b65 1dbe 13df 063d
00000190: 0e57 00bd ef88 04bd 3881 43bd 7550 a7bd
000001a0: 6e92 d2bd af96 23be 15f6 463e 7c73 d2bc
000001b0: 7054 d23d 4b7d 1a3d 600c abbd 4e0e 32bd
000001c0: bc80 583d 44c1 523d c34b 10be 71f1 2b3f
000001d0: ec2b 113c 49ff 003e ba10 c43e ed98 74bc
000001e0: 3f16 aa3e 1ceb babd 566f f7bc a17a f0bc
000001f0: 33de aabd 5abb b83c 247a 393d 26f4 a33d
00000200: 7e13 ecbd 121e 46be fe00 3b3d 2170 babd
00000210: b711 e2bd 4b50 c53d 1ecb 91bd 5b5a 85bd
00000220: c830 1bbe 42b7 9e3d dfc9 16bd fee0 0b3e
00000230: 5edd f03d cf6c f8bd b987 803d c0f1 583d
00000240: b542 9cbd b91b 02be 06d4 023b 2251 f4bd
00000250: 8a2b d23c 26b4 fc3c 750a edbd ca0a df3a
00000260: a530 fc3c d73d ad3c 08cc e7bc 0392 96bb
00000270: 78fc 0fbe eaa6 27bd 1959 b8ba 94f8 923d
00000280: d055 b8bd 42a9 c4bd ebe2 6d3d 7a09 063e
00000290: a34b 013d 4224 01be decf 573d 7c8a 463c
000002a0: fd06 4a3d a782 163e 64b3 e4bd 12fa c33d
000002b0: 247f c8bd 5404 2bbd 18a6 613d 8bee 013c
000002c0: b4e5 21be 495d b3bc 23c9 acbd 34f6 123e
000002d0: abb0 203c 78d3 173d 789a 6cbd bb20 53bd
000002e0: 2682 993b d658 02be 9095 b13c ac41 15be
000002f0: 8cb5 b13d f6c9 063e 05d2 c0bd 5f20 07be
00000300: 4a45 0dbe d1bd a9bd 6591 763e 238b 7cbd
00000310: 2b26 26be 8d4a fb3d 7737 1abe c011 05be
00000320: 8a3e cbbb f6be 86bd 81df 3a3e fb73 df3c
00000330: 30d0 cdbc 547d 0fbd a3da 163e d040 0e3c
00000340: 4937 c1bd a1ae 453d 5ff5 0bbd ac56 c6bd
00000350: 4b79 273e eafd 4dbd 9768 01bd d40c c1bb
00000360: bbc2 083e b0f2 06be e54e 203e 12f7 0bbe
00000370: 8e86 443d 0c87 50bd 6daf 413e 6e53 0b3e
00000380: 131b fa3d d079 853d f11a ca3d 8eda a83d
00000390: c50a ce3d bd78 99bd 02ae 89bd 618e cfbd
000003a0: bcaf 76be 29cb 80bb b6a3 95bd c4c8 4fbc
000003b0: 4516 edbd 5de2 c13c 7a42 c4bc 0983 0dbe
000003c0: 40ff 0bbe 259a 14be 9bf9 abbd 1d58 b63d
000003d0: 26aa 0ebe dde5 f3bb 6075 84be dff8 aabd
000003e0: 4529 7dbe 1ca5 8ebd 6fc0 10bd d410 8abb
000003f0: 33a9 94bc 4b55 063e 94e6 2bbd 1e83 f63d
-0.03343142 0.17298947 0.041440755 -0.066934615 0.06543806 0.0026509115 -0.055671174 -0.04971486
-0.10357238 -0.1677023 0.035383817 -0.042059314 -0.06186398 -0.06703029 0.02536012 0.16259317
-0.047064375 -0.14227216 -0.021792768 0.036211964 -0.008215973 -0.014891303 0.09717391 -0.06844046
0.12504753 -0.047427848 0.12233853 -0.13831605 -0.14392579 -0.0783838 -0.10438746 0.10043718
0.090282984 -0.15430702 0.08489786 0.07010603 0.12725359 -0.08617185 0.022605378 -0.028294265
0.11268637 0.15676449 -0.118641675 0.045278884 -0.04920955 0.046593193 0.13433047 -0.06979896
-0.11808578 -0.180419 0.24716035 0.09491901 -0.008533153 0.1412695 -0.08296558 -0.15795876
0.08911015 -0.039639343 0.085438736 -0.0958188 0.04886459 -0.026379876 0.16346353 -0.066839844
-0.06004508 -0.045447543 0.21485195 0.07090175 0.12567796 0.08548719 -0.028699271 -0.01330213
-0.107934564 -0.024494167 0.120657034 0.11277625 0.03405195 -0.06141484 0.045599613 0.07726569
-0.10948798 0.036024917 -0.007817305 0.0050558117 0.25894812 -0.04938392 -0.06107053 -0.044297323
-0.012404232 -0.12092037 -0.12806787 -0.11297469 0.046821903 -0.034539104 0.193156 0.12166911
-0.052242152 -0.07879547 -0.15370671 0.032927584 -0.03133302 -0.032357153 -0.047730654 -0.08169643
-0.102818355 -0.1597545 0.1942981 -0.025689833 0.102700114 0.037717145 -0.0835197 -0.043470673
0.052857146 0.051453844 -0.14091401 0.67165285 0.008860569 0.12597384 0.3829401 -0.0149290385
0.33220097 -0.09126875 -0.030204456 -0.029355349 -0.083431624 0.022550274 0.045282498 0.08005552
-0.11527155 -0.19347408 0.045655243 -0.09103418 -0.11038535 0.09634455 -0.0711882 -0.065113746
-0.15155327 0.077497974 -0.036813613 0.13660046 0.117609724 -0.121301286 0.06275887 0.052964926
-0.07629911 -0.12705888 0.0019962802 -0.11929537 0.025655527 0.03084762 -0.1157426 0.0017016765
0.030784914 0.021147652 -0.028295532 -0.0045950427 -0.14061153 -0.040930666 -0.0014064639 0.07176319
-0.090007424 -0.09602596 0.058077734 0.13089553 0.031566273 -0.12611488 0.052688472 0.012117978
0.04932307 0.14698277 -0.111670285 0.095691815 -0.09789875 -0.041752174 0.05509004 0.007930408
-0.15810281 -0.021895068 -0.08436801 0.14351732 0.009807746 0.037066907 -0.0577645 -0.051544886
0.0046847044 -0.127292 0.021677762 -0.14575833 0.086772054 0.1316298 -0.09415058 -0.13195942
-0.13795963 -0.08288158 0.24078901 -0.06165613 -0.16225497 0.12270079 -0.1506022 -0.12995052
-0.0062025236 -0.06579392 0.18249322 0.027276983 -0.025123686 -0.03503163 0.14731841 0.008682445
-0.09434373 0.048262242 -0.03416955 -0.096845 0.16354863 -0.05029098 -0.031593885 -0.005891422
0.13355534 -0.13178515 0.15655096 -0.13668469 0.047979884 -0.05091004 0.18914576 0.13606045
0.12212195 0.065173745 0.0986842 0.08244811 0.10060648 -0.07493732 -0.067226425 -0.101345785
-0.24090475 -0.0039304686 -0.07306616 -0.012682144 -0.11576513 0.023667509 -0.02395748 -0.13819517
-0.13671589 -0.14511926 -0.08397218 0.08903525 -0.13932094 -0.0074431733 -0.258708 -0.0834825
-0.24722774 -0.06965086 -0.03533977 -0.004213432 -0.018147087 0.13118474 -0.041967943 0.12036727

fc.bias f4 [4]
00000000: cdca 4d3e 2e13 d43d 442c 503e 9543 323e
0.20096894 0.10355221 0.20329386 0.17408593
