lstm_hdim_128_wsize_20_interval_7_nlayers_1_bs_512_lr_0.01_decay_0.95_epoch_28.pt (torch, 277987 bytes, 6 tensors)

lstm.weight_ih_l0 f4 [512, 4]
000000 99 cf 37 bd da 79 b9 bb e3 7a 03 be 19 55 ac 3d
       -0.044875715 -0.005660278 -0.12839846 0.084146686
000010 e8 17 07 bf 71 65 ce 3e 82 c7 dd be a1 5b 5a 3e
       -0.52770853 0.4031177 -0.43316275 0.21324016
000020 ab 74 dc bd 94 a7 91 bd 51 a4 69 3d f7 02 b1 3d
       -0.1076444 -0.07112041 0.05704147 0.086431436
000030 73 91 cc bd c2 55 17 3c 53 90 27 3e 1d 2a 4a be
       -0.0998868 0.009236755 0.16363649 -0.19742627
000040 a9 ff 6f bc 44 a5 bf bd 66 22 47 be 80 aa 38 3e
       -0.0146483565 -0.09357694 -0.19446716 0.1803379
000050 4e 5f 2d be bf 2e 29 3b a1 40 2e 3d ed a1 cd 3d
       -0.16930887 0.0025815216 0.042542104 0.100406505
000060 15 b2 6a bd a4 3d 43 bd ca 96 af bc ac 9a 88 bd
       -0.05729874 -0.047666207 -0.021434207 -0.06670126
000070 c8 10 05 bd fe 35 c8 bd e5 3a d3 bb c1 9c 84 bd
       -0.032486707 -0.09775923 -0.0064462298 -0.06475211
000080 bb ac 0f 3e 0a e1 5a 3e f7 18 e5 bd b7 ca 00 be
       0.14030735 0.21374908 -0.11186402 -0.1257733
000090 61 98 1b bf de 9f 11 3e ae d2 35 bf 28 22 5b 3e
       -0.60779387 0.1422114 -0.71024597 0.21399748
0000a0 bb 5e 65 be fb db 76 be da 2e be bd 3f ca 3c be
       -0.22399418 -0.24107353 -0.0928628 -0.18436526
0000b0 23 02 a7 bc 91 c6 02 3d 0e 6b 88 3d c0 d9 94 3e
       -0.020386761 0.03192765 0.06661044 0.2907238
0000c0 de 5a 1c be e4 d5 a6 bd 0c e2 75 bf 01 43 f1 bf
       -0.15269038 -0.08146265 -0.96048045 -1.8848573
0000d0 30 2c 90 bd 26 1f d6 3d 3a c2 d8 bc b3 94 21 be
       -0.07039678 0.1045516 -0.026459802 -0.1577938
0000e0 c6 d4 4d be 4f 84 13 3e 33 81 0b bf 6d 35 18 bf
       -0.20100698 0.1440594 -0.5449402 -0.5945652
0000f0 5a 29 50 3e 7c 49 2c bb 77 9c 6e be c5 06 ad 3d
       0.20328274 -0.0026288917 -0.23301874 0.08448557
000100 d7 ea 2d 3d ef 0c 93 bd bf 56 6a bd 19 1d c5 be
       0.04246029 -0.07180201 -0.057211634 -0.38498762
000110 7c 21 0d 3e 5b 9a 0a 3e 07 23 08 3e dc 4a a5 bb
       0.13782305 0.13535444 0.13294612 -0.0050443243
000120 29 94 88 3e 35 57 26 3f 07 0f c4 c0 9f 48 02 c0
       0.26675537 0.6497682 -6.1268344 -2.0356824
000130 7f 15 b8 be e3 63 c0 be 18 8e 19 40 de 35 56 40
       -0.359539 -0.37576208 2.3992977 3.3470378
000140 d5 d5 5c be b6 53 4a be e9 fa 3b 3e 28 34 f7 be
       -0.21565945 -0.19758496 0.18357433 -0.4828198
000150 27 9a 74 bd f6 da 1a bd f8 5e ca bf 93 a9 88 bf
       -0.059717324 -0.037806474 -1.5810232 -1.067675
000160 4c 17 e5 be fa e4 ac bc fe 25 fb bc 76 79 f7 3d
       -0.44744337 -0.021105278 -0.030657765 0.12083714
000170 fa 77 45 be fb 8c 3d be 9b 04 3b be 5b 1e ce be
       -0.19284049 -0.18510811 -0.18263476 -0.40257534
000180 dc 94 ab 3d b2 9a 1b be 99 a3 81 bd 7e 01 40 3e
       0.08378002 -0.1519573 -0.06330032 0.18750569
000190 9a 7e 3f bd d5 3c d8 bd 3d c8 83 3e da 86 fd 3f
       -0.046751596 -0.10558478 0.25738707 1.9806778
0001a0 cc 2c 30 3d 91 84 38 be 0e e5 02 be 4d b1 56 3e
       0.04301147 -0.1801932 -0.1278269 0.20966072
0001b0 5b bf 97 3e fe de 69 bd 9e 9f e0 bd 46 01 03 be
       0.2963818 -0.057097428 -0.109679446 -0.12793455
0001c0 e6 9c a0 3d ab 2d 12 3e 6d f4 10 bb 01 3a 01 3e
       0.07842426 0.14275233 -0.0022118345 0.12619783
0001d0 2f 9b 88 bd 38 74 93 be 4a 9c 05 bf cd 0b b7 3e
       -0.06670224 -0.28799605 -0.52191603 0.3575119
0001e0 e1 1e ab 3d 01 d5 dc bd 87 94 72 3e ce 77 fd bc
       0.08355499 -0.10782815 0.23689471 -0.030940916
0001f0 31 52 83 3d 65 68 98 3c 61 72 99 3b e9 ed 84 3d
       0.06412161 0.018604467 0.0046828245 0.0649069
000200 29 41 47 3d 98 7a a7 3c 56 7f 91 3e a0 e2 1e 3d
       0.048646126 0.0204442 0.28417462 0.038790345
000210 8b ae 34 3e 64 6a ef bd f5 73 a6 be 24 5f cd be
       0.17644708 -0.11690214 -0.32510343 -0.4011165
000220 b6 9d 47 3e 53 41 0c bc 29 a2 ad 3e c7 2f ad bf
       0.19493756 -0.008560496 0.3391278 -1.3530205
000230 b5 ae 29 bd 25 f4 b4 3c 38 c3 14 3d f2 24 c7 bc
       -0.04142638 0.022089073 0.036318988 -0.02430961
000240 90 40 17 3e 42 c1 53 bd 35 81 15 bc 58 49 e5 bd
       0.14770722 -0.051697977 -0.009125044 -0.1119563
000250 83 0f bf 3c 15 53 25 3e b5 02 6d 3e 24 50 2a 3e
       0.023322826 0.16144975 0.23145564 0.16632134
000260 3f 82 87 bc 35 2a 39 3b 76 ce 15 be d5 88 08 3e
       -0.016541598 0.0028253917 -0.1462954 0.13333447
000270 9c 03 c2 bd 2c ef a3 bc dc d5 6c 3e 0b 7d 3d be
       -0.09473345 -0.020011507 0.23128456 -0.18504731
000280 8a e7 14 3e 3e 23 d4 bd 7a 81 b3 be 7b 2b 14 be
       0.1454145 -0.103582844 -0.3505972 -0.14469711
000290 60 cf 36 3e eb b3 59 3e 83 7b bf 3d 7f 8a 45 3d
       0.17852545 0.2126004 0.0934973 0.048227783
0002a0 23 cf ca 3d 2c cc 23 3e 5c 9b 1f be d4 4a 29 bd
       0.099027894 0.15995854 -0.15586609 -0.041331127
0002b0 24 ef 52 bd ed 11 53 3d 04 a2 4e 3d 35 1c eb bd
       -0.051497594 0.051530767 0.05044748 -0.114799894
0002c0 4d 18 8f be f8 4e 85 bd ff e2 03 be 76 ca b9 be
       -0.27948228 -0.06509203 -0.12879561 -0.36287278
0002d0 1e e6 09 bf ff 3d ec 3d 26 07 3a 3f 74 fe 9d bf
       -0.53866756 0.11535262 0.7266716 -1.2343278
0002e0 3c 98 a8 3d 31 8e e2 3c 5c db fc bd c0 d5 8e 3d
       0.082321614 0.027655693 -0.12346527 0.06974363
0002f0 93 78 ae 3b 0f ac 8f be 7a 40 53 bd 09 ef 4e be
       0.005324432 -0.28060958 -0.05157516 -0.20208372
000300 52 e8 ff 3d 2a 22 61 3e a4 5e 82 be 96 21 72 3d
       0.124954835 0.21985689 -0.2546283 0.05911406
000310 7b 18 a2 3e 0e 22 3f be 15 6b 92 3a a6 6f 77 3d
       0.31659302 -0.18665335 0.0011170829 0.06040921
000320 d8 1d 11 3e c2 2f 4a 3e 22 44 40 3e fb 05 e8 be
       0.1417154 0.1974478 0.1877599 -0.45317063
000330 e1 81 54 bd 67 8c ec 3d 0c 4c e8 be 1d 5c df be
       -0.051881675 0.11550217 -0.4537052 -0.43624964
000340 63 8e cf bd 07 ea 9a be cf 94 04 3e f6 77 f1 40
       -0.1013458 -0.30256674 0.12947391 7.5458937
000350 e0 26 35 3d 33 42 62 bd 21 24 3a bf 88 70 fb be
       0.044226527 -0.055238914 -0.7271138 -0.49109292
000360 0e 71 e3 3d d4 eb ad 3d 0b e2 ce bd 1f b7 75 3d
       0.11105548 0.08492246 -0.10101708 0.05998909
000370 b9 ed 2f 3c e3 d1 1f bd 35 de e3 3f d3 71 f3 3e
       0.01073783 -0.039018523 1.7802187 0.47547778
000380 73 b2 fb bd 25 82 bf be 66 68 ab 3c 83 8b c7 be
       -0.12289896 -0.3740398 0.020923804 -0.38973626
000390 bb b2 98 be 7e 04 0c 3e 05 2d d7 bd 1b 85 68 be
       -0.2982386 0.13673589 -0.10506634 -0.22707026
0003a0 bb 02 b6 be 40 10 79 be b5 14 52 3d 88 d1 28 bd
       -0.35548958 -0.24322605 0.05128928 -0.04121545
0003b0 1c 2c c5 3c 05 57 21 3e 96 2c 34 be 86 c8 3a be
       0.024068885 0.15755852 -0.17595133 -0.18240556
0003c0 cc 59 ee bc b3 35 28 be cc c0 9e be a6 f0 56 3e
       -0.029095553 -0.16426735 -0.31006467 0.20990238
0003d0 a9 41 e0 bd 9e 8d 4c 3e 06 a7 66 3d 38 ed 3b 3e
       -0.10950024 0.19975898 0.05631163 0.1835221
0003e0 a8 ab 1a bf 7f 0b 0d be a3 b4 f7 3e 6c 60 3a bc
       -0.60418177 -0.13773917 0.48380002 -0.011375528
0003f0 ef 05 8f bd b8 22 b8 3d 7c 45 86 3d 3d e5 ba bd
       -0.069835536 0.08990997 0.06556222 -0.09125755

lstm.weight_hh_l0 f4 [512, 128]
000000 75 78 39 bd 96 54 8c be da 8e 22 3c 13 49 b0 3d
       -0.045280892 -0.27408284 0.009921754 0.08607688
000010 eb 1e 1e 3e 42 c4 a9 3b 67 2a 84 bd e4 e7 4a 3d
       0.15441482 0.0051808665 -0.064534 0.049537554
000020 a3 11 5b bd 62 61 97 3e 1c 9d 74 bd 32 05 16 be
       -0.053483617 0.29566485 -0.059720144 -0.1465042
000030 54 42 b0 3e bc 43 ce 3d 87 c2 6b 3d f5 89 a9 bd
       0.34425604 0.10071513 0.057558563 -0.08278266
000040 f4 0f 83 3d 83 1a df 3d a7 4a c9 be f8 74 86 3f
       0.06399527 0.108937286 -0.39314768 1.0504446
000050 89 5c e1 3d 46 05 00 3e bb 5f 0e bb ae af 3b bd
       0.11003978 0.12502012 -0.002172454 -0.045821838
000060 43 f1 03 bd d2 ab d1 be 84 57 83 bd 29 42 1f bd
       -0.032212507 -0.409514 -0.06413177 -0.038881455
000070 50 cf 52 bc 0f 69 37 3d f9 55 05 bb a0 ee 60 3d
       -0.01286681 0.044777926 -0.0020345433 0.05491507
000080 01 f5 f6 39 2a 1c 55 bd ab 97 6d be 66 c0 8a bb
       0.00047103319 -0.052028812 -0.23202388 -0.0042343615
000090 ed 4b a2 3c f8 a5 85 3d b8 c3 7c 3c 30 d8 d8 bc
       0.019811595 0.06525797 0.015427522 -0.026470274
0000a0 de 59 e7 bd 40 95 8c 3d 53 db 94 3c 19 5f 84 bd
       -0.11296438 0.06864405 0.018170988 -0.06463451
0000b0 1d 70 69 3d 36 3f b7 bd 74 8b bf bb 0a d4 31 3c
       0.056991685 -0.089476034 -0.0058454815 0.010853777
0000c0 f9 7a d5 3c d2 95 1a 3d 0e c1 62 be 58 9e 0d be
       0.026059614 0.037740536 -0.22143957 -0.13829935
0000d0 e3 6e 2f bf 1b fc 95 3d 71 aa a5 bd 81 34 10 be
       -0.68528575 0.07323476 -0.0808915 -0.14082529
0000e0 ef e6 3c bc 13 96 8e 3d 89 85 d4 be d3 c0 13 3d
       -0.011529668 0.06962218 -0.4150813 0.036072563
0000f0 ed b6 fe bd 71 b3 9b 3d 99 a8 af bd 83 05 05 3d
       -0.12437234 0.07602585 -0.08577079 0.03247596
000100 fe f6 93 3e d3 85 83 3d 79 40 3a bd 04 5f 41 3e
       0.28899378 0.06422009 -0.045471642 0.18883902
000110 55 01 ac 3c f9 fc 87 3d 68 f0 09 3e 2f 79 d5 3d
       0.020996729 0.066400476 0.13470614 0.104235046
000120 6f be 5b bd c2 60 cf 3d 5c 59 a1 3e b7 d7 01 be
       -0.05364841 0.10125877 0.31513488 -0.12679945
000130 42 07 a0 bb 52 bf 73 ba 12 c3 c3 bc 1e 96 95 bd
       -0.0048836777 -0.00092982233 -0.023896728 -0.07304023
000140 8b 58 30 3c 5d 1f 42 3e 39 dd 86 bd ad 8a bb 3d
       0.010763298 0.18957277 -0.065851636 0.0915731
000150 60 94 85 3e eb 2c e5 3d f3 ec 73 bc 4f b8 0b bd
       0.26089764 0.11190208 -0.014888036 -0.034111317
000160 53 a7 34 bd 90 91 75 3e a4 60 3d be a5 53 b3 3c
       -0.044104885 0.23981309 -0.18493897 0.02189047
000170 51 d1 9b bc 8b 5a dc 3d b4 9f 16 bd 43 d6 a6 3c
       -0.019020708 0.10759457 -0.0367734 0.02036584
000180 02 01 04 bd fb 17 d8 3c f6 1b 3b be ad 4b d3 bc
       -0.032227524 0.026378622 -0.18272385 -0.025792921
000190 7c db 1d 3d 1b c4 9f be 5d a3 ed bd ff ff 84 3d
       0.038539395 -0.31204304 -0.11603425 0.0649414
0001a0 bf fd 05 3e bb 80 b3 3d c0 a7 d1 3d c0 44 d1 b8
       0.13085078 0.08764788 0.10237074 -9.978702e-05
0001b0 3a 07 65 3e 80 31 a4 bd 9b 87 56 be b3 cd 12 be
       0.22366038 -0.08017254 -0.20950167 -0.1433628
0001c0 2a 77 2c 3d ef 3a 35 3c fb ee d6 3d 95 c4 3f be
       0.04210583 0.011061414 0.10494801 -0.18727334
0001d0 5b dc de 3c 8c 04 0e bd d3 57 fc 3d 57 bf c6 bd
       0.027204683 -0.034672305 0.12321439 -0.09704464
0001e0 b5 53 29 3e 6d d7 fa 3d 76 c1 22 3d 1b 9a 4b bc
       0.16535838 0.122481205 0.03973528 -0.012426878
0001f0 26 78 12 bd f1 15 06 3f d0 7b 31 3d 4d 1f 1e 3f
       -0.035759114 0.5237723 0.043330967 0.6176651
000200 23 0e a8 3e f2 c8 0a bf 33 4b 0f bf b5 92 5b 3e
       0.32823285 -0.5421287 -0.5597412 0.21442683
000210 03 a0 87 3e c7 b5 49 be 60 21 f3 3e fd 48 9f 3e
       0.26489267 -0.19698249 0.474864 0.31110373
000220 3a 9e dd 3e f5 fe ad be 35 2e 07 bf 29 53 21 3f
       0.4328478 -0.3398358 -0.5280488 0.6301752
000230 dd ac b9 bf 2d d6 f0 3e a1 1f bd be 55 f5 3a be
       -1.4505879 0.47038403 -0.36938193 -0.18257649
000240 d2 32 e7 3e a3 94 d6 3e 28 ca 99 bf 2e b6 97 3e
       0.4515596 0.41910276 -1.2014818 0.2963118
000250 48 4b 88 3d ac 58 0d 3f 1f bc 2a 3e 8e d0 bd be
       0.06654984 0.5521343 0.16673325 -0.37073177
000260 0f 47 af be 3d 06 ea bb fc 56 92 3e fc 69 45 3f
       -0.342339 -0.007141857 0.2858199 0.77114844
000270 83 bd b3 3e 1e 6f 1d 3d 72 06 0e 3f 3c ad 04 be
       0.35105523 0.038436048 0.55478585 -0.12956709
000280 6c 29 c4 bf 87 38 9f 3e aa 2c 9f bf 94 b6 97 be
       -1.5325141 0.31097814 -1.2435505 -0.29631484
000290 13 69 cd be 8c 01 15 3f 05 b2 93 3d 99 41 d1 bf
       -0.40119228 0.58205485 0.07211689 -1.6348144
0002a0 ca 47 80 be 40 ae f4 be f5 44 be 3e 0a 14 8f be
       -0.2505477 -0.47789192 0.37161985 -0.27944976
0002b0 44 2f a3 3d bb 03 1a 3f 26 f1 4e be 84 46 48 be
       0.079679996 0.6016194 -0.20209178 -0.1955815
0002c0 78 f0 c3 3e 3f c8 d3 3e 2c ec 6d 3f aa 9c e1 bd
       0.382694 0.41363713 0.92938495 -0.110162094
0002d0 a2 20 3a 3f 01 e0 2a be f8 f4 de be 6d 49 40 bf
       0.72706044 -0.16687013 -0.4354627 -0.7511204
0002e0 66 3f ce 3e a4 34 2a 3e 2e f1 75 bf de 26 d8 3e
       0.40282744 0.16621643 -0.96071136 0.42217153
0002f0 4a 62 eb be d2 e2 7c be 70 65 75 3f ae 6a b7 3e
       -0.45973426 -0.246959 0.95857906 0.35823578
000300 7d a1 9d be 6d 15 80 be b8 fd 66 be 02 60 10 bf
       -0.30787268 -0.25016347 -0.22557724 -0.56396496
000310 35 5e 09 3f 72 28 24 3c 74 82 a6 3e 7d ea fb 3e
       0.53659374 0.010019409 0.32521403 0.49202338
000320 37 2d 96 3e 68 2f a1 bd 77 59 f1 be 3c d1 3b 3e
       0.2933137 -0.0787037 -0.4713857 0.18341535
000330 b4 f8 97 be 10 97 4d 3e e3 fb de be 61 fc a3 be
       -0.29681933 0.20077157 -0.4355155 -0.32028487
000340 0d b2 94 3e fe e3 06 3f c7 33 48 bf cf d0 dc 3d
       0.29042092 0.5269164 -0.78204006 0.107820146
000350 a9 bd 2e bf dd 4e 81 3e 4f cd 2f 3e 31 d9 19 bf
       -0.6825815 0.2525548 0.17168163 -0.6009703
000360 62 f2 bc be a5 f1 93 3f 15 22 80 bf da 90 01 3f
       -0.36903673 1.1558119 -1.0010401 0.5061165
000370 7e 73 c8 be fa 8c f7 3d 87 dc 02 bf bb a1 03 bf
       -0.39150614 0.12087436 -0.5111775 -0.51418656
000380 45 86 38 bf 07 3b 1f 3f 11 f6 d5 be ec e5 f3 bd
       -0.7207988 0.62199444 -0.41789296 -0.119090885
000390 fb 3e 5b 3f 34 e0 13 be e5 6c 8c bf 31 a0 56 3d
       0.85642976 -0.14440995 -1.0970732 0.052398864
0003a0 e1 a4 cb bd 7a 4b 9d 3e 68 3f 70 3e 27 ca 05 bd
       -0.099435575 0.30721647 0.23461688 -0.03266349
0003b0 57 7e 4c bd 09 03 20 3f 7e a7 41 bf 0b bf ed 3e
       -0.049925175 0.6250463 -0.756462 0.46434817
0003c0 e5 e4 34 3f 9c 15 cc bd 6b 56 1e 3f 73 58 a7 bf
       0.70661765 -0.09965059 0.61850613 -1.3073868
0003d0 34 e8 ba 3e a0 95 2a 3e 17 ae f1 bd 45 22 2f 3f
       0.36505282 0.1665864 -0.11800783 0.68411666
0003e0 00 ec 0a 3f c8 ed 65 3c 67 d7 02 3e 18 ad 25 bf
       0.5426636 0.014033742 0.12777482 -0.64717245
0003f0 41 6c b6 3d b2 c8 0d 3d 59 2e 39 bd b3 c3 f8 be
       0.089073665 0.034615226 -0.045210216 -0.48586807

lstm.bias_ih_l0 f4 [512]
000000 1f e6 a9 bd ca 2c 07 3e e5 fa 30 be b7 15 c2 bd
       -0.08295845 0.1320068 -0.17283209 -0.09476798
000010 1d ad 1f bd ad 34 4a bd 5f 3c bd 3c 46 a2 48 bd
       -0.038983453 -0.04936664 0.023100076 -0.04898288
000020 8d f0 f9 bb 98 8c 1e 3e b4 c5 27 be 25 f3 85 bd
       -0.007627553 0.1548332 -0.16384012 -0.06540517
000030 b7 e3 61 be c2 bd 99 3c 79 c3 41 be 4c 41 9c 3c
       -0.22059523 0.018767241 -0.18922223 0.019074105
000040 0a 1d f0 bc c5 e9 44 3d 9a b4 10 3f 9a 91 12 be
       -0.029310722 0.048074502 0.56525576 -0.14313355
000050 52 65 21 be f1 22 e1 bd a3 9a 07 be 93 ed 43 be
       -0.15761307 -0.10992993 -0.13242583 -0.19133596
000060 8e f2 2a bc a3 03 86 be 4d 36 cd bd 58 7d 7f 3d
       -0.010433806 -0.2617465 -0.10020123 0.062375396
000070 a1 58 c8 bc e1 ed 84 be 75 6e 4c be 79 f6 3a 3d
       -0.024456324 -0.25962737 -0.19964011 0.04564521
000080 c8 3a a9 bd a7 20 13 be 88 76 59 3d c8 0b f5 bd
       -0.08263165 -0.14367925 0.053091556 -0.11965138
000090 bd de 94 bd 2d 87 47 bc d9 65 0f be 30 04 b9 bd
       -0.072690465 -0.0121782245 -0.14003696 -0.09034002
0000a0 c9 85 46 3a d2 b7 bf 3c f0 9e aa bd 45 10 f7 bc
       0.0007573036 0.023403082 -0.08331096 -0.030159125
0000b0 02 f2 06 bd 00 8c 4f bd 5a fc f7 bd 5f de 51 be
       -0.03294564 -0.050670624 -0.12108679 -0.20494984
0000c0 7a 43 62 bd c5 ec 68 3d ce 57 cf 3d 9a 73 59 bd
       -0.055240132 0.056866426 0.10124169 -0.053088762
0000d0 59 27 b3 bd 1d cc c5 bc e3 bd 1d bd 4a 4b c8 bd
       -0.08747739 -0.02414518 -0.03851117 -0.09779985
0000e0 03 6a 22 be d1 5c 4f be e6 48 ae be 74 46 87 3d
       -0.15860753 -0.2025025 -0.34039992 0.06605235
0000f0 38 7f dd bc 32 7f 0b bd 47 4c 11 be 97 eb ef bd
       -0.027038202 -0.03405685 -0.14189254 -0.11714857
000100 e5 21 1c 3e c7 34 b7 3e 97 c7 16 3e b5 59 1b 3f
       0.15247305 0.35782453 0.14724575 0.6068376
000110 a6 14 9f 3e 95 9a 21 bd 16 ed 06 be 66 ea 01 bd
       0.3107044 -0.03945406 -0.13176379 -0.03171768
000120 63 4d 05 be 35 c6 09 be 10 f5 84 3b 4c 15 39 ba
       -0.13017802 -0.13454516 0.004057534 -0.00070603634
000130 c5 60 a5 3b 7a c0 e6 bd f9 03 8f bd 98 79 85 bd
       0.005046936 -0.11267181 -0.069831796 -0.06517333
000140 6d 80 09 bd a5 7b 9b bd 75 26 0c be b3 e1 ac 3c
       -0.033569742 -0.07591943 -0.13686545 0.021103716
000150 46 08 18 ba f3 01 5e bd 22 96 86 3c 72 ad 86 be
       -0.00057995727 -0.054201078 0.01642901 -0.26304203
000160 0b cc cd bd 2b 35 51 be 75 41 a6 bd 36 9f 83 3d
       -0.10048684 -0.20430438 -0.08117954 0.064268515
000170 f6 ae 60 be fb 0a be bd f4 6e 3d bd b7 8c d6 3c
       -0.21941742 -0.09279438 -0.04624839 0.026190145
000180 81 b1 08 3d 99 e3 7b 3c a4 ef 9d 3d bc a9 3f be
       0.033372406 0.015374088 0.077117234 -0.18717092
000190 f5 eb d2 bc a3 7d 3f be ca 8c 47 bd ee 6f 48 be
       -0.025747279 -0.1870027 -0.04871825 -0.19573948
0001a0 fa fb 89 bd 9d 64 d1 bd c4 a7 70 bd 52 fc 2d bd
       -0.06737514 -0.102242686 -0.058753744 -0.04247696
0001b0 f0 3c 07 be 14 ab 90 bc 14 56 de bd b3 d5 99 3d
       -0.1320684 -0.017659701 -0.10856262 0.07511463
0001c0 cc a2 a7 bd 45 81 ad 3c b1 d7 0a be 58 83 85 3e
       -0.08185348 0.021179805 -0.13558842 0.2607677
0001d0 e7 14 2a bd 07 c5 dc be c3 95 45 3e cc 93 6f 3d
       -0.04152384 -0.4311907 0.19295411 0.05849056
0001e0 7a af 01 3f a7 6b db bd 3f 02 77 be 0f 28 cb bc
       0.5065838 -0.107138924 -0.2412195 -0.024799375
0001f0 59 10 3c be 1e 47 43 bb 1c 8f 05 be 85 04 be 3d
       -0.18365611 -0.0029797028 -0.13042873 0.09278206
000200 b9 fb 12 be 8c 9b 54 be dc ff 3b bd 9e fa 5c 3d
       -0.14353837 -0.20762461 -0.045898303 0.053949945
000210 5a 99 22 bd 5f da 93 3d de e5 51 3d 0e 7a 89 bd
       -0.03969703 0.07219385 0.05124461 -0.06712733
000220 34 55 2e 3d a3 fc af 3d 48 c0 b9 bd 9b ce f2 bd
       0.042561725 0.085931085 -0.09069878 -0.11855813
000230 aa 58 6e be 20 ad ec bd 6d 1a 22 3e da 37 5f bd
       -0.2327601 -0.115564585 0.15830393 -0.054496624
000240 29 c3 c9 bd 89 30 97 3c 9f e2 12 be 60 e8 b2 3d
       -0.09851677 0.01845576 -0.14344262 0.08735728
000250 37 2e 01 be 39 ad 34 be bc ac 04 be be ba f9 bd
       -0.12615286 -0.17644204 -0.12956518 -0.12193821
000260 21 01 23 3d 10 32 04 be 75 51 b0 bd 9e db c1 bb
       0.039796 -0.12909722 -0.08609287 -0.005916073
000270 21 89 14 bd 7b e1 80 be 10 e2 d8 bd 8d b0 a2 bd
       -0.03626359 -0.25172028 -0.10589993 -0.07943831
000280 78 41 ee 3d e8 31 a6 be 4d 22 17 3e 45 c8 0f 3d
       0.11633581 -0.3245995 0.14759178 0.0351031
000290 76 d7 f8 bc 2f 55 4a bc c2 03 6d 3c a3 2c 8e bd
       -0.030376177 -0.012349411 0.014466228 -0.069421075
0002a0 66 c4 b3 bd 70 ea a9 bc 84 3a d6 3c 21 50 81 3c
       -0.087776944 -0.020741671 0.02615095 0.015785279
0002b0 47 92 17 be ef ed 1e bd b1 0c 26 bd c5 ce e1 bd
       -0.14801894 -0.03880113 -0.040539447 -0.11025766
0002c0 36 b8 78 bd d9 3c 93 3c 7b fa 5f 3d 82 3d b3 bd
       -0.060722552 0.01797335 0.054682236 -0.08751966
0002d0 2a f6 0f be 63 ae a5 bd d8 2b 3f 39 55 4f 2a bd
       -0.14058748 -0.08089902 0.00018231513 -0.041579563
0002e0 ca 7b 27 be 6f f3 83 bc 4e 73 03 3f 87 51 02 bd
       -0.16355816 -0.01610729 0.51347816 -0.03181603
0002f0 95 0a 5b bd a3 8a 3f bd 69 f2 4b be 0f 66 c0 3c
       -0.05347689 -0.046763074 -0.19916691 0.023486165
000300 b8 1e 1f be 0d 03 d3 3d d0 98 3f be 04 3d 02 be
       -0.15539062 0.10303316 -0.18710637 -0.12718588
000310 7e 2c cb 3d 43 69 0b 3d f3 c0 95 3d c3 aa 10 3c
       0.099205956 0.034035932 0.07312193 0.008829775
000320 e5 89 26 3e 9a c3 21 bc 91 b2 26 3e d0 8b 6b 3d
       0.1626354 -0.009873295 0.16279055 0.057506382
000330 97 f3 e5 bd 23 49 7f bc 13 da 2f bd 6d ff a4 bc
       -0.11228102 -0.015581402 -0.04293258 -0.020141328
000340 fb 9a d0 3c 45 de b1 bc 66 1a 0c be b2 fa 38 bd
       0.025464525 -0.021712432 -0.13681945 -0.045160957
000350 70 5f 15 be ad 11 d1 bd 81 2e 8b bd 62 13 fe 3e
       -0.14587188 -0.102084495 -0.06795979 0.49624163
000360 b5 42 e3 bd 7b ba 05 3e 55 31 e7 bd 5f 52 a1 3d
       -0.11096708 0.13059418 -0.11288706 0.07877039
000370 71 4e 1f be e4 06 28 3e 1c 82 1a 3d 0c dc 54 3c
       -0.15557267 0.16408879 0.03772174 0.012991916
000380 02 14 a9 bd 6a be b6 bc 7d bb 8b be 05 4c 72 3d
       -0.08255769 -0.022307593 -0.2729148 0.05915453
000390 c7 a5 9a bd b8 1d 05 be 12 f3 21 3d 4b 3d b4 bd
       -0.07551151 -0.12999618 0.03953845 -0.08800753
0003a0 ff 51 03 be d4 50 6f bc a6 04 49 3d 0d 6a dc bd
       -0.12824248 -0.014606673 0.0490767 -0.10762415
0003b0 de df 87 bd 8c 67 80 bd 8c bd 05 be 70 5b b5 bd
       -0.06634496 -0.0626975 -0.13060588 -0.08855331
0003c0 ec 81 3f bd a7 66 5b be 50 f6 97 bd 2c aa 9e be
       -0.046754763 -0.21425878 -0.07420027 -0.30989206
0003d0 e5 a8 04 bc 56 c0 3b be 8f 89 20 be a0 4f 42 3d
       -0.008096908 -0.18335089 -0.15677474 0.047439218
0003e0 28 da 06 3d 34 c4 9f bd 0d 18 2c be 5e 9d f8 3d
       0.032922894 -0.07801095 -0.1680605 0.121393904
0003f0 27 ee 2e be d1 59 8f 3d b3 4d 91 bd 13 45 69 bc
       -0.17083035 0.06999553 -0.07094898 -0.01423766

lstm.bias_hh_l0 f4 [512]
000000 55 c6 c1 bc 74 4a f1 3d be 1e be bd 40 79 ca bc
       -0.023654142 0.11781779 -0.09283207 -0.02471602
000010 0a 65 39 bd ce f2 ca bd 64 b8 0a be 14 d3 d2 bc
       -0.045262374 -0.099095926 -0.13546902 -0.025735416
000020 64 ff 7b bd 4d 43 1c 3e 17 12 bd bd 82 87 54 3d
       -0.061522856 0.15260048 -0.09231966 0.051887043
000030 3e 22 7d be 9e e5 10 be 36 7a c0 bd 76 23 4f bd
       -0.24720094 -0.14150092 -0.0939831 -0.050570928
000040 5a 7f a5 bd 7f 80 c1 bd e5 c3 11 3f 48 1f 1b be
       -0.08080931 -0.09448337 0.56939536 -0.15148652
000050 79 3d 5a be c0 40 bc bd 5e 1f 43 be d7 f0 4d be
       -0.21312512 -0.091920376 -0.19054934 -0.20111404
000060 a9 47 ee bd 0c b2 26 be e5 d2 17 be 9c 72 a2 bd
       -0.11634762 -0.16278857 -0.14826544 -0.07932016
000070 6f 5c 1c bd 11 0d 78 be 32 d0 44 be 18 58 fe 3b
       -0.03817409 -0.24223734 -0.19220045 0.0077619664
000080 db 39 6a bc 11 0e 33 be 61 f7 83 3d 2e f2 0a bd
       -0.01429602 -0.17485835 0.06443668 -0.033922367
000090 51 27 c0 3b 87 ab 78 bd de 1e a5 bd 52 eb e6 bd
       0.005864062 -0.060710456 -0.08062528 -0.112753525
0000a0 a6 14 7c 3b 0a b4 93 bd e9 c6 03 3d 94 08 67 bd
       0.0038464456 -0.07212074 0.032172117 -0.056404665
0000b0 e5 25 14 be af b8 fe 3c 7d a6 28 be 12 c3 27 be
       -0.1446758 0.031093923 -0.1646976 -0.16383007
0000c0 8b 83 28 bd 92 64 56 3d 76 dc 6e 3e da 32 1d bd
       -0.041141074 0.052342005 0.23326287 -0.038378574
0000d0 05 b2 19 be 4b 7d 20 bd 75 fe 73 3d 72 20 42 3c
       -0.15009315 -0.03918199 0.05956884 0.011848556
0000e0 8c 87 24 be 74 e1 4f be 60 52 50 be ff dc f8 3c
       -0.16067332 -0.20300847 -0.20343924 0.030378817
0000f0 8f 71 cb bd bd 94 eb bb 9d dd 30 be 89 44 cb bd
       -0.09933769 -0.007189362 -0.17272039 -0.099251814
000100 41 39 19 3e 2e cd 75 3e a5 6a d8 3d 41 0e 12 3f
       0.14963247 0.24004051 0.10567216 0.57053
000110 54 04 bc 3e fd 1a 61 3d 7a 98 07 be 0c 8c 05 bc
       0.36722052 0.05495738 -0.13241759 -0.008151066
000120 e2 13 84 be 39 dc 45 be 61 41 22 3d 98 c6 3b bd
       -0.2579642 -0.1932229 0.03961313 -0.04584369
000130 25 03 8b 3c f1 7d 81 bd db e0 a2 3c dc 4a 0c be
       0.016969273 -0.063228495 0.01988261 -0.13700432
000140 e2 b4 d3 bc f9 2c 6f 3c 47 65 a1 bd be 4d df bd
       -0.025843088 0.014598125 -0.07880645 -0.109035
000150 56 3d 20 bd 82 85 9b bc 9d 44 99 3d 44 b6 59 be
       -0.039120995 -0.01898456 0.0748379 -0.21260935
000160 79 38 23 bd ac 5f 19 be 1b 25 74 bd 6c 5a 1a bd
       -0.03984878 -0.14977902 -0.0596057 -0.03768389
000170 86 33 32 be bd ae a2 bd c0 8d e9 bc bb 57 8c 3d
       -0.17402467 -0.07943485 -0.028509974 0.06852671
000180 53 56 c7 3c 1d 13 1b bd d9 1b a4 3d d4 e4 1b be
       0.024333155 -0.037860025 0.08013124 -0.1522401
000190 dd 0b b5 bd b3 76 39 be 4a 1e 89 3d d9 42 8c be
       -0.08840153 -0.18111686 0.0669523 -0.2739475
0001a0 92 12 1c be 9e cf c6 bd 78 63 15 be f0 e4 0b be
       -0.15241459 -0.097075686 -0.14588726 -0.13661551
0001b0 23 50 92 bd 4e 50 ab bd e2 a9 94 bd 51 98 3b 3d
       -0.07144191 -0.08364926 -0.07258965 0.045799557
0001c0 54 f6 49 3d 17 77 65 bd 7b b7 db bc e5 b3 a2 3e
       0.049307182 -0.056021776 -0.026820889 0.31777874
0001d0 e3 c7 25 bc 23 92 da be 7a e0 14 3e 09 d7 53 bc
       -0.0101184575 -0.42689618 0.14538756 -0.012929686
0001e0 48 42 db 3e e9 8d 83 3c 54 a2 cc be 99 9a f0 bd
       0.42824006 0.016058879 -0.39967597 -0.11748237
0001f0 c4 55 ae bd 44 0d 82 3d 64 8a 5e be 81 55 23 3d
       -0.08512452 0.063501865 -0.2173248 0.039876465
000200 13 a8 87 bc 51 96 80 be c0 db 9b bc fb 30 c5 bd
       -0.016559636 -0.25114682 -0.019025683 -0.09628483
000210 3a 8a a2 3d 2b 7c d2 3d c0 6a b0 3d 55 00 82 bd
       0.07936521 0.102775894 0.08614111 -0.063477196
000220 ce a0 fa bd b1 fb 83 3d b9 88 9c ba 06 84 46 bd
       -0.12237702 0.06444491 -0.0011942602 -0.04846575
000230 b1 2e 7b be 28 04 6c bb aa 2e 22 3d 4f 69 e1 3c
       -0.2452953 -0.003601322 0.039595284 0.027516035
000240 b6 0d b8 3a 18 c1 dd bc d2 bc 28 be 8e f2 af 3d
       0.0014042172 -0.027069613 -0.16478279 0.085911855
000250 ce ed 84 bd 2d c3 6d be 80 01 82 be c7 fe 48 bc
       -0.0649067 -0.23218985 -0.2539177 -0.012267775
000260 2c 84 e3 bd 13 3f 84 be c2 3a 0a bc 25 45 b1 bd
       -0.11109194 -0.25829372 -0.0084368605 -0.086557664
000270 40 cd fc bc 2c 3a 50 be 6f 36 c4 bd 73 a9 cb bd
       -0.03085959 -0.20334691 -0.09580695 -0.09944429
000280 e9 35 24 3e 0e 98 54 be bd 61 61 3d 0b 5d b3 bd
       0.1603619 -0.2076113 0.05502485 -0.08757981
000290 a4 d0 98 bc 0d 9f c2 bd 2c 96 81 3d 18 c8 41 3d
       -0.018654175 -0.09502993 0.06327471 0.047309965
0002a0 f7 fb a6 bd af 5b 1d 3d 0f 94 91 bd 8b a9 6f bd
       -0.08153527 0.038417514 -0.07108318 -0.0585113
0002b0 e9 4d 16 be f6 af 22 bd fa e9 10 3d 82 3d b1 bd
       -0.14678158 -0.03971859 0.035379387 -0.0865431
0002c0 be 16 18 3d e9 d4 32 bd 86 67 18 3d e3 47 cf bd
       0.037131064 -0.04366008 0.037208103 -0.10121133
0002d0 3a 9a f1 bd 52 f1 8a bd 7b 67 5a bb c7 98 b9 3d
       -0.117969945 -0.067843094 -0.003332584 0.09062343
0002e0 48 ad 5c be 56 66 67 bd 38 3d e6 3e f8 39 39 3d
       -0.21550477 -0.05649408 0.4496858 0.0452213
0002f0 9a 4d 84 3c 31 c5 e9 bd 17 ef 33 be cf a2 3e 3d
       0.016150285 -0.114145644 -0.17571674 0.046541985
000300 6b eb 6b bd 23 ad 15 3d 33 12 5e be 19 87 18 bd
       -0.05759756 0.03654207 -0.2168663 -0.037238214
000310 53 47 f2 3d 01 51 4c bc 61 55 29 bc 86 a0 0d bc
       0.1183001 -0.012470485 -0.010335297 -0.008644229
000320 1d 23 18 3d a2 5b ab 3d 0d 4f 1f 3e 9d 65 ae ba
       0.03714286 0.08367087 0.15557499 -0.001330543
000330 36 2c ae bd 00 d8 90 bd 4b 6c f1 3c 95 03 bb bc
       -0.08504526 -0.07072449 0.029470583 -0.022828856
000340 63 0f a6 3c dd 35 95 bd 6a 20 b0 bd d0 09 0f be
       0.020271009 -0.07285664 -0.085999325 -0.13968587
000350 b5 b8 86 be 70 3f 97 ba fd 1e 97 bd a8 b3 f4 3e
       -0.26312795 -0.0011539292 -0.073789574 0.47793317
000360 d8 22 9b bd 29 8f e6 3d 7d 29 3c bd 61 da b4 3d
       -0.07575005 0.112577744 -0.045938004 0.08830715
000370 c9 50 41 be f9 3b b9 3d d7 d4 da bc b6 7e ae 3d
       -0.18878473 0.09044642 -0.026712818 0.08520262
000380 73 91 85 bd ce 9c 87 bc 7f a6 86 be 84 06 5d bc
       -0.06521883 -0.016554262 -0.262989 -0.013490323
000390 b9 62 a7 bd 58 d5 74 be 35 34 7b bd 55 3b 36 be
       -0.08173127 -0.23909509 -0.061329085 -0.17796071
0003a0 07 a4 6f be 2c c9 bb bd 74 16 11 bd 8b 75 34 bd
       -0.23402415 -0.0916923 -0.035421804 -0.04405741
0003b0 dc 54 46 be c0 94 05 be d8 bc 2c be f0 08 1a be
       -0.19368309 -0.13045025 -0.16868913 -0.15042472
0003c0 3d ee 77 bd 50 a8 56 be e3 ad 5a bd 48 b0 85 be
       -0.060529936 -0.20962644 -0.053388488 -0.26111054
0003d0 db 06 83 bd 62 7c a9 be 28 fb 88 be 7c 23 a4 bd
       -0.06397792 -0.3310271 -0.26754117 -0.080145806
0003e0 1d 15 b9 3c e3 52 2d 3d 6a 64 19 be 1a 12 b4 3d
       0.022593075 0.042315375 -0.14979711 0.08792515
0003f0 7e b0 5d be a4 2c cd 3d 73 cb 25 3d 3d e3 3e 3d
       -0.21649358 0.1001828 0.040477227 0.04660343

fc.weight f4 [4, 128]
000000 15 72 31 bd d2 f7 68 3e 9c c5 a6 3c 48 76 b4 bd
       -0.043321688 0.22750786 0.0203579 -0.08811623
000010 2d fa 18 3d b5 ab b4 3c cc 1a 3f bd 60 54 84 bd
       0.03734796 0.022054533 -0.046656415 -0.06461406
000020 85 87 06 be 18 37 85 bd 36 bd 4d 3d 57 03 30 bb
       -0.13137634 -0.06504649 0.050229274 -0.002685746
000030 d7 c9 5f bc bd 46 b8 bd 48 e1 30 3d 12 bb 38 3e
       -0.013658962 -0.08997867 0.043183595 0.18040112
000040 f0 14 7a bd ca 12 2c be e0 c9 64 bb eb bb 4a 3b
       -0.061055124 -0.16804042 -0.0034910366 0.0030934762
000050 74 29 65 3c 78 4f 57 bb c8 ae 12 3e dd 80 1d bd
       0.013986934 -0.0032853764 0.14324486 -0.03845297
000060 fa 14 16 3e 79 f9 3b 3c b3 19 f1 3d 06 89 0c be
       0.1465644 0.011473053 0.1177248 -0.13724145
000070 d7 52 35 be e8 cc 62 bd ce 59 c4 bd 6d 42 eb 3d
       -0.17707382 -0.055371195 -0.095874414 0.11487279
000080 d9 f8 cb 3c 75 48 44 be 71 57 79 3c 30 df 9b 3d
       0.024898933 -0.19168265 0.015218602 0.07610929
000090 a8 75 0f 3e 5e 21 d4 bd 02 09 f4 3c 36 78 06 bd
       0.14009726 -0.10357927 0.029789452 -0.032829486
0000a0 e2 7a 19 3e 3b fe 39 3e 75 ae 15 be 8a 24 8c 3d
       0.14988282 0.18163387 -0.14617331 0.06842907
0000b0 c0 db 9d bd 0e ef 89 bc 55 dd 1d 3e 37 5a 99 bd
       -0.077079296 -0.016837623 0.15416463 -0.0748791
0000c0 1b 1c 13 be 03 e8 5c be e5 8b 27 3e 1b 9a 71 3d
       -0.1436619 -0.2157288 0.1636196 0.058984857
0000d0 e2 fc 89 ba 22 e0 07 3d 04 7c bd bd 7f bf 5c bd
       -0.0010527635 0.033172734 -0.0925217 -0.053893562
0000e0 e5 ef 86 3d 8f c2 6f bd 8f dd ec 3d 85 c0 00 be
       0.06588725 -0.058535155 0.115656964 -0.1257344
0000f0 a6 91 87 3d e1 64 b2 bb db 15 02 3e 21 13 c7 bd
       0.06619577 -0.0054441546 0.1270365 -0.097204454
000100 ec 13 b2 bc 06 5f 5c bc d7 e2 9f 3e 2b 84 84 bb
       -0.021738015 -0.01345039 0.31227753 -0.004044076
000110 f1 a7 fe 3d 35 b6 ee 3d b7 96 2a bd 35 8b be bc
       0.12434376 0.11655847 -0.04164764 -0.023259738
000120 0a 4c df bd b2 eb 62 3c ff 37 ff 3d 10 13 04 3e
       -0.10903175 0.013850139 0.12461852 0.12897897
000130 ac 35 08 3c 40 2b ab bd b8 ef 6e 3d f5 d0 7c 3d
       0.008313578 -0.08357859 0.058334082 0.061722714
000140 57 58 06 be 83 c3 36 3d dc 13 c3 bc 77 f5 23 bb
       -0.13119636 0.04462005 -0.02381318 -0.0025018135
000150 b2 1a 50 3e 70 d8 72 bd 8e 13 b0 bd 02 f3 b0 bd
       0.20322683 -0.059288442 -0.0859748 -0.086401
000160 f8 82 f3 bb 1d 48 13 bd 4a 81 16 bd 51 01 13 be
       -0.007431384 -0.035957444 -0.036744393 -0.14355971
000170 22 ec a6 3d a0 f7 8a bc 83 3d 70 3e 13 59 13 3e
       0.081505075 -0.01696378 0.23460965 0.14389448
000180 90 0b a4 bd fb 30 c1 bd 43 19 3b bd e2 32 24 3d
       -0.08010018 -0.094331704 -0.04567839 0.040087588
000190 85 0a 81 bb 8a 81 89 bc c3 7b b2 bc 2a 17 ae bd
       -0.0039380216 -0.016785402 -0.02178753 -0.08500512
0001a0 cb b3 fc bd a4 0d 3c be 5e d5 c6 3d 67 61 a1 bd
       -0.1233898 -0.18364578 0.09708665 -0.07879906
0001b0 ec c2 dd 3c f9 f7 7b 3c 04 19 4a bd 88 30 08 3d
       0.027070485 0.0153789455 -0.049340263 0.033249408
0001c0 f5 2f 1e 3d 16 16 90 3d f7 42 27 be c1 d2 4c 3f
       0.038619954 0.070354626 -0.16334139 0.80009085
0001d0 59 fa 8e bb 9d 64 28 3e b4 e0 de 3e 56 8f 1f bc
       -0.00436334 0.16444631 0.4353081 -0.009738764
0001e0 7c 35 af 3e 9e 14 d6 bd 38 44 39 3c 3a d4 27 bd
       0.34220493 -0.10453151 0.0113077685 -0.04097388
0001f0 6c 1c 65 bd cc 08 30 3c 5f e8 01 3d 51 db 81 3d
       -0.05593531 0.010744285 0.031715747 0.063406594
000200 a6 be f4 bd 54 55 f9 bd d6 54 1e 3d b9 0f 02 be
       -0.11950426 -0.12174478 0.038655125 -0.1270131
000210 0f 5b 4e bd 4d cc 01 3e 97 36 9c bd a4 9b bb bd
       -0.05037981 0.12675591 -0.076276 -0.091605455
000220 ca fc 4d be 6a c8 6c 3d ef 29 c2 bc f2 0f b0 3c
       -0.20115963 0.057808317 -0.023701636 0.021491978
000230 af 92 6e 3d 78 77 1d be 25 51 48 3d 17 67 93 3d
       0.058245357 -0.15377605 0.04890551 0.07197397
000240 24 df b0 bd b9 b2 34 be e6 68 96 3b 47 86 e7 bb
       -0.08636311 -0.17646302 0.0045901416 -0.0070655677
000250 47 75 17 bc ad a5 9a 3b 94 32 0c be 2f cc 9e bb
       -0.00924427 0.004719457 -0.13691169 -0.004846118
000260 71 1c 85 3d 4e d4 97 3c 16 96 99 bb df 38 ea 3b
       0.064995654 0.018533852 -0.004687081 0.007147893
000270 96 2e 43 be 74 f7 88 bd 23 6e f4 bb a3 9d bf 3d
       -0.1906074 -0.06687823 -0.0074594184 0.09356239
000280 79 80 06 be 67 13 9a bd 6f 2c 80 3c 2a a3 10 3e
       -0.13134946 -0.07523232 0.015646188 0.14124742
000290 bc ea 04 3d 6e 3f 1e be 71 7a 94 3d cd 07 a1 3c
       0.032450423 -0.15453884 0.07249916 0.01965704
0002a0 b0 f8 a4 3d 57 f7 50 3e 5b b4 03 be b3 81 01 3e
       0.08055246 0.20406853 -0.12861769 0.12647133
0002b0 8b e2 13 be 15 c2 88 bd 46 89 be 3d 3e a3 9a 3c
       -0.14441888 -0.06677643 0.093035266 0.018876668
0002c0 2c 30 55 be 6f 8b 7f bd af 25 35 bd 42 3e da 3d
       -0.20819157 -0.062388834 -0.04422539 0.10656406
0002d0 e9 8e 46 bb b9 d9 79 bc 71 2a a0 bd 4f 0c 06 bd
       -0.0030297583 -0.015249663 -0.07820595 -0.032726582
0002e0 1d 60 7d bd 00 ff 1b be 50 b5 54 3d 46 b6 46 be
       -0.06185924 -0.15233994 0.051930726 -0.1940547
0002f0 f2 73 b3 3d 5b 0c 21 3e c5 a8 eb bd da 47 2b be
       0.08762349 0.1572737 -0.115067996 -0.16726628
000300 c8 cd 1e bd de a4 26 bc 19 3b bb 3e 4e cb 07 bd
       -0.038770467 -0.010171143 0.36568525 -0.03315287
000310 02 af 2f be c9 9d 14 3e 3e d6 45 be d2 ad 21 be
       -0.17156604 0.14513315 -0.19320008 -0.15788963
000320 e4 fc 25 bc 72 e3 54 bd 81 12 54 3e 06 7c 29 3c
       -0.010131095 -0.05197472 0.20710184 0.010344511
000330 bf 99 68 bb 89 0b d3 bc 24 4f 3e 3e fa 40 1a 3c
       -0.003549203 -0.025762336 0.18584877 0.009414906
000340 02 60 0e be b5 96 ec 3c 31 9a af bd b6 44 08 be
       -0.13903812 0.028880456 -0.085743316 -0.13307461
000350 d0 55 e0 3d 40 b8 7c bd 6f c0 0c bd 95 1b 22 bc
       0.109538674 -0.061699152 -0.034363206 -0.009894271
000360 6a 2c 2b 3e 10 31 40 bd 93 e8 a1 3d 6e 53 42 be
       0.16716161 -0.04692179 0.07905688 -0.18977138
000370 33 5e 5d 3d e6 1f 31 bd ec 1f 85 3e ce 8e 37 3e
       0.054044914 -0.04324331 0.26000917 0.1792557
000380 6a 74 0b 3e 21 c5 a2 3d 42 9e d6 3d 29 dc cd 3d
       0.13618627 0.079477556 0.10479404 0.10051758
000390 69 64 98 3d 24 8d 7d bd 66 3e c7 bd ec b3 12 be
       0.07441027 -0.06190218 -0.097286984 -0.14326447
0003a0 eb 68 97 be 76 c2 91 bc fd 68 62 bd 4f 84 9d bb
       -0.29572234 -0.017792922 -0.055275906 -0.004807032
0003b0 55 b8 6b 3c 3a e7 03 3c 30 e0 51 3b 8f 13 f6 bd
       0.01438721 0.008050734 0.0032024495 -0.12015449
0003c0 7b 56 2b be 7d b3 c9 bd 6a 46 03 be 63 20 ec 3d
       -0.16732208 -0.09848688 -0.1281983 0.11529615
0003d0 61 31 29 be 3d 68 be 3d 62 4d cd be bd da f3 bb
       -0.16522743 0.092972256 -0.400981 -0.007441847
0003e0 3a 4c 08 bf 84 12 9d bd 5b 7d 12 bd 22 13 78 bc
       -0.5324131 -0.07669547 -0.03576408 -0.01514128
0003f0 3d 70 06 3c 7d ae e1 3d 08 4c 87 bd 0c 9d b5 3d
       0.008205471 0.11019609 -0.06606299 0.08867845

fc.bias f4 [4]
000000 d1 fc 72 3e 6f 19 1c 3e 2f 7f 65 3e 72 05 3c 3e
       0.23729254 0.15244077 0.22411798 0.18361452
