lstm_hdim_128_wsize_20_interval_7_nlayers_1_bs_512_lr_0.01_decay_0.95_epoch_36.pt (torch, 277987 bytes, 6 tensors)

lstm.weight_ih_l0 f4 [512, 4]
0	0xbd9ceaa2	-0.0766194
1	0xbcc65b4d	-0.024213457
2	0xbe2ccc62	-0.16874841
3	0x3e04f910	0.12985635
4	0xbf078493	-0.5293667
5	0x3ec46758	0.38360095
6	0xbecda4e3	-0.4016486
7	0x3e6d97fe	0.23202512
8	0xbe1a06ba	-0.15041628
9	0xbdd647c7	-0.10462909
10	0x3d123ded	0.03570359
11	0x3d6c477b	0.057685357
12	0xbe04affe	-0.1295776
13	0xbcd966ae	-0.02653822
14	0x3e24e435	0.16102679
15	0xbe1598a8	-0.14609015
16	0xbc42f6f5	-0.011899699
17	0xbdb1feae	-0.086911544
18	0xbe7d2184	-0.24719816
19	0x3e515fb9	0.20446672
20	0xbe4c7b70	-0.19968963
21	0xbbcf1cc5	-0.0063205683
22	0x3bda2e50	0.006658353
23	0x3dfe5bca	0.12419851
24	0xbd952abe	-0.07283543
25	0xbd6c7cbe	-0.05773615
26	0xbbac4b7a	-0.005258021
27	0xbdbbdef6	-0.09173386
28	0xbd548d13	-0.05189235
29	0xbdece343	-0.11566784
30	0xbd231cad	-0.03982227
31	0xbe23ae28	-0.15984404
32	0x3e1a971c	0.15096706
33	0x3e6d3ced	0.23167773
34	0xbdff61ac	-0.12469801
35	0xbddb19ba	-0.10698266
36	0xbf1de9b7	-0.61684746
37	0x3def15a4	0.116740495
38	0xbf4390d6	-0.7639288
39	0x3e5c0dad	0.21489592
40	0xbe5c08a6	-0.21487674
41	0xbe6c1934	-0.23056489
42	0xbd65f91f	-0.056145784
43	0xbe6963c5	-0.22791965
44	0xbb5f7e04	-0.003410221
45	0x3d11584c	0.035484597
46	0x3daafc15	0.08348862
47	0x3e4c7e97	0.19970165
48	0xbe014877	-0.126253
49	0xbd96bde7	-0.0736044
50	0xbf9cf988	-1.2263651
51	0xc012f285	-2.2960522
52	0xbd94ef4d	-0.072722055
53	0x3deb1eea	0.11480506
54	0xbd2dd54d	-0.042439748
55	0xbe2844f0	-0.16432548
56	0xbe4262d8	-0.18983018
57	0x3e16ee42	0.14739326
58	0xbf256d73	-0.6462013
59	0xbf3034c0	-0.6883049
60	0x3e587aa2	0.2114053
61	0x3beb1e3c	0.007175235
62	0xbe691e11	-0.22765376
63	0x3de26a53	0.11055436
64	0x3cc058dc	0.023479871
65	0xbda91c5f	-0.082573645
66	0xbd93d848	-0.07218987
67	0xbf0b21ae	-0.54348266
68	0x3e0bc192	0.1364806
69	0x3e0d56e9	0.13802685
70	0x3dfaa49e	0.122384295
71	0xbc1cae38	-0.009563021
72	0x3e67cef5	0.22637542
73	0x3f205261	0.626257
74	0xc0cb37be	-6.3505545
75	0xc00610e3	-2.0947807
76	0xbedabb77	-0.4272115
77	0xbedbd153	-0.4293314
78	0x40271bf8	2.611082
79	0x40634b33	3.5514648
80	0xbe6f1e7b	-0.23351471
81	0xbe6da567	-0.23207627
82	0x3e4ccd62	0.20000222
83	0xbf189ab4	-0.5961106
84	0xbd35762d	-0.044302154
85	0xbd2e56e5	-0.042563338
86	0xbfff7698	-1.9958067
87	0xbf8cec46	-1.1009605
88	0xbef56c20	-0.47934055
89	0xbcdc5b09	-0.026898878
90	0x3c6774f9	0.01412701
91	0x3e0bfbca	0.13670269
92	0xbe718f6f	-0.23589872
93	0xbe3fae11	-0.18718745
94	0xbe806f69	-0.25085
95	0xbec9128c	-0.39271963
96	0x3d8c7160	0.06857562
97	0xbe38902c	-0.18023747
98	0xbd9fc64a	-0.078014925
99	0x3e5ad713	0.21371107
100	0xbd780079	-0.060547326
101	0xbdfe9a94	-0.12431827
102	0x3e9bea6e	0.30452293
103	0x4005b7bd	2.0893395
104	0x3ce92db6	0.02846418
105	0xbe50d1d3	-0.20392542
106	0xbe2c78f0	-0.16843009
107	0x3e8db3fa	0.27676374
108	0x3eae1403	0.33999643
109	0xbd2b79b9	-0.04186413
110	0xbdeb18f3	-0.11479368
111	0xbdce6f2a	-0.100797966
112	0x3db3554a	0.08756502
113	0x3e1f2d76	0.15544686
114	0x3d0f5717	0.034995165
115	0x3e097e59	0.13427104
116	0xbe29c44a	-0.16578785
117	0xbece5c49	-0.40304783
118	0xbf028250	-0.5098009
119	0x3ed76027	0.42065546
120	0x3d9a1293	0.07523074
121	0xbe093879	-0.13400449
122	0x3e6e8de4	0.23296314
123	0xbe2ed902	-0.1707497
124	0x3dbb4df5	0.091457285
125	0x3d2c05ca	0.04199771
126	0xbcb31042	-0.021858338
127	0xbc53c25a	-0.012924755
128	0x3d650a5c	0.055918083
129	0x39af545c	0.00033441454
130	0x3e7c8dab	0.24663417
131	0x3e12c451	0.14332701
132	0x3e1946be	0.14968392
133	0xbe1017aa	-0.14071527
134	0xbed0db44	-0.40792286
135	0xbeded265	-0.43519893
136	0x3e5dbf5e	0.21655032
137	0x3b0bbbc5	0.0021321636
138	0x3e47ca91	0.19510867
139	0xbfc67941	-1.5505754
140	0xbd55257f	-0.052037712
141	0x3ca9e9d7	0.020741386
142	0x3cc46143	0.02397216
143	0xbd4406d3	-0.04785807
144	0x3e140f21	0.14458896
145	0xbd979847	-0.074020915
146	0xbc468449	-0.0121165
147	0xbe560623	-0.20900778
148	0x3c33eff8	0.010982506
149	0x3e1ac19b	0.15112917
150	0x3e69b36b	0.22822349
151	0x3e096bc2	0.13420013
152	0xbd226420	-0.039646268
153	0xbc55b957	-0.013044677
154	0xbe45ecc8	-0.19328606
155	0x3e177a3c	0.14792722
156	0xbdde97c8	-0.10868794
157	0xbd50fd9b	-0.051023107
158	0x3e414fb8	0.18878067
159	0xbe61956f	-0.2202966
160	0x3e201495	0.15632851
161	0xbdda50b1	-0.10659922
162	0xbed4c9cf	-0.41560218
163	0xbe730335	-0.23731692
164	0x3e39c04e	0.18139765
165	0x3e608717	0.21926533
166	0x3da7ef74	0.08199969
167	0x3d03436e	0.032046728
168	0x3dac6c3d	0.08419082
169	0x3e136daf	0.1439731
170	0xbe5caa83	-0.2154942
171	0xbd81b647	-0.06333595
172	0xbd7bcceb	-0.061474722
173	0x3d58ba43	0.052912008
174	0x3d1f1cd5	0.038845856
175	0xbe02830e	-0.12745306
176	0xbea04a56	-0.31306714
177	0xbdc4412b	-0.09582742
178	0xbe4810bd	-0.19537635
179	0xbec271f6	-0.3797757
180	0xbf09bb10	-0.5380106
181	0x3dde9c37	0.10869639
182	0x3f3cf5ba	0.7381245
183	0xbfaa30f2	-1.3296187
184	0x3d9f5502	0.07779886
185	0x3cce64c4	0.025194533
186	0xbe529389	-0.20564093
187	0x3ddb7772	0.10716142
188	0xbd823937	-0.06358569
189	0xbeb41441	-0.35171703
190	0xbe14fe27	-0.14550076
191	0xbe69c4a6	-0.22828922
192	0x3e062b45	0.13102444
193	0x3e7016bd	0.23446174
194	0xbe951cbd	-0.29123488
195	0x3d8a280a	0.06745918
196	0x3ea35762	0.31902605
197	0xbe4fbae1	-0.20286132
198	0xbd4f5687	-0.05061963
199	0x3cbde09e	0.023178395
200	0x3de8d4db	0.11368724
201	0x3e293702	0.1652489
202	0x3e189a16	0.14902529
203	0xbeebe88e	-0.46075863
204	0xbd1ba187	-0.03799584
205	0x3de9975c	0.11405823
206	0xbf0ab984	-0.54189324
207	0xbeeec34f	-0.46633384
208	0xbdbe52ad	-0.09293113
209	0xbea26903	-0.31720743
210	0x3de6ffc7	0.112792544
211	0x40fb4e99	7.8533444
212	0x3d54791c	0.05187331
213	0xbd665f85	-0.05624344
214	0xbf7d338f	-0.989068
215	0xbf17d362	-0.5930692
216	0x3dee87f5	0.116470255
217	0x3dc7f3da	0.09763308
218	0xbdbd5646	-0.09244971
219	0x3d1f8810	0.03894812
220	0xbd4a062c	-0.049322292
221	0xbdc3d060	-0.09561229
222	0x3ff8d40a	1.9439709
223	0x3f06ef81	0.52709204
224	0xbe07da9e	-0.1326699
225	0xbec265a1	-0.37968162
226	0xbd0c64dd	-0.03427588
227	0xbee7779e	-0.45208448
228	0xbe9c8d18	-0.30576396
229	0x3e147800	0.14498901
230	0xbe01356c	-0.12618035
231	0xbe8aa89a	-0.27081758
232	0xbebb6933	-0.36603698
233	0xbe80d132	-0.25159603
234	0x3d7d1bce	0.061794095
235	0xbd249a2c	-0.040186092
236	0x3c1ae776	0.009454599
237	0x3e1e92a4	0.15485626
238	0xbe694fc8	-0.2278434
239	0xbe348961	-0.17630531
240	0xbd609ebc	-0.05483888
241	0xbe450fbe	-0.19244286
242	0xbeda64d0	-0.4265504
243	0x3e808c56	0.25107068
244	0xbdf3c9ae	-0.11903702
245	0x3e621a50	0.2208035
246	0x3d7151f3	0.058916043
247	0x3e286d8b	0.16448037
248	0xbf193056	-0.5983938
249	0xbe21dddb	-0.15807287
250	0x3ee89aac	0.45430505
251	0xbcee9217	-0.029122395
252	0xbdb69598	-0.089152515
253	0x3da0ab14	0.078451306
254	0x3d0a71c8	0.033799917
255	0xbdffdd85	-0.12493423

lstm.weight_hh_l0 f4 [512, 128]
0	0xbcd0318a	-0.025414247
1	0xbe916098	-0.28394008
2	0x3bc5d417	0.006037246
3	0x3dbb388a	0.09141643
4	0x3e72f284	0.23725325
5	0x3d841f53	0.06451287
6	0xbd1bacc1	-0.038006548
7	0x3d6b5414	0.05745323
8	0x3b003f7f	0.0019569097
9	0x3ee73eaf	0.4516501
10	0xbddf4727	-0.10902243
11	0xbe086379	-0.13319196
12	0x3f015389	0.5051809
13	0x3e28d367	0.16486894
14	0xbdacd141	-0.084383495
15	0xbb88cc81	-0.0041747694
16	0x3d38ac12	0.045085974
17	0x3db120ea	0.08648856
18	0xbf20f182	-0.6286851
19	0x3fb0359f	1.3766364
20	0x3e5d8412	0.21632412
21	0x3eb5bf89	0.35497692
22	0xbd14ff24	-0.036376134
23	0xbe1e2654	-0.15444309
24	0xbc9b1e36	-0.018935304
25	0xbe7a4679	-0.24440946
26	0xbd1f6463	-0.038914096
27	0xbdc8e203	-0.09808733
28	0xbc9bddd0	-0.019026667
29	0x3bf6b2da	0.007528645
30	0xbca4f4a6	-0.020136189
31	0x3cdee24d	0.027207518
32	0xbd8833fa	-0.06650539
33	0xbe043ed8	-0.12914598
34	0xbefca36d	-0.49343434
35	0xbcb2c3a7	-0.02182181
36	0x3c8a125d	0.01685446
37	0x3d2ba062	0.041901
38	0x3d01e65d	0.031713832
39	0xbda7264d	-0.08161602
40	0xbe1aa87d	-0.15103336
41	0x3dba38d3	0.090928696
42	0x3beff826	0.007323283
43	0xbdaa812e	-0.0832542
44	0x3dd2701f	0.10275292
45	0xbd45c07f	-0.04827928
46	0x3d6b3096	0.057419382
47	0x3c89788a	0.01678111
48	0x3b464209	0.0030251762
49	0x3c614817	0.013750098
50	0xbec8e5c6	-0.39237803
51	0xbe9d200f	-0.3068852
52	0xbf5374f8	-0.82600355
53	0xbd2b57e0	-0.04183185
54	0xbe0805cb	-0.1328346
55	0xbd959b6c	-0.07305035
56	0xbe0995eb	-0.13436095
57	0x3e01a35a	0.1265997
58	0xbef6f4d5	-0.48233667
59	0x3cea7371	0.0286195
60	0xbe159013	-0.14605741
61	0x3daa3a8f	0.083119504
62	0xbd117e14	-0.035520628
63	0x3d0adcdc	0.033902034
64	0x3eb0f06b	0.34558424
65	0x3e961c9c	0.29318702
66	0xbcc2cceb	-0.023779353
67	0xbd0581c5	-0.03259446
68	0xbe50288c	-0.20327967
69	0x3e0fe72c	0.14053029
70	0x3e0b4fac	0.13604611
71	0x3dd93798	0.10606307
72	0xbe222e46	-0.15837964
73	0x3e0c521e	0.137032
74	0x3ee16d86	0.44028872
75	0xbe12954e	-0.14314768
76	0x3d059323	0.032611024
77	0x3c7fd97a	0.015615815
78	0xbe1d7ff2	-0.15380839
79	0xbc888750	-0.016666085
80	0xbb9ff635	-0.004881645
81	0x3ea6d310	0.32582903
82	0xbe7158ee	-0.2356908
83	0x3dd1fbff	0.102531426
84	0x3ee3fca9	0.44528702
85	0x3df34791	0.118788846
86	0x3bb6104c	0.005556142
87	0xbd8780d9	-0.066163726
88	0xbd55abe7	-0.052165892
89	0x3ea60e03	0.32432565
90	0xbe598450	-0.2124188
91	0xbcfd8f9e	-0.030952271
92	0xbd6086af	-0.054815944
93	0x3e07fc04	0.1327973
94	0x3ba30718	0.004975211
95	0x3d40e463	0.047092807
96	0xbddb2f53	-0.10702386
97	0x3d0e57b8	0.034751624
98	0xbe6b964c	-0.23006552
99	0xbcc28648	-0.02374567
100	0xbcd003fc	-0.025392525
101	0xbec91ffa	-0.3928221
102	0xbe028986	-0.12747774
103	0x3ce7883d	0.028263206
104	0x3e23de6b	0.16002814
105	0x3d47b6ab	0.04875819
106	0x3ec5b1ed	0.3861231
107	0xbcb5dd15	-0.022200147
108	0x3ef4507f	0.47717664
109	0xbe3fd0e9	-0.18732037
110	0xbe5859c8	-0.21127999
111	0xbe03cad5	-0.12870343
112	0x3dcf83fa	0.101325944
113	0x3d1f6423	0.038913857
114	0x3e1da12a	0.1539351
115	0xbe8a4c0f	-0.27011153
116	0x3d8e9a5a	0.06963034
117	0xbdcf3533	-0.10117569
118	0x3e4cc9c3	0.19998841
119	0xbe6b4cfb	-0.22978584
120	0x3e771259	0.24128093
121	0x3e597a47	0.21238051
122	0xb9a3ab76	-0.0003121753
123	0xbd63a540	-0.055577517
124	0x3d4318a4	0.04763092
125	0x3f2f9725	0.68590003
126	0x3d9d4b0f	0.07680332
127	0x3f6daef0	0.9284506
128	0x3ea91151	0.33021024
129	0xbf79ec4a	-0.97626173
130	0xbf2e0454	-0.67975354
131	0x3ea197d4	0.31561148
132	0x3e75aa18	0.23990667
133	0xbe8e2435	-0.27762
134	0x3f155214	0.58328366
135	0x3eac366e	0.33635277
136	0x3f009a62	0.5023557
137	0xbeefc394	-0.46828902
138	0xbf17d759	-0.5931297
139	0x3f1cbbd6	0.61224115
140	0xbfc5b2b7	-1.5445164
141	0x3f0c2e52	0.5475818
142	0xbec39e26	-0.38206595
143	0xbe9bab85	-0.30404297
144	0x3ee5c5da	0.4487751
145	0x3efb58a4	0.49091065
146	0xbf9df261	-1.2339593
147	0x3e95a121	0.29224494
148	0xbbc0ec73	-0.005887562
149	0x3f18c9e3	0.59683055
150	0x3db23a45	0.0870252
151	0xbf101bd8	-0.56292486
152	0xbed372db	-0.41298565
153	0xbe30f220	-0.17279863
154	0x3ea60fc7	0.32433912
155	0x3f74a5d1	0.95565516
156	0x3ec414b6	0.3829705
157	0xbd8c8d99	-0.06862945
158	0x3f394484	0.7237017
159	0xbe41402d	-0.18872137
160	0xbfde2b76	-1.7357013
161	0x3eb9994c	0.3624977
162	0xbf991a6d	-1.196119
163	0xbe8da14e	-0.27662128
164	0xbefabcf8	-0.48972297
165	0x3f2887e6	0.65832365
166	0x3e4c2d75	0.19939215
167	0xbfd4494f	-1.6584872
168	0xbe8ef09b	-0.27917942
169	0xbf11539d	-0.5676821
170	0x3eca0884	0.39459622
171	0xbe939d9c	-0.28831184
172	0x3e0237c0	0.1271658
173	0x3f1654a8	0.58722925
174	0xbe5d1acb	-0.21592252
175	0xbe9479ff	-0.28999326
176	0x3ec762e8	0.38942647
177	0x3ef095fe	0.46989435
178	0x3f8bb7cd	1.0915467
179	0x3df58ade	0.119893774
180	0x3f6bff6c	0.9218662
181	0xbec6eae1	-0.38851073
182	0xbef49ce1	-0.4777594
183	0xbf410852	-0.7540332
184	0x3ec7b417	0.39004585
185	0x3dcc02db	0.09961482
186	0xbf6c967b	-0.92417115
187	0x3f0108b3	0.504039
188	0xbedbdcf3	-0.42942008
189	0xbe84835e	-0.25881475
190	0x3f3c192e	0.7347592
191	0x3eda12ec	0.4259256
192	0xbe8991a0	-0.26868916
193	0xbe79f504	-0.24409872
194	0xbe75646f	-0.23964094
195	0xbf39fb48	-0.7264905
196	0x3f1949a6	0.59878004
197	0xbc9031d2	-0.017601881
198	0x3e9cb732	0.30608517
199	0x3f2145e1	0.6299725
200	0x3e5dbe05	0.21654518
201	0xbdf06eb5	-0.11739866
202	0xbf148c36	-0.58026445
203	0x3eb072cf	0.34462592
204	0xbe480add	-0.19535394
205	0x3e5ecf53	0.21758775
206	0xbf01d3fc	-0.5071409
207	0xbee6761e	-0.4501199
208	0x3e9d5b45	0.30733696
209	0x3f374697	0.71592087
210	0xbf4d0d65	-0.80098563
211	0x3cd4e3de	0.025987562
212	0xbf3cab71	-0.736991
213	0x3e21bed8	0.15795457
214	0x3e6bbccb	0.23021238
215	0xbf0efe02	-0.55856335
216	0xbeca30ad	-0.39490262
217	0x3f8f228a	1.1182415
218	0xbf8b3371	-1.0875074
219	0x3f154c76	0.58319795
220	0xbef38558	-0.4756267
221	0x3d2c1ed9	0.042021606
222	0xbf17caf0	-0.59294033
223	0xbf19aede	-0.6003245
224	0xbf6aefe5	-0.917723
225	0x3f243558	0.64143896
226	0xbf0a559d	-0.54036885
227	0xbd3f7892	-0.046745844
228	0x3f8545b7	1.04119
229	0xbd854113	-0.065065525
230	0xbf9f2ee1	-1.2436181
231	0xbc99982e	-0.018749323
232	0xbdf4a5f3	-0.11945715
233	0x3ed4e22b	0.41578802
234	0x3e3fd67c	0.18734163
235	0x3cd4b41a	0.025964785
236	0x3dc466b0	0.095898986
237	0x3f4fe163	0.8120329
238	0xbf552555	-0.8326009
239	0x3ed9a3de	0.42507833
240	0x3f301dd5	0.6879552
241	0xbeadd661	-0.3395262
242	0x3f34aa29	0.70572144
243	0xbfb66af5	-1.4251391
244	0x3efd0792	0.49419838
245	0x3e2d2b96	0.16911158
246	0xbde1ce5e	-0.110256895
247	0x3f290a3a	0.6603123
248	0x3f50d52a	0.8157526
249	0xbdf32df0	-0.11873996
250	0x3dc02eea	0.09383948
251	0xbf3d65e2	-0.73983586
252	0x3d8b642a	0.06806214
253	0x3df4cd5b	0.11953231
254	0xbcc40a8f	-0.023930816
255	0xbf09eb14	-0.53874326

lstm.bias_ih_l0 f4 [512]
0	0xbdecbc7d	-0.11559389
1	0x3df1bc75	0.118035235
2	0xbe54c564	-0.20778424
3	0xbe241351	-0.16022994
4	0xbcddd77f	-0.027080296
5	0xbd835253	-0.064121865
6	0x3b049cf5	0.0020235155
7	0xbd9b8428	-0.07593566
8	0xbc3fcda1	-0.011706741
9	0x3e1b9b71	0.15196015
10	0xbe1c94fa	-0.15291205
11	0xbd7d22e6	-0.06180086
12	0xbe6b584a	-0.22982898
13	0x3b8e5296	0.004343341
14	0xbe3ed7f9	-0.18637075
15	0x3c80d790	0.015727788
16	0xbd2b0e65	-0.041761775
17	0x3d17a747	0.037024762
18	0x3f0a766e	0.5408696
19	0xbe514ca3	-0.20439391
20	0xbe42018c	-0.18945903
21	0xbdbed952	-0.09318794
22	0xbe0bb931	-0.13644864
23	0xbe3dfc24	-0.18553215
24	0xbcde4828	-0.027134016
25	0xbe8f0f82	-0.2794152
26	0xbdfaa6cc	-0.12238845
27	0x3d89400a	0.067016676
28	0xbd06c92c	-0.032906696
29	0xbebb4f4f	-0.36583945
30	0xbe68571c	-0.2268948
31	0x3d32baa4	0.043635026
32	0xbdd1fb55	-0.10253016
33	0xbe322afd	-0.17399211
34	0x3d8cd9be	0.068774685
35	0xbe14a8c7	-0.14517508
36	0xbdbc97b2	-0.09208621
37	0xbd3377d0	-0.043815434
38	0xbe270af7	-0.16312777
39	0xbe02f5d1	-0.12789084
40	0xbcb3600f	-0.02189639
41	0x3c5c52ef	0.013447507
42	0xbdf9dec4	-0.12200692
43	0xbd3bb22a	-0.045824207
44	0xbd6e2922	-0.058144696
45	0xbd34d55c	-0.044148788
46	0xbe0ba737	-0.13638006
47	0xbe923fe4	-0.2856437
48	0xbd84a657	-0.06477039
49	0x3d444acd	0.047922898
50	0x3d8eb7ca	0.06968649
51	0xbd305f26	-0.04305949
52	0xbdb89cd7	-0.0901429
53	0xbcd20c00	-0.025640488
54	0xbd15efbc	-0.03660558
55	0xbe2a7b53	-0.16648607
56	0xbe168566	-0.14699325
57	0xbe5279bc	-0.2055425
58	0xbeb8714c	-0.3602394
59	0x3d34d0c7	0.044144418
60	0xbd8396aa	-0.06425221
61	0xbce21f93	-0.027602946
62	0xbe31309c	-0.173037
63	0xbe11317b	-0.14179032
64	0x3e1642b1	0.14673878
65	0x3eb0cdab	0.34531912
66	0x3e2bdbcb	0.16783063
67	0x3f1d9702	0.61558545
68	0x3e992d0f	0.2991719
69	0xbd939ca1	-0.07207609
70	0xbe1a4639	-0.1506585
71	0xbd5cf4c0	-0.05394435
72	0xbe1d6c25	-0.15373285
73	0xbe123f34	-0.14281923
74	0xbc3f1605	-0.011662965
75	0xbc8fcca4	-0.017553635
76	0xbd34be38	-0.04412672
77	0xbe19177f	-0.1495037
78	0xbda279ea	-0.079334095
79	0xbe0e535f	-0.13898991
80	0xbd63aa24	-0.05558218
81	0xbd4e8373	-0.05041833
82	0xbdfc446e	-0.123177394
83	0x3c649d43	0.01395351
84	0xbcc410c4	-0.023933776
85	0xbdbf54de	-0.09342359
86	0xba0901e1	-0.0005226415
87	0xbe8c86ec	-0.27446687
88	0xbdf44f44	-0.11929181
89	0xbe599a03	-0.21250157
90	0xbdcb2ab9	-0.09920258
91	0x3d3a78da	0.04552541
92	0xbe74f709	-0.23922361
93	0xbe029857	-0.12753426
94	0xbd3fdb17	-0.0468398
95	0x3c394057	0.011306844
96	0x3c911c83	0.01771379
97	0x3b296f3f	0.0025853661
98	0x3d425891	0.047447745
99	0xbe61fbaa	-0.22068658
100	0xbcb724d3	-0.022356426
101	0xbe581456	-0.21101508
102	0xbd741767	-0.05959263
103	0xbe703287	-0.23456775
104	0xbd8ae8cf	-0.06782686
105	0xbdfd8454	-0.12378755
106	0xbd9052ad	-0.07047019
107	0xbd59670e	-0.053076796
108	0xbe0e6dae	-0.13909027
109	0xbcd02496	-0.02540807
110	0xbdf4cbd9	-0.11952943
111	0x3d9b03b8	0.07569069
112	0xbdafeb22	-0.0858977
113	0x3d1943df	0.037418243
114	0xbe1aa595	-0.15102227
115	0x3e8adb4f	0.27120444
116	0xbd247130	-0.040147007
117	0xbeb72744	-0.35772145
118	0x3e4f201a	0.2022709
119	0x3bebe08c	0.007198399
120	0x3f1ac444	0.6045573
121	0xbe02c234	-0.12769395
122	0xbe7f1a14	-0.24912292
123	0xbd0c3eb3	-0.034239482
124	0xbe49a836	-0.19693074
125	0xb9dbe03a	-0.00041937997
126	0xbe1b204b	-0.15149038
127	0x3d99c7f5	0.07508842
128	0xbe1a1bc1	-0.1504965
129	0xbe489b34	-0.19590455
130	0xbda9cd8d	-0.08291159
131	0x3d63b14e	0.055589013
132	0xbd326347	-0.04355171
133	0x3db64195	0.088992275
134	0x3d8a4086	0.06750588
135	0xbda389dc	-0.07985279
136	0x3d36d3c8	0.044635564
137	0x3dd64194	0.10461727
138	0xbdc3a67c	-0.09553239
139	0xbdedb7c9	-0.1160732
140	0xbe946298	-0.2898147
141	0xbdf944ee	-0.121713504
142	0x3e3c21ee	0.18372318
143	0xbc997651	-0.018733175
144	0xbdec4aaa	-0.115376785
145	0x3c47d831	0.01219754
146	0xbe1c7040	-0.15277195
147	0x3da53081	0.08065892
148	0xbdb3f73f	-0.08787393
149	0xbe2c936f	-0.16853116
150	0xbe164220	-0.14673662
151	0xbd3d2a32	-0.04618282
152	0x3cba317d	0.022728676
153	0xbdecc50d	-0.11561022
154	0xbd929c3c	-0.071587056
155	0xbd1864e5	-0.037205596
156	0xbd061375	-0.0327334
157	0xbe788956	-0.2427114
158	0xbd71da13	-0.059045862
159	0xbdb70dc4	-0.089381725
160	0x3e18bff3	0.14916973
161	0xbeb89b3b	-0.3605593
162	0x3e0e60af	0.1390407
163	0x3ceaf323	0.02868039
164	0xbcb2c773	-0.02182362
165	0xbd35a534	-0.044347003
166	0x3d4ac8e2	0.049507983
167	0xbd80a8a5	-0.062821664
168	0xbdc07cbe	-0.09398793
169	0xbcbe0b17	-0.023198647
170	0x3d73b02e	0.05949419
171	0x3c9566e3	0.018237537
172	0xbe107d8b	-0.14110391
173	0xbb882f87	-0.0041560563
174	0xbd390eba	-0.04518006
175	0xbdb70f99	-0.08938522
176	0xbd8297f3	-0.06376638
177	0x3bae4368	0.005318094
178	0x3d890e4d	0.06692181
179	0xbd815b4f	-0.06316244
180	0xbe0e0992	-0.13870838
181	0xbe09d0df	-0.13458584
182	0xbc614dd2	-0.013751464
183	0xbd8038b8	-0.06260818
184	0xbe3edf7e	-0.18639943
185	0xbc9f6c10	-0.019460708
186	0x3f04627c	0.51712775
187	0xbd2a127e	-0.04152154
188	0xbd4b9fe2	-0.049713023
189	0xbd21f75c	-0.03954254
190	0xbe544641	-0.20729925
191	0x3c8b67d0	0.017017275
192	0xbe4446f8	-0.19167697
193	0x3da27d9d	0.07934115
194	0xbe4ff1d4	-0.20307094
195	0xbe026b62	-0.12736276
196	0x3dfa5ca7	0.12224703
197	0x3d133020	0.035934567
198	0x3d9556b5	0.07291929
199	0xbae716d3	-0.0017630704
200	0x3e59531f	0.21223114
201	0xbbc07818	-0.0058736913
202	0x3e3a806b	0.1821305
203	0x3dd5b134	0.104341894
204	0xbdd40457	-0.1035239
205	0xbc9ea223	-0.019364422
206	0xbce3c0db	-0.027801922
207	0xbb74a7df	-0.0037331504
208	0x3c5f9c92	0.013648169
209	0xbd233ac1	-0.039850954
210	0xbe0e5d66	-0.13902816
211	0xbd950081	-0.07275487
212	0xbe15b6dc	-0.14620537
213	0xbde529fb	-0.11189648
214	0xbdb5d7fb	-0.08879086
215	0x3f07dab1	0.5306807
216	0xbdd8fa74	-0.10594645
217	0x3e04d1b6	0.12970623
218	0xbdef8298	-0.11694831
219	0x3dabce66	0.08388977
220	0xbe3485ab	-0.17629115
221	0x3e3a954e	0.18221018
222	0x3d335e1c	0.04379092
223	0x3c6ad4f8	0.014333002
224	0xbdb198bf	-0.08671712
225	0xbcd7592f	-0.026287643
226	0xbe39653b	-0.18105023
227	0x3d5d602b	0.05404679
228	0xbd1bcca2	-0.03803695
229	0xbe22ff7a	-0.15917769
230	0x3c94edd6	0.018179815
231	0xbc45660e	-0.0120482575
232	0xbdf513c4	-0.119666606
233	0xbc76f8cc	-0.015073966
234	0x3d48d950	0.04903537
235	0xbda3ab1d	-0.07991622
236	0xbd4b67c5	-0.04965951
237	0xbdc9bc93	-0.09850421
238	0xbe1a0b7e	-0.15043446
239	0xbda70b28	-0.08156425
240	0xbd3dc931	-0.04633445
241	0xbe84f235	-0.2596604
242	0xbdaedf59	-0.08538694
243	0xbea35e32	-0.31907803
244	0x3b4e6960	0.0031495914
245	0xbe0e1986	-0.13876924
246	0xbe1bde3f	-0.15221499
247	0x3d8a9942	0.06767513
248	0x3c97bc77	0.018522484
249	0xbd3751b8	-0.044755667
250	0xbe48abf7	-0.1959685
251	0x3df2cac3	0.1185508
252	0xbe5e5715	-0.21712907
253	0x3db1e6d6	0.086866066
254	0xbd8c437a	-0.06848808
255	0xbc1ddf4b	-0.009635757

lstm.bias_hh_l0 f4 [512]
0	0xbd668fd5	-0.056289513
1	0x3dd4ad3c	0.10384604
2	0xbe02d9ef	-0.12778448
3	0xbdb8af43	-0.090178035
4	0xbd08a3ab	-0.03335921
5	0xbde92acd	-0.11385117
6	0xbe204d8b	-0.1565458
7	0xbd57cf6b	-0.052688044
8	0xbd865a67	-0.06560212
9	0x3e195226	0.14972743
10	0xbda6b0a6	-0.08139162
11	0x3d634ae9	0.05549136
12	0xbe834b71	-0.25643495
13	0xbe1faac1	-0.15592481
14	0xbdbaa353	-0.09113183
15	0xbd5cd84e	-0.05391722
16	0xbdbeff47	-0.09326034
17	0xbdd821b3	-0.105533026
18	0x3f0b85b9	0.5450092
19	0xbe59da51	-0.21274687
20	0xbe7ad9b3	-0.24497108
21	0xbd99f721	-0.07517839
22	0xbe473de9	-0.1945721
23	0xbe47ff68	-0.19531024
24	0xbe083dab	-0.13304774
25	0xbe38c9f6	-0.18045792
26	0xbe2e8b23	-0.17045264
27	0xbd98f14b	-0.07467898
28	0xbd3ef956	-0.046624504
29	0xbeb267f0	-0.34844923
30	0xbe60b8d9	-0.21945514
31	0x3bbc793e	0.005751758
32	0xbd0c0f92	-0.034194537
33	0xbe521867	-0.20517121
34	0x3da415d4	0.08011976
35	0xbd737d41	-0.059445623
36	0xbc5db46b	-0.0135317845
37	0xbdbd20ad	-0.09234748
38	0xbdd46924	-0.103716165
39	0xbe19e95e	-0.15030429
40	0xbc9a11a7	-0.018807245
41	0xbda817b1	-0.08207644
42	0xbbd5c619	-0.006523859
43	0xbd939949	-0.07206971
44	0xbe2df3a9	-0.1698748
45	0x3d1a12fa	0.037615754
46	0xbe384f81	-0.17999078
47	0xbe7a649a	-0.24452439
48	0xbd4f8cb6	-0.0506713
49	0x3d31c29a	0.043398477
50	0x3e4e8c76	0.20170769
51	0xbce83cb9	-0.028349267
52	0xbe1c6cc8	-0.15275872
53	0xbd269d40	-0.04067731
54	0x3d7bcc9d	0.06147443
55	0xbd68ce63	-0.05683745
56	0xbe18a2ef	-0.14905904
57	0xbe52fe5f	-0.20604847
58	0xbe64a32b	-0.22327869
59	0x3c0ac953	0.008470851
60	0xbe0bd41d	-0.13655134
61	0xba40cc03	-0.0007354619
62	0xbe50c1f2	-0.20386484
63	0xbdfdbbfe	-0.12389372
64	0x3e135a0d	0.1438982
65	0x3e68fec0	0.2275343
66	0x3e01499a	0.12625733
67	0x3f144b8e	0.5792779
68	0x3eb61cbd	0.355688
69	0x3cb6f8b6	0.022335391
70	0xbe1af19d	-0.1513123
71	0xbcf8dab9	-0.030377733
72	0xbe902344	-0.28151906
73	0xbe4e5532	-0.20149687
74	0x3cc3ba6c	0.023892604
75	0xbd80644d	-0.06269131
76	0xbd03e8c0	-0.03220439
77	0xbdccec7a	-0.10006042
78	0x3c2a1279	0.010380381
79	0xbe57e170	-0.21082091
80	0xbd440422	-0.047855504
81	0x3d243f14	0.04009922
82	0xbd855cd2	-0.06511845
83	0xbdedf261	-0.11618496
84	0xbd7fe597	-0.062474813
85	0xbd6e6acd	-0.058207322
86	0x3d6d1a1a	0.05788622
87	0xbe65691b	-0.22403376
88	0xbd703ef2	-0.05865378
89	0xbe21c484	-0.15797621
90	0xbd9efbd0	-0.07762873
91	0xbd672004	-0.056427017
92	0xbe467bad	-0.19383116
93	0xbde9d46d	-0.1141747
94	0xbcee65f4	-0.02910135
95	0x3d5bb94d	0.053643513
96	0x3c0e1fc8	0.008674569
97	0xbd4f74fe	-0.05064868
98	0x3d4eb0fc	0.050461754
99	0xbe3e36c2	-0.18575576
100	0xbdae1a15	-0.085010685
101	0xbe520d66	-0.20512924
102	0x3d65b218	0.056078047
103	0xbea0241f	-0.31277558
104	0xbe1c88f0	-0.15286613
105	0xbdf2ef56	-0.11862056
106	0xbe2162cf	-0.15760349
107	0xbe16bf90	-0.14721513
108	0xbda0b168	-0.078463376
109	0xbdbb2eb6	-0.09139769
110	0xbdab1fa7	-0.083556466
111	0x3d3df483	0.046375763
112	0x3d3965be	0.045263045
113	0xbd22f400	-0.039783478
114	0xbd2d1390	-0.042254984
115	0x3ea80bdc	0.32821548
116	0xbc0f38fb	-0.008741613
117	0xbeb4f460	-0.35342693
118	0x3e1e6ad1	0.15470435
119	0xbd8386bd	-0.06422184
120	0x3f06b605	0.5262149
121	0xbb9352c3	-0.00449595
122	0xbed0ae39	-0.4075792
123	0xbe01f7f5	-0.12692244
124	0xbdc98583	-0.098399185
125	0x3d874ba2	0.06606223
126	0xbe741b8c	-0.23838633
127	0x3cb5b8d3	0.022182858
128	0xbcc0a855	-0.023517767
129	0xbe752c57	-0.23942696
130	0xbd65892d	-0.056039024
131	0xbdc1d591	-0.09464563
132	0x3d9aa542	0.07551052
133	0x3df4e361	0.119574316
134	0x3dd1b862	0.10240246
135	0xbd9c1023	-0.07620265
136	0xbdf66185	-0.12030319
137	0x3daa409f	0.08313107
138	0xbbc58574	-0.0060278717
139	0xbd3c566b	-0.045980852
140	0xbe9acd95	-0.30234972
141	0xbc1fbf9e	-0.009750275
142	0x3d852653	0.065014504
143	0x3d8198ab	0.06327947
144	0xbc7d39ca	-0.0154556725
145	0xbd0882da	-0.033327915
146	0xbe324a73	-0.17411213
147	0x3da23aaf	0.07921349
148	0xbcda22de	-0.026627954
149	0xbe65a963	-0.22427897
150	0xbe8acc34	-0.2710892
151	0x3d8205dd	0.063487746
152	0xbe033c26	-0.12815914
153	0xbe7aaeb7	-0.24480711
154	0x3bc6df3c	0.006069092
155	0xbdf159df	-0.1178472
156	0xbcdfe1d6	-0.027329367
157	0xbe470092	-0.19433811
158	0xbd4882d5	-0.048952896
159	0xbde006a2	-0.10938765
160	0x3e45d522	0.19319585
161	0xbe796a76	-0.24357018
162	0x3d3e5ad9	0.046473358
163	0xbdc0844e	-0.09400235
164	0xbc258127	-0.010101593
165	0xbe021387	-0.12702762
166	0x3dc95a0b	0.098316275
167	0x3d5cd023	0.053909432
168	0xbdb3b44f	-0.087746255
169	0x3d134b6f	0.03596061
170	0xbd1a9540	-0.037739992
171	0xbd659e48	-0.056059152
172	0xbe0f392d	-0.13986655
173	0xbba63fe6	-0.0050735353
174	0x3cfbcfe7	0.030738784
175	0xbd867e54	-0.06567064
176	0x3d0b9f3a	0.034087397
177	0xbd66aaed	-0.05631535
178	0x3d4a89a4	0.04944767
179	0xbd9d65b8	-0.07685417
180	0xbdedc0ee	-0.11609064
181	0xbdf8e49a	-0.12152977
182	0xbc8d7230	-0.017266363
183	0x3d8e87c2	0.069594875
184	0xbe7410fc	-0.23834604
185	0xbd7522be	-0.059847586
186	0x3ee81b9d	0.45333567
187	0x3d117901	0.03551579
188	0x3ca322d5	0.01991407
189	0xbddafb90	-0.10692513
190	0xbe3c42ef	-0.18384908
191	0x3d24239d	0.040073026
192	0xbdc04675	-0.093884386
193	0x3c528905	0.012850051
194	0xbe6e6b37	-0.23283087
195	0xbd194045	-0.037414808
196	0x3e10bb97	0.1413406
197	0xbc2d35b8	-0.01057189
198	0xbc2ca7a4	-0.0105380155
199	0xbc9d971f	-0.0192371
200	0x3db1a3f9	0.086738534
201	0x3db38c8e	0.08767043
202	0x3e331ce7	0.17491494
203	0x3d3a6361	0.04550493
204	0xbd9c3cf8	-0.07628816
205	0xbd98975b	-0.07450744
206	0x3d36afc5	0.04460122
207	0xbbd2648e	-0.0064206785
208	0x3c0a8557	0.008454642
209	0xbdba5ba9	-0.09099514
210	0xbdb4a638	-0.08820766
211	0xbe2b4b63	-0.16727977
212	0xbe86e467	-0.26346132
213	0xbc33aaf9	-0.010966056
214	0xbdc1c878	-0.094620645
215	0x3f032ae8	0.51237345
216	0xbd90da97	-0.07072943
217	0x3de4bd7c	0.11168954
218	0xbd4ccbda	-0.049999095
219	0x3dbf5668	0.093426526
220	0xbe568803	-0.20950322
221	0x3dde58ee	0.10856806
222	0xbca91d23	-0.020643776
223	0x3db13dcb	0.08654364
224	0xbd8e1630	-0.06937826
225	0xbca83790	-0.020534307
226	0xbe2f3b44	-0.17112452
227	0xbc985ad4	-0.018597998
228	0xbd35468b	-0.04425673
229	0xbe895b9e	-0.2682771
230	0xbda95812	-0.08268751
231	0xbdd0e622	-0.10200144
232	0xbe66dbdb	-0.22544806
233	0xbdbcbe12	-0.092159405
234	0xbd1141cb	-0.035463136
235	0xbc85eee1	-0.016349258
236	0xbe353ed3	-0.17699747
237	0xbe2a3f42	-0.16625693
238	0xbe410aca	-0.18851772
239	0xbe12e0c3	-0.14343552
240	0xbd76357e	-0.060109608
241	0xbe829304	-0.2550279
242	0xbd844002	-0.06457521
243	0xbe8a644e	-0.2702965
244	0xbd57fce4	-0.05273141
245	0xbe92a916	-0.28644627
246	0xbe86a59c	-0.26298225
247	0xbd75643b	-0.05991004
248	0x3c063a83	0.008192661
249	0x3d9ac4c3	0.075570606
250	0xbe35f854	-0.17770511
251	0x3dae3f7f	0.08508205
252	0xbe868cb2	-0.26279217
253	0x3defb9a9	0.11705334
254	0x3d2fdfb5	0.042937953
255	0x3d51bcbc	0.05120538

fc.weight f4 [4, 128]
0	0xbd2aaed1	-0.041670624
1	0x3e2f327f	0.17109106
2	0x3c1ea877	0.00968372
3	0xbdc147ff	-0.0943756
4	0x3cc07e8d	0.023497844
5	0x3cb4a74b	0.022052428
6	0xbd1c783a	-0.038200594
7	0xbd880957	-0.066424064
8	0xbe10e992	-0.141516
9	0xbd439cfd	-0.047757138
10	0x3d678b11	0.05652911
11	0xbb8ccb2a	-0.00429668
12	0xbcbc9d6c	-0.023024283
13	0xbdc94106	-0.09826855
14	0x3d0b4aba	0.03400681
15	0x3e259b7d	0.16172595
16	0xbd49136e	-0.049090795
17	0xbe3406e1	-0.17580749
18	0x3a1b34d9	0.00059206557
19	0x3bdf2b46	0.0068105785
20	0x3d41f74e	0.04735499
21	0xbb922345	-0.004459771
22	0x3e1830ca	0.14862362
23	0xbd6a038c	-0.05713229
24	0x3e1adce3	0.15123324
25	0x3c0fba00	0.008772373
26	0x3dabd1f3	0.08389654
27	0xbdde5465	-0.10855941
28	0xbe42a6e3	-0.19008975
29	0xbd961656	-0.07328479
30	0xbdae662f	-0.08515584
31	0x3dfba528	0.122873604
32	0x3b499c58	0.0030763354
33	0xbe4267b6	-0.18984875
34	0x3bfe862d	0.00776746
35	0x3d98be03	0.07458117
36	0x3e1653d5	0.14680417
37	0xbdd10968	-0.10206872
38	0x3cd0ec0e	0.025503185
39	0xbcb24519	-0.021761464
40	0x3e185327	0.1487547
41	0x3e428817	0.18997227
42	0xbe0ace42	-0.13555244
43	0x3d9c25f5	0.07624427
44	0xbdb66a2d	-0.0890697
45	0xbc9f4862	-0.019443695
46	0x3e216c62	0.15764001
47	0xbd8be477	-0.068306856
48	0xbe1af629	-0.15132965
49	0xbe624cc7	-0.220996
50	0x3e058de8	0.13042414
51	0x3d2ee9a1	0.042703275
52	0xba82d578	-0.0009981832
53	0x3c0e446a	0.008683303
54	0xbd8565cb	-0.06513556
55	0xbcfa42e8	-0.030549482
56	0x3d320598	0.043462366
57	0xbd2c791c	-0.042107686
58	0x3ddac0be	0.10681294
59	0xbe082b16	-0.13297686
60	0x3d5e3963	0.054253947
61	0xbc821f90	-0.01588419
62	0x3dbfcf5b	0.09365722
63	0xbdd8472d	-0.10560451
64	0xbc4637d6	-0.012098273
65	0xbbe6a0e7	-0.007038224
66	0x3ea9277c	0.33037937
67	0x3b841827	0.0040311995
68	0x3db1724a	0.08664377
69	0x3e040d98	0.1289581
70	0xbd27eba1	-0.040996198
71	0xbcd591d9	-0.026070522
72	0xbd9fe211	-0.078067906
73	0x3bac86c3	0.0052650883
74	0x3df3f264	0.11911467
75	0x3e0af4eb	0.13569991
76	0xbc3df784	-0.011594657
77	0xbdb6e44a	-0.089302614
78	0x3d7faaa1	0.062418584
79	0x3d35c98a	0.044381656
80	0xbe0aed13	-0.13566999
81	0x3d2f4c5e	0.04279744
82	0xbd0c6a5f	-0.03428113
83	0x3bcb105e	0.0061970195
84	0x3e15f2f1	0.14643456
85	0xbd8e50be	-0.06948994
86	0xbd5f5cf3	-0.054532003
87	0xbdb570d8	-0.08859414
88	0xbc702ffc	-0.014659878
89	0xbce38374	-0.027772643
90	0x3a029893	0.0004981842
91	0xbe18dcc7	-0.1492797
92	0x3d8fdbd3	0.0702435
93	0xbc98190b	-0.018566629
94	0x3e7c8be8	0.24662745
95	0x3e190c98	0.1494621
96	0xbdc00103	-0.09375193
97	0xbdc7835d	-0.097418524
98	0xbbc0f271	-0.0058882763
99	0x3d0d468a	0.0344911
100	0xbc97cf7d	-0.018531555
101	0x3befb738	0.0073155425
102	0xbc89e374	-0.01683209
103	0xbcf642b7	-0.030061109
104	0xbe08f337	-0.13374029
105	0xbe4282f4	-0.18995267
106	0x3d68d435	0.056843
107	0xbd9d4663	-0.07679441
108	0x3c6f06b9	0.014589005
109	0x3c7bef6b	0.015376906
110	0xbd3894c2	-0.04506374
111	0x3cbdffb0	0.02319321
112	0x3d2b2775	0.041785676
113	0x3d16bad8	0.03679928
114	0xbe304141	-0.17212392
115	0x3f54339c	0.8289125
116	0x38d5aed7	0.00010189198
117	0x3dc5fdb7	0.09667533
118	0x3ee04649	0.43803623
119	0xbb15bfeb	-0.0022849988
120	0x3ea8078f	0.32818267
121	0xbdac17e4	-0.08402994
122	0x3cb6331f	0.022241173
123	0xbd09d059	-0.03364596
124	0xbd19c76e	-0.037543707
125	0x3ca9ae86	0.020713102
126	0x3c595705	0.013265376
127	0x3d4034a9	0.04692522
128	0xbdcd7e64	-0.10033873
129	0xbda82b7f	-0.08211421
130	0x3cb88f2d	0.022529209
131	0xbe29c862	-0.16580346
132	0xbd01e45c	-0.03171192
133	0x3dfc5682	0.123211876
134	0xbd92f9d5	-0.07176558
135	0xbdcb1138	-0.099153936
136	0xbe5e495f	-0.21707676
137	0x3d3edb54	0.046595886
138	0xbcf0e552	-0.029406223
139	0x3c3d529a	0.011555338
140	0xbba55dce	-0.005046583
141	0xbe23bfe7	-0.15991174
142	0x3d4288b7	0.047493663
143	0x3d8d1fed	0.06890855
144	0xbdb14e63	-0.08657529
145	0xbe453245	-0.19257458
146	0x3b05ae82	0.0020398204
147	0xba896a8e	-0.0010484026
148	0xbd85e97b	-0.065386735
149	0x3c8a0793	0.016849315
150	0xbe08b5a0	-0.13350534
151	0xbcbad620	-0.02280718
152	0x3d93bff6	0.07214348
153	0x3c256738	0.01009541
154	0x3cacbeb8	0.021087036
155	0xbb03c158	-0.0020104256
156	0xbe52e143	-0.20593743
157	0xbdf22651	-0.118237145
158	0x3c366350	0.011132076
159	0x3de9aa9f	0.114094965
160	0xbe07a6de	-0.13247249
161	0xbdd09926	-0.10185461
162	0x3c10183c	0.00879484
163	0x3e157436	0.14595112
164	0x3c94d3ac	0.01816734
165	0xbe246b2a	-0.16056505
166	0x3d9fc3cf	0.078010194
167	0x3bd2c794	0.006432483
168	0x3dc9041b	0.09815236
169	0x3e631683	0.22176556
170	0xbe02609a	-0.12732163
171	0x3e0c1404	0.1367951
172	0xbe2e7eb8	-0.17040527
173	0xbd50dc15	-0.050991137
174	0x3dc46767	0.09590035
175	0x3a55c971	0.0008155322
176	0xbe6607ca	-0.22463909
177	0xbd8ad3bf	-0.067786686
178	0xbd1b86b0	-0.037970245
179	0x3d8b778d	0.06809912
180	0xba12d0ba	-0.00056005607
181	0xbceed08f	-0.029152183
182	0xbd95f8c9	-0.07322843
183	0xbccdbe65	-0.025115201
184	0xbdb428d4	-0.0879685
185	0xbe21f276	-0.15815148
186	0x3d00defc	0.031462654
187	0xbe56bab1	-0.20969655
188	0x3d8dbab8	0.069203794
189	0x3e296d21	0.16545536
190	0xbdc9170d	-0.0981885
191	0xbe375055	-0.17901738
192	0xbc9486bc	-0.018130653
193	0xbba21c35	-0.00494721
194	0x3ec6a09d	0.38794413
195	0xbcbba588	-0.02290608
196	0xbe1f000b	-0.1552736
197	0x3e14be16	0.14525637
198	0xbe555080	-0.2083149
199	0xbe248437	-0.16066061
200	0xbd1299f8	-0.035791367
201	0xbd4abe57	-0.04949793
202	0x3e4e5f2d	0.20153494
203	0x3be4a316	0.006977449
204	0xbb3d3e8a	-0.0028876388
205	0x3a787e91	0.0009479309
206	0x3e4aa925	0.19791086
207	0x3d02d173	0.031938028
208	0xbe251dae	-0.16124603
209	0x3c984f77	0.01859258
210	0xbda804cd	-0.08204041
211	0xbe1fb5af	-0.1559665
212	0x3da037a0	0.078231096
213	0xbd5004b5	-0.05078574
214	0xbcb75d6e	-0.022383418
215	0x3b05439d	0.002033449
216	0x3e3ebc9c	0.18626636
217	0xbd00d4f6	-0.031453095
218	0x3da131c9	0.07870824
219	0xbe51284f	-0.20425533
220	0x3d4ca17e	0.0499587
221	0xbd339684	-0.043844715
222	0x3e8efd4d	0.27927628
223	0x3e480df7	0.19536577
224	0x3e09ed58	0.13469446
225	0x3d8f5c33	0.070000075
226	0x3d7b0565	0.06128444
227	0x3ddd7371	0.10813034
228	0x3d4f4b5a	0.05060897
229	0xbcf95a48	-0.030438557
230	0xbdbeff24	-0.09326008
231	0xbde682f4	-0.11255446
232	0xbe9d6547	-0.3074133
233	0xbcae95eb	-0.02131172
234	0xbd03fbfd	-0.032222737
235	0x3d0e3b61	0.034724597
236	0x3ca24736	0.019809347
237	0x3b72c371	0.0037042762
238	0x3d0e849c	0.034794435
239	0xbdd64382	-0.10462095
240	0xbe19401d	-0.14965864
241	0xbd2d508b	-0.04231314
242	0xbe0920be	-0.13391396
243	0x3e0e260c	0.13881701
244	0xbe314669	-0.17312016
245	0x3d7bc494	0.06146677
246	0xbed72e5e	-0.42027563
247	0xbb749392	-0.0037319404
248	0xbf1461b2	-0.5796157
249	0xbd8f64ff	-0.07001685
250	0xbd4b89e0	-0.049692035
251	0xbc2fab45	-0.010721986
252	0x3c9f8b08	0.019475475
253	0x3daf0b74	0.085471064
254	0xbd98d505	-0.07462505
255	0x3d82d37b	0.06387993

fc.bias f4 [4]
0	0x3e7e0137	0.24805151
1	0x3e2f5dc8	0.17125618
2	0x3e6a2784	0.22866637
3	0x3e3c3b28	0.18381941
