lstm_hdim_128_wsize_20_interval_7_nlayers_1_bs_512_lr_0.01_decay_0.95_epoch_5.pt (torch, 277987 bytes, 6 tensors)

lstm.weight_ih_l0 f4 [512, 4]
0.007211007 -0.006484826 0.013233436 0.09490623 -0.24023566 0.016867813 -0.12999697 -0.10238691
0.044433292 0.065720685 0.1443241 0.054667447 -0.028517343 0.038390122 0.116415106 -0.1042877
0.043492693 -0.077089995 -0.034698155 0.053284343 0.015979655 0.07873649 0.1139158 0.16486263
-0.0066529284 -0.036275566 0.13904199 -0.011911131 0.04206785 -0.022846982 -0.0036919534 0.028410912
0.13704343 0.118259564 -0.06285926 -0.042067736 -0.5511134 0.13692687 -0.64677256 -0.003040537
-0.09305209 -0.06805214 -0.10662768 -0.04181218 -0.08035522 -0.09991844 -0.021078058 -0.031666107
-0.008283441 0.019631809 -0.26125896 -0.47412962 -0.011871447 0.06752017 -0.020223534 -0.058325235
-0.18170668 0.089856446 -0.012823987 -0.3922263 0.13864331 -0.0006288605 -0.09497403 0.14112836
0.13385905 0.003131572 0.026423397 -0.08921113 0.1247159 0.08549082 0.1785987 0.04130834
0.06449396 0.26966125 -2.6361947 -1.0237526 -0.037920322 0.04178318 0.05409674 0.4483215
-0.13472782 -0.10628167 -0.032961674 -0.12103043 -0.049632024 -0.0626446 -0.22438042 -0.19497243
-0.14250071 0.09401883 0.06853233 0.15452453 -0.096793294 -0.14464521 0.051035676 -0.1693903
0.11135072 0.03248894 -0.0023975398 0.11677339 0.021595912 -0.030894116 -0.10288843 0.2172924
0.08976494 -0.021431236 0.085399464 0.0028258294 0.21803305 -0.018498499 -0.015834654 -0.018806083
0.061223213 0.10583339 0.12817666 0.061202694 -0.05398344 -0.17159113 -0.09666304 -0.14406054
0.1418557 -0.009348722 0.08472002 0.09105998 0.06400135 0.017161092 0.03239146 0.07917766
0.009676486 0.053931605 0.02671236 0.008737486 0.2396752 -0.00595731 0.0014811105 -0.24719848
-0.101133876 -0.14556873 -0.122036815 -0.22185001 -0.00018384092 -0.00041334584 0.06069373 0.011046786
0.15828432 0.058825217 0.095398486 0.030908752 0.065703236 0.094072565 0.1573862 -0.02734848
0.05861663 0.06571811 0.059955858 0.115310766 -0.022848338 0.06132668 0.11369855 0.0025289268
0.117367655 0.013194672 -0.11547032 0.072266355 0.14999482 0.17949167 0.15256786 0.13316974
0.066609524 0.075390294 0.10612973 -0.015631443 0.053932495 0.052091595 0.10603887 0.03289296
-0.13913323 0.055835355 -0.11280612 -0.19661666 -0.4350532 0.09969411 0.18815611 -0.53499156
0.10809701 0.08509953 -0.0017291963 0.09817073 0.11954794 -0.10580117 -0.021582097 -0.032230083
0.15258971 0.14822297 -0.08148386 0.07835217 0.27262035 -0.006645243 0.10255444 0.12853098
0.3080734 0.30098614 0.5478167 -0.4173811 -0.011179776 0.04975679 -0.55736256 -0.19264947
-0.1235841 0.013290094 0.35558465 1.9900641 -0.021221906 0.0041970653 -0.12431446 -0.27271068
0.062216014 -0.00653227 -0.018908026 -0.024095772 0.5338686 0.4950877 1.2469826 1.1514689
-0.045604657 -0.15180627 -0.09701829 -0.14432065 -0.16058387 0.1266159 -0.077266224 -0.0803076
-0.14041497 -0.054199252 -0.14397077 -0.11190063 0.09834225 0.14027594 -0.014197536 -0.03416746
0.07798341 -0.046554144 -0.0020822794 0.11685938 0.028498758 0.16131793 0.018298395 0.17858048
-0.2857254 0.05814639 0.1548727 0.021079244 0.0060909563 0.044476464 0.18265513 0.044488795
00000000: 504a ec3b aa7e d4bb 0ed1 583c 335e c23d
00000010: 5600 76be 5e2e 8a3c ed1d 05be 3ab0 d1bd
00000020: afff 353d 9198 863d b2c9 133e f9ea 5f3d
00000030: 349d e9bc f63e 1d3d 0b6b ee3d ca94 d5bd
00000040: 6525 323d 5ce1 9dbd a71f 0ebd af40 5a3d
00000050: c4e7 823c 9940 a13d b04c e93d c0d1 283e
00000060: cf00 dabb b095 14bd 0661 0e3e e826 43bc
00000070: 564f 2c3d 9829 bbbc b3f4 71bb 00be e83c
00000080: 1d55 0c3e 1232 f23d 5bbc 80bd 384f 2cbd
00000090: c515 0dbf 8f36 0c3e e392 25bf bf43 47bb
000000a0: 1892 bebd ec5e 8bbd 9d5f dabd 4043 2bbd
000000b0: 4791 a4bd 0aa2 ccbd e4ab acbc 52b4 01bd
000000c0: 45b7 07bc e3d2 a03c bcc3 85be 1ec1 f2be
000000d0: 7580 42bc 0448 8a3d d3ab a5bc 71e6 6ebd
000000e0: 5111 3abe a806 b83d b31b 52bc e3d1 c8be
000000f0: 83f8 0d3e 1dda 24ba bf81 c2bd f483 103e
00000100: 5912 093e 0f3b 4d3b e175 d83c 53b4 b6bd
00000110: 0d6b ff3d d015 af3d 94e2 363e ef32 293d
00000120: 6915 843d 0a11 8a3e 6ab7 28c0 530a 83bf
00000130: 5752 1bbd d724 2b3d 8b94 5d3d 658a e53e
00000140: 17f6 09be 34aa d9bd d202 07bd cdde f7bd
00000150: f34a 4bbd d04b 80bd fbc3 65be daa6 47be
00000160: b5eb 11be f28c c03d ae5a 8c3d ae3b 1e3e
00000170: 903b c6bd e01d 14be c90a 513d a774 2dbe
00000180: d90b e43d 1f13 053d 0b20 1dbb e326 ef3d
00000190: e9e9 b03c a815 fdbc 2bb7 d2bd e681 5e3e
000001a0: aed6 b73d 8f90 afbc eae5 ae3d 8d31 393b
000001b0: 0e44 5f3e 2a8a 97bc adb7 81bc 370f 9abc
000001c0: 31c5 7a3d 2dbf d83d be40 033e adaf 7a3d
000001d0: bd1d 5dbd 96b5 2fbe 46f7 c5bd 9b84 13be
000001e0: 9f42 113e 622b 19bc b181 ad3d a87d ba3d
000001f0: 2413 833d 6b95 8c3c e8ac 043d e627 a23d
00000200: 208a 1e3c 63e7 5c3d e1d3 da3c ac27 0f3c
00000210: 6a6d 753e 8a35 c3bb d221 c23a 9921 7dbe
00000220: 471f cfbd f80f 15be 70ee f9bd a62c 63be
00000230: 6cc5 40b9 57b6 d8b9 fd99 783d 94fd 343c
00000240: 4915 223e b6f2 703d 4860 c33d 5a34 fd3c
00000250: 6b8f 863d 1ea9 c03d d929 213e eb09 e0bc
00000260: fe17 703d 3797 863d 4694 753d 0d28 ec3d
00000270: 702c bbbc af31 7b3d c9da e83d 5abc 253b
00000280: 745e f03d 772e 583c b47b ecbd 6200 943d
00000290: 3e98 193e aacc 373e c03a 1c3e a65d 083e
000002a0: 936a 883d 3a66 9a3d 8b5a d93d 830d 80bc
000002b0: 52e8 5c3d ff5d 553d e82a d93d c5ba 063d
000002c0: f178 0ebe 9db3 643d e506 e7bd e155 49be
000002d0: 4bbf debe 6d2c cc3d ffab 403e 35f5 08bf
000002e0: f761 dd3d aa48 ae3d 33a6 e2ba bc0d c93d
000002f0: 8dd5 f43d 49ae d8bd f0cc b0bc b103 04bd
00000300: 7a40 1c3e c3c7 173e 03e1 a6bd 1a77 a03d
00000310: e594 8b3e 57c0 d9bb 1008 d23d a09d 033e
00000320: ccbb 9d3e db1a 9a3e b73d 0c3f fab2 d5be
00000330: 612b 37bc c7cd 4b3d 50af 0ebf e745 45be
00000340: a919 fdbd b2be 593c 310f b63e 6cba fe3f
00000350: 90d9 adbc 8987 893b 9498 febd bca0 8bbe
00000360: 38d6 7e3d a70c d6bb 01e5 9abc 7f64 c5bc
00000370: 9dab 083f 237c fd3e 209d 9f3f 5563 933f
00000380: f3cb 3abd 1a73 1bbe 86b1 c6bd cbc8 13be
00000390: 1970 24be 99a7 013e c13d 9ebd 5078 a4bd
000003a0: f1c8 0fbe 0900 5ebd 136d 13be 282c e5bd
000003b0: a967 c93d 7fa4 0f3e c89c 68bc 2ef3 0bbd
000003c0: c4b5 9f3d 8faf 3ebd da76 08bb f853 ef3d
000003d0: 3a76 e93c 8730 253e 84e6 953c cddd 363e
000003e0: 9a4a 92be e92a 6e3d f396 1e3e 61ae ac3c
000003f0: a596 c73b f42c 363d f209 3b3e e239 363d

lstm.weight_hh_l0 f4 [512, 128]
-0.04309647 -0.17666547 0.0052654026 0.08056889 0.076960385 -0.025849674 -0.051667217 0.06756303
-0.048137944 0.05505173 -0.03698416 -0.060988545 0.059063014 0.117877536 -0.0109220445 -0.11537588
0.06963072 0.123237014 -0.017397583 0.1085603 0.14113835 -0.10397543 0.04821772 -0.051211696
-0.041272543 -0.06610557 -0.06801446 -0.0051434995 -0.0068126684 0.049676623 0.0003595137 0.054182645
0.04911201 -0.06446434 -0.05609897 -0.00046294616 0.0076259533 0.087225184 0.0043325424 -0.0070776218
-0.04908306 0.052302267 0.022314942 -0.06188538 0.03397756 -0.08952044 -0.055534292 0.0124997385
0.039666567 0.07770675 -0.04678365 -0.09081929 0.07106685 0.085572526 -0.038539752 -0.15704426
-0.028504163 0.060295783 0.12032041 0.04261972 -0.1231809 0.04763027 -0.115598105 0.03950109
-0.030729514 -0.24719734 0.010181859 0.14343092 0.1005387 0.02676635 0.12130959 0.1030104
-0.04227214 0.029440176 0.011543521 -0.119633585 0.011509095 -0.00827793 -0.024244005 -0.11912958
0.009173223 -0.048690412 -0.014904991 0.1152927 -0.050462056 0.10172606 -0.028661024 0.017581219
-0.051606692 0.09997273 0.058243044 0.06310843 -0.002026041 0.09878543 -0.089399196 0.004459042
-0.017354643 0.017451609 -0.02579465 -0.02104212 -0.014782176 0.029562455 -0.096858494 0.013982848
-0.04660132 0.09698887 -0.08841318 0.060847998 0.124231964 -0.12669037 -0.10158626 -0.09608237
0.034421574 0.0073577845 0.10959574 -0.13405834 0.020854924 0.07427396 0.08881173 0.046338886
0.029018471 0.11163206 0.05670314 -0.027118465 -0.105559535 0.05232274 0.029150065 0.18571976
0.16743581 0.054313015 -0.11613577 0.13839181 0.1336924 -0.14585444 0.2524517 0.19569008
0.15549842 -0.13295563 -0.06171516 -0.17881745 -0.02375319 0.16202633 -0.14720565 -0.20119847
0.25787184 0.21175642 -0.16790499 0.17737626 0.018343383 -0.0010387645 0.028247042 -0.03448673
-0.19603634 0.16810204 -0.1856612 0.24052507 0.24739705 0.12675269 0.11058166 -0.22396883
-0.09180125 0.087680586 -0.1439124 -0.15861976 -0.14951383 0.2549869 -0.18817484 -0.009691464
-0.18213198 -0.16789764 0.15271915 -0.1446459 0.09586081 -0.042077195 -0.19474143 0.17521355
0.15194842 0.26006746 0.04712198 -0.18349385 0.20083502 -0.0112163415 0.18428485 -0.0152958045
-0.038710847 0.22072546 -0.08325426 0.21922363 -0.1847807 -0.16615793 0.1826319 0.13745698
0.047434088 0.0076756445 -0.13334663 -0.25804433 0.095315225 -0.18889298 0.25610378 0.14457786
0.108152285 0.20975287 -0.1443409 -0.24311353 0.14442575 0.120762035 -0.13490859 -0.16722988
0.18520296 -0.014843463 -0.052709274 0.14819656 -0.29523644 0.1305475 0.15158318 -0.036813248
-0.19578901 0.12212551 -0.13328218 0.2802985 -0.076483525 0.17157847 -0.18274896 -0.2741982
-0.13368478 -0.03827618 -0.030353136 -0.16233483 -0.019858142 0.06054317 -0.07186929 0.07636431
0.08415689 0.2660291 -0.0063757594 0.17227517 0.05184064 -0.065028556 0.12677486 0.08936684
0.17384802 0.12210609 0.30196574 -0.36664903 0.1467468 -0.1470444 0.08853106 0.17492782
-0.32668695 0.17032409 0.097421095 -0.18763478 0.09555125 -0.02182511 -0.2007801 -0.21771404
00000000: ed85 30bd cbe7 34be 6689 ac3b 4d01 a53d
00000010: 689d 9d3d b2c2 d3bc 01a1 53bd 7c5e 8a3d
00000020: 4b2c 45bd ec7d 613d b47c 17bd 20cf 79bd
00000030: 0fec 713d c769 f13d 60f2 32bc 304a ecbd
00000040: 8d9a 8e3d b063 fc3d 6085 8ebc dd54 de3d
00000050: 9286 103e 12f1 d4bd f27f 453d 5bc3 51bd
00000060: 660d 29bd 5b62 87bd 2a4b 8bbd cd8a a8bb
00000070: ce3c dfbb b779 4b3d 1d7d bc39 9fee 5d3d
00000080: ad29 493d e105 84bd 09c8 65bd 95b7 f2b9
00000090: 22e3 f93b 1ea3 b23d 00f8 8d3b 65eb e7bb
000000a0: 520b 49bd e73a 563d d3cd b63c 867b 7dbd
000000b0: 0e2c 0b3d 7e56 b7bd ed77 63bd b4cb 4c3c
000000c0: 6979 223d b724 9f3d 36a0 3fbd 77ff b9bd
000000d0: 7f8b 913d a640 af3d dcdb 1dbd 36d0 20be
000000e0: 9081 e9bc b6f8 763d 8c6a f63d 0492 2e3d
000000f0: 4546 fcbd f517 433d b3be ecbd e5cb 213d
00000100: 76bc fbbc 4d21 7dbe d0d1 263c 8edf 123e
00000110: 3ce7 cd3d 1b45 db3c 2a71 f83d 1ef7 d23d
00000120: 8d25 2dbd 862c f13c 0921 3d3c 7402 f5bd
00000130: a590 3c3c 28a0 07bc 5d9b c6bc 36fa f3bd
00000140: 494b 163c 996f 47bd 1034 74bc 941e ec3d
00000150: 4db1 4ebd c155 d03d 86ca eabc 7d06 903c
00000160: 8a61 53bd 81be cc3d 4290 6e3d fe3e 813d
00000170: 54c7 04bb 0450 ca3d ed16 b7bd 281d 923b
00000180: 532b 8ebc adf6 8e3c 4d4f d3bc 8660 acbc
00000190: f130 72bc f62c f23c bf5d c6bd 5118 653c
000001a0: 07e1 3ebd 1aa2 c63d f811 b5bd c03b 793d
000001b0: 546d fe3d 1fbb 01be 750c d0bd d5c6 c4bd
000001c0: a3fd 0c3d 9219 f13b bb73 e03d 9746 09be
000001d0: f2d7 aa3c f21c 983d ede2 b53d d8cd 3d3d
000001e0: 25b8 ed3c 599f e43d 8d41 683d 8b27 debc
000001f0: 992f d8bd 5f50 563d 1ecc ee3c 522d 3e3e
00000200: 4b74 2b3e 5377 5e3d 97d8 edbd 95b6 0d3e
00000210: a9e6 083e de5a 15be 5941 813e fb62 483e
00000220: fa3a 1f3e 8525 08be 09c9 7cbd ec1b 37be
00000230: 0d96 c2bc 3bea 253e 14bd 16be f906 4ebe
00000240: c707 843e add6 583e 49ef 2bbe 1fa2 353e
00000250: dd44 963c 2727 88ba 5766 e73c f541 0dbd
00000260: c0bd 48be f122 2c3e f81d 3ebe 344c 763e
00000270: a755 7d3e 75cb 013e a378 e23d 1658 65be
00000280: 4b02 bcbd e191 b33d c65d 13be 386d 22be
00000290: 271a 19be a58d 823e e8b0 40be f2c8 1ebc
000002a0: ce80 3abe 5ced 2bbe 6962 1c3e 0e1e 14be
000002b0: ac52 c43d 2359 2cbd 4c6a 47be 2e6b 333e
000002c0: 5e98 1b3e 9027 853e fa02 413d d0e5 3bbe
000002d0: b2a7 4d3e bfc4 37bc 2bb5 3c3e 419b 7abc
000002e0: 448f 1ebd db05 623e 3681 aabd 297c 603e
000002f0: 2737 3dbe 4e25 2abe db03 3b3e 86c1 0c3e
00000300: 3f4a 423d f983 fb3b 058c 08be 631e 84be
00000310: a134 c33d 296d 41be 0920 833e 380c 143e
00000320: f27e dd3d 75c9 563e 1ace 13be c1f2 78be
00000330: 58e4 133e 1652 f73d 7a25 0abe 4f3e 2bbe
00000340: d8a5 3d3e ff31 73bc aee5 57bd d7c0 173e
00000350: 3b29 97be 3eae 053e 9f38 1b3e 7dc9 16bd
00000360: ea7c 48be f01c fa3d 207b 08be 4983 8f3e
00000370: 65a3 9cbd 44b2 2f3e 8b22 3bbe b563 8cbe
00000380: aae4 08be 7cc7 1cbd 24a7 f8bc 1a3b 26be
00000390: 8bad a2bc 1dfc 773d 3530 93bd e464 9c3d
000003a0: 735a ac3d f734 883e bfeb d0bb e768 303e
000003b0: da56 543d b12d 85bd 45d1 013e f605 b73d
000003c0: 3705 323e c212 fa3d 419b 9a3e 6cb9 bbbe
000003d0: cb44 163e cf92 16be c64f b53d 4720 333e
000003e0: 8343 a7be 7069 2e3e b684 c73d 5523 40be
000003f0: 60b0 c33d 93ca b2bc 4c99 4dbe 6ef0 5ebe

lstm.bias_ih_l0 f4 [512]
-0.05299803 -0.023524145 -0.011949662 0.025934573 -0.040717643 0.07928927 0.09730157 0.040024873
0.048873387 0.11423708 -0.065299645 -0.12514758 -0.07660868 0.08480763 -0.12425809 0.05011287
0.086992435 0.14069471 0.28068116 0.09981441 -0.10694968 -0.17146677 0.018872302 -0.14213079
0.07143584 -0.14814146 -0.012456647 0.07973478 0.059505742 -0.18346441 -0.077786334 0.11040581
-0.071022466 0.048683885 -0.14471562 -0.03713994 -0.0058619906 0.11753442 -0.06004187 0.00780521
0.1023244 0.13258617 -0.052039187 0.080313586 0.050446346 -0.065454006 -0.0053566797 -0.028685637
0.073595405 0.095585406 0.25161 0.031732563 0.09138091 -0.0046882317 -0.048996966 0.49933168
-0.13756317 -0.097164564 -0.11350695 0.17780174 0.07072989 0.05465826 0.08325345 0.0027355978
0.00085240504 0.390693 0.06801773 0.38693184 0.086538136 0.031872824 -0.046527226 0.064693786
0.072609626 0.042928718 0.078785144 0.022508165 -0.074311435 -0.03763359 -0.011695661 0.031376004
0.08449772 -0.10751616 -0.09778334 0.082378104 0.13242163 0.04440983 0.024396554 0.12074562
-0.019443365 -0.07538971 -0.044823274 0.13226716 -0.03701382 -0.021085378 0.03376856 0.13002901
0.06560688 0.051073957 0.038485702 -0.08252871 -0.014962991 -0.10410977 -0.082900934 -0.0879299
0.015684403 -0.022920357 0.014363033 0.0043298937 -0.14874868 -0.060475715 -0.08236697 0.044358116
-0.047624357 0.05371949 -0.034575418 0.2980387 0.043729343 -0.13115206 0.11343004 0.037944157
-0.0021024067 -0.07141468 0.019838274 -0.0071699913 -0.14986333 -0.06622983 -0.014970377 0.3891212
-0.09216597 -0.17736953 -0.0029198658 0.072752275 -0.08122283 0.10178667 0.05627378 -0.031949505
0.078411296 0.039605908 -0.06053269 -0.108330555 -0.08653454 -0.088233024 0.052315727 -0.049734965
-0.055133827 0.06904781 -0.12669958 -0.096368715 -0.15251368 -0.0871877 -0.018595189 -0.16129254
0.09303932 -0.058639828 -0.085878804 0.035002287 0.0058331806 -0.16596042 -0.08855691 -0.05514283
0.07425882 -0.21152188 -0.030303119 0.070646286 0.024925752 0.051441096 0.027576363 -0.027381562
-0.0013699456 0.033443544 0.030944513 0.057969723 -0.12190165 0.019630464 0.007992385 -0.07136888
-0.009896575 0.049567573 0.09785124 -0.0699693 -0.25411347 -0.13258298 0.036875874 0.07172693
-0.06255961 0.025747083 0.2059375 0.012210918 -0.012511512 0.0049782963 -0.13687958 0.05238446
-0.0667368 0.054970466 -0.042798996 -0.005141187 0.017232724 0.05367124 0.08598288 0.05788129
0.06365241 -0.043880116 0.12607329 0.0720654 -0.07472637 0.032365717 -0.025538273 -0.038366124
0.077515334 -0.09307933 -0.10093774 0.016912814 -0.06235416 -0.07103016 0.0731119 0.2148615
-0.07372658 -8.0158534e-05 -0.14605145 0.08097822 -0.019675389 0.059589207 0.06306076 0.05277374
-0.050348002 0.039720625 -0.12266495 0.08254746 -0.06913702 -0.048235144 0.056334287 -0.0396203
-0.0650625 0.03774267 0.019326331 -0.08101788 -0.035951283 -0.03544014 -0.06592571 -0.03323179
-0.07170254 -0.19659476 -0.0062006647 -0.22517431 0.030050995 -0.040391948 -0.07022138 0.043485787
0.050278645 -0.062073544 -0.095544666 0.0140404375 -0.10084162 -0.036298368 -0.0250248 0.02155206
00000000: 7614 59bd b5b5 c0bc 84c8 43bc be74 d43c
00000010: 8bc7 26bd 6a62 a23d 0c46 c73d 1ff1 233d
00000020: 762f 483d 21f5 e93d d2bb 85bd b026 00be
00000030: 03e5 9cbd 9faf ad3d 077b febd 2743 4d3d
00000040: 1729 b23d 4612 103e 71b5 8f3e 7f6b cc3d
00000050: 6f08 dbbd fc94 2fbe 169a 9a3c bc8a 11be
00000060: f44c 923d 65b2 17be f716 4cbc fd4b a33d
00000070: 4bbc 733d 18de 3bbe 714e 9fbd 711c e23d
00000080: 3a74 91bd c168 473d 5530 14be 0d20 18bd
00000090: f115 c0bb e3b5 f03d 77ee 75bd d9c2 ff3b
000000a0: 748f d13d abc4 073e 0b27 55bd 737b a43d
000000b0: d4a0 4e3d c00c 86bd 1687 afbb 24fe eabc
000000c0: 30b9 963d 48c2 c33d 07d3 803e 01fa 013d
000000d0: ea25 bb3d bd9f 99bb 0bb1 48bd 67a8 ff3e
000000e0: 5cdd 0cbe 37fe c6bd 5576 e8bd a911 363e
000000f0: d5da 903d 57e1 5f3d c980 aa3d b747 333b
00000100: ef73 5f3a ea08 c83e e14c 8b3d ee1b c63e
00000110: e83a b13d 148d 023d 5593 3ebd 2d7e 843d
00000120: 5bb4 943d 06d6 2f3d 1b5a a13d 0b63 b83c
00000130: 9830 98bd ae25 1abd 289f 3fbc 2084 003d
00000140: 240d ad3d 6f31 dcbd a242 c8bd dab5 a83d
00000150: 8999 073e 15e7 353d 48db c73c 7b49 f73d
00000160: b147 9fbc ec65 9abd 9c98 37bd 0b71 073e
00000170: ce9b 17bd 3ebb acbc e750 0a3d 5326 053e
00000180: e65c 863d ed32 513d 2fa3 1d3d d004 a9bd
00000190: 5527 75bc 8137 d5bd f7c7 a9bd 9714 b4bd
000001a0: 947c 803c 79c3 bbbc ed52 6b3c c8e1 8d3b
000001b0: 9351 18be 62b5 77bd 04b0 a8bd dbb0 353d
000001c0: c211 43bd f808 5c3d f49e 0dbd 8798 983e
000001d0: 8a1d 333d ba4c 06be 024e e83d 556b 1b3d
000001e0: 88c8 09bb dc41 92bd e083 a23c 3ff2 eabb
000001f0: c675 19be 81a3 87bd 5046 75bc e53a c73e
00000200: 83c1 bcbd 5ca0 35be 385b 3fbb 25ff 943d
00000210: 2858 a6bd 8875 d03d 567f 663d 7cdd 02bd
00000220: 1a96 a03d ce39 223d 20f1 77bd 69dc ddbd
00000230: 0539 b1bd 84b3 b4bd 0449 563d e4b6 4bbd
00000240: 02d4 61bd f068 8d3d 89bd 01be f65c c5bd
00000250: 8c2c 1cbe 778f b2bd f054 98bc df29 25be
00000260: 668b be3d 5130 70bd 3ae1 afbd 8f5e 0f3d
00000270: 4424 bf3b 87f1 29be 535d b5bd 73dd 61bd
00000280: 0215 983d 3199 58be 3f3e f8bc 00af 903d
00000290: 1731 cc3c e6b3 523d d3e7 e13c 4c4f e0bc
000002a0: bf8f b3ba 19fc 083d 597f fd3c a971 6d3d
000002b0: 93a7 f9bd 11d0 a03c 7ef2 023c d929 92bd
000002c0: 3e25 22bc 5e07 4b3d 3b66 c83d 104c 8fbd
000002d0: 291b 82be d5c3 07be 280b 173d 92e5 923d
000002e0: 411f 80bd 8ceb d23c 48e1 523e 4d10 483c
000002f0: 16fd 4cbc fa20 a33b 292a 0cbe 1691 563d
00000300: 4ead 88bd b628 613d 004e 2fbd 6777 a8bb
00000310: a42b 8d3c 60d6 5b3d cb17 b03d ee14 6d3d
00000320: 325c 823d a3bb 33bd 5b19 013e 0697 933d
00000330: 240a 99bd ea91 043d a435 d1bc cc25 1dbd
00000340: 5cc0 9e3d 60a0 bebd 72b8 cebd be8c 8a3c
00000350: 1367 7fbd 4378 91bd b1bb 953d a704 5c3e
00000360: f6fd 96bd c91a a8b8 838e 15be e9d7 a53d
00000370: 482e a1bc d013 743d 0026 813d 4729 583d
00000380: b539 4ebd 18b2 223d c337 fbbd a50e a93d
00000390: b697 8dbd 3792 45bd c8be 663d e548 22bd
000003a0: 7d3f 85bd 0f98 1a3d 4152 9e3c b4ec a5bd
000003b0: a741 13bd ae29 11bd 0f04 87bd 0f1e 08bd
000003c0: c8d8 92bd 2350 49be f22e cbbb 1894 66be
000003d0: 812d f63c 0772 25bd 3ad0 8fbd 271e 323d
000003e0: fbf0 4d3d d440 7ebd ecac c3bd dd09 663c
000003f0: 0d86 cebd 99ad 14bd cf00 cdbc f28d b03c

lstm.bias_hh_l0 f4 [512]
0.0063062194 -0.037712913 0.06805042 0.095986515 -0.046996586 0.029559989 -0.06126738 0.06327231
-0.0050220173 0.11200433 0.0062212716 -0.007855555 -0.10321456 -0.075460725 -0.02901818 -0.019532055
0.0354939 -0.0018633037 0.28482103 0.09146167 -0.16246143 -0.15345715 -0.03925157 -0.15190873
-0.0344784 -0.049183175 -0.06052097 -0.061960727 0.04578803 -0.16607414 -0.07034669 0.07252246
-0.0026867746 0.017505117 -0.13337034 0.04858917 0.07269245 0.06900223 -0.0006308793 -0.014608277
0.10541348 0.037062254 0.06344386 0.0540682 -0.061284162 0.016310534 -0.048967794 0.012434167
0.08769439 0.09106104 0.38363138 0.046442673 0.02876519 -0.019725082 0.04908322 0.6089791
-0.13962896 -0.09767057 0.023452649 0.14212766 -0.0015694717 0.081525885 0.05242516 0.020632263
-0.001988211 0.27290925 0.026444288 0.35062495 0.14305454 0.12628418 -0.04718102 0.08826053
-0.055176184 -0.015749345 0.11434049 -0.022629634 -0.062389154 0.011809779 0.07801854 -0.040455155
0.09222437 -0.016998772 -0.039724104 -0.04776083 0.09388065 0.079626344 0.08280571 0.17117873
0.041194886 -0.020864334 -0.02324938 0.03031532 0.008378878 -0.007725745 0.05150697 0.1723656
0.056567762 -0.002160184 0.0414997 -0.047598153 -0.077616714 -0.0982241 0.03276979 -0.16613828
-0.069355145 -0.017753374 -0.072770424 -0.08980828 -0.0881226 -0.12646553 -0.046393592 0.015042887
0.08353612 -0.023481984 0.07419278 0.35504994 0.07513479 -0.1268576 0.06586361 -0.033475753
-0.0804472 0.051783036 -0.13861853 -0.0998529 -0.051331367 0.00025180943 -0.10186615 0.3362155
0.03481316 -0.2208921 0.023952778 -0.07748242 0.037839446 0.13236856 0.09117011 -0.028299324
-0.08652773 0.01811976 0.028971769 -0.03823782 -0.099069685 0.023730552 -0.066392764 0.03227762
0.044787202 0.023522492 -0.14803955 -0.09781417 -0.09126857 -0.14293623 -0.14294791 -0.051622245
-0.057848744 -0.18783692 -0.008222275 -0.045639563 0.0112371715 -0.11758683 -0.07846393 -0.07514894
0.118285656 -0.094532564 -0.122870356 -0.052036498 0.036647808 -0.031239353 0.0763849 0.08934966
0.004871548 0.09260264 -0.06628956 -0.016326893 -0.1206643 0.018713 0.08391114 -0.047654174
0.08795696 -0.01206576 0.080377154 -0.08366099 -0.23149621 -0.11952715 0.03336096 0.20393023
-0.114506096 -0.014639552 0.1421453 0.08924827 0.057115752 -0.06240394 -0.11342942 0.075440094
0.031055653 -0.011520678 -0.07255862 0.08480666 0.036326926 0.0071649076 0.002525603 0.040407296
-0.061839767 0.04966427 0.118857786 0.0132285375 -0.04749104 -0.022777477 0.046864785 -0.041053604
0.07232189 -0.14422323 -0.050118133 -0.077611856 -0.17960955 0.029900288 0.06728225 0.19655302
-0.038509537 -0.018096492 -0.079102226 0.090514876 -0.052888017 -0.014053015 -0.0013737953 0.124984615
-0.03300907 0.045473922 -0.1127392 0.009902491 -0.07535668 -0.15733355 -0.044533372 -0.12957321
-0.17084463 -0.03934325 -0.06517219 -0.017451448 -0.16328934 -0.10319296 -0.10400847 -0.09510304
-0.08547762 -0.19196242 0.014611175 -0.1763928 -0.02583007 -0.18806908 -0.18098812 -0.08409938
0.039948784 0.05825312 -0.077281326 -0.019428292 -0.14650376 -0.006110976 0.0864015 0.082393155
00000000: 67a4 ce3b db78 1abd 055e 8b3d 9494 c43d
00000010: 7e7f 40bd ca27 f23c 81f3 7abd ea94 813d
00000020: bc8f a4bb 8762 e53d cfdb cb3b 96b4 00bc
00000030: 2862 d3bd 278b 9abd 89b7 edbc b001 a0bc
00000040: 0d62 113d 193a f4ba 10d4 913e 4250 bb3d
00000050: 4a5c 26be df23 1dbe 41c6 20bd f68d 1bbe
00000060: 3939 0dbd 4c74 49bd d6e4 77bd 88ca 7dbd
00000070: 3b8c 3b3d 570f 2abe ed11 90bd a886 943d
00000080: 9914 30bb e466 8f3c 3c92 08be 7005 473d
00000090: c7df 943d 0b51 8d3d 9861 25ba 8e57 6fbc
000000a0: 06e3 d73d 97ce 173d dbee 813d 9e76 5d3d
000000b0: 1a05 7bbd ab9d 853c 7492 48bd adb8 4b3c
000000c0: 1e99 b33d 367e ba3d 556b c43e ac3a 3e3d
000000d0: faa4 eb3c 7f96 a1bc 7d0b 493d 0ee6 1b3f
000000e0: e5fa 0ebe 8207 c8bd c51f c03c ea89 113e
000000f0: bbb6 cdba 0bf7 a63d c4bb 563d fe04 a93c
00000100: a54c 02bb c3ba 8b3e b1a1 d83c 1d85 b33e
00000110: e47c 123e a450 013e e340 41bd f0c1 b43d
00000120: 6c00 62bd c504 81bc 592b ea3d c861 b9bc
00000130: c58b 7fbd ce7d 413c 2fc8 9f3d 4eb4 25bd
00000140: 21e0 bc3d 0241 8bbc beb5 22bd dca0 43bd
00000150: 8044 c03d 2313 a33d 0a96 a93d 7a49 2f3e
00000160: f8bb 283d aeeb aabc 7c75 bebc d557 f83c
00000170: 9047 093c 3f28 fdbb f9f8 523d 9c80 303e
00000180: 99b3 673d e091 0dbb 97fb 293d 48f6 42bd
00000190: 83f5 9ebd b829 c9bd 9e39 063d 2720 2abe
000001a0: 120a 8ebd 866f 91bc a908 95bd 67ed b7bd
000001b0: 9f79 b4bd 2e80 01be 3507 3ebd 7176 763c
000001c0: fc14 ab3d 4a5d c0bc 62f2 973d 1bc9 b53e
000001d0: 45e0 993d f5e6 01be 80e3 863d df1d 09bd
000001e0: 80c1 a4bd 731a 543d 04f2 0dbe ad7f ccbd
000001f0: d740 52bd 4a05 8439 339f d0bd 7024 ac3e
00000200: 3e98 0e3d 8a31 62be 9e38 c43c 1aaf 9ebd
00000210: 89fd 1a3d a08b 073e 65b7 ba3d fcd3 e7bc
00000220: 7335 b1bd e46f 943c 3456 ed3c 439f 1cbd
00000230: 0ce5 cabd 9366 c23c eef8 87bd 8a35 043d
00000240: c972 373d 3eb2 c03c ae97 17be cc52 c8bd
00000250: 04eb babd e05d 12be f060 12be d971 53bd
00000260: cef2 6cbd 5258 40be b9b6 06bc 8df0 3abd
00000270: 1d1c 383c 5dd1 f0bd b2b1 a0bd b0e7 99bd
00000280: c03f f23d 4a9a c1bd 74a3 fbbd 3924 55bd
00000290: 031c 163d ace9 ffbc b06f 9c3d f4fc b63d
000002a0: 82a1 9f3b 74a6 bd3d d2c2 87bd fabf 85bc
000002b0: d81e f7bd 014c 993c 9bd9 ab3d 0631 43bd
000002c0: c722 b43d 77af 45bc c79c a43d 7456 abbd
000002d0: 580d 6dbe a7ca f4bd 81a5 083d 16d3 503e
000002e0: 2c82 eabd bbda 6fbc 8a8e 113e ccc7 b63d
000002f0: 35f2 693d 469b 7fbd af4d e8bd 5680 9a3d
00000300: 6d68 fe3c 3ac1 3cbc 9d99 94bd 1daf ad3d
00000310: 8bcb 143d 9ac7 ea3b 9684 253b 1f82 253d
00000320: b24b 7dbd c36c 4b3d b66b f33d 82bc 583c
00000330: f785 42bd d597 babc 4af5 3f3d d327 28bd
00000340: 801d 943d 41af 13be ac48 4dbd f7f2 9ebd
00000350: 91eb 37be 73f1 f43c 47cb 893d 3245 493e
00000360: 2dbc 1dbd 183f 94bc 5900 a2bd dd5f b93d
00000370: 1ba1 58bd 9e3e 66bc ec10 b4ba eff7 ff3d
00000380: 8534 07bd dd42 3a3d cfe3 e6bd 0f3e 223c
00000390: 9a54 9abd 0c1c 21be a068 36bd d7ae 04be
000003a0: e5f1 2ebe 6326 21bd ff78 85bd 57f6 8ebc
000003b0: 5235 27be d556 d3bd 6502 d5bd 62c5 c2bd
000003c0: e40e afbd cc91 44be b663 6f3c 50a0 34be
000003d0: 9599 d3bc 2e95 40be f354 39be 4c3c acbd
000003e0: 56a1 233d d39a 6e3d ac45 9ebd 1528 9fbc
000003f0: 1505 16be 953e c8bb 45f3 b03d bebd a83d

fc.weight f4 [4, 128]
-0.03315363 0.07165265 0.045844384 -0.060141508 0.06741388 -0.005177772 -0.055030208 -0.036304694
-0.084908135 -0.21835074 0.016026895 -0.008030098 0.003222961 -0.061544612 -0.031298466 0.13569878
-0.037399676 -0.12407546 -0.07015265 0.12374249 -0.010902861 0.013006207 0.046860166 -0.07002489
0.10623314 -0.07744337 0.09294153 -0.11782932 -0.12155222 -0.07983648 -0.094984464 0.08875663
0.08594459 -0.15953405 0.10183915 0.060220495 0.11012602 -0.06508695 0.017972253 -0.036575623
0.09804002 0.13824587 -0.1084304 0.033350892 -0.040557776 0.092911735 0.11557744 -0.067281716
-0.09339401 -0.14865194 0.26305088 0.08445334 0.058857314 0.11061971 -0.061640732 -0.18518654
0.07811123 -0.030251987 0.043054096 -0.074609876 0.033996798 -0.032202914 0.15710539 -0.055150423
-0.028502893 -0.03770294 0.12970145 0.23815562 0.10947769 0.07642329 -0.011727565 -0.01577571
-0.09193646 -0.035438992 0.09485639 0.094891876 0.02948445 -0.050975952 0.044603862 0.070024595
-0.08490248 0.046693943 0.016581848 0.009515187 0.16815777 -0.04094083 -0.06304061 -0.06016138
-0.010766875 -0.13377304 -0.07288035 -0.09228 0.04625215 -0.04349379 0.16512652 0.101366505
-0.040798113 -0.07610426 -0.11990661 0.024899008 -0.032598026 -0.054747548 -0.033925414 -0.07822567
-0.08873695 -0.14360552 0.13486934 -0.020280685 0.09180733 0.035690524 -0.13409783 -0.083052404
0.062112454 0.0076513947 -0.12104019 0.47977674 0.0149506675 0.0988029 0.17397206 -0.020794464
0.24159299 -0.07811171 -0.05077565 -0.021837912 -0.074742 0.051251024 0.046330426 0.024455823
-0.10904297 -0.17140043 0.03965727 -0.06664062 -0.09960713 0.0784969 -0.060689043 -0.05222662
-0.121828385 0.051944744 -0.02076123 0.12585346 0.07792807 -0.0910722 0.04230063 0.03561946
-0.066868186 -0.10309756 0.10113064 -0.24691415 0.01876035 0.03605263 -0.08608678 0.0037653798
0.02463307 -0.08930891 -0.013014078 -0.0066796555 -0.1220423 -0.039891794 0.0030999132 0.061510798
-0.059683334 -0.0691059 0.06400808 0.13052979 0.029002516 -0.10829118 0.03780833 0.029594375
0.04627182 0.12318595 -0.08844369 0.081215575 -0.101317056 -0.050330147 0.030448822 0.01983058
-0.13066597 -0.009824732 -0.038238492 0.15113492 -0.009602359 0.040966745 -0.028880388 -0.06082547
0.036074392 -0.11574069 -0.05705094 -0.12524174 0.082307786 0.10747549 -0.116421364 -0.1091109
-0.1399731 -0.17791702 0.1455721 -0.1071339 -0.13278861 0.090232074 -0.122843996 -0.10162472
0.006694089 -0.035190266 0.10965364 0.03566189 -0.027594853 -0.040598672 0.11537023 0.004076855
-0.0791192 0.07417729 -0.036892064 -0.073309325 0.18426779 -0.048293315 -0.0380182 0.018065047
0.10826373 -0.10564524 0.13580728 -0.11233281 0.04526369 -0.040872965 0.15133773 0.1279058
0.10585971 0.044040203 0.058638465 0.07690602 0.11792215 -0.06706281 -0.048029564 -0.088127814
-0.25083852 0.0039359285 -0.052715436 -0.015933862 -0.10504973 0.010693843 -0.019158246 -0.11441314
-0.11024313 -0.13597567 -0.06345713 0.058169983 -0.12674408 -0.0044320226 -0.1634447 -0.07589267
-0.10431572 -0.06093056 -0.025612263 0.05736167 -0.03152379 0.09087564 -0.04094654 0.06047208
00000000: 1acc 07bd a0be 923d 52c7 3b3d f156 76bd
00000010: 4a10 8a3d 4daa a9bb 5b67 61bd 3bb4 14bd
00000020: 51e4 adbd 5697 5fbe d64a 833c ac90 03bc
00000030: 5038 533b 3416 7cbd d232 00bd 9ff4 0a3e
00000040: 6730 19bd 461b febd 31ac 8fbd b46c fd3d
00000050: eaa1 32bc fc17 553c 72f0 3f3d 3669 8fbd
00000060: c390 d93d a19a 9ebd 2158 be3d 8050 f1bd
00000070: 5ff0 f8bd 4f81 a3bd 3787 c2bd 09c6 b53d
00000080: b803 b03d e55c 23be 0b91 d03d c4a9 763d
00000090: c089 e13d 4f4c 85bd 8c3a 933c 52d0 15bd
000000a0: 35c9 c83d 5390 0d3e c210 debd f29a 083d
000000b0: e91f 26bd 8248 be3d ddb3 ec3d ffca 89bd
000000c0: 5c45 bfbd 3738 18be 9bae 863e dff5 ac3d
000000d0: 5e14 713d 968c e23d fe7a 7cbd 8aa1 3dbe
000000e0: c8f8 9f3d 04d3 f7bc 7e59 303d 10cd 98bd
000000f0: 3a40 0b3d 34e7 03bd 3ce0 203e 69e5 61bd
00000100: e67e e9bc 666e 1abd 75d0 043e 11df 733e
00000110: d735 e03d d083 9c3d f924 40bc 103c 81bc
00000120: 2f49 bcbd 7a28 11bd 1144 c23d ac56 c23d
00000130: 6089 f13c 29cc 50bd 8ab2 363d 0e69 8f3d
00000140: 5ae1 adbd 2642 3f3d a8d6 873c 96e5 1b3c
00000150: 8d31 2c3e 92b1 27bd 6f1b 81bd c76b 76bd
00000160: 8c67 30bc cdfb 08be 4b42 95bd 4cfd bcbd
00000170: e572 3d3d 8b26 32bd ed16 293e 3e99 cf3d
00000180: ec1b 27bd 8ddc 9bbd 9991 f5bd 01f9 cb3c
00000190: 8285 05bd f73e 60bd 60f5 0abd c834 a0bd
000001a0: b8bb b5bd 530d 13be 301b 0a3e ae23 a6bc
000001b0: 7b05 bc3d 3a30 123d f150 09be 6117 aabd
000001c0: a169 7e3d 8db8 fa3b ebe3 f7bd 4ca5 f53e
000001d0: a5f3 743c 2d59 ca3d bb25 323e 2759 aabc
000001e0: 2764 773e 08f9 9fbd 21fa 4fbd 6ce5 b2bc
000001f0: 5512 99bd 98ec 513d f9c4 3d3d 9457 c83c
00000200: ec51 dfbd 9883 2fbe a96f 223d e17a 88bd
00000210: d3fe cbbd fcc2 a03d 1395 78bd 95eb 55bd
00000220: 2981 f9bd 03c4 543d 7413 aabc bbdf 003e
00000230: c198 9f3d 1084 babd 6d43 2d3d b6e5 113d
00000240: 30f2 88bd d024 d3bd 951d cf3d 10d7 7cbe
00000250: 4eaf 993c ecab 133d 444e b0bd 97c4 763b
00000260: 4bcb c93c 97e7 b6bd 0039 55bc 03e1 dabb
00000270: 50f1 f9bd 9465 23bd ea27 4b3b bff2 7b3d
00000280: 8376 74bd 6587 8dbd ab16 833d 9aa9 053e
00000290: af96 ed3c c4c7 ddbd e8dc 1a3d e76f f23c
000002a0: 8587 3d3d ea48 fc3d f721 b5bd 5a54 a63d
000002b0: 517f cfbd fc26 4ebd cf6f f93c be73 a23c
000002c0: 4dcd 05be eaf7 20bc f79f 1cbd 1dc3 1a3e
000002d0: 3653 1dbc bfcc 273d 9096 ecbc 2124 79bd
000002e0: bec2 133d 7409 edbd 3fae 69bd 5f3f 00be
000002f0: fc90 a83d 1c1c dc3d 536e eebd 8975 dfbd
00000300: 1c55 0fbe e12f 36be da10 153e 0569 dbbd
00000310: bdf9 07be 98cb b83d a295 fbbd 9f20 d0bd
00000320: 175a db3b ab23 10bd 1692 e03d 3412 123d
00000330: 9a0e e2bc cb4a 26bd 3a47 ec3d 2397 853b
00000340: 3f09 a2bd 43ea 973d 221c 17bd 3323 96bd
00000350: b2b0 3c3e 36cf 45bd f9b8 1bbd 26fd 933c
00000360: 60b9 dd3d 885c d8bd 1011 0b3e bf0e e6bd
00000370: 6b66 393d 696a 27bd 47f8 1a3e bdf9 023e
00000380: facc d83d 8063 343d e32e 703d e780 9d3d
00000390: 2b81 f13d 3a58 89bd a6ba 44bd 5b7c b4bd
000003a0: e86d 80be f6f8 803b 24ec 57bd bb87 82bc
000003b0: 5024 d7bd 3a35 2f3c c1f1 9cbc 7051 eabd
000003c0: 26c7 e1bd 353d 0bbe d0f5 81bd a643 6e3d
000003d0: 33c9 01be 803a 91bb 0c5e 27be 9e6d 9bbd
000003e0: 7ba3 d5bd 5392 79bd cfd0 d1bc 12f4 6a3d
000003f0: 171f 01bd 021d ba3d 8fb7 27bd 92b1 773d

fc.bias f4 [4]
0.19308285 0.09014939 0.18145351 0.162594
00000000: 83b7 453e 3ea0 b83d f3ce 393e 0b7f 263e
