mlp_hdim_128_indim_38_nlayers_3_bs_512_lr_0.01_decay_0.95_epoch_1.pt (torch, 118935 bytes, 6 tensors)

model.0.weight f4 [128, 38]
0	0xbde5fc63	-0.112297796
1	0x3df9b10f	0.12191974
2	0x3dc7cadf	0.097554915
3	0x3e00e6c8	0.12588036
4	0xbe122161	-0.14270546
5	0xbdce920d	-0.10086451
6	0xbdb19bc1	-0.08672286
7	0x3c6be85b	0.01439866
8	0xbe1f5d56	-0.15562949
9	0xbd71a2b7	-0.058993068
10	0xbd996c74	-0.07491389
11	0xbdc24262	-0.09485318
12	0x3dca9983	0.09892561
13	0xbde6243c	-0.1123738
14	0xbc86f8b7	-0.016476018
15	0xbe02c29a	-0.12769547
16	0x3e1db54d	0.15401192
17	0xbba04a12	-0.0048916424
18	0xbdaec513	-0.08533683
19	0xbe0a4f78	-0.13506877
20	0x3d3b0a5e	0.045664184
21	0xbdc1559f	-0.09440159
22	0xbd608689	-0.054815803
23	0x3e11cdb8	0.14238632
24	0xbe021bef	-0.12705968
25	0x3e0cc8f1	0.13748528
26	0x3da562db	0.08075496
27	0x3d7e09db	0.062021118
28	0xbd5fbbd2	-0.05462248
29	0xbdf8b523	-0.12143924
30	0x3e0e750a	0.13911834
31	0x3e1fe9b3	0.15616493
32	0x3d4a3026	0.049362324
33	0x3d9ed36b	0.077551685
34	0xbdd37722	-0.10325457
35	0xbd6115b7	-0.05495235
36	0xbca7f51c	-0.02050262
37	0xbde17bdd	-0.11009953
38	0xbdb21451	-0.08695281
39	0x3d88a7df	0.06672644
40	0xbd82eb63	-0.06392553
41	0x3cee0b19	0.029058026
42	0xbc9c6514	-0.019091167
43	0xbe389e7a	-0.18029204
44	0xbde7b6d0	-0.113141656
45	0xbe0d7f57	-0.13818108
46	0xbd93ce75	-0.07217113
47	0xbe07ef54	-0.1327489
48	0xbdddecc4	-0.10836175
49	0x3d4929a6	0.049111985
50	0xbda535b3	-0.08066883
51	0xbdb4da6b	-0.088307224
52	0x3db279ff	0.08714675
53	0x3bf89065	0.0075855725
54	0x3d8bf69c	0.068341464
55	0xbceae7c6	-0.028674971
56	0xbce0fad7	-0.02746336
57	0x3caaabd2	0.020833883
58	0x3dcaa984	0.09895614
59	0x3bbdc29b	0.005791021
60	0xbe3301c3	-0.17481141
61	0xbd70766f	-0.058706697
62	0x3d587d52	0.05285389
63	0x3d7a2d1d	0.06107818
64	0xbe3ed58d	-0.1863615
65	0xbe458661	-0.19289543
66	0xbe33f378	-0.17573345
67	0xbd8b811a	-0.068117335
68	0xbd8b4bad	-0.068015434
69	0x3da1afdf	0.07894873
70	0xbe4b6a0a	-0.1986467
71	0xbd6fbc6e	-0.05852931
72	0xbd1201ae	-0.035646133
73	0xbdd5dfc5	-0.10443071
74	0xbe0e4d50	-0.1389668
75	0xbe4235d4	-0.18965846
76	0xbdf5b303	-0.119970344
77	0xbda5cb6a	-0.08095439
78	0x3db80195	0.08984677
79	0xbc44cc01	-0.012011529
80	0x3ccd31bb	0.025048127
81	0x3e1715fa	0.14754477
82	0x3e103155	0.14081319
83	0xbdac2852	-0.08406128
84	0xbe18c7b4	-0.1491993
85	0x3d50d4d0	0.050984204
86	0xbe1cae13	-0.15300779
87	0xbd012579	-0.031529877
88	0x3bc73a80	0.006079972
89	0xbe0237a5	-0.12716539
90	0xbd3e333c	-0.04643558
91	0xbdb49fe1	-0.08819557
92	0xbd243a5c	-0.04009472
93	0x3d88805d	0.06665108
94	0x3d7ddde2	0.061979182
95	0xbd0dcb1e	-0.034617536
96	0x3dfaecf0	0.122522235
97	0x3dea310b	0.114351355
98	0xbda6bf8c	-0.081420034
99	0x3e0fa7ca	0.1402885
100	0xbbf9baf9	-0.007621166
101	0x3e191ed2	0.14953163
102	0xbdbd7cfa	-0.09252353
103	0x3cbff074	0.023430087
104	0xbd69c675	-0.05707403
105	0xbe2104bc	-0.15724462
106	0x3e067c18	0.13133276
107	0xbe08b81a	-0.13351479
108	0x3cfcc001	0.030853273
109	0xbe0354c5	-0.12825306
110	0xbe1c43be	-0.15260217
111	0xbd3bb9f3	-0.045831632
112	0x3d86c5a2	0.06580664
113	0x3e05165f	0.12996815
114	0xbe160802	-0.14651492
115	0xbd3f17eb	-0.04665367
116	0x3e23f77f	0.16012381
117	0xbdca8e67	-0.09890442
118	0xbe1ff6a7	-0.15621434
119	0x3dc69f21	0.0969832
120	0x3da2764d	0.0793272
121	0xbd65d360	-0.056109786
122	0x3dc18044	0.09448293
123	0xbdeaf387	-0.114722304
124	0xbda5ed8f	-0.08101951
125	0xbda3ff15	-0.080076374
126	0x3d9ffdbc	0.07812068
127	0xbd99345b	-0.07480689
128	0x3e12958e	0.14314863
129	0x3cb8bb61	0.022550287
130	0x3e1ecd35	0.15507968
131	0xbd493097	-0.049118605
132	0x3db7726d	0.08957372
133	0xbde7298e	-0.11287223
134	0x3dd2b1f7	0.1028785
135	0xbe09e30c	-0.13465518
136	0xbe179b96	-0.14805445
137	0x3e138b5c	0.1440863
138	0xbdb649e1	-0.0890081
139	0x3deb3f16	0.11486642
140	0x3e2cac42	0.16862586
141	0x3d199540	0.03749585
142	0xbc8f08df	-0.017460285
143	0xbe1195e1	-0.1421733
144	0xbb7f922f	-0.0038997044
145	0xbd132c07	-0.03593066
146	0x3e118410	0.14210534
147	0x3e1079cb	0.1410896
148	0x3d3bfdea	0.04589645
149	0x3c8a9ad1	0.016919525
150	0x3d83a17b	0.06427284
151	0x3dd164bb	0.10224291
152	0xbe213bc4	-0.15745455
153	0x3d7a7470	0.0611462
154	0xbd073ead	-0.033018757
155	0xbd19e9b8	-0.037576407
156	0xbbbb6232	-0.005718493
157	0xbd496003	-0.04916383
158	0xbe267cc8	-0.16258538
159	0x3dc60c91	0.096703656
160	0xbe0d7995	-0.13815911
161	0x3ca018df	0.01954311
162	0x3d75f269	0.060045633
163	0xbcd7f3e9	-0.026361423
164	0x3d95ce64	0.073147565
165	0xbdad96a1	-0.08475996
166	0xbd8f3027	-0.06991606
167	0xbe0e9e74	-0.13927633
168	0xbd0b0a0c	-0.03394513
169	0xbb4c823f	-0.0031205562
170	0xbe4515ff	-0.19246672
171	0x3d6b2171	0.05740494
172	0x3d8cff3c	0.068846196
173	0xbe2b5415	-0.16731293
174	0x3c930d2a	0.017950613
175	0xbe4605b5	-0.19338115
176	0x3d7cc0ca	0.061707295
177	0xbd3fdcd9	-0.046841476
178	0xbe4f7421	-0.20259143
179	0xbda13f0b	-0.078733526
180	0xbe3ed569	-0.18636097
181	0xbe087769	-0.13326801
182	0x3ce8050c	0.028322719
183	0x3d630ddf	0.05543315
184	0xbda70346	-0.08154921
185	0xbdcb7411	-0.09934247
186	0x3dbab708	0.09116942
187	0x3cb652c9	0.022256272
188	0xbd34079e	-0.043952577
189	0xbda97bd8	-0.082755744
190	0xbcf1529f	-0.029458342
191	0xbddbdfb3	-0.107360266
192	0xbe05f542	-0.1308184
193	0x3bf73dc5	0.0075452053
194	0x3b10c859	0.0022092073
195	0x3e123f19	0.14281882
196	0xbd0a7389	-0.03380159
197	0x3defc264	0.11706999
198	0x3d0506b7	0.032477107
199	0xbe24826a	-0.16065374
200	0xbda6458b	-0.08118733
201	0x3dc57580	0.09641552
202	0x3de0d054	0.109772354
203	0xbd5cac5a	-0.053875305
204	0xbdbe1909	-0.09282119
205	0x3e25757e	0.16158101
206	0xbd4b1f63	-0.04959048
207	0x3ca306f2	0.019900773
208	0x3dd3946a	0.10331042
209	0x3c1aadd8	0.009440862
210	0xbe170424	-0.14747673
211	0x3d280cac	0.04102771
212	0xbd004727	-0.031317856
213	0xbe02baeb	-0.12766616
214	0xbe14871a	-0.14504662
215	0xbdb224f9	-0.08698458
216	0xbe08072d	-0.13283987
217	0xbd9a673a	-0.0753922
218	0x3d977372	0.07395066
219	0xbdc263ae	-0.09491669
220	0x3e0bd85e	0.13656756
221	0xbc2c4723	-0.010515007
222	0x3de441b7	0.111453466
223	0x3cf7b229	0.03023632
224	0xbce3212f	-0.027725784
225	0x3e092338	0.13392341
226	0xbe1fb8e2	-0.15597871
227	0x3e1d5df8	0.15367877
228	0xbdfd04cb	-0.1235443
229	0x3e2d264c	0.1690914
230	0x3d35cc73	0.04438443
231	0x3db10f9e	0.08645557
232	0xbe2e9521	-0.17049076
233	0x3d81b6ea	0.06333716
234	0xbe440c26	-0.1914526
235	0x3e3d62fc	0.18494791
236	0xbc9b28f1	-0.01894042
237	0x3e6b2224	0.22962242
238	0xbe10eed2	-0.14153603
239	0x3e04ab45	0.12955959
240	0x3900a217	0.00012267414
241	0x3d614e56	0.055006348
242	0xbde06a04	-0.10957721
243	0x3e9b22c6	0.30299968
244	0xbe12c9f9	-0.14334859
245	0x3e3ed9b7	0.18637739
246	0xbe95a668	-0.2922852
247	0x3e540c1a	0.20707741
248	0xbe7c2422	-0.24623159
249	0x3e0be707	0.13662349
250	0xbe7755a2	-0.2415376
251	0x3e948116	0.29004735
252	0xbe070777	-0.13186441
253	0x3e433b94	0.19065696
254	0xbe9eb41f	-0.30996796
255	0x3e8fe834	0.28106844

model.0.bias f4 [128]
0	0xbc8d7683	-0.017268425
1	0x3daba3db	0.08380862
2	0x3df52a54	0.11970964
3	0xbc7d6e95	-0.015468259
4	0xbe5c870a	-0.21535888
5	0xbdb4832f	-0.08814084
6	0xbc047e99	-0.008086824
7	0xbdd02bc0	-0.10164595
8	0xbe5852ac	-0.21125287
9	0x3e232b38	0.15934455
10	0x3dbe3121	0.09286714
11	0x3db4d777	0.08830159
12	0xbde8cc3f	-0.11367082
13	0x3d923265	0.07138518
14	0xbe1ce299	-0.15320815
15	0xbd094a23	-0.033517968
16	0xbe17ffeb	-0.14843719
17	0xbd4c94e7	-0.04994669
18	0xbda7568f	-0.081708066
19	0x3dd3e3a8	0.10346156
20	0x3db36ac0	0.08760595
21	0xbe3c2453	-0.18373232
22	0xbd1c0642	-0.038091905
23	0x3c098438	0.00839334
24	0x3d294b32	0.041331477
25	0xbdb4b4f5	-0.08823577
26	0x3cb25f4d	0.021773959
27	0x3c400da9	0.011722007
28	0xbdc5c176	-0.0965604
29	0x3e321846	0.17392072
30	0x3c1a4c9d	0.00941768
31	0x3d28df68	0.04122868
32	0x3d308fa2	0.04310573
33	0xbe02873d	-0.12746902
34	0xbd693c6e	-0.056942396
35	0x3da927cf	0.08259546
36	0x3d069cb2	0.03286428
37	0x3e13b4ad	0.14424391
38	0xbd5cbe5c	-0.05389248
39	0x3db22087	0.0869761
40	0xbd801d41	-0.0625558
41	0x3e1fd170	0.15607238
42	0xbdff6262	-0.12469937
43	0x3e071b64	0.13194042
44	0xbe10f8b7	-0.14157377
45	0xbe0b6d78	-0.13615978
46	0xbc69e008	-0.014274605
47	0xbe045509	-0.12923063
48	0x3d9b3b2d	0.07579646
49	0xbdce0a82	-0.10060598
50	0xbe3386ea	-0.17531934
51	0xbe674e96	-0.22588572
52	0xbd785335	-0.060626227
53	0xbe12d21d	-0.14337964
54	0x3e22a778	0.15884197
55	0xbe58edf6	-0.21184525
56	0x3d098aa8	0.0335795
57	0x3ca762e9	0.020432906
58	0xbdfb06d3	-0.12257161
59	0xbaa93ada	-0.0012911216
60	0x3da1639f	0.07880329
61	0xbc7ad6a6	-0.015309965
62	0xbc33af6d	-0.010967118
63	0x3d1f9a4d	0.038965512
64	0x3d55657b	0.052098732
65	0xbd1c5d1c	-0.038174734
66	0x3c29467d	0.010331747
67	0xbe0bc4f0	-0.13649344
68	0x3d0cd6c1	0.034384493
69	0xbd6d4b28	-0.057933003
70	0xbe251aaf	-0.1612346
71	0xbe15e296	-0.14637217
72	0xbdb394d2	-0.087686196
73	0xbcda880e	-0.026676204
74	0xbbf62a27	-0.007512349
75	0xbc522780	-0.0128268
76	0x3d9e3ca0	0.07726407
77	0x3de07b88	0.10961062
78	0x3d7e77c3	0.062125932
79	0x3e2cd78a	0.16879097
80	0xbdfd32b5	-0.12363187
81	0xbd9f25a8	-0.07770854
82	0xbdb772a7	-0.08957415
83	0x3e176649	0.14785112
84	0x3c2c6e18	0.010524295
85	0xbdd8167e	-0.10551165
86	0x3ddec75a	0.10877867
87	0xbdd82853	-0.10554566
88	0x3d3f08f4	0.046639398
89	0xbc8eb497	-0.017420096
90	0x3ddb500d	0.10708628
91	0xbcbe4c45	-0.023229728
92	0x3df74aa4	0.120747834
93	0xbc7907b3	-0.01519959
94	0xbdc82e88	-0.097745
95	0xbe0ce61b	-0.13759653
96	0xbe0de935	-0.13858493
97	0x3de24810	0.11048901
98	0xbdd20ad0	-0.102559686
99	0xbe02944e	-0.12751886
100	0x3e010383	0.12598996
101	0xbd82179f	-0.063521616
102	0x3de81869	0.11332781
103	0xbe2593d3	-0.16169672
104	0x3dd6b295	0.104832806
105	0xbc97576c	-0.018474303
106	0x3b4cd5c0	0.0031255335
107	0x3d4d25fe	0.05008506
108	0x3d5e8578	0.054326504
109	0x3d61e710	0.055152
110	0x3d85b835	0.06529275
111	0x3d6d3fa3	0.057922017
112	0xbdfe248b	-0.12409314
113	0x3e092a84	0.13395125
114	0xbde87ed3	-0.11352315
115	0x3d087d7b	0.033322793
116	0xbe455b5e	-0.19273135
117	0x3d4ae9f4	0.04953952
118	0x3d860d21	0.06545473
119	0xbca86f1a	-0.02056079
120	0xbd0308f5	-0.031990964
121	0xbd802dd8	-0.06258744
122	0x3d8fa42e	0.07013737
123	0x3de6efc5	0.11276201
124	0x3df9baa6	0.121938035
125	0x3e1a9ed7	0.15099655
126	0xbd051aaa	-0.032496132
127	0xbd85873c	-0.065199345

model.2.weight f4 [128, 128]
0	0xbd24687a	-0.0401387
1	0xbd256a89	-0.040384803
2	0x3d2b6e68	0.04185334
3	0x3d4eb48e	0.05046516
4	0xbd2a2e24	-0.04154791
5	0x3d51930b	0.05116562
6	0x3bb21e39	0.0054357317
7	0xbcb69cc6	-0.022291552
8	0x3cca2240	0.024674535
9	0xbd9f9455	-0.07791964
10	0xbd83d192	-0.06436457
11	0x3c0282c0	0.007965744
12	0xbcf47145	-0.029839167
13	0x3d14040a	0.036136664
14	0x3c9396cb	0.01801624
15	0xbd571117	-0.052506533
16	0xbc6087a6	-0.013704216
17	0x3c7530c3	0.014965239
18	0xbcb688f4	-0.022282101
19	0xbd8452a7	-0.06461077
20	0xbc2f838e	-0.010712517
21	0x3ce670e1	0.028129997
22	0x3c5c2d40	0.013438523
23	0x3d6559fb	0.055994015
24	0x3c3706f9	0.011171096
25	0x3cdefeb2	0.027221058
26	0x3da135b6	0.07871573
27	0xbc6b1dae	-0.014350338
28	0x3d90f6c4	0.07078317
29	0x3d6d743c	0.057972178
30	0xbba8928d	-0.0051444233
31	0xbc8a87ec	-0.016910516
32	0xbd2947c2	-0.0413282
33	0x38ca79c1	9.654789e-05
34	0x3bfe0e5b	0.007753176
35	0xbc8173e2	-0.015802328
36	0x3d1752c7	0.036944177
37	0xbc339dbd	-0.010962901
38	0xbda07c76	-0.07836239
39	0xbcf5f59b	-0.03002434
40	0xbacf328e	-0.0015807913
41	0xbd546cb6	-0.051861487
42	0x3da9a625	0.08283643
43	0x3cf9dfaa	0.03050216
44	0xbd2d98b9	-0.042381976
45	0x3d7b5ba2	0.061366685
46	0x3d59f829	0.05321518
47	0xbd970df2	-0.07375707
48	0xbd8c3c3e	-0.06847428
49	0xbda4ce22	-0.08047129
50	0x3da67757	0.08128231
51	0x3c4f8ab9	0.012667351
52	0xbce92d23	-0.028463906
53	0x3d8c32da	0.06845637
54	0xbd4bc8a8	-0.049751908
55	0xbd57151a	-0.05251036
56	0x3d5a5a18	0.053308576
57	0xbd821414	-0.06351486
58	0xbd64399a	-0.055718996
59	0x3da76cb9	0.08175034
60	0x3d96644e	0.0734335
61	0xbd789481	-0.0606885
62	0x3c3280a4	0.010894928
63	0xbdb079d0	-0.08616984
64	0xbb4ade84	-0.0030955384
65	0xbcdbef66	-0.026847553
66	0x3d7d89d1	0.06189901
67	0xbd6af7f3	-0.05736537
68	0x3d14dbc3	0.036342394
69	0xbdaf614d	-0.085634805
70	0x3c485cff	0.012229203
71	0x3daead14	0.08529106
72	0x3cfdb389	0.030969398
73	0x3cadcb4a	0.0212151
74	0x3b938101	0.0045014624
75	0xbd136c90	-0.035992205
76	0xbc99ac48	-0.018758908
77	0xbd374604	-0.044744506
78	0x3d0b40c1	0.0339973
79	0x3c7ee9f5	0.015558709
80	0xbda8d144	-0.08243039
81	0x3cbd41c3	0.023102647
82	0xbce19936	-0.027538877
83	0xbda86e4b	-0.08224162
84	0x3c159ccb	0.009131621
85	0x3db376fe	0.0876293
86	0x3ca94a66	0.020665359
87	0xbd441402	-0.047870643
88	0xbd0e116b	-0.03468458
89	0xbd6412a0	-0.055681825
90	0xbc363069	-0.01111994
91	0x3d97db18	0.07414836
92	0xbcbb89be	-0.022892829
93	0x3d8c2387	0.06842714
94	0x3b8e52a6	0.0043433486
95	0x3caad2ee	0.020852532
96	0xbd41aac5	-0.047282
97	0xbd16914c	-0.03675966
98	0xbd0921a4	-0.033479348
99	0xbd406c02	-0.046978004
100	0x3d9996ab	0.07499441
101	0xbcf4008d	-0.029785419
102	0x3da4a053	0.08038392
103	0xbd34d598	-0.04414901
104	0x3d9a8888	0.075455725
105	0xbcfb6ac2	-0.030690555
106	0xbdac2b6b	-0.08406719
107	0x3d69ce9c	0.057081804
108	0x3dad1958	0.084520996
109	0xbd9f857e	-0.077891335
110	0x3c5b57ec	0.013387661
111	0x3d76800b	0.060180705
112	0xbd7b6838	-0.061378688
113	0x3c65c48b	0.01402391
114	0xbd1cd531	-0.038289253
115	0xbc646beb	-0.013941745
116	0xbd4b51be	-0.049638502
117	0x3da4645e	0.08026956
118	0x3d57fb24	0.05272974
119	0xbd2828d9	-0.04105458
120	0x3dac6338	0.08417362
121	0xbccd86aa	-0.025088627
122	0xbd896831	-0.06709326
123	0xbd0d17fc	-0.0344467
124	0xbc8d3182	-0.017235521
125	0x3d88399b	0.06651612
126	0x3adfb768	0.0017068209
127	0x3c065e01	0.008201123
128	0xbd308729	-0.04309765
129	0x3e00360c	0.12520617
130	0x3d8b0b72	0.067892924
131	0xbd98d907	-0.0746327
132	0x3da08ab5	0.07838956
133	0x3d9e1d4f	0.07720434
134	0x3d3f866a	0.046759047
135	0x3de80088	0.11328226
136	0xbc75671d	-0.014978197
137	0x3d4117e4	0.047141925
138	0x3aaeb99a	0.001333046
139	0xbd330fde	-0.043716304
140	0x3d5f6173	0.054536294
141	0x3d4fd78b	0.050742667
142	0x3d4777df	0.048698302
143	0xbd3072c0	-0.043078184
144	0x3c15e99a	0.009149933
145	0x3d56826b	0.05237047
146	0x3dc9a78f	0.098464124
147	0xbd6e58c9	-0.05819014
148	0xbd115135	-0.035477836
149	0x3b3a44bd	0.002842232
150	0xbcef0c99	-0.029180812
151	0xbb6acec8	-0.0035828818
152	0x3cd958ee	0.026531663
153	0x3da35a35	0.0797619
154	0x3c0a8bdb	0.008456196
155	0x3d3e4b67	0.046458628
156	0xbc75c922	-0.015001567
157	0x3dd89cba	0.10576768
158	0xbcfb1d6b	-0.030653676
159	0x3c84b299	0.016198443
160	0x3d7b2b35	0.061320502
161	0x3c65e48a	0.014031539
162	0x3c4ea8e4	0.012613509
163	0x3d4007f7	0.046882596
164	0xbdefd84c	-0.11711177
165	0x3ceeaf87	0.029136432
166	0x3d2efe76	0.04272314
167	0x3d3f37f6	0.046684228
168	0x3df92463	0.12165143
169	0x3d3132d6	0.04326137
170	0x3dce62a2	0.100774065
171	0x3cfeb3aa	0.03109153
172	0xbbd1fa2b	-0.006407996
173	0xbc378e9b	-0.011203433
174	0x3c8479b4	0.016171314
175	0xbc552889	-0.013010153
176	0x3ba27f50	0.0049590245
177	0x3d0135c2	0.031545408
178	0x3dd0c7fb	0.10194393
179	0xbad45eec	-0.0016202605
180	0x3da12202	0.078678146
181	0x3d1ae289	0.037813697
182	0x3b9197fd	0.0044431672
183	0xbd4c44b7	-0.04987022
184	0x3c57bb0a	0.013167152
185	0xbd576e43	-0.05259539
186	0xbcd93416	-0.026514094
187	0x3d987202	0.0744362
188	0x3dc009f5	0.09376899
189	0x3db95862	0.09050061
190	0x3d41bf90	0.04730183
191	0x3d9339de	0.07188772
192	0x3db4dfdd	0.08831761
193	0xbc13b670	-0.009015664
194	0xbc5df6ac	-0.013547581
195	0x3cd1de5f	0.02561873
196	0x3d91a5b7	0.07111686
197	0x3d5d60dc	0.05404745
198	0x3d2fe868	0.04294625
199	0x3d1d0398	0.038333505
200	0xbd957a17	-0.072986774
201	0x3cb34440	0.02188313
202	0x3d85809c	0.06518671
203	0x3ce97366	0.02849741
204	0xbd95898e	-0.07301627
205	0xbc9b5e88	-0.018965974
206	0xbc8cab83	-0.017171627
207	0xbaff79b4	-0.0019491226
208	0xbc94775b	-0.01812332
209	0x3d101aa0	0.03518164
210	0xbd134399	-0.035953138
211	0xbd42ed3e	-0.047589533
212	0x3b503bcf	0.003177393
213	0x3d18e8e6	0.037331484
214	0xbc973432	-0.018457506
215	0xbd461b90	-0.04836613
216	0xbd0079ef	-0.031366285
217	0x3e235799	0.15951385
218	0x3d81a0f3	0.06329527
219	0xbda9347d	-0.082619645
220	0x3d4ee12d	0.050507713
221	0x3e17f500	0.14839554
222	0xbceab80f	-0.02865222
223	0x3d0e41fd	0.0347309
224	0x3ccde779	0.025134789
225	0x3d7e301f	0.06205761
226	0x3ce60884	0.028080232
227	0xbd8cb931	-0.0687126
228	0x3d8a03c3	0.06738999
229	0x3d66d6db	0.056357246
230	0xbb76e0f4	-0.0037670704
231	0x3cbca44c	0.023027562
232	0xbd9bb12e	-0.07602154
233	0xbcefe66f	-0.029284684
234	0x3dabb27f	0.08383655
235	0xbcde4745	-0.027133593
236	0x3c9fad23	0.019491738
237	0xbd3d2ffc	-0.04618834
238	0xbaaa82a5	-0.0013008906
239	0x3d660125	0.056153435
240	0x3ab90727	0.0014116511
241	0xbce8f4ec	-0.0284371
242	0xbd1d08be	-0.038338415
243	0x3d4a2a2c	0.049356624
244	0x3d69d62a	0.05708901
245	0x3c06dce3	0.008231374
246	0xbc014ae8	-0.007891394
247	0xbd363ba0	-0.044490457
248	0x3b89297f	0.004185855
249	0x3d9ba3d9	0.07599611
250	0x3e15a041	0.14611913
251	0x3cc583a1	0.024110617
252	0xbd81c3b0	-0.063361526
253	0x3dd78e26	0.105251595
254	0x3d8c9655	0.06864611
255	0x3d8d8d39	0.06911702

model.2.bias f4 [128]
0	0x3be8cb94	0.0071043465
1	0x3d16c67f	0.036810394
2	0xbdefb6c4	-0.11704782
3	0xbda86bbf	-0.08223676
4	0xbe00cc45	-0.12577923
5	0x3d9a3e3f	0.07531404
6	0x3d6959f0	0.056970537
7	0x3d8986e4	0.067151815
8	0xbbf2d700	-0.007410884
9	0xbdab75ff	-0.08372115
10	0xbd8bf775	-0.06834308
11	0xbd4f9de5	-0.05068769
12	0x3c380729	0.011232176
13	0xbe063b74	-0.13108617
14	0x3d8ed75f	0.069746725
15	0xbbe59513	-0.0070062964
16	0xbd995eb9	-0.0748877
17	0xbd4d08dc	-0.050057277
18	0xbdaa4dd5	-0.083156265
19	0xbda1fd4f	-0.07909643
20	0x3d93fcfb	0.072259866
21	0xbd8da865	-0.06916884
22	0xbd59cb0c	-0.053172156
23	0xbcad0bb5	-0.021123746
24	0xbd850e5c	-0.064968795
25	0xbdc69ab6	-0.096974775
26	0x3e06e44d	0.13173027
27	0xbdd797e6	-0.10527019
28	0x3dcedb31	0.10100401
29	0xbd949e0a	-0.07256706
30	0x3c3fb267	0.011700249
31	0xbdba6817	-0.09101885
32	0xbdad5ea5	-0.08465318
33	0xbc4b781d	-0.012418774
34	0xbe19d4d3	-0.15022592
35	0x3e0a456c	0.13503045
36	0x3c0cc4a3	0.008591804
37	0x3c7564b6	0.014977625
38	0xbd0eea69	-0.03489152
39	0xbde4d118	-0.11172694
40	0x3de86a16	0.11348359
41	0xbda2cb3d	-0.07948921
42	0xbc8e96c6	-0.017405879
43	0x3d465d29	0.04842869
44	0xbc7976e7	-0.015226102
45	0x3d64e89a	0.05588589
46	0xbc803df9	-0.01565455
47	0xbd8a2d72	-0.06746949
48	0xbe02b4af	-0.12764238
49	0x3c043d03	0.008071187
50	0x3ccebc9f	0.025236426
51	0x3d5beb41	0.053691152
52	0x3cee398d	0.029080177
53	0xbcaa641b	-0.020799687
54	0x3c684016	0.0141754355
55	0xbdf1278d	-0.11775122
56	0x3deb7440	0.11496782
57	0x3dde6337	0.108587675
58	0xbd0c9cb2	-0.034329124
59	0x3cdc7c75	0.026914814
60	0x3d49db98	0.049281687
61	0xbd9510f2	-0.07278623
62	0xbde94691	-0.113904126
63	0xbdb1c2f8	-0.086797655
64	0xbd10e9f3	-0.03537936
65	0xbd16c24f	-0.0368064
66	0xbcf6790a	-0.030087013
67	0x3d8b0cf4	0.0678958
68	0xbd6f0407	-0.05835345
69	0x3dc45e5c	0.0958831
70	0xbe0a8d37	-0.13530432
71	0x3c087e0d	0.008330834
72	0xbe2055f5	-0.1565779
73	0x3dc04936	0.09388964
74	0xbcc5ee67	-0.02416153
75	0xbd15ced5	-0.036574204
76	0x3b17cfaf	0.002316456
77	0x3b8657f8	0.004099842
78	0xbdba0ecd	-0.09084854
79	0xbde9842a	-0.114021614
80	0xbd3315de	-0.043722026
81	0xbd38d630	-0.04512614
82	0xbbe04fd1	-0.0068454524
83	0x3cc65ad1	0.024213227
84	0xbd9a38d8	-0.07530373
85	0xbd341abe	-0.043970816
86	0x3c231905	0.009954696
87	0xbda5451b	-0.080698214
88	0xbe0b1d06	-0.1358529
89	0xbd123436	-0.035694323
90	0x3cd6b759	0.026210474
91	0xbdc21369	-0.094763584
92	0xbda5ecf8	-0.08101839
93	0x3d0dcb37	0.03461763
94	0xbccf6bf1	-0.025320025
95	0x3dda2aca	0.106526926
96	0x3d3916f0	0.04518789
97	0xbe090412	-0.13380459
98	0xbdc98e73	-0.09841623
99	0x3d74eebf	0.059798
100	0xbc1d88b0	-0.009615108
101	0x3c015580	0.00789392
102	0xbb914bca	-0.0044340836
103	0xbc0aabab	-0.00846378
104	0x3cac3a7a	0.021023978
105	0xbce60907	-0.028080476
106	0x3ca1b586	0.019739877
107	0xbcb5933c	-0.022164933
108	0x3d1fa748	0.03897789
109	0x3e0bb539	0.1364335
110	0xbda9a446	-0.08283286
111	0xbd340f5b	-0.043959957
112	0xbda41b15	-0.08012978
113	0x3cdb8624	0.026797362
114	0xbd8c7adb	-0.0685937
115	0x3c643fe7	0.013931251
116	0x3d10caca	0.035349645
117	0xbce55a6f	-0.027997224
118	0xbd68151f	-0.056660768
119	0x3d62288b	0.055214446
120	0x3d20a138	0.03921625
121	0xbc6e1e0a	-0.014533529
122	0xbd24e57e	-0.040257923
123	0xbca508a1	-0.020145716
124	0xbe00e104	-0.12585837
125	0xbd020e27	-0.031751778
126	0x3da4a6bf	0.08039617
127	0xbcf99355	-0.030465761

model.4.weight f4 [60, 128]
0	0x3d6c7021	0.057724122
1	0x3caabf39	0.020843135
2	0x3deddc11	0.1161424
3	0xbdf5916b	-0.11990627
4	0x3d88c568	0.06678277
5	0x3c99cf74	0.01877568
6	0xbc4b898c	-0.01242293
7	0x3d73e229	0.059541855
8	0xbd6986ec	-0.057013437
9	0xbbdfb2c0	-0.0068267286
10	0xbd73ac8a	-0.059490718
11	0x3d0f6347	0.035006788
12	0x3d7cba23	0.06170095
13	0xbdc3034d	-0.09522114
14	0x3d9ce84d	0.07661495
15	0xbcf82a45	-0.030293593
16	0x3dfc8c68	0.12331468
17	0xbd1c8841	-0.03821588
18	0x3da68265	0.081303395
19	0x3c44786a	0.0119916
20	0xbdad7789	-0.08470065
21	0x3caad07c	0.020851366
22	0xbd8f08d6	-0.06984107
23	0x3da3cfef	0.079986446
24	0x3e1fa04c	0.15588492
25	0x3e006403	0.12538151
26	0x3daac70c	0.083387464
27	0x3ddbbdb8	0.10729545
28	0x3d7843c7	0.060611513
29	0x3d7ed521	0.062214974
30	0x3d669655	0.05629571
31	0x3cf4ac9b	0.029867461
32	0x3de4f065	0.11178664
33	0x3d081c1b	0.03322993
34	0xbcbcd6f6	-0.02305172
35	0x3da93ac4	0.08263162
36	0xbc13e1bb	-0.009025986
37	0x3ded4e57	0.11587208
38	0x3bd29253	0.0064261346
39	0xbc97c4dd	-0.018526489
40	0xbc45facd	-0.012083721
41	0xbda3700f	-0.07980358
42	0xbda4f979	-0.08055396
43	0xbd705ada	-0.058680393
44	0xbd36df52	-0.04464657
45	0x3c93d74b	0.018046996
46	0x3a75c169	0.00093748287
47	0x3c26ec68	0.0101882
48	0x3bf97cca	0.007613753
49	0x3d41ae11	0.047285143
50	0x3c404570	0.011735305
51	0xbd5b7b1c	-0.053584203
52	0xbd0697c7	-0.03285959
53	0x3e0dd496	0.13850626
54	0xbd7fa5d8	-0.06241402
55	0x3ddb2a84	0.107014686
56	0x3d34cd02	0.044140823
57	0x3db65092	0.08902086
58	0x3dfe63cb	0.12421378
59	0x3d929690	0.07157624
60	0xbc20d2c3	-0.0098158745
61	0x3b234817	0.0024914795
62	0x3db23d35	0.087030806
63	0x3dc2951e	0.09501098
64	0xbca492b1	-0.02008948
65	0x3c327d18	0.0108940825
66	0xbd430086	-0.04760792
67	0x3d8dbd14	0.069208294
68	0x3e0e43ff	0.13893126
69	0x3df41367	0.11917763
70	0x3d991887	0.07475381
71	0xbc987249	-0.018609183
72	0xbd7ad5c2	-0.06123901
73	0x3dbc38c1	0.091905124
74	0x3d1b21c2	0.03787399
75	0xbc8db93d	-0.017300243
76	0xbd495246	-0.049150728
77	0x3cba76cb	0.022761723
78	0xbc122d57	-0.008921943
79	0x3d9b7661	0.07590938
80	0x3db8e916	0.090288326
81	0x3b47e8e4	0.0030503804
82	0x3dd9edad	0.10641036
83	0x3dfa1c1e	0.12212394
84	0x3d2cab32	0.042155452
85	0x3d84de05	0.06487659
86	0x3d4a8b22	0.049449094
87	0xbd3bf27f	-0.04588556
88	0x3d5da3a0	0.054111123
89	0x3e01ca86	0.12674913
90	0xbd17e2c2	-0.037081487
91	0x3d1fc639	0.0390074
92	0xbcb1aea3	-0.021689719
93	0x3d84b336	0.06479494
94	0x3de464da	0.111520484
95	0x3d22cb80	0.039744854
96	0xbdac5b42	-0.084158435
97	0x3d9b200e	0.07574473
98	0x3e0b5288	0.13605702
99	0xbd32535e	-0.043536536
100	0x3dbfe6bb	0.0937018
101	0x3d712448	0.05887249
102	0xbdbd7bb7	-0.09252112
103	0xbcf8505b	-0.030311754
104	0xbd71eba5	-0.05906262
105	0xbc855c43	-0.016279345
106	0x3cb0e858	0.021595165
107	0xbc056a18	-0.0081429705
108	0x3d74e84f	0.05979186
109	0x3d36e9d2	0.044656582
110	0x3d39b3cb	0.04533748
111	0xbdd9a80e	-0.10627757
112	0x3d581f26	0.05276408
113	0xbbabc6fc	-0.0052422266
114	0xbda4575f	-0.08024477
115	0x3d32e494	0.04367502
116	0xbd2d2ce0	-0.042279124
117	0x3da0ed4b	0.0785776
118	0xbd159d85	-0.036527175
119	0x3aea55e1	0.0017878377
120	0x3da82f35	0.08212129
121	0x3d32447e	0.04352235
122	0x3d674b81	0.05646849
123	0x3db46284	0.08807853
124	0x3c96fe7e	0.018431898
125	0x3e0d0abb	0.13773625
126	0x3c329258	0.010899149
127	0x3d954e09	0.07290275
128	0x3cfb7d7a	0.03069948
129	0xbd22f90c	-0.03978829
130	0x3baeb862	0.0053320387
131	0xbdcb2d43	-0.09920742
132	0x3db17c15	0.08666245
133	0xbc48c1e2	-0.0122532565
134	0x3db074c2	0.0861602
135	0x3e02a389	0.12757696
136	0x3ccd806a	0.025085647
137	0x3da8b4a4	0.082375795
138	0x3d93f12b	0.072237335
139	0x3b6048df	0.0034223122
140	0x3d193b20	0.0374099
141	0xbd6dad05	-0.058026332
142	0xbc11c8c9	-0.008897969
143	0x3da306cc	0.07960281
144	0x3d9b3a52	0.07579483
145	0x3d7afc37	0.061275687
146	0x3d349658	0.04408869
147	0x3d738cda	0.0594605
148	0xbd98d4dd	-0.074624754
149	0x3dd07b48	0.10179764
150	0x3d559e9f	0.052153226
151	0x3cfbf631	0.030757042
152	0x3d1593c1	0.036517862
153	0x3d1bde97	0.038054075
154	0x3de77775	0.113020815
155	0x3d9d6b6c	0.07686505
156	0x3dd6043d	0.10450027
157	0xbd6e618a	-0.05819849
158	0xbd9e68f6	-0.077348635
159	0x3da3e7e9	0.08003218
160	0x3cd7104f	0.026252894
161	0x3df60e95	0.120145
162	0xbd1f488c	-0.038887545
163	0x3bfb396b	0.007666757
164	0x3d53c19b	0.05169831
165	0xbc42b7ba	-0.011884624
166	0x3c9721c9	0.018448727
167	0xbcc18299	-0.023621844
168	0x3d8c3a13	0.06847014
169	0x3d4fd36e	0.050738744
170	0xbd9c08cb	-0.076188646
171	0xbd570745	-0.052497167
172	0x3dac4f09	0.08413512
173	0xbd3592b7	-0.04432937
174	0xbce9a952	-0.028523121
175	0x3c3c5e13	0.011497038
176	0x3b8be9fe	0.0042698374
177	0x3dc9f325	0.09860829
178	0xbc45da47	-0.012075967
179	0xbc89f677	-0.016841156
180	0xbda95de6	-0.08269863
181	0xbc820cd9	-0.015875267
182	0x3dfeeddd	0.124477126
183	0xbce0f1f1	-0.027459117
184	0x3d794783	0.060859215
185	0x3d8f712e	0.07004009
186	0x3db092ee	0.086217746
187	0x3d39a2c9	0.04532126
188	0xbc7eb83d	-0.0155468555
189	0x3dfc6b16	0.123251125
190	0x3c5fdbe4	0.013663266
191	0x3d07f33c	0.03319095
192	0x3dadf34d	0.084936716
193	0x3d25e78e	0.04050403
194	0xbd83d52b	-0.06437143
195	0xbd7c1a2a	-0.06154839
196	0x3ddd75eb	0.10813507
197	0xbd38c215	-0.045106966
198	0x3ccedcee	0.025251832
199	0xbc51c579	-0.012803429
200	0xbcb05a99	-0.021527575
201	0x3dc0aef8	0.09408373
202	0xbd406c69	-0.046978388
203	0x3c72e117	0.014824173
204	0xbc987be9	-0.018613772
205	0x3d95bb51	0.073111184
206	0x3c7cec56	0.015437206
207	0x3deb67f9	0.114944406
208	0xbc3a2330	-0.011360928
209	0x3d1fb9a1	0.03899539
210	0x3dc7e0d1	0.09759677
211	0x3c2777ab	0.010221402
212	0x3db1d47a	0.08683105
213	0x3aa41cc0	0.0012520775
214	0xbae05cde	-0.001711752
215	0xbd21ee42	-0.03953386
216	0x3d873572	0.06601991
217	0x3bc83df3	0.0061109005
218	0x3ce5dea1	0.02806026
219	0xbd73deba	-0.05953858
220	0x3d32b124	0.043625966
221	0xbcaf7d80	-0.021422148
222	0x3d81c877	0.06337064
223	0xbb13275d	-0.0022453882
224	0xbb0d70e9	-0.0021582192
225	0x3e0f2d28	0.1398207
226	0xbc831839	-0.016002761
227	0x3d3b2914	0.045693472
228	0x3dc5b9cb	0.09654578
229	0x3dc39dfb	0.09551617
230	0xbd8450f3	-0.06460752
231	0xbbd4c14e	-0.0064927703
232	0xbc24b1ee	-0.010052187
233	0xbcd17238	-0.025567159
234	0xbc77a3df	-0.0151147535
235	0xbca915b7	-0.020640237
236	0xbd81a637	-0.06330531
237	0x3dced7bb	0.10099741
238	0x3d5e6a6c	0.05430071
239	0x3cf1d445	0.029520163
240	0xbd857f17	-0.06518381
241	0x3cdfd980	0.027325392
242	0xbd4ae728	-0.049536854
243	0xbdb0908d	-0.08621321
244	0x3d6144e1	0.05499733
245	0xbc65ad90	-0.014018431
246	0x3d6869dd	0.056741584
247	0xbd599aec	-0.05312626
248	0x3db61ef5	0.08892623
249	0xbc271034	-0.010196734
250	0x3d546084	0.051849857
251	0x3c3fe200	0.011711597
252	0x3dc39905	0.095506705
253	0xbb18c4d1	-0.002331067
254	0xbc78daba	-0.015188867
255	0x3cc62063	0.024185365

model.4.bias f4 [60]
0	0x3cf76090	0.030197412
1	0x3e10e22b	0.14148776
2	0x3dda935f	0.1067264
3	0x3e10a358	0.1412481
4	0xbbbc4ef9	-0.005746719
5	0x3e41b336	0.1891602
6	0x3e093934	0.13400728
7	0x3e30197f	0.17197226
8	0x3d8754d5	0.06607977
9	0x3e04fce6	0.12987098
10	0x3dc898a7	0.09794741
11	0x3e2b610d	0.1673624
12	0x3df56a83	0.11983206
13	0x3e198a17	0.14994083
14	0x3d73ec6e	0.05955165
15	0x3d55e6a9	0.052221928
16	0x3e2d7a3e	0.16941163
17	0x3e296d1e	0.16545531
18	0x3e1217e5	0.14266928
19	0x3e3912d5	0.1807359
20	0x3e0ca103	0.13733296
21	0x3e338d9d	0.1753449
22	0x3e1e6ead	0.15471907
23	0x3e3252a8	0.17414343
24	0x3e0940c6	0.13403615
25	0x3d73543a	0.059406497
26	0x3d2303c5	0.039798517
27	0x3d7efcef	0.062252935
28	0x3dead022	0.114654794
29	0x3d5b947b	0.0536084
30	0x3e2efd26	0.17088756
31	0x3e30988f	0.17245696
32	0x3dad8889	0.08473308
33	0x3e070dd7	0.13188873
34	0x3e18ec57	0.14933906
35	0x3df6be5e	0.120480284
36	0x3db25dd9	0.08709306
37	0x3ddec827	0.1087802
38	0x3c3d66db	0.011560167
39	0x3c52048c	0.012818467
40	0x3cf5d68b	0.030009529
41	0x3e058734	0.13039857
42	0x3e2def0e	0.16985723
43	0x3db3398b	0.0875121
44	0x3d8544cf	0.06507265
45	0x3dfb848a	0.12281139
46	0x3d881f92	0.066466466
47	0x3dc89e59	0.097958274
48	0x3e353073	0.17694263
49	0x3e0902cf	0.13379978
50	0x3de4ddc0	0.11175108
51	0x3d39f49a	0.045399286
52	0x3e24c742	0.16091636
53	0x3e404cb4	0.1877926
54	0x3dbe31b7	0.09286826
55	0x3e40a371	0.18812348
56	0x3e07cee0	0.1326251
57	0x3da08f48	0.07839829
58	0x3e2fe038	0.17175376
59	0x3d86c586	0.06580643
