mlp_hdim_128_indim_38_nlayers_3_bs_512_lr_0.01_decay_0.95_epoch_23.pt (torch, 118935 bytes, 6 tensors)

model.0.weight f4 [128, 38]
000000 63 fc e5 bd 0f b1 f9 3d df ca c7 3d c8 e6 00 3e
       -0.112297796 0.12191974 0.097554915 0.12588036
000010 61 21 12 be 0d 92 ce bd c1 9b b1 bd 5b e8 6b 3c
       -0.14270546 -0.10086451 -0.08672286 0.01439866
000020 56 5d 1f be b7 a2 71 bd 74 6c 99 bd 62 42 c2 bd
       -0.15562949 -0.058993068 -0.07491389 -0.09485318
000030 83 99 ca 3d 3c 24 e6 bd b7 f8 86 bc 9a c2 02 be
       0.09892561 -0.1123738 -0.016476018 -0.12769547
000040 4d b5 1d 3e 12 4a a0 bb 13 c5 ae bd 78 4f 0a be
       0.15401192 -0.0048916424 -0.08533683 -0.13506877
000050 5e 0a 3b 3d 9f 55 c1 bd 89 86 60 bd b8 cd 11 3e
       0.045664184 -0.09440159 -0.054815803 0.14238632
000060 ef 1b 02 be f1 c8 0c 3e db 62 a5 3d db 09 7e 3d
       -0.12705968 0.13748528 0.08075496 0.062021118
000070 d2 bb 5f bd 23 b5 f8 bd 0a 75 0e 3e b3 e9 1f 3e
       -0.05462248 -0.12143924 0.13911834 0.15616493
000080 26 30 4a 3d 6b d3 9e 3d 22 77 d3 bd b7 15 61 bd
       0.049362324 0.077551685 -0.10325457 -0.05495235
000090 1c f5 a7 bc dd 7b e1 bd 51 14 b2 bd df a7 88 3d
       -0.02050262 -0.11009953 -0.08695281 0.06672644
0000a0 63 eb 82 bd 19 0b ee 3c 14 65 9c bc 7a 9e 38 be
       -0.06392553 0.029058026 -0.019091167 -0.18029204
0000b0 d0 b6 e7 bd 57 7f 0d be 75 ce 93 bd 54 ef 07 be
       -0.113141656 -0.13818108 -0.07217113 -0.1327489
0000c0 c4 ec dd bd a6 29 49 3d b3 35 a5 bd 6b da b4 bd
       -0.10836175 0.049111985 -0.08066883 -0.088307224
0000d0 ff 79 b2 3d 65 90 f8 3b 9c f6 8b 3d c6 e7 ea bc
       0.08714675 0.0075855725 0.068341464 -0.028674971
0000e0 d7 fa e0 bc d2 ab aa 3c 84 a9 ca 3d 9b c2 bd 3b
       -0.02746336 0.020833883 0.09895614 0.005791021
0000f0 c3 01 33 be 6f 76 70 bd 52 7d 58 3d 1d 2d 7a 3d
       -0.17481141 -0.058706697 0.05285389 0.06107818
000100 8d d5 3e be 61 86 45 be 78 f3 33 be 1a 81 8b bd
       -0.1863615 -0.19289543 -0.17573345 -0.068117335
000110 ad 4b 8b bd df af a1 3d 0a 6a 4b be 6e bc 6f bd
       -0.068015434 0.07894873 -0.1986467 -0.05852931
000120 ae 01 12 bd c5 df d5 bd 50 4d 0e be d4 35 42 be
       -0.035646133 -0.10443071 -0.1389668 -0.18965846
000130 03 b3 f5 bd 6a cb a5 bd 95 01 b8 3d 01 cc 44 bc
       -0.119970344 -0.08095439 0.08984677 -0.012011529
000140 bb 31 cd 3c fa 15 17 3e 55 31 10 3e 52 28 ac bd
       0.025048127 0.14754477 0.14081319 -0.08406128
000150 b4 c7 18 be d0 d4 50 3d 13 ae 1c be 79 25 01 bd
       -0.1491993 0.050984204 -0.15300779 -0.031529877
000160 80 3a c7 3b a5 37 02 be 3c 33 3e bd e1 9f b4 bd
       0.006079972 -0.12716539 -0.04643558 -0.08819557
000170 5c 3a 24 bd 5d 80 88 3d e2 dd 7d 3d 1e cb 0d bd
       -0.04009472 0.06665108 0.061979182 -0.034617536
000180 f0 ec fa 3d 0b 31 ea 3d 8c bf a6 bd ca a7 0f 3e
       0.122522235 0.114351355 -0.081420034 0.1402885
000190 f9 ba f9 bb d2 1e 19 3e fa 7c bd bd 74 f0 bf 3c
       -0.007621166 0.14953163 -0.09252353 0.023430087
0001a0 75 c6 69 bd bc 04 21 be 18 7c 06 3e 1a b8 08 be
       -0.05707403 -0.15724462 0.13133276 -0.13351479
0001b0 01 c0 fc 3c c5 54 03 be be 43 1c be f3 b9 3b bd
       0.030853273 -0.12825306 -0.15260217 -0.045831632
0001c0 a2 c5 86 3d 5f 16 05 3e 69 43 80 be 71 f4 0e be
       0.06580664 0.12996815 -0.2505143 -0.13960434
0001d0 ee f7 87 3d 8c d6 39 be 56 58 75 be 5c 2e cb 3c
       0.06639086 -0.1814825 -0.23959479 0.02480238
0001e0 6b 2a d0 3b 28 57 f1 bd fe 11 03 3d b1 ef 29 be
       0.006352713 -0.11784202 0.03199958 -0.16595341
0001f0 56 20 08 be a2 51 f7 bd 17 5a 17 3d 78 cd d6 bd
       -0.13293585 -0.12076117 0.03695115 -0.10488409
000200 5d be e6 3d 55 46 4a 3b 29 9a 0a 3e d5 29 6d bd
       0.11266778 0.0030864675 0.1353537 -0.057901222
000210 0a 6c a5 3d 2d 1e e3 bd f6 3c d7 3d d9 af f9 bd
       0.080772474 -0.1108974 0.10509674 -0.121917434
000220 18 dd 09 be 39 b0 2b 3e 6f e8 83 bd 49 ef 18 3e
       -0.13463247 0.16766442 -0.064408176 0.1493503
000230 00 65 51 3e c8 c6 a9 3d 98 f2 f4 3c bc a9 af bd
       0.20448685 0.08289868 0.029900834 -0.08577296
000240 d5 2e 61 3d 09 07 01 3d 39 ba 59 3e 90 ea 60 3e
       0.054976303 0.03150085 0.21262445 0.21964478
000250 dc 40 03 3e d0 57 da 3d 96 21 22 3e 94 f5 4f 3e
       0.1281771 0.1066128 0.15833125 0.20308524
000260 c4 3b 21 be 70 74 7a 3d ad 3e 07 bd b8 e9 19 bd
       -0.15745455 0.0611462 -0.033018757 -0.037576407
000270 32 62 bb bb 03 60 49 bd c8 7c 26 be 91 0c c6 3d
       -0.005718493 -0.04916383 -0.16258538 0.096703656
000280 95 79 0d be df 18 a0 3c 69 f2 75 3d e9 f3 d7 bc
       -0.13815911 0.01954311 0.060045633 -0.026361423
000290 64 ce 95 3d a1 96 ad bd 27 30 8f bd 74 9e 0e be
       0.073147565 -0.08475996 -0.06991606 -0.13927633
0002a0 0c 0a 0b bd 3f 82 4c bb ff 15 45 be 71 21 6b 3d
       -0.03394513 -0.0031205562 -0.19246672 0.05740494
0002b0 3c ff 8c 3d 15 54 2b be 2a 0d 93 3c b5 05 46 be
       0.068846196 -0.16731293 0.017950613 -0.19338115
0002c0 ca c0 7c 3d d9 dc 3f bd 21 74 4f be 0b 3f a1 bd
       0.061707295 -0.046841476 -0.20259143 -0.078733526
0002d0 69 d5 3e be 69 77 08 be 0c 05 e8 3c df 0d 63 3d
       -0.18636097 -0.13326801 0.028322719 0.05543315
0002e0 46 03 a7 bd 11 74 cb bd 08 b7 ba 3d c9 52 b6 3c
       -0.08154921 -0.09934247 0.09116942 0.022256272
0002f0 9e 07 34 bd d8 7b a9 bd 9f 52 f1 bc b3 df db bd
       -0.043952577 -0.082755744 -0.029458342 -0.107360266
000300 42 f5 05 be c5 3d f7 3b 59 c8 10 3b 19 3f 12 3e
       -0.1308184 0.0075452053 0.0022092073 0.14281882
000310 89 73 0a bd 64 c2 ef 3d b7 06 05 3d 6a 82 24 be
       -0.03380159 0.11706999 0.032477107 -0.16065374
000320 8b 45 a6 bd 80 75 c5 3d 54 d0 e0 3d 5a ac 5c bd
       -0.08118733 0.09641552 0.109772354 -0.053875305
000330 09 19 be bd 7e 75 25 3e 63 1f 4b bd f2 06 a3 3c
       -0.09282119 0.16158101 -0.04959048 0.019900773
000340 6a 94 d3 3d d8 ad 1a 3c 24 04 17 be ac 0c 28 3d
       0.10331042 0.009440862 -0.14747673 0.04102771
000350 27 47 00 bd eb ba 02 be 1a 87 14 be f9 24 b2 bd
       -0.031317856 -0.12766616 -0.14504662 -0.08698458
000360 2d 07 08 be 3a 67 9a bd 72 73 97 3d ae 63 c2 bd
       -0.13283987 -0.0753922 0.07395066 -0.09491669
000370 5e d8 0b 3e 23 47 2c bc b7 41 e4 3d 29 b2 f7 3c
       0.13656756 -0.010515007 0.111453466 0.03023632
000380 2f 21 e3 bc 38 23 09 3e e2 b8 1f be f8 5d 1d 3e
       -0.027725784 0.13392341 -0.15597871 0.15367877
000390 c1 54 cc 3e 23 32 b0 3a 80 dd 05 3f 83 b8 96 bd
       0.39908412 0.0013442676 0.5229111 -0.073594116
0003a0 f4 ef 86 3e 0d 3f b6 bd 40 ab 4a 3e 08 64 25 3d
       0.26354945 -0.08898745 0.19791889 0.0403786
0003b0 27 27 a6 3e c2 0e be 3d d5 64 1f 3e d1 30 0f 3a
       0.32451746 0.092801586 0.15565808 0.00054622913
0003c0 b6 da 7f 3e f5 90 87 bd 1a c8 bd 3d e2 32 42 3e
       0.24985775 -0.06619445 0.09266682 0.18964723
0003d0 00 4e 32 3c 5d 96 a5 3d b8 8c 3f be 34 21 e0 3d
       0.010882854 0.0808532 -0.18706024 0.10943833
0003e0 9b a9 43 be 81 fb 3f 3d a6 27 73 be 98 32 55 3e
       -0.19107668 0.046870712 -0.23745593 0.20820081
0003f0 93 8c 37 be 49 1e ef 3d e8 bd d1 be cd 3f 5c 3e
       -0.17924719 0.11675698 -0.409652 0.21508713

model.0.bias f4 [128]
000000 83 76 8d bc db a3 ab 3d 54 2a f5 3d b3 87 01 be
       -0.017268425 0.08380862 0.11970964 -0.12649421
000010 0a 87 5c be 2f 83 b4 bd 3a b0 7b 3d c0 2b d0 bd
       -0.21535888 -0.08814084 0.06144736 -0.10164595
000020 ac 52 58 be 8e cc 1b 3d 22 21 fc bc 18 7e 4e 3c
       -0.21125287 0.038036875 -0.030777518 0.012603305
000030 3f cc e8 bd 65 32 92 3d 99 e2 1c be 9a 55 91 bd
       -0.11367082 0.07138518 -0.15320815 -0.07096405
000040 eb ff 17 be e7 94 4c bd 8f 56 a7 bd 35 01 19 bc
       -0.14843719 -0.04994669 -0.081708066 -0.009338667
000050 87 1c 15 3d 53 24 3c be 42 06 1c bd 38 84 09 3c
       0.03640416 -0.18373232 -0.038091905 0.00839334
000060 32 4b 29 3d f5 b4 b4 bd 4d 5f b2 3c a9 0d 40 3c
       0.041331477 -0.08823577 0.021773959 0.011722007
000070 76 c1 c5 bd 5f 07 87 3d f2 ea ce bd 68 df 28 3d
       -0.0965604 0.06593203 -0.10103406 0.04122868
000080 a2 8f 30 3d 3d 87 02 be 6e 3c 69 bd cf 27 a9 3d
       0.04310573 -0.12746902 -0.056942396 0.08259546
000090 b2 9c 06 3d 5b 6d 34 3d 5c be 5c bd 87 20 b2 3d
       0.03286428 0.044049602 -0.05389248 0.0869761
0000a0 41 1d 80 bd e2 20 54 3d 62 62 ff bd 64 1b 07 3e
       -0.0625558 0.051789172 -0.12469937 0.13194042
0000b0 b7 f8 10 be 78 6d 0b be 08 e0 69 bc 09 55 04 be
       -0.14157377 -0.13615978 -0.014274605 -0.12923063
0000c0 8f bc 17 38 82 0a ce bd ea 86 33 be 96 4e 67 be
       3.6176814e-05 -0.10060598 -0.17531934 -0.22588572
0000d0 35 53 78 bd 1d d2 12 be 17 29 c3 3d f6 ed 58 be
       -0.060626227 -0.14337964 0.09529322 -0.21184525
0000e0 36 fc 67 bd e9 62 a7 3c d3 06 fb bd da 3a a9 ba
       -0.05663701 0.020432906 -0.12257161 -0.0012911216
0000f0 9f 63 a1 3d 15 3c f3 bd 6d af 33 bc 4d 9a 1f 3d
       0.07880329 -0.11876694 -0.010967118 0.038965512
000100 7b 65 55 3d 85 ad f9 bc 7d 46 29 3c 39 ca 84 be
       0.052098732 -0.030478248 0.010331747 -0.25935534
000110 36 5a 08 3d 28 4b 6d bd 8b e2 47 be 96 e2 15 be
       0.033289157 -0.057933003 -0.19520013 -0.14637217
000120 d2 94 b3 bd 0e 88 da bc 27 2a f6 bb 11 7b 06 be
       -0.087686196 -0.026676204 -0.007512349 -0.13132884
000130 a0 3c 9e 3d 8c 3a ed 3c c3 77 7e 3d b3 4e 7f 3d
       0.07726407 0.028958581 0.062125932 0.062330913
000140 b5 32 fd bd a8 25 9f bd a7 72 b7 bd 49 66 17 3e
       -0.12363187 -0.07770854 -0.08957415 0.14785112
000150 18 6e 2c 3c 7e 16 d8 bd 5a c7 de 3d 53 28 d8 bd
       0.010524295 -0.10551165 0.10877867 -0.10554566
000160 f4 08 3f 3d 97 b4 8e bc cf c7 8c bc 45 4c be bc
       0.046639398 -0.017420096 -0.01718512 -0.023229728
000170 a4 4a f7 3d b3 07 79 bc 88 2e c8 bd 1b e6 0c be
       0.120747834 -0.01519959 -0.097745 -0.13759653
000180 35 e9 0d be 10 48 e2 3d d0 0a d2 bd 4e 94 02 be
       -0.13858493 0.11048901 -0.102559686 -0.12751886
000190 8a aa 2a 3d 9f 17 82 bd 9d 7f 49 3c d3 93 25 be
       0.041666545 -0.063521616 0.012298492 -0.16169672
0001a0 95 b2 d6 3d 6c 57 97 bc c0 d5 4c 3b fe 25 4d 3d
       0.104832806 -0.018474303 0.0031255335 0.05008506
0001b0 78 85 5e 3d 10 e7 61 3d 64 f9 2e bd a3 3f 6d 3d
       0.054326504 0.055152 -0.042718306 0.057922017
0001c0 dd 95 70 be 84 2a 09 3e d3 7e e8 bd 7b 7d 08 3d
       -0.23494668 0.13395125 -0.11352315 0.033322793
0001d0 5e 5b 45 be f4 e9 4a 3d 26 c2 58 bd 1a 6f a8 bc
       -0.19273135 0.04953952 -0.05291953 -0.02056079
0001e0 f5 08 03 bd d8 2d 80 bd 2e a4 8f 3d 98 cb 20 3d
       -0.031990964 -0.06258744 0.07013737 0.039256662
0001f0 a6 ba f9 3d 57 c7 92 3d 03 15 dc bd 3c 87 85 bd
       0.121938035 0.07166927 -0.10746195 -0.065199345

model.2.weight f4 [128, 128]
000000 7a 68 24 bd 89 6a 25 bd 68 6e 2b 3d 8e b4 4e 3d
       -0.0401387 -0.040384803 0.04185334 0.05046516
000010 24 2e 2a bd 0b 93 51 3d 39 1e b2 3b c6 9c b6 bc
       -0.04154791 0.05116562 0.0054357317 -0.022291552
000020 40 22 ca 3c 55 94 9f bd 92 d1 83 bd c0 82 02 3c
       0.024674535 -0.07791964 -0.06436457 0.007965744
000030 45 71 f4 bc 0a 04 14 3d cb 96 93 3c 17 11 57 bd
       -0.029839167 0.036136664 0.01801624 -0.052506533
000040 a6 87 60 bc c3 30 75 3c f4 88 b6 bc a7 52 84 bd
       -0.013704216 0.014965239 -0.022282101 -0.06461077
000050 8e 83 2f bc e1 70 e6 3c 40 2d 5c 3c fb 59 65 3d
       -0.010712517 0.028129997 0.013438523 0.055994015
000060 f9 06 37 3c b2 fe de 3c b6 35 a1 3d ae 1d 6b bc
       0.011171096 0.027221058 0.07871573 -0.014350338
000070 c4 f6 90 3d 3c 74 6d 3d 8d 92 a8 bb ec 87 8a bc
       0.07078317 0.057972178 -0.0051444233 -0.016910516
000080 c2 47 29 bd c1 79 ca 38 5b 0e fe 3b e2 73 81 bc
       -0.0413282 9.654789e-05 0.007753176 -0.015802328
000090 c7 52 17 3d bd 9d 33 bc 76 7c a0 bd 9b f5 f5 bc
       0.036944177 -0.010962901 -0.07836239 -0.03002434
0000a0 8e 32 cf ba b6 6c 54 bd 25 a6 a9 3d aa df f9 3c
       -0.0015807913 -0.051861487 0.08283643 0.03050216
0000b0 b9 98 2d bd a2 5b 7b 3d 29 f8 59 3d f2 0d 97 bd
       -0.042381976 0.061366685 0.05321518 -0.07375707
0000c0 3e 3c 8c bd 22 ce a4 bd 57 77 a6 3d b9 8a 4f 3c
       -0.06847428 -0.08047129 0.08128231 0.012667351
0000d0 23 2d e9 bc da 32 8c 3d a8 c8 4b bd 1a 15 57 bd
       -0.028463906 0.06845637 -0.049751908 -0.05251036
0000e0 18 5a 5a 3d 14 14 82 bd 9a 39 64 bd b9 6c a7 3d
       0.053308576 -0.06351486 -0.055718996 0.08175034
0000f0 4e 64 96 3d 81 94 78 bd a4 80 32 3c d0 79 b0 bd
       0.0734335 -0.0606885 0.010894928 -0.08616984
000100 84 de 4a bb 66 ef db bc d1 89 7d 3d f3 f7 6a bd
       -0.0030955384 -0.026847553 0.06189901 -0.05736537
000110 c3 db 14 3d 4d 61 af bd ff 5c 48 3c 14 ad ae 3d
       0.036342394 -0.085634805 0.012229203 0.08529106
000120 89 b3 fd 3c 4a cb ad 3c 01 81 93 3b 90 6c 13 bd
       0.030969398 0.0212151 0.0045014624 -0.035992205
000130 48 ac 99 bc 04 46 37 bd c1 40 0b 3d f5 e9 7e 3c
       -0.018758908 -0.044744506 0.0339973 0.015558709
000140 44 d1 a8 bd c3 41 bd 3c 36 99 e1 bc 4b 6e a8 bd
       -0.08243039 0.023102647 -0.027538877 -0.08224162
000150 cb 9c 15 3c fe 76 b3 3d 66 4a a9 3c 02 14 44 bd
       0.009131621 0.0876293 0.020665359 -0.047870643
000160 6b 11 0e bd a0 12 64 bd 69 30 36 bc 18 db 97 3d
       -0.03468458 -0.055681825 -0.01111994 0.07414836
000170 be 89 bb bc 87 23 8c 3d a6 52 8e 3b ee d2 aa 3c
       -0.022892829 0.06842714 0.0043433486 0.020852532
000180 c5 aa 41 bd 4c 91 16 bd a4 21 09 bd 02 6c 40 bd
       -0.047282 -0.03675966 -0.033479348 -0.046978004
000190 ab 96 99 3d 8d 00 f4 bc 53 a0 a4 3d 98 d5 34 bd
       0.07499441 -0.029785419 0.08038392 -0.04414901
0001a0 88 88 9a 3d c2 6a fb bc 6b 2b ac bd 9c ce 69 3d
       0.075455725 -0.030690555 -0.08406719 0.057081804
0001b0 58 19 ad 3d 7e 85 9f bd ec 57 5b 3c 0b 80 76 3d
       0.084520996 -0.077891335 0.013387661 0.060180705
0001c0 38 68 7b bd 8b c4 65 3c 31 d5 1c bd eb 6b 64 bc
       -0.061378688 0.01402391 -0.038289253 -0.013941745
0001d0 be 51 4b bd 5e 64 a4 3d 24 fb 57 3d d9 28 28 bd
       -0.049638502 0.08026956 0.05272974 -0.04105458
0001e0 38 63 ac 3d aa 86 cd bc 31 68 89 bd fc 17 0d bd
       0.08417362 -0.025088627 -0.06709326 -0.0344467
0001f0 82 31 8d bc 9b 39 88 3d 68 b7 df 3a 01 5e 06 3c
       -0.017235521 0.06651612 0.0017068209 0.008201123
000200 29 87 30 bd 0c 36 00 3e 72 0b 8b 3d 12 38 b6 bd
       -0.04309765 0.12520617 0.067892924 -0.08897413
000210 b5 8a a0 3d 4f 1d 9e 3d b2 ae 21 be 88 00 e8 3d
       0.07838956 0.07720434 -0.15789297 0.11328226
000220 1d 67 75 bc 38 65 ca 3c 61 11 8b bc 12 82 79 bd
       -0.014978197 0.024706468 -0.01697606 -0.06091506
000230 73 61 5f 3d 8b d7 4f 3d df 77 47 3d 10 73 63 bd
       0.054536294 0.050742667 0.048698302 -0.055529654
000240 9a e9 15 3c 6b 82 56 3d 8f a7 c9 3d df fe 6a bd
       0.009149933 0.05237047 0.098464124 -0.05737197
000250 d3 25 3b bd bd 44 3a 3b 99 0c ef bc c8 ce 6a bb
       -0.04569037 0.002842232 -0.029180812 -0.0035828818
000260 ee 58 d9 3c 35 5a a3 3d db 8b 0a 3c 67 4b 3e 3d
       0.026531663 0.0797619 0.008456196 0.046458628
000270 22 c9 75 bc d4 5d dc 3d 1b 0c 4d bd 99 b2 84 3c
       -0.015001567 0.10760084 -0.050060373 0.016198443
000280 35 2b 7b 3d 8a e4 65 3c e4 a8 4e 3c f7 07 40 3d
       0.061320502 0.014031539 0.012613509 0.046882596
000290 4c d8 ef bd d1 7b 0f 3c 76 fe 2e 3d f6 37 3f 3d
       -0.11711177 0.0087575475 0.04272314 0.046684228
0002a0 63 24 f9 3d 32 59 37 3d a2 62 ce 3d aa b3 fe 3c
       0.12165143 0.044762798 0.100774065 0.03109153
0002b0 2b fa d1 bb 9b 8e 37 bc b4 79 84 3c 89 28 55 bc
       -0.006407996 -0.011203433 0.016171314 -0.013010153
0002c0 19 53 a4 bc c2 35 01 3d fb c7 d0 3d ec 5e d4 ba
       -0.020059155 0.031545408 0.10194393 -0.0016202605
0002d0 02 22 a1 3d 89 e2 1a 3d 08 a1 3e 3a b7 44 4c bd
       0.078678146 0.037813697 0.00072719203 -0.04987022
0002e0 de 67 a1 bb 43 6e 57 bd 16 34 d9 bc 02 72 98 3d
       -0.004925712 -0.05259539 -0.026514094 0.0744362
0002f0 f5 09 c0 3d b8 2e 8c 3d 90 bf 41 3d de 39 93 3d
       0.09376899 0.068448484 0.04730183 0.07188772
000300 dd df b4 3d 4a b2 b8 bc ac f6 5d bc 75 e7 b7 3b
       0.08831761 -0.022545952 -0.013547581 0.0056123086
000310 f5 bc 6d 3d dc 60 5d 3d 5b 5b 23 3d 98 03 1d 3d
       0.05804153 0.05404745 0.039882045 0.038333505
000320 17 7a 95 bd 40 44 b3 3c 9c 80 85 3d f1 f6 cb 3c
       -0.072986774 0.02188313 0.06518671 0.024898024
000330 8e 89 95 bd 11 22 40 bd 83 ab 8c bc ba 11 bc bc
       -0.07301627 -0.04690749 -0.017171627 -0.022957671
000340 5b 77 94 bc a0 1a 10 3d 99 43 13 bd 3e ed 42 bd
       -0.01812332 0.03518164 -0.035953138 -0.047589533
000350 cf 3b 50 3b e6 e8 18 3d 32 34 97 bc 90 1b 46 bd
       0.003177393 0.037331484 -0.018457506 -0.04836613
000360 ef 79 00 bd 99 57 23 3e 21 42 e7 3c 7d 34 a9 bd
       -0.031366285 0.15951385 0.028229775 -0.082619645
000370 2d e1 4e 3d 00 f5 17 3e 0f b8 ea bc fd 41 0e 3d
       0.050507713 0.14839554 -0.02865222 0.0347309
000380 79 e7 cd 3c 1f 30 7e 3d 84 08 e6 3c 31 b9 8c bd
       0.025134789 0.06205761 0.028080232 -0.0687126
000390 40 36 0b 3d db d6 66 3d 79 63 84 bc 4c a4 bc 3c
       0.033987284 0.056357246 -0.016160714 0.023027562
0003a0 2e b1 9b bd 6f e6 ef bc 7f b2 ab 3d 45 47 de bc
       -0.07602154 -0.029284684 0.08383655 -0.027133593
0003b0 23 ad 9f 3c fc 2f 3d bd f5 b0 46 bc 25 01 66 3d
       0.019491738 -0.04618834 -0.012127151 0.056153435
0003c0 6e 98 bf bc ec f4 e8 bc be 08 1d bd 2c 2a 4a 3d
       -0.023388114 -0.0284371 -0.038338415 0.049356624
0003d0 2a d6 69 3d e3 dc 06 3c b8 ff 08 bd a0 3b 36 bd
       0.05708901 0.008231374 -0.033446997 -0.044490457
0003e0 7f 29 89 3b d9 a3 9b 3d 41 a0 15 3e 45 14 c6 3b
       0.004185855 0.07599611 0.14611913 0.006044897
0003f0 b0 c3 81 bd 06 45 bd 3d f1 56 66 3d 39 8d 8d 3d
       -0.063361526 0.09241681 0.056235258 0.06911702

model.2.bias f4 [128]
000000 94 cb e8 3b 8e b4 c7 bb c4 b6 ef bd bf 6b a8 bd
       0.0071043465 -0.006094522 -0.11704782 -0.08223676
000010 45 cc 00 be 03 38 33 3d f0 59 69 3d 42 27 1f 3d
       -0.12577923 0.04375459 0.056970537 0.0388558
000020 00 d7 f2 bb ff 75 ab bd 75 f7 8b bd e5 9d 4f bd
       -0.007410884 -0.08372115 -0.06834308 -0.05068769
000030 29 07 38 3c 74 3b 06 be 5f d7 8e 3d d3 68 85 bd
       0.011232176 -0.13108617 0.069746725 -0.06514134
000040 b9 5e 99 bd 31 65 4a bd d5 4d aa bd 4f fd a1 bd
       -0.0748877 -0.04941291 -0.083156265 -0.07909643
000050 fb fc 93 3d 65 a8 8d bd 0c cb 59 bd b5 0b ad bc
       0.072259866 -0.06916884 -0.053172156 -0.021123746
000060 5c 0e 85 bd b6 9a c6 bd bf 53 da 3d e6 97 d7 bd
       -0.064968795 -0.096974775 0.106605045 -0.10527019
000070 a3 e9 87 3d 0a 9e 94 bd 67 b2 3f 3c 17 68 ba bd
       0.066363595 -0.07256706 0.011700249 -0.09101885
000080 a5 5e ad bd 1d 78 4b bc d3 d4 19 be 8a df ba 3d
       -0.08465318 -0.012418774 -0.15022592 0.09124668
000090 a3 c4 0c 3c 94 48 21 bc 69 ea 0e bd 18 d1 e4 bd
       0.008591804 -0.009843964 -0.03489152 -0.11172694
0000a0 a4 3f 7c 3d 3d cb a2 bd c6 96 8e bc 29 5d 46 3d
       0.06158413 -0.07948921 -0.017405879 0.04842869
0000b0 b1 ff f1 bc 16 6f 87 bd 66 e4 80 bd 72 2d 8a bd
       -0.029540868 -0.06612985 -0.062935635 -0.06746949
0000c0 af b4 02 be 03 3d 04 3c 9f bc ce 3c a7 56 b6 3a
       -0.12764238 0.008071187 0.025236426 0.0013911322
0000d0 8d 39 ee 3c 1b 64 aa bc 16 40 68 3c 8d 27 f1 bd
       0.029080177 -0.020799687 0.0141754355 -0.11775122
0000e0 35 19 69 3d 26 55 76 3d b2 9c 0c bd 20 6a d3 bc
       0.056908805 0.060139798 -0.034329124 -0.02580744
0000f0 98 db 49 3d f2 10 95 bd 91 46 e9 bd f8 c2 b1 bd
       0.049281687 -0.07278623 -0.113904126 -0.086797655
000100 f3 e9 10 bd 4f c2 16 bd 0a 79 f6 bc f4 0c 8b 3d
       -0.03537936 -0.0368064 -0.030087013 0.0678958
000110 07 04 6f bd 3e cb 02 3e 37 8d 0a be 0d 7e 08 3c
       -0.05835345 0.12772843 -0.13530432 0.008330834
000120 f5 55 20 be 38 20 61 3d 83 77 5e bd d5 ce 15 bd
       -0.1565779 0.054962367 -0.054313194 -0.036574204
000130 af cf 17 3b f8 57 86 3b cd 0e ba bd 2a 84 e9 bd
       0.002316456 0.004099842 -0.09084854 -0.114021614
000140 7f 2c dd bd 30 d6 38 bd d1 4f e0 bb d1 5a c6 3c
       -0.107995026 -0.04512614 -0.0068454524 0.024213227
000150 d8 38 9a bd be 1a 34 bd 05 19 23 3c 1b 45 a5 bd
       -0.07530373 -0.043970816 0.009954696 -0.080698214
000160 06 1d 0b be 36 34 12 bd 2d 51 73 bc 69 13 c2 bd
       -0.1358529 -0.035694323 -0.014850897 -0.094763584
000170 f8 ec a5 bd 37 cb 0d 3d f1 6b cf bc 8f eb 8c 3d
       -0.08101839 0.03461763 -0.025320025 0.06880867
000180 f0 16 39 3d 12 04 09 be 73 8e c9 bd 83 ba 09 bd
       0.04518789 -0.13380459 -0.09841623 -0.033625137
000190 b0 88 1d bc 80 55 01 3c ca 4b 91 bb d7 64 56 bd
       -0.009615108 0.00789392 -0.0044340836 -0.052342262
0001a0 7a 3a ac 3c 07 09 e6 bc 45 da 7a bc 3c 93 b5 bc
       0.021023978 -0.028080476 -0.015310829 -0.022164933
0001b0 48 a7 1f 3d 15 97 8e 3d 46 a4 a9 bd 5b 0f 34 bd
       0.03897789 0.0696241 -0.08283286 -0.043959957
0001c0 15 1b a4 bd 24 86 db 3c ef b6 2d be e7 3f 64 3c
       -0.08012978 0.026797362 -0.16964315 0.013931251
0001d0 ca ca 10 3d 6f 5a e5 bc 1f 15 68 bd 8b 28 62 3d
       0.035349645 -0.027997224 -0.056660768 0.055214446
0001e0 06 15 63 bd 0a 1e 6e bc 7e e5 24 bd cd 33 8a bd
       -0.05543997 -0.014533529 -0.040257923 -0.067481615
0001f0 04 e1 00 be 27 0e 02 bd 82 f4 8d 3d 55 93 f9 bc
       -0.12585837 -0.031751778 0.06931402 -0.030465761

model.4.weight f4 [60, 128]
000000 21 70 6c 3d 19 6c 20 bc 11 dc ed 3d 6b 91 f5 bd
       0.057724122 -0.0097913975 0.1161424 -0.11990627
000010 68 c5 88 3d f7 82 61 bd 8c 89 4b bc a6 fb 43 3d
       0.06678277 -0.05505654 -0.01242293 0.047847413
000020 ec 86 69 bd c0 b2 df bb 8a ac 73 bd 47 63 0f 3d
       -0.057013437 -0.0068267286 -0.059490718 0.035006788
000030 23 ba 7c 3d 4d 03 c3 bd 4d e8 9c 3d 59 7d 40 3c
       0.06170095 -0.09522114 0.07661495 0.011748635
000040 68 8c fc 3d 45 7d 12 3e 65 82 a6 3d 6a 78 44 3c
       0.12331468 0.14305599 0.081303395 0.0119916
000050 89 77 ad bd 7c d0 aa 3c d6 08 8f bd ef cf a3 3d
       -0.08470065 0.020851366 -0.06984107 0.079986446
000060 4c a0 1f 3e 03 64 00 3e 8e 3a a2 3d b8 bd db 3d
       0.15588492 0.12538151 0.07921325 0.10729545
000070 ec a6 92 3d 21 d5 7e 3d 55 96 66 3d 9b ac f4 3c
       0.07160744 0.062214974 0.05629571 0.029867461
000080 65 f0 e4 3d 1b 1c 08 3d f6 d6 bc bc d6 58 f4 3d
       0.11178664 0.03322993 -0.02305172 0.119310066
000090 bb e1 13 bc 89 4e 64 3e 53 92 d2 3b dd c4 97 bc
       -0.009025986 0.22295584 0.0064261346 -0.018526489
0000a0 4c f8 4e bd 0f 70 a3 bd 79 f9 a4 bd da 5a 70 bd
       -0.050529763 -0.07980358 -0.08055396 -0.058680393
0000b0 b8 c5 26 bc 51 07 95 3c f4 52 80 3a 68 ec 26 3c
       -0.010178976 0.018191965 0.0009790347 0.0101882
0000c0 ca 7c f9 3b 11 ae 41 3d 70 45 40 3c d6 41 c2 bd
       0.007613753 0.047285143 0.011735305 -0.094852135
0000d0 c7 97 06 bd 96 d4 0d 3e d8 a5 7f bd 84 2a db 3d
       -0.03285959 0.13850626 -0.06241402 0.107014686
0000e0 a4 01 22 ba 28 61 8f 3d cb 63 fe 3d f2 53 ce 3c
       -0.0006180054 0.07000953 0.12421378 0.025186513
0000f0 c3 d2 20 bc 17 48 23 3b 35 3d b2 3d 1e 95 c2 3d
       -0.0098158745 0.0024914795 0.087030806 0.09501098
000100 b1 92 a4 bc 18 7d 32 3c 86 00 43 bd 14 bd 8d 3d
       -0.02008948 0.0108940825 -0.04760792 0.069208294
000110 ff 43 0e 3e ce f0 41 3e 87 18 99 3d 49 72 98 bc
       0.13893126 0.18939516 0.07475381 -0.018609183
000120 c2 d5 7a bd cd 12 be 3d ce 3d c7 3d 3d b9 8d bc
       -0.06123901 0.0928093 0.09728585 -0.017300243
000130 46 52 49 bd cb 76 ba 3c 57 2d 12 bc 61 76 9b 3d
       -0.049150728 0.022761723 -0.008921943 0.07590938
000140 df de 18 3d e4 e8 47 3b ad ed d9 3d 1e 1c fa 3d
       0.03732192 0.0030503804 0.10641036 0.12212394
000150 32 ab 2c 3d 05 de 84 3d 22 8b 4a 3d 7f f2 3b bd
       0.042155452 0.06487659 0.049449094 -0.04588556
000160 a0 a3 5d 3d 86 ca 01 3e b0 1e 57 bd 39 c6 1f 3d
       0.054111123 0.12674913 -0.0525195 0.0390074
000170 a3 ae b1 bc 36 b3 84 3d da 64 e4 3d 17 4f a8 3c
       -0.021689719 0.06479494 0.111520484 0.020545525
000180 42 5b ac bd 0e 20 9b 3d 88 52 0b 3e 56 02 26 bd
       -0.084158435 0.07574473 0.13605702 -0.04052957
000190 bb e6 bf 3d 48 24 71 3d b7 7b bd bd 09 ca cb 3d
       0.0937018 0.05887249 -0.09252112 0.099506445
0001a0 a5 eb 71 bd 43 5c 85 bc dc d0 7d 3c 18 6a 05 bc
       -0.05906262 -0.016279345 0.0154916905 -0.0081429705
0001b0 4f e8 74 3d c5 af bb 3c cb b3 39 3d 0e a8 d9 bd
       0.05979186 0.022910962 0.04533748 -0.10627757
0001c0 26 1f 58 3d fc c6 ab bb f8 a0 a9 bd 94 e4 32 3d
       0.05276408 -0.0052422266 -0.082826555 0.04367502
0001d0 e0 2c 2d bd 4b ed a0 3d 85 9d 15 bd e1 55 ea 3a
       -0.042279124 0.0785776 -0.036527175 0.0017878377
0001e0 90 a1 6d 3d 7e 44 32 3d 81 4b 67 3d c5 de 70 3d
       0.058015406 0.04352235 0.05646849 0.0588062
0001f0 7e fe 96 3c bb 0a 0d 3e 14 e4 de 3c 09 4e 95 3d
       0.018431898 0.13773625 0.027208365 0.07290275
000200 7a 7d fb 3c e9 0c 80 bd 62 b8 ae 3b 43 2d cb bd
       0.03069948 -0.062524624 0.0053320387 -0.09920742
000210 15 7c b1 3d a9 07 0e bd c2 74 b0 3d 2e f0 17 3e
       0.08666245 -0.034675274 0.0861602 0.14837715
000220 6a 80 cd 3c a4 b4 a8 3d 2b f1 93 3d df 48 60 3b
       0.025085647 0.082375795 0.072237335 0.0034223122
000230 20 3b 19 3d 05 ad 6d bd c9 c8 11 bc f8 df 64 3d
       0.0374099 -0.058026332 -0.008897969 0.055877656
000240 52 3a 9b 3d 7b 0e 2a 3e 58 96 34 3d da 8c 73 3d
       0.07579483 0.16607086 0.04408869 0.0594605
000250 dd d4 98 bd 48 7b d0 3d 9f 9e 55 3d 31 f6 fb 3c
       -0.074624754 0.10179764 0.052153226 0.030757042
000260 c1 93 15 3d 97 de 1b 3d 92 65 05 3e 6c 6b 9d 3d
       0.036517862 0.038054075 0.13027027 0.07686505
000270 6e b8 cb 3d 8a 61 6e bd f6 68 9e bd e9 e7 a3 3d
       0.099472865 -0.05819849 -0.077348635 0.08003218
000280 4f 10 d7 3c 95 0e f6 3d 8c 48 1f bd c6 8e 2c 3c
       0.026252894 0.120145 -0.038887545 0.010532087
000290 9b c1 53 3d c9 0b 73 bc c9 21 97 3c 99 82 c1 bc
       0.05169831 -0.014834353 0.018448727 -0.023621844
0002a0 61 e5 bc 3d 6e d3 4f 3d cb 08 9c bd 45 07 57 bd
       0.09223438 0.050738744 -0.076188646 -0.052497167
0002b0 06 ab 8f 3d 12 16 36 bd 2d b7 e9 bc 13 5e 3c 3c
       0.07015042 -0.04445464 -0.028529728 0.011497038
0002c0 fe e9 8b 3b 25 f3 c9 3d 47 da 45 bc a6 5d b1 3c
       0.0042698374 0.09860829 -0.012075967 0.0216511
0002d0 e6 5d a9 bd d9 0c 82 bc dd ed fe 3d f1 f1 e0 bc
       -0.08269863 -0.015875267 0.124477126 -0.027459117
0002e0 ac 1c 20 3d c7 f2 ca 3d ee 92 b0 3d 02 17 1a 3c
       0.039089844 0.09909587 0.086217746 0.0094049
0002f0 3d b8 7e bc 16 6b fc 3d e4 db 5f 3c 3c f3 07 3d
       -0.0155468555 0.123251125 0.013663266 0.03319095
000300 4d f3 ad 3d 8e e7 25 3d 2b d5 83 bd 2a 1a 7c bd
       0.084936716 0.04050403 -0.06437143 -0.06154839
000310 eb 75 dd 3d 5e 01 93 bd ee dc ce 3c 79 c5 51 bc
       0.10813507 -0.07177995 0.025251832 -0.012803429
000320 99 5a b0 bc 87 c2 ec 3d 2c 2d fd bc 17 e1 72 3c
       -0.021527575 0.11560541 -0.030905329 0.014824173
000330 e9 7b 98 bc 51 bb 95 3d 56 ec 7c 3c f9 67 eb 3d
       -0.018613772 0.073111184 0.015437206 0.114944406
000340 cb 09 80 3b a1 b9 1f 3d d1 e0 c7 3d ab 77 27 3c
       0.0039074174 0.03899539 0.09759677 0.010221402
000350 7a d4 b1 3d c0 1c a4 3a de 5c e0 ba 42 ee 21 bd
       0.08683105 0.0012520775 -0.001711752 -0.03953386
000360 72 35 87 3d f3 3d c8 3b 38 ce 34 3c ba de 73 bd
       0.06601991 0.0061109005 0.0110354945 -0.05953858
000370 24 b1 32 3d 80 7d af bc 77 c8 81 3d 43 92 08 3c
       0.043625966 -0.021422148 0.06337064 0.008335653
000380 e9 70 0d bb 28 2d 0f 3e 39 18 83 bc 86 ce 38 3d
       -0.0021582192 0.1398207 -0.016002761 0.04511883
000390 cb b9 c5 3d fb 9d c3 3d f3 50 84 bd 47 ae 4b 3d
       0.09654578 0.09551617 -0.06460752 0.04972675
0003a0 ee b1 24 bc 38 72 d1 bc 5f 13 61 bc b7 15 a9 bc
       -0.010052187 -0.025567159 -0.013737529 -0.020640237
0003b0 37 a6 81 bd db 8f b6 3d 6c 6a 5e 3d 45 d4 f1 3c
       -0.06330531 0.08914157 0.05430071 0.029520163
0003c0 17 7f 85 bd 80 d9 df 3c 97 a8 4f bd 8d 90 b0 bd
       -0.06518381 0.027325392 -0.05069789 -0.08621321
0003d0 e1 44 61 3d 90 ad 65 bc dd 69 68 3d ec 9a 59 bd
       0.05499733 -0.014018431 0.056741584 -0.05312626
0003e0 94 f6 81 3d 34 10 27 bc 84 60 54 3d b4 3f 4d 3d
       0.06345859 -0.010196734 0.051849857 0.05010958
0003f0 05 99 c3 3d d1 c4 18 bb 49 24 51 bd 63 20 c6 3c
       0.095506705 -0.002331067 -0.051059995 0.024185365

model.4.bias f4 [60]
000000 e3 2e ad 3d 23 e9 e6 3d 1c 9f 0b 3e 41 6c fa 3d
       0.084562086 0.11274936 0.13634914 0.12227679
000010 25 d0 9e 3d 26 a5 08 3e 1c a9 10 3e ea c0 e9 3d
       0.07754544 0.13344249 0.1412701 0.114137486
000020 27 31 e0 3d b6 d9 db 3d c3 97 ff 3d f6 f5 07 3e
       0.10946875 0.107348844 0.12480118 0.1327742
000030 1a 9e 07 3e d4 0b 0b 3e c5 12 04 3e a6 e7 7e 3d
       0.13243905 0.13578731 0.12897785 0.062232636
000040 42 bd 2b 3e a7 3b 0d 3e e1 fc 13 3e 25 64 08 3e
       0.16771415 0.13792287 0.14451934 0.13319452
000050 07 1e 21 3e 7b da 10 3e 5e 03 1c 3e 0f 82 f5 3d
       0.15734111 0.14145844 0.1523566 0.11987697
000060 2c 14 18 3e 7c fd ad 3d 48 23 e4 3d 5f 05 8d 3d
       0.14851445 0.08495614 0.11139542 0.0688579
000070 e2 d3 0b 3e e3 2e 99 3d 69 19 33 3e 1f f2 0e 3e
       0.13655046 0.07479646 0.17490162 0.1395955
000080 d5 dc 09 3e 16 98 ec 3d ce 84 1e 3e 65 72 df 3d
       0.13463147 0.115524456 0.15480348 0.10910491
000090 98 d1 0a 3e 34 18 de 3d 3c 82 9d 3d 3a 64 65 3d
       0.13556516 0.1084446 0.07690856 0.056003787
0000a0 90 29 ce 3d 6a cf e4 3d 60 f9 37 3e c0 dd c4 3d
       0.10066521 0.111723736 0.17966223 0.09612608
0000b0 ed fa 01 3e 91 46 f1 3d 86 1b ed 3d e2 44 c3 3d
       0.12693377 0.117810376 0.11577515 0.09534623
0000c0 e6 30 39 3e c9 68 e0 3d 84 5a 03 3e d7 d1 77 3d
       0.1808506 0.10957486 0.12827498 0.060502853
0000d0 38 bc 3d 3e b6 f6 0d 3e 2f 14 17 3e 0e 59 18 3e
       0.18528831 0.13863644 0.14753793 0.14877722
0000e0 bd ac 2d 3e de 1a b9 3d fa 02 44 3e d3 88 be 3d
       0.16960426 0.09038328 0.1914176 0.09303441
