mlp_hdim_128_indim_38_nlayers_3_bs_512_lr_0.01_decay_0.95_epoch_66.pt (torch, 118935 bytes, 6 tensors)

model.0.weight f4 [128, 38]
00000000: 63fc e5bd 0fb1 f93d dfca c73d c8e6 003e
00000010: 6121 12be 0d92 cebd c19b b1bd 5be8 6b3c
00000020: 565d 1fbe b7a2 71bd 746c 99bd 6242 c2bd
00000030: 8399 ca3d 3c24 e6bd b7f8 86bc 9ac2 02be
00000040: 4db5 1d3e 124a a0bb 13c5 aebd 784f 0abe
00000050: 5e0a 3b3d 9f55 c1bd 8986 60bd b8cd 113e
00000060: ef1b 02be f1c8 0c3e db62 a53d db09 7e3d
00000070: d2bb 5fbd 23b5 f8bd 0a75 0e3e b3e9 1f3e
00000080: 2630 4a3d 6bd3 9e3d 2277 d3bd b715 61bd
00000090: 1cf5 a7bc dd7b e1bd 5114 b2bd dfa7 883d
000000a0: 63eb 82bd 190b ee3c 1465 9cbc 7a9e 38be
000000b0: d0b6 e7bd 577f 0dbe 75ce 93bd 54ef 07be
000000c0: c4ec ddbd a629 493d b335 a5bd 6bda b4bd
000000d0: ff79 b23d 6590 f83b 9cf6 8b3d c6e7 eabc
000000e0: d7fa e0bc d2ab aa3c 84a9 ca3d 9bc2 bd3b
000000f0: c301 33be 6f76 70bd 527d 583d 1d2d 7a3d
00000100: 8dd5 3ebe 6186 45be 78f3 33be 1a81 8bbd
00000110: ad4b 8bbd dfaf a13d 0a6a 4bbe 6ebc 6fbd
00000120: ae01 12bd c5df d5bd 504d 0ebe d435 42be
00000130: 03b3 f5bd 6acb a5bd 9501 b83d 01cc 44bc
00000140: bb31 cd3c fa15 173e 5531 103e 5228 acbd
00000150: b4c7 18be d0d4 503d 13ae 1cbe 7925 01bd
00000160: 803a c73b a537 02be 3c33 3ebd e19f b4bd
00000170: 5c3a 24bd 5d80 883d e2dd 7d3d 1ecb 0dbd
00000180: f0ec fa3d 0b31 ea3d 8cbf a6bd caa7 0f3e
00000190: f9ba f9bb d21e 193e fa7c bdbd 74f0 bf3c
000001a0: 75c6 69bd bc04 21be 187c 063e 1ab8 08be
000001b0: 01c0 fc3c c554 03be be43 1cbe f3b9 3bbd
000001c0: a2c5 863d 5f16 053e c221 84be 5dc9 47be
000001d0: 753d 733d 5752 6cbe 70bd 7bbe 869a 95bc
000001e0: 7036 563a 144a 1ebe badd dd3c 3d0d 49be
000001f0: 9670 0cbe 7730 14be 8878 083d 358d fabd
00000200: 91cc e03d de57 00bc ce6c 083e 349e 7ebd
00000210: 4ff3 a23d 3f08 debd f8b2 d63d d6ac e6bd
00000220: 95f3 08be 2045 3c3e 3b25 80bd 7fc2 303e
00000230: 9246 543e 15fd e73d 112e 0a3d 7d2a 45bd
00000240: ad80 753d 1fac 9c3d 190d 603e ba56 8b3e
00000250: 12c4 0a3e 12b8 2a3e acd3 2a3e 0fb0 8a3e
00000260: c43b 21be 7074 7a3d ad3e 07bd b8e9 19bd
00000270: 3262 bbbb 0360 49bd c87c 26be 910c c63d
00000280: 9579 0dbe df18 a03c 69f2 753d e9f3 d7bc
00000290: 64ce 953d a196 adbd 2730 8fbd 749e 0ebe
000002a0: 0c0a 0bbd 3f82 4cbb ff15 45be 7121 6b3d
000002b0: 3cff 8c3d 1554 2bbe 2a0d 933c b505 46be
000002c0: cac0 7c3d d9dc 3fbd 2174 4fbe 0b3f a1bd
000002d0: 69d5 3ebe 6977 08be 0c05 e83c df0d 633d
000002e0: 4603 a7bd 1174 cbbd 08b7 ba3d c952 b63c
000002f0: 9e07 34bd d87b a9bd 9f52 f1bc b3df dbbd
00000300: 42f5 05be c53d f73b 59c8 103b 193f 123e
00000310: 8973 0abd 64c2 ef3d b706 053d 6a82 24be
00000320: 8b45 a6bd 8075 c53d 54d0 e03d 5aac 5cbd
00000330: 0919 bebd 7e75 253e 631f 4bbd f206 a33c
00000340: 6a94 d33d d8ad 1a3c 2404 17be ac0c 283d
00000350: 2747 00bd ebba 02be 1a87 14be f924 b2bd
00000360: 2d07 08be 3a67 9abd 7273 973d ae63 c2bd
00000370: 5ed8 0b3e 2347 2cbc b741 e43d 29b2 f73c
00000380: 2f21 e3bc 3823 093e e2b8 1fbe f85d 1d3e
00000390: b6d2 c63e 9722 f4bc 1d29 043f 5b90 d0bd
000003a0: e4a5 853e 1714 eabd d122 4c3e 5db0 933c
000003b0: 5895 a83e 1359 963d 7a3f 273e 2c92 81bc
000003c0: c402 853e 9bdf a2bd 110b d63d 8aa9 373e
000003d0: e0b4 c63c 3edb 963d af9a 30be e5ca d73d
000003e0: a6ad 34be 6346 3c3d f202 65be 968b 573e
000003f0: efe7 2abe 2081 fa3d 09aa ccbe e44b 653e
-0.112297796 0.12191974 0.097554915 0.12588036 -0.14270546 -0.10086451 -0.08672286 0.01439866
-0.15562949 -0.058993068 -0.07491389 -0.09485318 0.09892561 -0.1123738 -0.016476018 -0.12769547
0.15401192 -0.0048916424 -0.08533683 -0.13506877 0.045664184 -0.09440159 -0.054815803 0.14238632
-0.12705968 0.13748528 0.08075496 0.062021118 -0.05462248 -0.12143924 0.13911834 0.15616493
0.049362324 0.077551685 -0.10325457 -0.05495235 -0.02050262 -0.11009953 -0.08695281 0.06672644
-0.06392553 0.029058026 -0.019091167 -0.18029204 -0.113141656 -0.13818108 -0.07217113 -0.1327489
-0.10836175 0.049111985 -0.08066883 -0.088307224 0.08714675 0.0075855725 0.068341464 -0.028674971
-0.02746336 0.020833883 0.09895614 0.005791021 -0.17481141 -0.058706697 0.05285389 0.06107818
-0.1863615 -0.19289543 -0.17573345 -0.068117335 -0.068015434 0.07894873 -0.1986467 -0.05852931
-0.035646133 -0.10443071 -0.1389668 -0.18965846 -0.119970344 -0.08095439 0.08984677 -0.012011529
0.025048127 0.14754477 0.14081319 -0.08406128 -0.1491993 0.050984204 -0.15300779 -0.031529877
0.006079972 -0.12716539 -0.04643558 -0.08819557 -0.04009472 0.06665108 0.061979182 -0.034617536
0.122522235 0.114351355 -0.081420034 0.1402885 -0.007621166 0.14953163 -0.09252353 0.023430087
-0.05707403 -0.15724462 0.13133276 -0.13351479 0.030853273 -0.12825306 -0.15260217 -0.045831632
0.06580664 0.12996815 -0.25807005 -0.19510408 0.059384782 -0.23078285 -0.24583983 -0.01826216
0.0008171564 -0.15457946 0.027083267 -0.19633956 -0.13714823 -0.14471613 0.033318073 -0.12233964
0.10976518 -0.007833449 0.13322756 -0.062162593 0.07956564 -0.108414166 0.10483354 -0.112634346
-0.13374169 0.18385744 -0.06257101 0.17261694 0.20730045 0.113275684 0.03373534 -0.048136223
0.059937168 0.07650017 0.21879996 0.27214605 0.13551357 0.1667178 0.16682309 0.27087447
-0.15745455 0.0611462 -0.033018757 -0.037576407 -0.005718493 -0.04916383 -0.16258538 0.096703656
-0.13815911 0.01954311 0.060045633 -0.026361423 0.073147565 -0.08475996 -0.06991606 -0.13927633
-0.03394513 -0.0031205562 -0.19246672 0.05740494 0.068846196 -0.16731293 0.017950613 -0.19338115
0.061707295 -0.046841476 -0.20259143 -0.078733526 -0.18636097 -0.13326801 0.028322719 0.05543315
-0.08154921 -0.09934247 0.09116942 0.022256272 -0.043952577 -0.082755744 -0.029458342 -0.107360266
-0.1308184 0.0075452053 0.0022092073 0.14281882 -0.03380159 0.11706999 0.032477107 -0.16065374
-0.08118733 0.09641552 0.109772354 -0.053875305 -0.09282119 0.16158101 -0.04959048 0.019900773
0.10331042 0.009440862 -0.14747673 0.04102771 -0.031317856 -0.12766616 -0.14504662 -0.08698458
-0.13283987 -0.0753922 0.07395066 -0.09491669 0.13656756 -0.010515007 0.111453466 0.03023632
-0.027725784 0.13392341 -0.15597871 0.15367877 0.38832635 -0.02980165 0.51625234 -0.101837836
0.26103127 -0.11429613 0.19935156 0.018028433 0.3292644 0.07341208 0.16332808 -0.01581677
0.25978673 -0.079528056 0.104513295 0.17935768 0.02425617 0.07366036 -0.17246507 0.10536746
-0.17644367 0.045965564 -0.22364405 0.21049342 -0.16690038 0.1223166 -0.39973477 0.22392231

model.0.bias f4 [128]
00000000: 8376 8dbc dba3 ab3d 542a f53d 869a f2bd
00000010: 0a87 5cbe 2f83 b4bd 455a ce3d c02b d0bd
00000020: ac52 58be 7904 833c 15e5 93bd eac5 bc3c
00000030: 3fcc e8bd 6532 923d 99e2 1cbe 1720 96bd
00000040: ebff 17be e794 4cbd 8f56 a7bd c846 15bd
00000050: 16e4 383c 5324 3cbe 4206 1cbd 3884 093c
00000060: 324b 293d f5b4 b4bd 4d5f b23c a90d 403c
00000070: 76c1 c5bd 8442 1a3d a21c 04be 68df 283d
00000080: a28f 303d 3d87 02be 6e3c 69bd cf27 a93d
00000090: b29c 063d d834 563d 5cbe 5cbd 8720 b23d
000000a0: 411d 80bd 291d 963c 6262 ffbd 641b 073e
000000b0: b7f8 10be 786d 0bbe 08e0 69bc 0955 04be
000000c0: 792b 483c 820a cebd ea86 33be 964e 67be
000000d0: 3553 78bd 1dd2 12be 34c2 d73d f6ed 58be
000000e0: 0e69 7ebd e962 a73c d306 fbbd da3a a9ba
000000f0: 9f63 a13d 53b4 fbbd 6daf 33bc 4d9a 1f3d
00000100: 7b65 553d 748e e1bc 7d46 293c c6a7 81be
00000110: d8e1 9d3d 284b 6dbd 57c9 6fbe 96e2 15be
00000120: d294 b3bd 0e88 dabc 272a f6bb a746 28be
00000130: a03c 9e3d 2e1d e83c c377 7e3d 6c23 063d
00000140: b532 fdbd a825 9fbd a772 b7bd 4966 173e
00000150: 186e 2c3c 7e16 d8bd 5ac7 de3d 5328 d8bd
00000160: f408 3f3d 97b4 8ebc af49 61bd 454c bebc
00000170: a44a f73d b307 79bc 882e c8bd 1be6 0cbe
00000180: 35e9 0dbe 1048 e23d d00a d2bd 4e94 02be
00000190: ab27 1d3d 9f17 82bd 77db 8aba d393 25be
000001a0: 95b2 d63d 6c57 97bc c0d5 4c3b fe25 4d3d
000001b0: 7885 5e3d 10e7 613d 2c71 a9bd a33f 6d3d
000001c0: 4758 8cbe 842a 093e d37e e8bd 7b7d 083d
000001d0: 5e5b 45be f4e9 4a3d a406 75bd 1a6f a8bc
000001e0: f508 03bd d82d 80bd 2ea4 8f3d fc8a 073d
000001f0: a6ba f93d 57c7 923d 0315 dcbd 3c87 85bd
-0.017268425 0.08380862 0.11970964 -0.11845879 -0.21535888 -0.08814084 0.10075811 -0.10164595
-0.21125287 0.015993344 -0.07221428 0.023043592 -0.11367082 0.07138518 -0.15320815 -0.073303394
-0.14843719 -0.04994669 -0.081708066 -0.036444455 0.011284849 -0.18373232 -0.038091905 0.00839334
0.041331477 -0.08823577 0.021773959 0.011722007 -0.0965604 0.03766109 -0.12901548 0.04122868
0.04310573 -0.12746902 -0.056942396 0.08259546 0.03286428 0.05229649 -0.05389248 0.0869761
-0.0625558 0.018324452 -0.12469937 0.13194042 -0.14157377 -0.13615978 -0.014274605 -0.12923063
0.012217396 -0.10060598 -0.17531934 -0.22588572 -0.060626227 -0.14337964 0.10535088 -0.21184525
-0.062111907 0.020432906 -0.12257161 -0.0012911216 0.07880329 -0.122902535 -0.010967118 0.038965512
0.052098732 -0.027533747 0.010331747 -0.25323313 0.07709092 -0.057933003 -0.23416649 -0.14637217
-0.087686196 -0.026676204 -0.007512349 -0.16433202 0.07726407 0.028334226 0.062125932 0.032748625
-0.12363187 -0.07770854 -0.08957415 0.14785112 0.010524295 -0.10551165 0.10877867 -0.10554566
0.046639398 -0.017420096 -0.05500191 -0.023229728 0.120747834 -0.01519959 -0.097745 -0.13759653
-0.13858493 0.11048901 -0.102559686 -0.12751886 0.03836791 -0.063521616 -0.001059397 -0.16169672
0.104832806 -0.018474303 0.0031255335 0.05008506 0.054326504 0.055152 -0.08273539 0.057922017
-0.274111 0.13395125 -0.11352315 0.033322793 -0.19273135 0.04953952 -0.059820786 -0.02056079
-0.031990964 -0.06258744 0.07013737 0.03309153 0.121938035 0.07166927 -0.10746195 -0.065199345

model.2.weight f4 [128, 128]
00000000: 7a68 24bd 896a 25bd 686e 2b3d 8eb4 4e3d
00000010: 242e 2abd 0b93 513d 391e b23b c69c b6bc
00000020: 4022 ca3c 5594 9fbd 92d1 83bd c082 023c
00000030: 4571 f4bc 0a04 143d cb96 933c 1711 57bd
00000040: a687 60bc c330 753c f488 b6bc a752 84bd
00000050: 8e83 2fbc e170 e63c 402d 5c3c fb59 653d
00000060: f906 373c b2fe de3c b635 a13d ae1d 6bbc
00000070: c4f6 903d 3c74 6d3d 8d92 a8bb ec87 8abc
00000080: c247 29bd c179 ca38 5b0e fe3b e273 81bc
00000090: c752 173d bd9d 33bc 767c a0bd 9bf5 f5bc
000000a0: 8e32 cfba b66c 54bd 25a6 a93d aadf f93c
000000b0: b998 2dbd a25b 7b3d 29f8 593d f20d 97bd
000000c0: 3e3c 8cbd 22ce a4bd 5777 a63d b98a 4f3c
000000d0: 232d e9bc da32 8c3d a8c8 4bbd 1a15 57bd
000000e0: 185a 5a3d 1414 82bd 9a39 64bd b96c a73d
000000f0: 4e64 963d 8194 78bd a480 323c d079 b0bd
00000100: 84de 4abb 66ef dbbc d189 7d3d f3f7 6abd
00000110: c3db 143d 4d61 afbd ff5c 483c 14ad ae3d
00000120: 89b3 fd3c 4acb ad3c 0181 933b 906c 13bd
00000130: 48ac 99bc 0446 37bd c140 0b3d f5e9 7e3c
00000140: 44d1 a8bd c341 bd3c 3699 e1bc 4b6e a8bd
00000150: cb9c 153c fe76 b33d 664a a93c 0214 44bd
00000160: 6b11 0ebd a012 64bd 6930 36bc 18db 973d
00000170: be89 bbbc 8723 8c3d a652 8e3b eed2 aa3c
00000180: c5aa 41bd 4c91 16bd a421 09bd 026c 40bd
00000190: ab96 993d 8d00 f4bc 53a0 a43d 98d5 34bd
000001a0: 8888 9a3d c26a fbbc 6b2b acbd 9cce 693d
000001b0: 5819 ad3d 7e85 9fbd ec57 5b3c 0b80 763d
000001c0: 3868 7bbd 8bc4 653c 31d5 1cbd eb6b 64bc
000001d0: be51 4bbd 5e64 a43d 24fb 573d d928 28bd
000001e0: 3863 ac3d aa86 cdbc 3168 89bd fc17 0dbd
000001f0: 8231 8dbc 9b39 883d 68b7 df3a 015e 063c
00000200: 2987 30bd 0c36 003e 720b 8b3d ee4b 29be
00000210: b58a a03d 4f1d 9e3d 711a b1bd 8800 e83d
00000220: 1d67 75bc 2b40 893c c278 c7bc 698d 6dbd
00000230: 7361 5f3d 8bd7 4f3d df77 473d 315d 5fbd
00000240: 9ae9 153c 6b82 563d 8fa7 c93d 324e 97bd
00000250: e80d 35bd bd44 3a3b 990c efbc c8ce 6abb
00000260: ee58 d93c 355a a33d db8b 0a3c 674b 3e3d
00000270: 22c9 75bc 2564 c63d 4e89 81bd 99b2 843c
00000280: 352b 7b3d 8ae4 653c e4a8 4e3c f707 403d
00000290: 4cd8 efbd e5cc 1d3c 76fe 2e3d f637 3f3d
000002a0: 6324 f93d bfc0 333d a262 ce3d aab3 fe3c
000002b0: 2bfa d1bb 9b8e 37bc b479 843c 8928 55bc
000002c0: 7e00 b2bc c235 013d fbc7 d03d ec5e d4ba
000002d0: 0222 a13d 89e2 1a3d d717 3cbd b744 4cbd
000002e0: d3d1 a2bb 436e 57bd 1634 d9bc 0272 983d
000002f0: f509 c03d e09c 603d 90bf 413d de39 933d
00000300: dddf b43d c0a8 b6bc acf6 5dbc edcd 33bd
00000310: 55e1 af3c dc60 5d3d 5263 283d 9803 1d3d
00000320: 177a 95bd 4044 b33c 9c80 853d 76fe 743c
00000330: 8e89 95bd 9b8c 34bd 83ab 8cbc 794c 4cbd
00000340: 5b77 94bc a01a 103d 9943 13bd 3eed 42bd
00000350: cf3b 503b e6e8 183d 3234 97bc 901b 46bd
00000360: ef79 00bd 9957 233e febe 5b3c 7d34 a9bd
00000370: 2de1 4e3d 00f5 173e 0fb8 eabc fd41 0e3d
00000380: 79e7 cd3c 1f30 7e3d 8408 e63c 31b9 8cbd
00000390: c974 083d dbd6 663d 0d58 b2bc 4ca4 bc3c
000003a0: 2eb1 9bbd 6fe6 efbc 7fb2 ab3d 4547 debc
000003b0: 23ad 9f3c fc2f 3dbd 122e 91bc 2501 663d
000003c0: 1dd9 81bc ecf4 e8bc be08 1dbd 2c2a 4a3d
000003d0: 2ad6 693d e3dc 063c cecc 85bd a03b 36bd
000003e0: 7f29 893b d9a3 9b3d 41a0 153e 19a9 ca3b
000003f0: b0c3 81bd 0645 bd3d f156 663d 398d 8d3d
-0.0401387 -0.040384803 0.04185334 0.05046516 -0.04154791 0.05116562 0.0054357317 -0.022291552
0.024674535 -0.07791964 -0.06436457 0.007965744 -0.029839167 0.036136664 0.01801624 -0.052506533
-0.013704216 0.014965239 -0.022282101 -0.06461077 -0.010712517 0.028129997 0.013438523 0.055994015
0.011171096 0.027221058 0.07871573 -0.014350338 0.07078317 0.057972178 -0.0051444233 -0.016910516
-0.0413282 9.654789e-05 0.007753176 -0.015802328 0.036944177 -0.010962901 -0.07836239 -0.03002434
-0.0015807913 -0.051861487 0.08283643 0.03050216 -0.042381976 0.061366685 0.05321518 -0.07375707
-0.06847428 -0.08047129 0.08128231 0.012667351 -0.028463906 0.06845637 -0.049751908 -0.05251036
0.053308576 -0.06351486 -0.055718996 0.08175034 0.0734335 -0.0606885 0.010894928 -0.08616984
-0.0030955384 -0.026847553 0.06189901 -0.05736537 0.036342394 -0.085634805 0.012229203 0.08529106
0.030969398 0.0212151 0.0045014624 -0.035992205 -0.018758908 -0.044744506 0.0339973 0.015558709
-0.08243039 0.023102647 -0.027538877 -0.08224162 0.009131621 0.0876293 0.020665359 -0.047870643
-0.03468458 -0.055681825 -0.01111994 0.07414836 -0.022892829 0.06842714 0.0043433486 0.020852532
-0.047282 -0.03675966 -0.033479348 -0.046978004 0.07499441 -0.029785419 0.08038392 -0.04414901
0.075455725 -0.030690555 -0.08406719 0.057081804 0.084520996 -0.077891335 0.013387661 0.060180705
-0.061378688 0.01402391 -0.038289253 -0.013941745 -0.049638502 0.08026956 0.05272974 -0.04105458
0.08417362 -0.025088627 -0.06709326 -0.0344467 -0.017235521 0.06651612 0.0017068209 0.008201123
-0.04309765 0.12520617 0.067892924 -0.16532871 0.07838956 0.07720434 -0.086476214 0.11328226
-0.014978197 0.01675423 -0.024349574 -0.057996187 0.054536294 0.050742667 0.048698302 -0.054532234
0.009149933 0.05237047 0.098464124 -0.073879614 -0.044202715 0.002842232 -0.029180812 -0.0035828818
0.026531663 0.0797619 0.008456196 0.046458628 -0.015001567 0.0968707 -0.06325017 0.016198443
0.061320502 0.014031539 0.012613509 0.046882596 -0.11711177 0.00963137 0.04272314 0.046684228
0.12165143 0.04388499 0.100774065 0.03109153 -0.006407996 -0.011203433 0.016171314 -0.013010153
-0.02172875 0.031545408 0.10194393 -0.0016202605 0.078678146 0.037813697 -0.045921173 -0.04987022
-0.0049688607 -0.05259539 -0.026514094 0.0744362 0.09376899 0.054837108 0.04730183 0.07188772
0.08831761 -0.022297263 -0.013547581 -0.043897558 0.021469751 0.05404745 0.041110344 0.038333505
-0.072986774 0.02188313 0.06518671 0.014953246 -0.07301627 -0.044079404 -0.017171627 -0.049877618
-0.01812332 0.03518164 -0.035953138 -0.047589533 0.003177393 0.037331484 -0.018457506 -0.04836613
-0.031366285 0.15951385 0.013412235 -0.082619645 0.050507713 0.14839554 -0.02865222 0.0347309
0.025134789 0.06205761 0.028080232 -0.0687126 0.0333145 0.056357246 -0.021770502 0.023027562
-0.07602154 -0.029284684 0.08383655 -0.027133593 0.019491738 -0.04618834 -0.017722163 0.056153435
-0.015850598 -0.0284371 -0.038338415 0.049356624 0.05708901 0.008231374 -0.06533204 -0.044490457
0.004185855 0.07599611 0.14611913 0.006184709 -0.063361526 0.09241681 0.056235258 0.06911702

model.2.bias f4 [128]
00000000: 94cb e83b 60a3 a0bc c4b6 efbd bf6b a8bd
00000010: 45cc 00be f67c afbb f059 693d 2105 ac3c
00000020: 00d7 f2bb ff75 abbd 75f7 8bbd e59d 4fbd
00000030: 2907 383c 743b 06be 5fd7 8e3d 5666 89bd
00000040: b95e 99bd 6fec 3ebd d54d aabd 4ffd a1bd
00000050: fbfc 933d 65a8 8dbd 0ccb 59bd b50b adbc
00000060: 5c0e 85bd b69a c6bd 34b9 b83d e697 d7bd
00000070: 64f7 403d 0a9e 94bd 67b2 3f3c 1768 babd
00000080: a55e adbd 1d78 4bbc d3d4 19be 7515 943d
00000090: a3c4 0c3c 8954 8ebc 69ea 0ebd 18d1 e4bd
000000a0: 633f 163d 3dcb a2bd c696 8ebc 295d 463d
000000b0: b5f4 46bd 166f 87bd 66e4 80bd 722d 8abd
000000c0: afb4 02be 033d 043c 9fbc ce3c 35c8 8f3b
000000d0: 8d39 ee3c 1b64 aabc 1640 683c 8d27 f1bd
000000e0: 3f89 1d3d a150 233d b29c 0cbd 9b36 7dbd
000000f0: 98db 493d f210 95bd 9146 e9bd f8c2 b1bd
00000100: f3e9 10bd 4fc2 16bd 0a79 f6bc f40c 8b3d
00000110: 0704 6fbd 2659 0e3e 378d 0abe 0d7e 083c
00000120: f555 20be 6e8e 0f3d b454 83bd d5ce 15bd
00000130: afcf 173b f857 863b cd0e babd 2a84 e9bd
00000140: 97e4 26be 30d6 38bd d14f e0bb d15a c63c
00000150: d838 9abd be1a 34bd 0519 233c 1b45 a5bd
00000160: 061d 0bbe 3634 12bd 04cc f9bc 6913 c2bd
00000170: f8ec a5bd 264c b5bc f16b cfbc 032b 4c3d
00000180: 5414 283d 1204 09be 738e c9bd 83ba 09bd
00000190: b088 1dbc 8055 013c ca4b 91bb 9853 7abd
000001a0: 7a3a ac3c 0709 e6bc fe68 19bd 3c93 b5bc
000001b0: 48a7 1f3d a61d c43c 46a4 a9bd 5b0f 34bd
000001c0: 151b a4bd 2486 db3c efb6 2dbe e73f 643c
000001d0: caca 103d 6f5a e5bc 1f15 68bd f549 0dbd
000001e0: 002f 9fbd 0a1e 6ebc 7ee5 24bd 132c b3bd
000001f0: 04e1 00be 270e 02bd c574 843d 5593 f9bc
0.0071043465 -0.019609153 -0.11704782 -0.08223676 -0.12577923 -0.0053554727 0.056970537 0.02099854
-0.007410884 -0.08372115 -0.06834308 -0.05068769 0.011232176 -0.13108617 0.069746725 -0.06708972
-0.0748877 -0.0466122 -0.083156265 -0.07909643 0.072259866 -0.06916884 -0.053172156 -0.021123746
-0.064968795 -0.096974775 0.090197 -0.10527019 0.04711093 -0.07256706 0.011700249 -0.09101885
-0.08465318 -0.012418774 -0.15022592 0.07230655 0.008591804 -0.017374294 -0.03489152 -0.11172694
0.036681544 -0.07948921 -0.017405879 0.04842869 -0.048573215 -0.06612985 -0.062935635 -0.06746949
-0.12764238 0.008071187 0.025236426 0.00438788 0.029080177 -0.020799687 0.0141754355 -0.11775122
0.038460966 0.039871816 -0.034329124 -0.061819654 0.049281687 -0.07278623 -0.113904126 -0.086797655
-0.03537936 -0.0368064 -0.030087013 0.0678958 -0.05835345 0.13901195 -0.13530432 0.008330834
-0.1565779 0.03504794 -0.0641264 -0.036574204 0.002316456 0.004099842 -0.09084854 -0.114021614
-0.16298138 -0.04512614 -0.0068454524 0.024213227 -0.07530373 -0.043970816 0.009954696 -0.080698214
-0.1358529 -0.035694323 -0.03049279 -0.094763584 -0.08101839 -0.022131037 -0.025320025 0.049845707
0.04103501 -0.13380459 -0.09841623 -0.033625137 -0.009615108 0.00789392 -0.0044340836 -0.061114877
0.021023978 -0.028080476 -0.037453644 -0.022164933 0.03897789 0.023939919 -0.08283286 -0.043959957
-0.08012978 0.026797362 -0.16964315 0.013931251 0.035349645 -0.027997224 -0.056660768 -0.03449436
-0.077726364 -0.014533529 -0.040257923 -0.08748641 -0.12585837 -0.031751778 0.064675845 -0.030465761

model.4.weight f4 [60, 128]
00000000: 2170 6c3d 73d5 1ebc 11dc ed3d 6b91 f5bd
00000010: 68c5 883d 8691 33bd 8c89 4bbc 7916 683d
00000020: ec86 69bd c0b2 dfbb 8aac 73bd 4763 0f3d
00000030: 23ba 7c3d 4d03 c3bd 4de8 9c3d 2394 a83b
00000040: 688c fc3d 6360 663e 6582 a63d 6a78 443c
00000050: 8977 adbd 7cd0 aa3c d608 8fbd efcf a33d
00000060: 4ca0 1f3e 0364 003e ca5b b13d b8bd db3d
00000070: befe a03d 21d5 7e3d 5596 663d 9bac f43c
00000080: 65f0 e43d 1b1c 083d f6d6 bcbc 889f 083e
00000090: bbe1 13bc 941f 763e 5392 d23b ddc4 97bc
000000a0: 766b 3abd 0f70 a3bd 79f9 a4bd da5a 70bd
000000b0: a6b3 20bc 5107 953c f452 803a 68ec 263c
000000c0: ca7c f93b 11ae 413d 7045 403c 6742 fcbd
000000d0: c797 06bd 96d4 0d3e d8a5 7fbd 842a db3d
000000e0: 916e 33bc 9e82 a23d cb63 fe3d 3586 643d
000000f0: c3d2 20bc 1748 233b 353d b23d 1e95 c23d
00000100: b192 a4bc 187d 323c 8600 43bd 14bd 8d3d
00000110: ff43 0e3e 292d 643e 8718 993d 4972 98bc
00000120: c2d5 7abd 7274 d13d 7ced d63d 3db9 8dbc
00000130: 4652 49bd cb76 ba3c 572d 12bc 6176 9b3d
00000140: 5e8d b73b e4e8 473b aded d93d 1e1c fa3d
00000150: 32ab 2c3d 05de 843d 228b 4a3d 7ff2 3bbd
00000160: a0a3 5d3d 86ca 013e ce00 54bd 39c6 1f3d
00000170: a3ae b1bc 68b5 0c3d da64 e43d b503 e73c
00000180: c959 acbd 0e20 9b3d 8852 0b3e 5602 26bd
00000190: bbe6 bf3d 4824 713d b77b bdbd 3f50 fd3d
000001a0: a5eb 71bd 435c 85bc 326b 923c 186a 05bc
000001b0: 4fe8 743d 460a 483c cbb3 393d 0ea8 d9bd
000001c0: 261f 583d fcc6 abbb f8a0 a9bd 94e4 323d
000001d0: e02c 2dbd 4bed a03d 859d 15bd 2caf b6bd
000001e0: 6755 823d 7e44 323d 814b 673d c8f3 873d
000001f0: 7efe 963c bb0a 0d3e cf19 cf3c 094e 953d
00000200: 7a7d fb3c 071f 0dbd 62b8 ae3b 432d cbbd
00000210: 157c b13d 8bf1 28bc c274 b03d 3ac6 243e
00000220: 6a80 cd3c a4b4 a83d 2bf1 933d df48 603b
00000230: 203b 193d 05ad 6dbd c9c8 11bc aebc 87bc
00000240: 523a 9b3d 6739 843e 5896 343d da8c 733d
00000250: ddd4 98bd 487b d03d 9f9e 553d 31f6 fb3c
00000260: c193 153d 97de 1b3d e739 113e 6c6b 9d3d
00000270: 124d c73d 8a61 6ebd f668 9ebd e9e7 a33d
00000280: 4f10 d73c 950e f63d 8c48 1fbd d278 4d3c
00000290: 9bc1 533d 8cb3 a3bc c921 973c 9982 c1bc
000002a0: 24a6 e73d 6ed3 4f3d cb08 9cbd 4507 57bd
000002b0: d9e8 963d 1216 36bd 2db7 e9bc 135e 3c3c
000002c0: fee9 8b3b 25f3 c93d 47da 45bc c4c1 733d
000002d0: e65d a9bd d90c 82bc dded fe3d f1f1 e0bc
000002e0: 0ef6 103d d422 ee3d ee92 b03d 71aa a33c
000002f0: 3db8 7ebc 166b fc3d e4db 5f3c 3cf3 073d
00000300: 4df3 ad3d 8ee7 253d 2bd5 83bd 2a1a 7cbd
00000310: eb75 dd3d 9673 acbd eedc ce3c 79c5 51bc
00000320: 995a b0bc c923 033e 4462 ecbc 17e1 723c
00000330: e97b 98bc 51bb 953d 56ec 7c3c f967 eb3d
00000340: 52ee ad3c a1b9 1f3d d1e0 c73d ab77 273c
00000350: 7ad4 b13d c01c a43a de5c e0ba 42ee 21bd
00000360: 7235 873d f33d c83b 1ba7 fd3b bade 73bd
00000370: 24b1 323d 4a0f 27bd 77c8 813d e18d a73c
00000380: 4b7a 0dbb 282d 0f3e 3918 83bc 86ce 383d
00000390: cbb9 c53d fb9d c33d f350 84bd 0842 933d
000003a0: eeb1 24bc 3872 d1bc 0252 09bc b715 a9bc
000003b0: 37a6 81bd fd4b ac3d 6c6a 5e3d 45d4 f13c
000003c0: 177f 85bd 80d9 df3c 97a8 4fbd 8d90 b0bd
000003d0: e144 613d 90ad 65bc dd69 683d 3a35 2a3d
000003e0: c0da 5f3d 3410 27bc 8460 543d d7df 923d
000003f0: 0599 c33d d1c4 18bb 6d06 81bd 6320 c63c
0.057724122 -0.009694445 0.1161424 -0.11990627 0.06678277 -0.043839954 -0.01242293 0.056662057
-0.057013437 -0.0068267286 -0.059490718 0.035006788 0.06170095 -0.09522114 0.07661495 0.0051446124
0.12331468 0.22497706 0.081303395 0.0119916 -0.08470065 0.020851366 -0.06984107 0.079986446
0.15588492 0.12538151 0.086600855 0.10729545 0.07861088 0.062214974 0.05629571 0.029867461
0.11178664 0.03322993 -0.02305172 0.13342106 -0.009025986 0.24035484 0.0064261346 -0.018526489
-0.04551264 -0.07980358 -0.08055396 -0.058680393 -0.0098084565 0.018191965 0.0009790347 0.0101882
0.007613753 0.047285143 0.011735305 -0.12317353 -0.03285959 0.13850626 -0.06241402 0.107014686
-0.010951654 0.079350695 0.12421378 0.055792052 -0.0098158745 0.0024914795 0.087030806 0.09501098
-0.02008948 0.0108940825 -0.04760792 0.069208294 0.13893126 0.22282852 0.07475381 -0.018609183
-0.06123901 0.10227288 0.10494515 -0.017300243 -0.049150728 0.022761723 -0.008921943 0.07590938
0.005601569 0.0030503804 0.10641036 0.12212394 0.042155452 0.06487659 0.049449094 -0.04588556
0.054111123 0.12674913 -0.05175858 0.0390074 -0.021689719 0.03435269 0.111520484 0.02820001
-0.08415563 0.07574473 0.13605702 -0.04052957 0.0937018 0.05887249 -0.09252112 0.12368821
-0.05906262 -0.016279345 0.01787338 -0.0081429705 0.05979186 0.012209481 0.04533748 -0.10627757
0.05276408 -0.0052422266 -0.082826555 0.04367502 -0.042279124 0.0785776 -0.036527175 -0.0892013
0.063639455 0.04352235 0.05646849 0.066382945 0.018431898 0.13773625 0.025280861 0.07290275
0.03069948 -0.034453418 0.0053320387 -0.09920742 0.08666245 -0.010311495 0.0861602 0.16091242
0.025085647 0.082375795 0.072237335 0.0034223122 0.0374099 -0.058026332 -0.008897969 -0.016569462
0.07579483 0.25825045 0.04408869 0.0594605 -0.074624754 0.10179764 0.052153226 0.030757042
0.036517862 0.038054075 0.14182244 0.07686505 0.09731497 -0.05819849 -0.077348635 0.08003218
0.026252894 0.120145 -0.038887545 0.012541013 0.05169831 -0.019983076 0.018448727 -0.023621844
0.11310986 0.050738744 -0.076188646 -0.052497167 0.07368631 -0.04445464 -0.028529728 0.011497038
0.0042698374 0.09860829 -0.012075967 0.05951096 -0.08269863 -0.015875267 0.124477126 -0.027459117
0.035390906 0.11627737 0.086217746 0.019978734 -0.0155468555 0.123251125 0.013663266 0.03319095
0.084936716 0.04050403 -0.06437143 -0.06154839 0.10813507 -0.08420484 0.025251832 -0.012803429
-0.021527575 0.1280662 -0.02885545 0.014824173 -0.018613772 0.073111184 0.015437206 0.114944406
0.021231804 0.03899539 0.09759677 0.010221402 0.08683105 0.0012520775 -0.001711752 -0.03953386
0.06601991 0.0061109005 0.007740868 -0.05953858 0.043625966 -0.040786065 0.06337064 0.020453395
-0.0021587785 0.1398207 -0.016002761 0.04511883 0.09654578 0.09551617 -0.06460752 0.07190329
-0.010052187 -0.025567159 -0.008381369 -0.020640237 -0.06330531 0.08412931 0.05430071 0.029520163
-0.06518381 0.027325392 -0.05069789 -0.08621321 0.05499733 -0.014018431 0.056741584 0.041554667
0.054651976 -0.010196734 0.051849857 0.071716 0.095506705 -0.002331067 -0.06300054 0.024185365

model.4.bias f4 [60]
00000000: 1528 d53d d514 cc3d b833 093e 4ee3 de3d
00000010: 8e25 df3d 6b2d da3d 649d 093e fae1 b93d
00000020: b165 d53d a6b5 bf3d 2c24 f53d 4093 eb3d
00000030: d9dd 083e 87ee 013e 202d 123e 180e 753d
00000040: 1b08 173e 7bb8 fe3d 404e 013e 513a e73d
00000050: 5b7a 1f3e 9e7d fe3d 31d0 063e cb67 c43d
00000060: 2842 0e3e faa3 ad3d e745 053e 266d 7a3d
00000070: c900 0b3e 6455 a93d 5c1a 223e 3af5 fc3d
00000080: 9fae 173e 5711 d43d 6004 113e 71ed ca3d
00000090: 1756 0b3e 9f5e c63d 746f c73d d443 823d
000000a0: 6ec9 ee3d 045e d13d dbf6 293e cc2c c93d
000000b0: 8fcc 0e3e 869f eb3d 7861 fe3d 46f3 bb3d
000000c0: 412e 283e 063b c83d cb3c e13d 4f23 6e3d
000000d0: 3257 2e3e 319c 013e 93db 193e e96f 053e
000000e0: 3007 273e 7fc6 b43d 7c16 343e ae44 cc3d
0.10408036 0.09964911 0.13398635 0.10883199 0.10895835 0.10653194 0.13438946 0.09076305
0.10419787 0.093608186 0.1196979 0.11502695 0.13365878 0.12688647 0.14275026 0.059827894
0.14749186 0.124375306 0.12627506 0.1129042 0.15574019 0.12426303 0.13165356 0.095901094
0.13892424 0.08478542 0.13014947 0.06113925 0.13574518 0.0826824 0.15830368 0.12351461
0.14812706 0.1035487 0.14161825 0.099085696 0.1360706 0.09686016 0.09738055 0.063605934
0.116595134 0.1022301 0.16598074 0.098229975 0.1394522 0.11505036 0.124209344 0.0917726
0.16423894 0.09776883 0.109979235 0.05813914 0.1702545 0.12657239 0.15025167 0.13030972
0.16311336 0.088269226 0.17586702 0.09974037
