model_checkpoints/Finished_LstmPositionsOnly_hdim_60_wsize_20_interval_1_nlayers_2_bs_512_lr_0.01_decay_0.95.pt (torch, 180899 bytes, 10 tensors)

lstm.weight_ih_l0 f4 [240, 2]
000000 cb 94 d6 3d 92 fc f3 3b ef 6e 9f bd af 12 a7 bd
       0.10477599 0.00744588 -0.07784831 -0.081578605
000010 2e 32 cf bd bb 7a 80 3b db 52 34 3e 73 43 ad 3e
       -0.10116993 0.0039208806 0.17609732 0.33840522
000020 d1 5b 75 3b b2 6f 3c 3d 1b 70 78 3f 22 ed 39 3f
       0.003743876 0.04600496 0.9704606 0.7262746
000030 95 cb 49 bd d7 b6 65 3e a3 01 11 bb f8 31 9e bd
       -0.049266417 0.22433029 -0.002212622 -0.077243745
000040 74 a0 d5 3b 33 49 34 3e ca 05 83 be 21 f8 9c be
       0.0065193716 0.17606048 -0.25590354 -0.30658057
000050 0b 36 84 be f4 a3 71 bd e6 64 7b 3d 32 6c 99 bd
       -0.25822482 -0.05899425 0.06137552 -0.0749134
000060 5a 1e 6b be 0b a9 a0 bc 80 de 27 bd b7 5c e4 3d
       -0.22960797 -0.019611856 -0.040983677 0.111504965
000070 ff c0 5e be bc 3f 7c be da 6f 11 3d e6 69 26 3e
       -0.2175331 -0.24633688 0.03550706 0.16251335
000080 9f 6c 14 be cb 64 cd bd 81 53 81 3d ba 23 4d 3c
       -0.1449456 -0.1002899 0.06314755 0.012520725
000090 d8 5c eb be cf 00 0e be 53 5f 2c 3f 83 32 44 3f
       -0.45969272 -0.13867496 0.67332953 0.76639575
0000a0 c0 e5 5e 3d 48 af 0f 3e 5a 9d 2f bd 4e bb 9d bd
       0.054418325 0.14031708 -0.04287467 -0.07701741
0000b0 09 8b cd 3c f2 b7 8b 3c 55 02 18 be 4b 86 59 bd
       0.025090711 0.017055485 -0.1484464 -0.053106587
0000c0 71 b7 0c 3c 16 de d0 3d 31 5c 4d bb 2a c2 f6 3d
       0.008588658 0.101986095 -0.0031335468 0.120487526
0000d0 ad 57 02 bd 82 c5 e6 3d 13 f8 47 be 19 c4 64 be
       -0.031821895 0.112681404 -0.19528227 -0.2234043
0000e0 2e ab ae be ab a1 8e be 7b 81 39 be 46 6b e0 bd
       -0.34114975 -0.27857718 -0.18115799 -0.10957961
0000f0 75 24 0c bd 1d 82 70 bd 4b 0e c5 3d dc e0 83 3c
       -0.034214456 -0.058717836 0.09621867 0.016098432
000100 2a 4e 66 3f ba a5 0a 3e a5 a8 06 be 87 6f 00 be
       0.8996302 0.13539782 -0.1315027 -0.12542544
000110 09 83 37 be 40 47 09 be cc b7 51 be a9 50 8e be
       -0.1792108 -0.13406086 -0.20480269 -0.27795914
000120 c7 10 e5 be 9c 8c d8 3e 15 20 0a be b8 80 b2 3d
       -0.44739363 0.42294776 -0.13488801 0.087159574
000130 9e 2f 0b 3d 2d 4a b8 bc 8b 34 a2 be 42 97 8d bd
       0.03398096 -0.022496307 -0.31680712 -0.06913616
000140 d2 0b 64 bd 5c d5 b5 bc 12 52 d3 3c 4b 2d 2c 3e
       -0.055675335 -0.022196464 0.02579597 0.16814153
000150 55 c9 a2 bc 70 16 b1 bd 0a 28 b3 3d 3f cc ca bc
       -0.019871393 -0.08646858 0.08747871 -0.024755595
000160 dc f1 1b be ed 0b ae bd e4 77 8b bd 89 7b 5f bd
       -0.15228981 -0.084983684 -0.06809977 -0.05456117
000170 4b e8 84 bd bb 80 51 bc aa f4 46 3b 6f 95 a3 bc
       -0.06489619 -0.012787039 0.0030358233 -0.019968716
000180 b4 cf 5a be 82 ff 81 bd 1d cf 6c bd b3 ce 88 3c
       -0.21368295 -0.063475624 -0.057814706 0.016700124
000190 51 47 04 3b 80 9b 1c be a6 2e c7 bd b0 7e 86 bd
       0.002018411 -0.15293694 -0.09725694 -0.065671325
0001a0 b5 81 1e 3e 42 e3 05 3e 39 99 d2 bd e9 ac 40 be
       0.15479167 0.13074973 -0.10283131 -0.1881596
0001b0 8f 63 5c be 24 4d ab bd 7b 49 55 3e 93 a7 94 3e
       -0.21522354 -0.08364323 0.20828812 0.290341
0001c0 36 3d 4e 3f e9 76 6c 3e 5f fc e1 3d a5 ea cb 3d
       0.8056215 0.23092236 0.11034464 0.09956864
0001d0 67 d6 e1 3c be 71 4f 3d ba 6e a9 3c 3e 72 46 3e
       0.027568055 0.050645582 0.020682681 0.19379517
0001e0 97 a8 1e bd 95 b3 ac ba 7b bc 09 be d0 ca 57 bd
       -0.038735 -0.0013176078 -0.13450806 -0.05268365
0001f0 25 55 10 be ff e0 96 b7 fe 76 65 3d e9 81 7a 3e
       -0.1409498 -1.7986165e-05 0.056021683 0.2446362
000200 a9 b0 31 be 13 d5 e1 bd 64 be cc be 31 9e 30 be
       -0.17352547 -0.11026969 -0.39989007 -0.17247845
000210 2c db 15 be cd 88 91 3d 8a d9 82 bd 91 50 d1 bc
       -0.14634389 0.07106171 -0.063891485 -0.025551112
000220 ab 20 9c 3d 96 cb 03 be 0a 24 85 be 30 be 8f be
       0.076234184 -0.1287063 -0.26004058 -0.2807479
000230 17 97 f2 bd f3 7e 42 be ce 55 43 bc 6e bf eb bd
       -0.11845224 -0.1899374 -0.011922313 -0.11511122
000240 76 7b 65 be 29 2f 30 be 1b ff 53 be 6e 2e 09 be
       -0.22410378 -0.1720549 -0.20702784 -0.13396618
000250 fb 98 a9 be 7b 18 bb bd 4c 93 a5 bc ad 07 5c 3d
       -0.33124527 -0.09135529 -0.020211838 0.053718258
000260 3d 8a db bd d9 b4 2d be af d5 8a bd c9 c1 18 3e
       -0.10719726 -0.16963519 -0.06779038 0.14917673
000270 89 53 db be 0a aa 81 be 30 dd 57 be 5a c1 6e be
       -0.4283717 -0.25325042 -0.2108047 -0.23315945
000280 99 48 1e 3d 86 5e 98 3d 50 7f 56 bc f9 0a ed bd
       0.038643453 0.07439904 -0.013091877 -0.115743585
000290 54 9d c5 3d 17 ab de 3c ad 8a 56 be f1 f1 a3 bc
       0.096491486 0.027181191 -0.20951338 -0.020012828
0002a0 98 45 4b bd 00 99 42 bd 44 63 af bd 53 61 9e bd
       -0.049626917 -0.047509193 -0.08563855 -0.07733407
0002b0 33 e7 e8 bc 4c 8f 10 3b ce 41 28 bd 5a 1e a6 bd
       -0.028430557 0.0022058068 -0.04107838 -0.08111258
0002c0 04 04 3e be fd c2 83 be ba b7 45 be 01 37 44 be
       -0.1855622 -0.25734702 -0.19308367 -0.19161607
0002d0 39 c1 0a 3c b0 47 97 3d 02 c3 d0 3d c0 d1 9f bd
       0.008468919 0.0738672 0.10193445 -0.078036785
0002e0 cd f0 ea 3e 11 3c 8b 3c fb 82 af be d4 35 1f be
       0.4588684 0.016996415 -0.34279618 -0.15547878
0002f0 64 01 4a be 66 56 84 be fc 70 84 be 0f a2 a3 bd
       -0.19727093 -0.25847167 -0.2586745 -0.079898946
000300 db 34 c2 be e1 4c 53 3d 03 70 14 be a9 d9 8d bd
       -0.3793095 0.05158699 -0.14495854 -0.06926281
000310 1f cc 6d bd 7b c7 bf bd 55 51 70 be 26 b1 63 be
       -0.058055993 -0.0936422 -0.23468526 -0.22235546
000320 f6 3b dc bd 97 50 87 bd 20 30 ac be 42 77 9a be
       -0.10753624 -0.06607168 -0.33630466 -0.30169111
000330 f6 86 c9 bb 68 bf 17 3d 28 46 49 bc 3c 6d 25 be
       -0.006150122 0.037047774 -0.012284793 -0.16154951
000340 a2 0a ac bd 6d db 02 be 96 cb 23 bd 43 72 08 be
       -0.084004655 -0.12779017 -0.039989077 -0.13324837
000350 30 fa 8e bd 31 f4 de bd 07 aa 07 bd 3c 15 da bd
       -0.06981313 -0.108864196 -0.033121135 -0.106485814
000360 81 6a 39 bd 0c 3d 9a bc c9 ee c4 bd f8 d1 36 be
       -0.045267586 -0.018827938 -0.09615857 -0.17853534
000370 ab 22 4a bd 22 36 45 bd 8d 2c 02 3d 44 81 a7 bd
       -0.04934947 -0.04814733 0.03178077 -0.08178952
000380 6a 6c b4 bc f7 90 e6 bd d5 91 f6 bd 66 20 39 be
       -0.022024352 -0.112581186 -0.12039534 -0.18078765
000390 00 99 66 be 6b 07 de bd 39 7e b0 bb be e6 d1 3b
       -0.22519302 -0.108412586 -0.0053861407 0.0064056804
0003a0 fb 70 98 3e 11 0d 6d 3d 1c 09 61 bd cf 5c 4e bc
       0.29773697 0.05787379 -0.054940328 -0.0125953695
0003b0 c5 90 0a bb 21 1f 9a bc f2 3e f6 bd 2e 72 7f 3d
       -0.0021143418 -0.018813672 -0.120237246 0.06236475
0003c0 c0 e0 33 3e 9b 1d d6 3d 25 79 71 bd ef b8 6c bd
       0.17566204 0.104548655 -0.058953423 -0.057793554
0003d0 88 37 33 bc d1 d4 a0 3d ad 84 6d 3d c0 9e cc 3e
       -0.010938533 0.078530915 0.057987858 0.39964867
0003e0 90 91 16 be 1b 24 6a be a6 52 ee 3e 92 ea 96 3e
       -0.14703965 -0.22865336 0.4654743 0.29475838
0003f0 25 aa 2c 3d b8 15 a0 3e 94 73 fe bc 79 8c bb 3b
       0.04215445 0.3126657 -0.031060971 0.0057235328

lstm.weight_hh_l0 f4 [240, 60]
000000 fd d0 ba 3d cd ba 19 3d 49 71 d8 bd 63 63 0d be
       0.091218926 0.037531663 -0.105684824 -0.13807444
000010 85 d0 e4 bc 5d 4c 1c bb 53 4d d4 3d 07 5d f1 bd
       -0.027931461 -0.0023849227 0.10366311 -0.11785322
000020 a5 99 bf 3d 97 c9 c5 bd 8d ba 92 3b 1c c5 e0 3d
       0.09355477 -0.09657591 0.004477805 0.10975096
000030 d8 a0 ea bd 84 2d 08 be ae bc 31 bd 37 38 8a 3d
       -0.1145646 -0.13298613 -0.04339283 0.067490034
000040 65 36 92 bd 05 cf b6 3d bc 94 b6 3c 0d 39 71 bd
       -0.07139281 0.089262046 0.022287719 -0.0588923
000050 13 92 36 3a 57 85 bf 3a b9 01 a9 3d 47 48 65 3d
       0.0006964516 0.0014611882 0.08252282 0.055977132
000060 10 33 be 3c 3c 78 86 3d 78 24 fb 3d c2 c8 46 3d
       0.023217708 0.06565902 0.12262815 0.0485313
000070 34 a8 8e 3d 6b a2 c1 3c 8d e7 be bd fc 57 b7 3d
       0.06965676 0.023637017 -0.093215086 0.089523286
000080 1e 0e 67 3e 4a 23 11 3e b6 d8 fb bc 2a 27 d7 bb
       0.22563979 0.14173618 -0.030742984 -0.006565948
000090 a7 89 65 3d da f9 bc bd 6a 84 a7 bc 84 83 be 3d
       0.05603948 -0.09227343 -0.020448882 0.09302428
0000a0 a9 f9 07 be a1 40 07 be 1d 16 01 be 10 b9 60 bd
       -0.13278832 -0.13208248 -0.12606092 -0.05486399
0000b0 55 bb 85 bc da 27 f4 3d 3e 98 8e bd 62 16 9a bc
       -0.016324678 0.119216636 -0.06962632 -0.018809501
0000c0 0c fe 8a bd c4 5d cc 3c 7b 73 ef bb 4e 00 34 bd
       -0.06786737 0.024947055 -0.0073074675 -0.043945603
0000d0 af dc cf 3d 5c 3f 21 bb d7 65 c5 bd db d9 03 be
       0.10149514 -0.0024604416 -0.09638565 -0.12876074
0000e0 0b ff 3e be 6f dd b8 3d 29 d5 b1 bd 98 86 bf bd
       -0.18651979 0.0902661 -0.08683235 -0.093518436
0000f0 c4 be a7 bd 72 f0 d3 3c bb 4d 5b be 80 c8 1a bd
       -0.081906825 0.02587149 -0.2141637 -0.037788868
000100 39 cf 2a 3e de c9 b8 bd 19 56 24 be 66 dc db 3d
       0.16680612 -0.09022878 -0.16048469 0.10735397
000110 59 09 a9 bd 24 8c 2e bd d6 63 34 bd 48 08 55 3d
       -0.08253736 -0.042614117 -0.044040523 0.05200985
000120 0f 09 af 3d 68 60 9d bd 7b f1 ef bd 59 15 c4 3d
       0.0854665 -0.07684404 -0.117159806 0.09574384
000130 53 f1 2e 3e 70 f9 4c bc 9f 09 4b 3d 76 e1 d9 3d
       0.17084245 -0.012510642 0.049569722 0.106387064
000140 41 2e 36 3c 8b c9 14 be 52 aa 1c be 61 40 8a bd
       0.011119426 -0.14530008 -0.15299347 -0.067505606
000150 58 9e 20 bc 3a 03 18 3e 2b 2c 02 3d 68 4a 1f be
       -0.009803377 0.14844981 0.031780403 -0.15555727
000160 14 52 b0 3c 0d be 94 bd 44 85 92 3d 9e 54 9c bc
       0.021523513 -0.07262812 0.07154325 -0.019083317
000170 02 5b 71 3e 1f 02 44 be 31 52 8c bd 5b ca 87 bd
       0.23569873 -0.19141434 -0.06851614 -0.06630393
000180 71 95 22 3e ce a0 20 3e 56 c5 d6 3d 2d 23 ed 3d
       0.1587732 0.15686342 0.104868576 0.11578975
000190 f9 a6 88 bd 92 dc e1 bd 36 ca e2 bd 6d ea d1 3d
       -0.066724725 -0.110283986 -0.11073725 0.10249791
0001a0 db 6e b1 3c 95 93 93 bc 51 3f 1c bc e8 29 b1 bd
       0.021659305 -0.018014709 -0.00953658 -0.08650571
0001b0 7c 3e 1b bd d6 63 80 3d f3 ea 0e 3e 10 fb b3 bd
       -0.037901387 0.06269042 0.13956814 -0.08788121
0001c0 a9 c4 a4 3d 2a e4 8c ba 22 20 10 3d 75 ef dd 3d
       0.080453224 -0.001074915 0.035186894 0.108366884
0001d0 c9 ba 0f be ae 17 0d bd 16 c1 58 be 20 3d cd 3c
       -0.14036097 -0.03444641 -0.21167406 0.02505356
0001e0 98 80 05 bd 6e dc 2f bd 27 d1 81 3c b0 99 8a bd
       -0.03259334 -0.042934828 0.015846802 -0.06767595
0001f0 df 84 2e bd 57 55 e7 be 51 66 f0 bd e5 fa 1a 3d
       -0.042607184 -0.45182297 -0.11738265 0.037836928
000200 35 c4 ca bd 50 42 06 3e cf 11 99 3d 10 2e 0b 3e
       -0.09900705 0.13111234 0.074741 0.1359179
000210 9b 45 27 3e 78 78 9e 3d 86 1f 69 bd 66 3e b0 3d
       0.16335146 0.07737821 -0.05691483 0.086056516
000220 c8 8d 0c 3e d7 8c 0a 38 dc 35 ca 3d dc 51 bc bd
       0.1372596 3.303293e-05 0.09873554 -0.09195301
000230 a5 d7 c2 3c fa 58 c9 3c 8a 1b c3 bc 3e 72 cc bb
       0.023784468 0.02457856 -0.023816843 -0.0062392047
000240 98 52 00 bc 55 fe dc 3d 3c 9f d1 3b 6a 24 3c 3e
       -0.007832192 0.107906975 0.006397156 0.18373266
000250 8a e2 90 bd 83 de 29 3e fa 5a 4c 3e 78 37 16 be
       -0.07074459 0.16588788 0.1995658 -0.14669597
000260 bc 47 9c 3e c0 2c 3b be 08 4a 48 bd ee f6 cb 3d
       0.3052348 -0.1827879 -0.048898727 0.099592075
000270 cb 33 58 3d 5c b5 c4 3d 37 74 a6 3d 39 d1 62 bc
       0.05278377 0.09604904 0.08127635 -0.013843828
000280 19 9b d8 3c 7f 17 28 bd 14 b0 3b be d1 ef 03 3d
       0.026441144 -0.041038033 -0.18328887 0.03221113
000290 c3 19 8b 3d 68 11 f5 3d 01 00 0b be 5d 69 f9 bd
       0.06792023 0.119662106 -0.1357422 -0.121782996
0002a0 d1 77 d2 3c cc 95 f0 3b f4 48 7d bd de 64 0d 3e
       0.025691899 0.007342076 -0.06183715 0.13808009
0002b0 e5 52 4e 3e a9 a2 80 3c 81 77 eb bc fd aa 54 3e
       0.20148809 0.015702562 -0.028743507 0.20768352
0002c0 b9 27 f2 be e1 89 64 3c a4 c3 cc 3c 41 74 e1 bd
       -0.4729593 0.0139488885 0.024995632 -0.11008502
0002d0 4f 1a cc bb b6 52 0e be a9 66 aa bd 20 86 19 bd
       -0.006228722 -0.13898739 -0.08320362 -0.037481427
0002e0 f5 57 92 3d 94 78 2f 3e 25 c3 90 3d 92 4a e8 bd
       0.07145683 0.1713584 0.07068471 -0.11342348
0002f0 3c 7e d9 bc 63 2b 69 bb 78 f8 de bd d3 6b db 3d
       -0.026549451 -0.003557884 -0.108872354 0.10713925
000300 c6 a5 04 be 80 97 51 bd 13 b2 17 3d 9b ec e5 3c
       -0.12953863 -0.051169872 0.03703506 0.028066924
000310 64 60 b1 3d e8 e1 81 3c e7 a2 be bd 04 7c c0 bd
       0.08660963 0.01585479 -0.09308415 -0.09398654
000320 aa 3d 4a bd 85 e2 03 3d 98 d3 06 3c bd 62 6e bb
       -0.049375214 0.032198448 0.008229159 -0.003637477
000330 e3 4d 96 bb aa b1 36 bc 93 85 26 3d c1 ea 96 bb
       -0.0045869215 -0.011150757 0.04065473 -0.0046056216
000340 70 ab 06 bd d6 71 eb bd 24 ca 91 3d f9 b9 bd bd
       -0.03287834 -0.11496322 0.071186334 -0.09263987
000350 72 bf bc be 3b 8e c2 3d bf 39 8f bd 58 87 15 be
       -0.3686481 0.094997846 -0.06993436 -0.14602411
000360 e3 1a b5 bd f1 b9 18 3d 3c 00 31 3d 50 c8 20 bd
       -0.08843019 0.037286703 0.043213114 -0.039253533
000370 74 fc 80 bd b4 85 15 be ef a9 f9 bc 74 ae a7 bd
       -0.062981516 -0.14601785 -0.030476538 -0.08187571
000380 d2 99 11 3e b1 30 81 bd fc 87 fc 3d 15 3e 1b bb
       0.14218834 -0.06308115 0.123306245 -0.0023688127
000390 a2 96 ae bd 83 b9 e8 bd d7 d0 df bc 4c ba 01 3e
       -0.08524825 -0.113635086 -0.027321262 0.12668723
0003a0 59 93 f7 3d a1 d4 8f 3d 55 06 73 3d 09 ff cb 3d
       0.12088651 0.070229776 0.05933221 0.099607535
0003b0 4f 4a 2e 3e dc 32 2b 3c f8 f4 b2 3c 23 85 b9 3d
       0.17020534 0.010449138 0.021845326 0.09058597
0003c0 2d c7 bb bd a4 23 4d bd f9 59 0a 3d ca b9 6a bc
       -0.09168849 -0.050082818 0.03377721 -0.014326522
0003d0 ba 33 14 3e 7f 07 85 bc cc e0 00 3b 05 7d 55 bd
       0.14472857 -0.016238926 0.001966524 -0.05212118
0003e0 57 92 02 bd 9d 9b 25 be f2 e9 ef 3d ae 26 26 bd
       -0.03187784 -0.16172643 0.117145434 -0.04056423
0003f0 36 1c fb bd 21 40 9a bd 35 ec cc 3d 45 b3 b2 bd
       -0.1226124 -0.07531763 0.100059904 -0.08725599

lstm.bias_ih_l0 f4 [240]
000000 4f 4f 46 3d 2b eb 38 3d 95 2b 2d be 88 8d e5 bb
       0.04841548 0.04514615 -0.16911156 -0.007005397
000010 c5 fc e0 bc 02 1d 01 3f f5 f7 0b 3e 7d f2 be bd
       -0.02746428 0.5043489 0.13668807 -0.09323595
000020 57 ad 92 3d 89 cc 38 3c 79 fd 1d be a9 64 37 3d
       0.07161968 0.011279234 -0.15428723 0.04477373
000030 a9 38 80 be 89 f7 2e 3e ef ac 61 be 9a fb d6 3d
       -0.25043228 0.17086615 -0.22038625 0.10497208
000040 8e 4d d8 bd 7c 2a cf 3d a3 06 11 be 68 48 20 3f
       -0.105616674 0.10115525 -0.14162688 0.62610483
000050 32 ca e6 3b 26 88 72 bd 9c eb 27 bc 7f 67 ce 3d
       0.0070431465 -0.059211873 -0.010249045 0.10078334
000060 17 f7 2f bd 28 26 0c 3e f0 fb b9 ba fe 8e ae bd
       -0.042960253 0.1368643 -0.0014189463 -0.08523367
000070 7b b1 b2 bd 93 ee b5 bd 4c a5 ed ba c9 d0 8a 3d
       -0.08725258 -0.08883395 -0.0018130927 0.06778104
000080 78 69 be 3e df a8 1f be 34 a0 1f bd 9b 7a de bd
       0.3718984 -0.15591763 -0.03897114 -0.10863229
000090 65 92 33 3e 6f 59 1d 3d a2 5c 0f be 3b f3 0e be
       0.17536314 0.03841537 -0.1400018 -0.13959973
0000a0 ec e5 9a bd 13 3a 05 bd ea 0a 95 3d cc 02 df 3d
       -0.07563385 -0.032526087 0.07277472 0.10889205
0000b0 ab 9a ec bc e4 f9 e5 bd 53 ef c3 bc 70 cf a1 3c
       -0.028882345 -0.112293035 -0.02391783 0.019752234
0000c0 bb 10 a4 bd f4 5b 94 3a dc cb a9 3d b8 67 0c be
       -0.080110036 0.0011318908 0.08290836 -0.1371144
0000d0 ae 65 48 3e 65 6d 10 3e 1b ff 11 be 90 f2 70 3e
       0.19570038 0.1410423 -0.14257471 0.2353003
0000e0 7a f4 a2 3e 93 01 c9 3d bd 31 96 3d 84 e9 3a 3d
       0.31827146 0.098147534 0.073337056 0.045632854
0000f0 18 0f f6 bd eb 1e dd bd a6 19 82 bd ca 33 f9 3c
       -0.12014598 -0.10796913 -0.06352548 0.030420203
000100 dd bc 84 3d 4e e3 e4 be 09 0c a1 bd 8e 18 18 bd
       0.06481335 -0.4470467 -0.07863624 -0.037132792
000110 45 00 4b 3d 2d 32 a3 3d 4a 19 e3 bc 24 85 03 bd
       0.049560804 0.07968555 -0.02772202 -0.032109395
000120 f6 7b ed bd a3 4c a2 bd 62 31 41 be 5f 98 04 be
       -0.11595909 -0.079247735 -0.18866494 -0.1294875
000130 f6 9d ef bd 1f ef bb 3c 68 64 54 bd 79 c8 01 be
       -0.117000505 0.02294117 -0.051853567 -0.1267413
000140 0a 5b 13 bd 10 90 32 bd bb e5 ec bd 97 18 55 3d
       -0.035975493 -0.04359442 -0.11567255 0.052025404
000150 16 7a f0 bd 56 07 aa bd 0c b7 80 3d 72 ad 82 bc
       -0.11742036 -0.083021805 0.062849134 -0.015951846
000160 1f 52 30 bd cc 24 74 be 7c dd 9c 3d e9 fa 04 be
       -0.043047067 -0.23842162 0.07659432 -0.1298634
000170 c1 b4 f4 3d 95 f0 97 be 80 a5 05 be 1c fd 8c bd
       0.119485386 -0.29675737 -0.13051414 -0.06884214
000180 77 b8 8f bd 2c 6b c3 bc 8d b4 36 be c3 4e 02 be
       -0.07017606 -0.023854814 -0.17842312 -0.12725358
000190 04 27 0c be 07 fc 92 be 93 93 81 bc 44 dc eb bd
       -0.13686758 -0.28707907 -0.01581744 -0.11516622
0001a0 2e 93 34 bd 13 2a 73 bd 1a e9 31 be 38 8a f3 bd
       -0.044085674 -0.059366297 -0.17374077 -0.118915975
0001b0 98 91 c0 3d 4e 4c 3d be 17 85 b0 3d d5 d1 89 bd
       0.0940277 -0.18486139 0.08619135 -0.067294754
0001c0 27 46 cb bc 51 76 4a be 02 c8 53 3c c6 a9 dc bd
       -0.024813725 -0.19771697 0.012926104 -0.10774569
0001d0 cc ec 26 be 98 12 9d bd 5a e2 00 3d 77 76 34 bd
       -0.16301268 -0.07669562 0.031465866 -0.04405829
0001e0 73 9e 00 3d 3d 94 eb bc 37 01 f5 bd 1a ec 82 3c
       0.03140111 -0.028757209 -0.11963122 0.015981723
0001f0 f2 e7 26 be b2 f2 4d be b0 d2 8a bd 18 4a ea bd
       -0.16299418 -0.20112112 -0.06778467 -0.114399135
000200 d5 1e 19 3d 45 bd 51 3e 7a cb 88 bd e1 65 e4 bd
       0.03738292 0.20482357 -0.06679435 -0.11152244
000210 95 d7 28 bd d6 5d 05 bd 6f f9 67 bc 1e fe da bd
       -0.04122122 -0.032560192 -0.014158591 -0.10693
000220 e2 1f 59 be e3 56 e5 bc d5 0b 4e 3e e8 21 e0 bc
       -0.21203569 -0.027995532 0.20121701 -0.027359918
000230 65 b7 67 bc e8 2e 19 bd a4 27 3a 3d f6 14 e1 3d
       -0.014142846 -0.03739825 0.04544796 0.10990326
000240 bf 61 4a 3c ae 0a 92 3c 98 2f 89 3d ca 34 0f 3d
       0.012352406 0.017827358 0.06698531 0.034962453
000250 ba b9 ce 3c 77 28 5a 3c f2 af 03 bd bf d3 dc bc
       0.025235046 0.013315312 -0.032150216 -0.026956437
000260 d1 29 4c be 65 29 13 3e 44 00 03 3e c3 40 43 3e
       -0.19937827 0.1437126 0.1279307 0.19067673
000270 91 5c e2 bc 90 d7 be bd d2 05 c9 3d 76 9f a6 3c
       -0.02763203 -0.09318459 0.09815563 0.020339709
000280 c1 b4 72 bc 62 53 3e bc f9 d3 41 3e 39 13 d0 bd
       -0.014813603 -0.01161656 0.18928517 -0.101599164
000290 aa f8 b1 3d c3 55 88 b8 76 8a cc bd ec 33 7f 3d
       0.08690007 -6.50096e-05 -0.09987347 0.062305376
0002a0 3b 10 b7 bd e7 10 27 be 47 e1 58 bd dd 6f 5c bb
       -0.089386426 -0.16315041 -0.052949216 -0.0033636012
0002b0 e4 33 7a be bb 44 78 be dd d3 4b be 15 ab 17 3d
       -0.24433857 -0.24244969 -0.19905038 0.03702839
0002c0 30 aa e4 bd e9 ee d6 3d 74 2c 0c 3e 8a ec cf bd
       -0.11165273 0.10494787 0.13688833 -0.10152538
0002d0 82 5e a2 3d 8d f1 ba bd 11 49 53 3d 71 85 85 3d
       0.07928182 -0.091281034 0.051583353 0.065195926
0002e0 a6 b4 f2 bd 2e f7 cd 3e 9f df 8f bd 45 45 20 bd
       -0.11850862 0.40227646 -0.07025074 -0.03912856
0002f0 2d ec 4e bd e7 b4 cd 3c 0c f2 8d bd 89 e0 a4 3d
       -0.050518204 0.025110675 -0.069309324 0.08050639
000300 18 79 44 be a1 72 2a 3e 5b f1 48 be 92 62 dd bd
       -0.19186819 0.1664529 -0.1962332 -0.108098164
000310 85 36 14 be a5 97 0e be d3 15 cc bd a2 44 0d 3f
       -0.14473923 -0.13925035 -0.099651 0.5518285
000320 03 86 9a 3d 53 3a 37 3d 9f 26 1f bd 3a d6 3a 3d
       0.07545092 0.044733357 -0.03885519 0.04561446
000330 c4 54 03 bd 3a 7c c2 3d 37 ec cf bd ef 55 8c bd
       -0.03206326 0.094963506 -0.10152476 -0.06852328
000340 8e e2 17 be 4b 83 b0 bb 4a 79 5f bd b4 22 fd 3d
       -0.14832518 -0.005386745 -0.05455903 0.12360135
000350 b0 bd 73 bc 36 c7 f9 bd 89 a5 ce bc 60 f3 a9 bd
       -0.014876768 -0.121961996 -0.025225418 -0.08298373
000360 d8 3d c1 3d 3c 9e bc bd 86 e0 50 3d 3e 53 a2 bd
       0.09435624 -0.09209868 0.050995372 -0.079260334
000370 6e 50 39 be f5 f6 2d 3e 3c c7 93 3c 48 9c 86 bd
       -0.18097088 0.16988738 0.018039338 -0.06572777
000380 d9 aa d4 bd 00 01 a6 3d fe 10 8b bd 8d d4 9c 3d
       -0.10384149 0.081056595 -0.067903504 0.07657728
000390 0b 18 3e bd b0 e0 61 bd 64 1d 9b bb d1 5a 3d 3d
       -0.046409648 -0.05514592 -0.0047337282 0.046229187
0003a0 8e 4c d4 b9 cb 20 93 ba 3d 31 cf bd 89 9c 40 3d
       -0.0004049283 -0.0011224983 -0.10116813 0.047024284
0003b0 d7 64 31 3e 5a c4 7a 3d 94 5b 13 bd a5 5e 6d 3c
       0.17323624 0.06122241 -0.035976008 0.014487897

lstm.bias_hh_l0 f4 [240]
000000 97 9a be bd 93 b6 3f bd 90 d2 8a bd 9c 1e c3 3d
       -0.093068294 -0.046804976 -0.06778443 0.09527323
000010 f7 5a d0 3d 23 51 d4 3e 46 b7 d7 3d a2 2a 0d ba
       0.101736 0.41468152 0.105330035 -0.0005385076
000020 90 81 93 3d d8 11 91 bd 67 17 a0 bc ef 13 71 bd
       0.072024465 -0.070834816 -0.01954241 -0.0588569
000030 7e 62 f1 bd 61 70 d3 3c 45 a0 51 be 6f 01 87 3d
       -0.11786364 0.025810422 -0.20471294 0.0659207
000040 46 c9 52 bb 3f 39 f0 bd c4 6e df bd be 2f 16 3f
       -0.0032163425 -0.11729669 -0.10909799 0.586666
000050 ef 9d e4 bd 30 49 1e bc 53 67 38 3d 2c 96 ca 3d
       -0.11162936 -0.009661004 0.045020413 0.09891924
000060 db d1 02 be 47 0b 85 bd 51 c0 02 3e 32 1b f5 bd
       -0.12775366 -0.064962916 0.12768675 -0.11968078
000070 e8 ad 4f be 17 a0 89 bd c7 a4 3d 3d 64 1b 24 3d
       -0.20281184 -0.06719988 0.046299722 0.040065184
000080 5a cc ba 3e ea 52 1d bd 1f 4e 9a 3c 66 df 76 bd
       0.36484033 -0.03840915 0.01883608 -0.060271643
000090 bd 78 59 3e d0 6d 63 bb 48 29 78 bc 30 f9 e9 bd
       0.21237464 -0.0034702905 -0.015146561 -0.11424482
0000a0 4c 8c 0c bd f1 5d 4b 3c 08 3f 88 bd de 7a c3 3d
       -0.034313485 0.012412534 -0.06652647 0.095449194
0000b0 2c fe a1 bd 8a b6 43 bd 80 e0 17 be ed c1 15 3e
       -0.079098076 -0.047781505 -0.14831734 0.14624758
0000c0 92 80 ac bb ca 54 02 3d ef 04 d1 ba c4 fc 6a bd
       -0.00526435 0.031819142 -0.0015946905 -0.057369962
0000d0 8f 94 00 3e 85 f5 b1 bd cd e3 65 3d 11 c9 93 3d
       0.1255667 -0.08689407 0.05612545 0.07216085
0000e0 4c f5 72 3e 6b 86 f7 bd f2 ad 9b 3d e1 3a 02 3e
       0.23726386 -0.12086185 0.07601537 0.12717773
0000f0 99 d4 b5 3d 2f 87 e5 bd 40 fe 7c be 4a 4c 84 3d
       0.088784404 -0.11207425 -0.24706364 0.064598635
000100 ff 68 9f bd ec 01 c4 be 88 c9 11 be 0f eb 1b be
       -0.07783698 -0.38282716 -0.14237034 -0.15226386
000110 22 9a 37 bd 47 de f5 bd 2c 85 3f 3d e3 28 13 be
       -0.044824727 -0.12005287 0.046757862 -0.14371066
000120 d6 34 fd bd 43 1f 7a 3d 39 28 30 be ce 35 20 be
       -0.12363593 0.06106497 -0.17202844 -0.15645525
000130 97 ab a7 3d 0b 49 a5 3d f4 e4 e5 bd 4b 4e a4 be
       0.08187025 0.080705725 -0.1122531 -0.32090983
000140 cf 27 1e be db 89 ac bd 11 98 f0 bc a1 21 18 be
       -0.15444873 -0.08424731 -0.029369386 -0.14856578
000150 f1 e9 ea bd 0d 5d 1b be 21 aa 3a bd 10 59 0c be
       -0.11470402 -0.15172215 -0.045572404 -0.1370585
000160 51 36 5e bd 0b 33 40 be a8 46 76 3b 55 85 72 bc
       -0.05425102 -0.18769471 0.0037578736 -0.014802297
000170 80 bc 99 bd 9c 70 a1 be 81 b5 27 be a4 2c ca bd
       -0.07506657 -0.31531227 -0.16377832 -0.09871796
000180 39 a6 b8 bd de f8 b7 3d 1f f2 02 bd 14 8d c3 bd
       -0.090160795 0.089830145 -0.031969186 -0.09548393
000190 0c 2e 2f bd e0 1d aa be 38 36 27 bd 8d 53 cb 3b
       -0.042768523 -0.33225918 -0.04082319 0.0062050284
0001a0 12 8c 11 be bc ef 4a 3c cc f2 ee bc 78 95 03 be
       -0.14213589 0.012386259 -0.029168509 -0.12849987
0001b0 b2 77 99 bd dd 85 d7 3c 11 3f 8f 3d 36 d5 2e be
       -0.07493533 0.026308948 0.06994451 -0.17073521
0001c0 16 b8 91 bd e6 7c dd ba 67 4a d2 bd 89 3c 9c bd
       -0.0711519 -0.0016898185 -0.10268097 -0.07628734
0001d0 62 d8 40 3d b4 6d 03 bd 27 e5 8f bd c4 69 fa bc
       0.04708136 -0.032087043 -0.07026129 -0.030568011
0001e0 d3 7c ae 3d 8c 9b 34 3e 81 64 e8 bd c5 4e 99 bd
       0.08519902 0.17637461 -0.113472946 -0.07485727
0001f0 b7 5c b6 bd cb b8 a2 be c3 9d 80 bd 07 7d ca bd
       -0.08904403 -0.3178161 -0.06280091 -0.09887128
000200 fe 4f c5 3b ad 43 33 3e f0 21 2d 3c e6 ac a7 bd
       0.0060214987 0.17506285 0.010567173 -0.08187275
000210 41 e4 41 3d 7a cd 95 bd c0 f7 11 be ee d9 12 be
       0.04733682 -0.07314582 -0.14254665 -0.14340946
000220 d3 bb 50 3b 7d c8 c4 bd 9d ca 54 3d c4 58 9a bd
       0.0031850233 -0.096085526 0.05195104 -0.07536462
000230 f0 dc a0 bd fb 06 c6 3d 3c 19 b0 bd 66 ec 1e 3e
       -0.078546405 0.096693 -0.08598563 0.15519866
000240 a1 61 23 3c a9 fe 95 bd 15 55 c3 3d 9f 95 e1 3c
       0.009972007 -0.07323963 0.095377125 0.027537165
000250 f8 d3 97 3d c3 00 b3 bc e7 bc 12 be f0 ae 39 3d
       0.07413477 -0.02185095 -0.14329873 0.04533285
000260 07 3e 88 bd 8b bc b4 3c 62 1f 0e 3e 9b 08 24 3b
       -0.06652456 0.02206256 0.13879159 0.0025029543
000270 9c a9 71 bd 60 08 36 bd b5 31 9c bd a6 6d 54 3d
       -0.058999643 -0.04444158 -0.07626668 0.05186238
000280 06 ca 35 3d 63 59 0e be 7e 07 d3 3d cb b8 16 bd
       0.044382118 -0.13901286 0.103041634 -0.036797326
000290 e8 6d 57 bd 8b 22 cd bc 6c 9e 46 bd 65 3b 7d 3d
       -0.05259505 -0.025040885 -0.048490927 0.06182422
0002a0 a7 a0 89 bd 44 25 ff bc 0d 15 3d be 3c fd 1c 3e
       -0.06720095 -0.0311457 -0.18465061 0.15330976
0002b0 ca 2a 4e be 3d 4f 4b be d4 1d 7c bd 71 4c 67 3e
       -0.2013351 -0.19854446 -0.061551884 0.22587754
0002c0 5e da 70 bd 11 64 8c bc f7 94 5f bc 2b 57 ec 3d
       -0.058802 -0.01713756 -0.013646356 0.115400635
0002d0 cf e3 c8 bd d5 e6 6c 3d 51 b6 0a 3d 61 72 19 3d
       -0.09809076 0.057837326 0.033865277 0.037462596
0002e0 59 c0 f5 bd 4e 51 d7 3e 0e 8e ca bc 04 70 35 3c
       -0.11999578 0.42054218 -0.02472594 0.01107407
0002f0 45 96 c3 3c 5b 6d 1d bd 33 12 bc bd cd d8 b3 3c
       0.023875365 -0.038434368 -0.09183159 0.021953965
000300 33 ae 81 be 77 cc 44 3e 4e 50 99 be 15 8f b1 bd
       -0.25328216 0.19218622 -0.2994408 -0.08669869
000310 ad fb 90 bd 8b d2 9c bd cb cf ea 3c b8 a6 2b 3f
       -0.07079253 -0.076573454 0.028663537 0.6705127
000320 80 2b 56 3d c0 20 ca 3d f3 34 71 bd c3 8f b8 3d
       0.05228758 0.09869528 -0.058888387 0.09011795
000330 a3 9d 35 bc 13 b5 08 3e e8 b6 42 3d ed 46 31 bc
       -0.011084947 0.13350324 0.047537714 -0.010820133
000340 0b ad 4d be 93 26 2c be b7 82 b1 bd 1c 01 02 bd
       -0.20085542 -0.1681159 -0.0866751 -0.03173934
000350 fc 62 30 be 94 f1 7f be 46 a0 f9 3c 9c 15 9f bd
       -0.1722526 -0.24994498 0.030471932 -0.077677935
000360 6c da 98 3d ec 8c 13 bd 7b c2 61 bd f0 42 3e be
       0.07463536 -0.036023065 -0.05511711 -0.18580222
000370 42 1f 05 be c8 49 a5 3d 9e 4d f3 bd 1a 1f c1 3d
       -0.13000205 0.08070713 -0.11880039 0.0942976
000380 75 7b 32 be 84 14 32 bd f0 5f 4d 3d 82 83 cb bb
       -0.17429908 -0.043476596 0.05014032 -0.0062107453
000390 f4 f8 5b 3d f4 d2 1b be ce cb 1f 3c c8 5c b7 bd
       0.053704217 -0.15217191 0.009753181 -0.089532435
0003a0 cd 7e 09 be 51 ea 06 3e 7a 8b bc bd 2d 8e 82 3e
       -0.13427277 0.13175322 -0.092062905 0.25499097
0003b0 8f 18 98 3e 2a 51 05 be 20 00 09 3d 34 16 b3 3c
       0.29706237 -0.13019243 0.033447385 0.021861173

lstm.weight_ih_l1 f4 [240, 60]
000000 c9 71 20 be 91 a6 0c be 43 8a e3 bd 0a dc 90 bd
       -0.15668406 -0.13735415 -0.11110356 -0.07073219
000010 53 d9 a5 ba 94 6e c8 3e 32 35 cb 3d cf c5 27 bd
       -0.0012653269 0.39146864 0.099222556 -0.04096013
000020 5e 9e 92 bd 15 63 29 be df b5 4e bd e6 a7 d8 3d
       -0.071591124 -0.16541703 -0.050466415 0.10578899
000030 6e 26 85 bc 66 32 d7 3d 6b c4 0e be 4f d0 47 3d
       -0.016253676 0.105076596 -0.13942115 0.048782643
000040 e4 d5 05 bd e2 ce 6f bd e9 56 a5 3b d5 85 b1 3e
       -0.032674685 -0.05854691 0.005045761 0.34672418
000050 02 16 51 3d 95 6f e3 bc 2a 93 2b bd 77 e7 d5 bd
       0.05104638 -0.027763167 -0.041888393 -0.10444539
000060 e3 18 30 be bd 11 0c 3e 8c d8 01 3e 1c 7a 50 bd
       -0.17196994 0.13678642 0.12680262 -0.050897703
000070 30 6d 96 bd da 1d ba bd 6d 16 bf 3a bc 61 ff bd
       -0.073450446 -0.09087725 0.0014578827 -0.12469813
000080 66 6d db 3d d9 0d 25 3d 9c 16 c8 bd 3d 15 b5 3c
       0.107142255 0.04029641 -0.097699374 0.022104854
000090 90 df f8 bd 82 10 9a 3c cf 9c de 3d 0e a9 97 3d
       -0.12152016 0.0188067 0.108697526 0.074052915
0000a0 e1 b9 58 bd 45 03 ae bc 8b 68 f1 bc a8 89 ab 3d
       -0.052911643 -0.021241793 -0.029468795 0.08375865
0000b0 9c 5f 1f 3e 59 c7 2f 3e bc 19 05 bc 2b 1b 30 3d
       0.15563816 0.17165889 -0.008123811 0.04299466
0000c0 53 61 20 3d b0 69 a2 bd e2 08 97 3d a3 53 44 3e
       0.039155316 -0.079303145 0.07374741 0.1917253
0000d0 83 18 3f 3d 5b 40 2c bd 55 96 c9 3d 90 b0 ef bc
       0.046654236 -0.04205356 0.09843127 -0.029258996
0000e0 c7 89 90 be 2b a7 db 3d 38 ae 67 3d f4 1c 4f bd
       -0.28230116 0.10725244 0.056562632 -0.05056472
0000f0 b9 f9 22 bd 9f 0a f5 bd 56 52 8f bd 12 8a 5c bd
       -0.039788935 -0.119649164 -0.06998126 -0.05384261
000100 d7 17 fe 3d a7 3b 0c 3e ed 7e 91 bd d2 1e 35 3e
       0.12406891 0.1369463 -0.07104287 0.17687538
000110 57 71 55 bc 1b c6 3f be f6 fe 1f 3e d7 0e 38 3d
       -0.013027511 -0.18727915 0.15624604 0.044936027
000120 4b c4 07 3e 54 96 49 bd 5d cc a9 bd b4 07 29 bd
       0.13258474 -0.04921563 -0.08290932 -0.041267112
000130 4b 5f dc 3d fc 15 ed bd 91 b4 28 bd 40 12 7b 3e
       0.10760363 -0.11576459 -0.041187827 0.2451868
000140 e5 46 92 bc 9a e2 1c 3d 2b 38 48 be 66 e7 f9 bd
       -0.01785607 0.03830204 -0.19552676 -0.12202339
000150 82 35 8e bd 48 dd b9 3c af 81 b5 3d 88 11 2b be
       -0.069437996 0.022688523 0.08862626 -0.16705906
000160 fa 7b e4 3c a9 9e f6 bd 14 aa 59 3e 7d f9 4c be
       0.027891148 -0.12041981 0.21256286 -0.20017047
000170 5f 7f 02 3e e7 63 c2 3c 07 65 1d be e1 41 a3 3d
       0.127439 0.023729278 -0.1537057 0.0797155
000180 2c c3 b5 3c 49 89 40 3e e3 2f 78 3d 63 a1 00 be
       0.022187792 0.1880237 0.060592543 -0.12561564
000190 63 42 c3 bd 1f e9 1c be ad e0 39 bd 8a 8c 4f 3e
       -0.09534147 -0.15323304 -0.045380283 0.20268455
0001a0 51 fd ab bc 9c 09 d4 3d 3b af 77 bc 54 19 14 be
       -0.020994814 0.10353395 -0.015117462 -0.14462787
0001b0 5b b7 93 3d 9f 1d f7 bc 16 8b db 3d c7 43 f5 3d
       0.07212707 -0.030165492 0.10719888 0.11975818
0001c0 f1 e2 66 3e fd ba 23 bd 10 27 5e 3e 55 aa 8c bd
       0.22547509 -0.039973248 0.21694589 -0.06868426
0001d0 23 6c a8 be f5 46 89 3c c9 de cf 3b 5d c7 c3 bd
       -0.32895002 0.016757468 0.0063436967 -0.0955951
0001e0 31 14 26 be 15 ef 0b be 29 83 ce 3d 79 9d cb 3c
       -0.1621864 -0.13665421 0.100836106 0.024855362
0001f0 9b 12 99 bb 24 e9 36 3f 8d 08 9e bd 34 8b 3e 3d
       -0.0046714074 0.71449494 -0.07716475 0.046519473
000200 60 a4 b4 bd 78 f2 13 be fe 83 2d 3b 26 5a 1d 3d
       -0.088204145 -0.14447963 0.0026476379 0.03841605
000210 84 af d9 3d 46 3b 06 3e 9b 54 f9 3b f8 63 be 3d
       0.1062918 0.13108549 0.0076089627 0.09296411
000220 e4 1e 3a 3e ea 1f 23 bd b9 90 ad bb ed 9e 2f 3e
       0.18175846 -0.039825357 -0.0052967933 0.17150469
000230 dd be 59 bd 41 3b 1d be 4d d3 10 be d3 5d f1 bd
       -0.053160537 -0.15354635 -0.14143105 -0.11785474
000240 99 a9 b5 bd 0e f1 b0 3c 36 ad b4 bd 6a d2 99 3d
       -0.08870239 0.021599319 -0.088221 0.075108364
000250 a8 43 20 be ea d8 ff 3c 76 e0 e6 bc 24 3f 7f bd
       -0.15650809 0.031231362 -0.028183203 -0.062316075
000260 ac be 21 be 60 99 4a bd 34 3d e4 bd b3 15 45 bd
       -0.15795392 -0.049462676 -0.11144486 -0.048116397
000270 96 81 cd 3d e7 2d c2 3c 03 84 23 3d 3d 82 0c 3e
       0.10034482 0.023703529 0.039920818 0.13721557
000280 9c 9e 1c bd c5 e7 72 3d f2 ed b5 bd d8 27 25 3e
       -0.0382372 0.059303064 -0.08883275 0.1612848
000290 91 e0 b5 bd 3d 3c c0 3d 91 ff 06 be f1 8b 29 bd
       -0.08880723 0.093864895 -0.13183428 -0.041393224
0002a0 5d e9 bb 3d 73 bd 6b 3d bc ca 0b 3e 06 08 45 bc
       0.0917537 0.05755372 0.13651556 -0.012025839
0002b0 b6 f4 bb 3c 84 d3 a3 3d c6 72 01 3e dc d3 ed bd
       0.022943836 0.07999328 0.12641439 -0.116126746
0002c0 4a b1 d4 3d 44 c1 22 3e ed 0c b3 3d f5 b4 49 3d
       0.10385378 0.15894037 0.087427 0.04924484
0002d0 9a b3 38 be d8 09 21 be ce 8b 12 3c 8b b5 61 be
       -0.18037263 -0.15726411 0.008944465 -0.2204191
0002e0 8c 05 bd 3d a2 fb 82 bd b5 99 47 be 45 30 6f 3d
       0.092295736 -0.063956514 -0.19492228 0.058395643
0002f0 17 ba ce bd 79 9e e5 bc e7 36 aa 3d 23 43 8d 3d
       -0.100940876 -0.028029667 0.08311253 0.06897571
000300 d6 0a 4f bd f3 e8 88 3c 00 21 31 bd 60 e7 ee bb
       -0.050547443 0.016712641 -0.043244362 -0.0072907656
000310 13 91 85 bc 08 00 1c bd 3d c7 07 be e1 ce 71 3d
       -0.016304528 -0.038085967 -0.13259597 0.059035186
000320 b7 c8 16 3e d8 93 4b be ff 38 a6 3c 8b 49 28 be
       0.14725004 -0.19880617 0.02029085 -0.16434304
000330 d4 cf 50 be bd e9 20 3e b4 57 1b 3e 5a 61 ce bb
       -0.2039178 0.15714164 0.15170175 -0.0062982263
000340 aa 34 e3 bc bc f9 af bd 13 e0 60 3e 1d cc 0c 3b
       -0.027735073 -0.08592555 0.21960478 0.0021483966
000350 fd b5 b3 bd 28 08 7f be dd 80 2d 3d d5 b4 b9 bd
       -0.08774946 -0.24905455 0.04235922 -0.09067694
000360 a5 03 1c 3d 5e 77 6b 3e d7 87 d3 3c fc b3 d2 3d
       0.038089413 0.22994754 0.02582161 0.102882355
000370 84 6e 0f 3d 19 7e 64 3c f8 dd fc bd e1 ba 64 3c
       0.035017505 0.01394608 -0.12347025 0.013960571
000380 7b 0a c0 3d 69 7b f0 3d c2 2a 33 be 97 89 ef bd
       0.09376999 0.117422886 -0.1749678 -0.11696165
000390 e8 19 2a 3d 4f 19 24 be 3c 5f a3 3d 82 a5 02 3e
       0.041528612 -0.1602528 0.07977149 0.12758449
0003a0 83 8a 27 3e f8 28 99 bc 9b d6 db 3b 6a 7a 0c 3e
       0.16361432 -0.018696293 0.0067089326 0.13718572
0003b0 66 6c 12 3e 1c 58 e6 3d d3 6f 67 3d 24 1a 34 bd
       0.14299163 0.11247274 0.05650313 -0.043970242
0003c0 b4 38 e7 bd 45 1e 2b bd c1 30 52 bd 64 a0 eb 3d
       -0.11290112 -0.041776914 -0.051316027 0.115052015
0003d0 ec f9 be 3d 5d e9 4d 3f 36 94 cb bc d0 b0 d8 bd
       0.093250126 0.8043421 -0.024850946 -0.10580599
0003e0 18 d9 7a bb 0c ec 91 bd b7 3b fb bc 7b 1a d5 3d
       -0.003827637 -0.071251005 -0.030668123 0.104054414
0003f0 72 a5 d7 bc 6d 22 27 be 3c 5f 79 bd f8 63 ba bd
       -0.026324008 -0.16321726 -0.06088184 -0.09101099

lstm.weight_hh_l1 f4 [240, 60]
000000 1c ab 65 bd 8d 33 1c 3e cf 54 57 3d c9 df b1 3d
       -0.056071386 0.1525404 0.052571114 0.08685262
000010 53 21 bb bd 4e 4d cf 3d c0 a7 ef bd b1 1b 30 3d
       -0.091372155 0.101221666 -0.11701918 0.04299516
000020 7d f5 d8 3d 77 aa 09 3d d4 77 d6 3c 69 23 48 3d
       0.10593698 0.033609834 0.026180185 0.048861895
000030 fb 05 03 3e ff 6a a4 3e 8d d5 1f 3e 15 62 e9 bd
       0.1279525 0.32112882 0.15608807 -0.11395661
000040 61 3f 39 bd ee bb 56 bd ff fa 13 3e 1b 77 05 bc
       -0.04522646 -0.052425317 0.14451216 -0.008146073
000050 9c d4 bd bd c1 24 c1 3d f0 9a 46 3d 8d 2d 33 3d
       -0.09269068 0.094308384 0.048487604 0.043744612
000060 ea cf e3 3c 64 d5 51 3e a3 62 1b 3e d1 92 29 be
       0.027809102 0.20491558 0.15174346 -0.16559912
000070 8d 35 ba bd 12 7a 41 3d 56 31 bf 3d c6 78 22 be
       -0.09092245 0.047235556 0.09335582 -0.15866384
000080 32 a4 02 be 28 ff f8 bd 57 ca ee 3b ea 24 b7 3d
       -0.12757948 -0.12158042 0.0072873044 0.08942588
000090 00 e6 a1 3d ac f5 f5 bd 93 f1 fb 3c 8e 54 03 3e
       0.07905197 -0.12009749 0.03075484 0.12825224
0000a0 d0 e0 88 bd 38 ae 04 be 3b d5 01 bd a7 86 e2 bd
       -0.066835046 -0.12957084 -0.031697493 -0.11060839
0000b0 b8 cb 09 be bd 4e 6f 3d 99 44 a7 3c b8 8d 9d 3e
       -0.13456619 0.0584247 0.020418452 0.30772185
0000c0 75 3d e8 bd 08 f0 26 3e 10 58 38 be 29 fa 79 bd
       -0.11339847 0.16302502 -0.18002343 -0.061029587
0000d0 3d 03 b1 bd 0e ec a9 bd 9a 1d e4 bd db 01 7f bc
       -0.08643196 -0.08296977 -0.111384585 -0.015564407
0000e0 ef 3b 34 bd 01 3d 9e bd b8 2c 65 bd 51 67 92 bd
       -0.04400247 -0.07726479 -0.05595085 -0.07148612
0000f0 2e 19 b6 3d 91 54 5a bd 96 a9 e3 3d 69 8e ef 3c
       0.088915214 -0.053303305 0.1111633 0.029242711
000100 88 e6 36 be 99 13 c7 3c 4e 44 fe 3c 95 0e c6 3d
       -0.17861378 0.024301337 0.03103843 0.0967075
000110 60 08 5d 3e 1f 13 39 be a5 c2 91 3d 31 8b a0 bd
       0.21585226 -0.180737 0.071172036 -0.07839049
000120 c1 ef 29 3d 90 c2 c5 bd 98 44 a0 3d 77 ce 82 bc
       0.041488413 -0.096562505 0.07825583 -0.01596759
000130 5a a2 83 be 69 c7 90 bd 63 fc 0d 3e b3 9e 4b 3e
       -0.25709802 -0.070692845 0.13865809 0.19884758
000140 00 22 ce bd 52 c8 f8 bc 9d 8b be bd 90 22 3f 3e
       -0.10065079 -0.030368958 -0.09303973 0.18665528
000150 31 ca 89 3d 99 e9 0b 3d ec 3a aa 3d d3 4e 35 3b
       0.06728018 0.034158323 0.0831202 0.002766539
000160 46 dd 6e 3c 83 76 85 3e 4a 40 a2 3d 11 dc 47 be
       0.014579123 0.2606698 0.079224184 -0.19517542
000170 a5 12 1d be d5 b1 03 bd ac d1 fc 3c a6 77 3c 3e
       -0.15339144 -0.032152016 0.030861698 0.18405017
000180 2a 91 6d 3e f0 36 a0 3d c7 db 7f be f6 bc 74 3e
       0.23199907 0.078229785 -0.24986182 0.23900208
000190 7b d1 b5 3d 63 70 60 be 4a b1 06 3d 06 b2 da bd
       0.08877846 -0.21917872 0.03288392 -0.106784865
0001a0 83 ad 3e 3e 28 36 2e 3d df d5 04 3e 84 3b f0 3d
       0.18620877 0.042532116 0.1297221 0.11730102
0001b0 a6 26 e5 3d 96 ac 3b 3e 36 ec c9 bc 69 d3 e2 bc
       0.11189012 0.18327555 -0.024648767 -0.027688699
0001c0 67 d6 09 be e2 3a 34 be 5e 87 9a 3b 9c 80 76 be
       -0.13460694 -0.17600587 0.004715844 -0.24072498
0001d0 c5 d3 8d bd e5 ce 97 3d 3d e0 ad bd 35 33 a6 bd
       -0.069251575 0.07412509 -0.08490036 -0.08115236
0001e0 8e 34 ab 3d cc 38 59 bd f7 50 cf 3d 63 b8 2d bd
       0.083596334 -0.05303268 0.10122865 -0.042412173
0001f0 29 78 f0 bd dd b2 f9 3d 65 6a ee 3b d9 d2 32 bd
       -0.11741669 0.121923186 0.007275867 -0.04365811
000200 f9 7e 08 3e b8 5e dd bd 83 d9 6b 3d 4b 2e 92 3c
       0.13329686 -0.10809082 0.057580482 0.01784434
000210 9d 0a d6 3c 05 3c e2 bb a1 15 73 3c dd f5 a4 3c
       0.026128108 -0.0069041275 0.0148367 0.020136768
000220 f0 ac 40 3d 27 59 78 3d 3b ef d8 3d f0 d9 bd 3d
       0.047039926 0.060631897 0.105925046 0.09270084
000230 31 39 b2 3c c5 08 c3 3d f3 78 1a bd d8 5d 08 3d
       0.021755787 0.09523157 -0.037713002 0.03329262
000240 c3 93 0b 3e 69 c2 4d bd e8 ae 12 3d 7a 15 02 be
       0.13630585 -0.050234232 0.035811335 -0.12703505
000250 08 79 c5 bc ba f3 d0 3d b8 46 0b be 7a f4 1e 3d
       -0.024105564 0.10202737 -0.13601196 0.03880737
000260 f2 39 83 bd 4c bd 69 bd c1 5f a6 3d b2 9c 90 3d
       -0.064075366 -0.057065293 0.08123732 0.07061137
000270 42 8e 25 3c 35 b4 a0 3a 3d 69 b7 3b 0e fa a5 3d
       0.010104718 0.0012260737 0.005597262 0.08104335
000280 0e 4c 9c bd a4 0c 1b be ff 99 b4 3d 0f 6f bc bd
       -0.07631694 -0.15141541 0.08818435 -0.0920087
000290 e9 4b 28 3e bb 3d 9f 3d 4f d7 97 bd fa cc 80 3e
       0.16435207 0.07775446 -0.07414114 0.25156385
0002a0 fc b6 dd bd dc ed 9e 3c 00 9c 12 be 89 f6 71 3c
       -0.10825917 0.01940053 -0.14317322 0.014768251
0002b0 2c b8 98 3c 09 70 51 be 45 7d 9c 3c 86 90 00 be
       0.018642507 -0.20452894 0.019102702 -0.12555131
0002c0 77 d9 02 3d 8f be e5 3d 5c ad 1f 3d b9 14 09 bc
       0.031945672 0.11217987 0.038983688 -0.008366757
0002d0 c5 78 f5 3d 0e ba 43 3c 8f 55 2f 3b 29 d4 21 be
       0.119859256 0.011946214 0.0026753878 -0.15803589
0002e0 36 d6 d7 bb 63 4c 6c 3e 68 e9 c8 bd e4 a5 a0 ba
       -0.006586815 0.23076014 -0.09810144 -0.001225647
0002f0 59 e8 43 3e 70 58 00 be a5 b4 1f bd 3a 16 8d bc
       0.19131602 -0.12533736 -0.038990635 -0.017222513
000300 12 02 4e 3d 7a 18 0a 3e f7 29 e4 3d 63 5d 34 be
       0.050294943 0.134859 0.11140817 -0.17613749
000310 6a bb b7 bd e6 99 82 bc 54 1b cb 3d 8d aa 24 3e
       -0.08971293 -0.015942525 0.09917322 0.16080685
000320 15 66 00 be 02 5d 71 3d bb 18 f2 bd 64 5a a0 3d
       -0.12538941 0.05892659 -0.11821123 0.07829741
000330 3f 34 de 3d 5b 39 69 3c f3 3b 80 3c 7e ea a1 bc
       0.10849809 0.014234866 0.015653586 -0.019765135
000340 6f 9a 05 3e a5 e3 ae 3c 8e 4e 2c be 89 df 37 be
       0.13047193 0.021348784 -0.16826841 -0.17956366
000350 88 b3 6e bd 47 78 81 bd 9f a6 ce 3d a2 4a 7b bc
       -0.058276683 -0.06321769 0.10090374 -0.015337618
000360 89 72 77 3e c2 d2 41 3c 30 d4 28 bd 73 e9 04 3e
       0.24164785 0.011830034 -0.041217983 0.12979679
000370 3a 46 d2 bd c6 c6 8e bc 13 a8 f6 3c 1a 55 f8 bd
       -0.10267301 -0.017428767 0.03010944 -0.12125607
000380 85 3c 01 3d 44 1d bd 3d ec 62 b8 bc c0 72 ee 3c
       0.031551857 0.092340976 -0.022508107 0.029107451
000390 60 48 d7 bd 85 cb 40 3d 37 5c af bd bb fd 8e bc
       -0.10511851 0.04706909 -0.085625105 -0.017454972
0003a0 b7 39 06 be 3d 9b f3 bd 5e 1d 89 3d 0c 46 1a be
       -0.13107954 -0.11894844 0.066950545 -0.15065783
0003b0 d0 f5 a5 bb f9 11 4c 3d 89 28 7c bd ab 55 1c be
       -0.0050647035 0.049821828 -0.061562095 -0.15267055
0003c0 c3 2f 9b 3c e9 20 3c 3e a0 80 3b 3e db 15 14 be
       0.018943673 0.18371929 0.18310785 -0.14461462
0003d0 60 05 9d bd 03 5b 7f 3d da d4 97 3c 5f c1 90 3d
       -0.07667041 0.062342655 0.018534113 0.070681326
0003e0 10 90 84 3d 73 eb d5 3b b8 ec 0e 3e f6 8b 04 bd
       0.0647279 0.006528312 0.13957489 -0.03236004
0003f0 a9 35 9a ba 03 34 f2 3d da 37 69 3d c3 6b 3b bd
       -0.001176526 0.11826327 0.05693803 -0.045757066

lstm.bias_ih_l1 f4 [240]
000000 31 9f df bc 86 1c 21 be 88 f7 35 bd 11 e2 6d bd
       -0.027297588 -0.15733537 -0.044425517 -0.05807692
000010 32 ac 35 bd 0d 67 92 bc 52 61 3f 3e 6b dd 02 be
       -0.04435367 -0.017871404 0.18689469 -0.12779777
000020 f1 81 04 3e e0 d9 2b 3e 16 2e 99 3d 99 73 05 bd
       0.12940194 0.16782331 0.07479493 -0.032580946
000030 0f 4c 47 bd b5 24 c9 bd c9 0c 54 3e d4 52 20 be
       -0.04865652 -0.098214544 0.20708002 -0.15656596
000040 5a a2 94 3d 87 13 17 bd 5b 5a 58 3d a4 b9 f0 3d
       0.072575286 -0.036883857 0.052820545 0.11754158
000050 19 a3 c4 3c 98 02 88 bd f7 66 bc bd a8 2b eb 3d
       0.024003552 -0.0664112 -0.091993265 0.11482936
000060 c4 32 99 3d 01 00 12 3e 5b d4 49 3e 66 f8 15 bd
       0.07480386 0.14257814 0.19709913 -0.036613844
000070 77 0c 3d be 5a 47 4f 3e 8e f9 71 bd 4e 1b 4c 3e
       -0.18461786 0.20242062 -0.059075885 0.19932291
000080 c2 02 dd 3d 5a 23 a0 3d 8f b8 0f 3e 15 a2 49 3d
       0.10791542 0.07819243 0.14035247 0.04922684
000090 40 08 2e 3e 64 2d 81 bd 82 74 71 3e 8d d8 cf 3d
       0.16995335 -0.06307486 0.235796 0.10148726
0000a0 2e e4 26 be f0 33 9e 3c 3e 35 03 3e 4d fc e1 3c
       -0.16297981 0.019311875 0.12813279 0.027586127
0000b0 a2 3c 1c be bc 50 93 3d e4 a1 52 3d db 43 1b 3e
       -0.15257505 0.07193133 0.051423922 0.15162604
0000c0 a3 a9 56 bc 7a 57 0c be 6c 6c 00 3e ed 59 12 3d
       -0.013101968 -0.13705245 0.1254136 0.03573029
0000d0 62 34 32 3d 6c 5f ac 3b d1 06 93 3d bb 47 2e 3d
       0.043506987 0.0052603986 0.071790345 0.042548876
0000e0 0c f9 11 3d 2a 1c 38 bc 48 82 02 3e 14 69 7a 3d
       0.0356379 -0.011237184 0.12745011 0.061135367
0000f0 45 e6 e5 bc 3b 24 02 be 75 f2 ea bd 8d 2d 6a be
       -0.028063903 -0.12709133 -0.11472026 -0.22868939
000100 a2 e5 bf 3d 79 73 43 bd 18 fe 32 be d3 11 36 3c
       0.09369971 -0.047717545 -0.17479742 0.011112648
000110 c6 9a ad bd 7c e7 45 3e 4d 4c 6d be 58 a8 c2 3c
       -0.08476786 0.19326586 -0.23173638 0.023761913
000120 56 29 25 bc 7a 21 a9 be fa 5a 4c 3e 61 07 a2 bd
       -0.010080656 -0.33033353 0.1995658 -0.07911564
000130 a5 cd c5 bd 5b 1f 27 be 2a 84 10 bd 76 f0 89 bd
       -0.09658364 -0.16320555 -0.03528229 -0.067353174
000140 69 22 1d be 87 47 4a bd 99 ab c2 bd ef d6 d9 3d
       -0.15345158 -0.04938462 -0.09505386 0.106366985
000150 fd 11 b4 bc 53 e4 84 3c 98 0b 08 3e 0a 11 3b bd
       -0.021981234 0.016222155 0.13285673 -0.045670547
000160 39 f1 bc bd 5b ad 73 bd 90 c1 69 be 9e 54 a4 bd
       -0.09225697 -0.059491497 -0.22827744 -0.08023952
000170 93 9a 21 3d ee 32 66 be cb 06 51 3d 3a 46 1f be
       0.039454054 -0.22480366 0.05103187 -0.15554133
000180 2a d0 cf bd b2 0a 47 bc 9d 9c da 3c 73 3b 7c bd
       -0.10147126 -0.012148546 0.026686007 -0.061580133
000190 46 b2 37 be 73 1c ad bc 43 33 73 3d 28 0e 11 b9
       -0.179391 -0.02113173 0.05937506 -0.00013833551
0001a0 3c 33 7f be e3 d9 d2 3c cd 41 28 be 29 c7 07 be
       -0.24921888 0.025738662 -0.16431351 -0.13259567
0001b0 42 45 4c be 91 b8 50 bc 14 90 ee bb 41 61 1e be
       -0.19948295 -0.012739317 -0.007280359 -0.15466787
0001c0 24 67 9f 3d 6f 84 84 3b e4 80 6b be 9f f2 89 3d
       0.077833444 0.0040441076 -0.22998387 0.067357294
0001d0 c8 0f ec bc 8c 76 f2 bd e6 47 e6 bd 22 af a9 bd
       -0.028816119 -0.11839017 -0.11244182 -0.08285357
0001e0 3b a5 25 3d 28 25 a5 bd d2 6c 22 bd 2e cf 1b 3d
       0.04044078 -0.080637276 -0.03965456 0.03803938
0001f0 8d 7c 22 3e c1 17 2a be 23 09 da bc 60 e4 c6 3d
       0.15867825 -0.16610624 -0.026615685 0.09711528
000200 8f 09 cd bd 4b 12 15 3e f9 a5 d5 bc 7e 9d 24 3e
       -0.10011589 0.1455776 -0.026080118 0.16075704
000210 d2 9f 90 bd f0 ee f4 3d 64 7e 8b be 72 00 ba bd
       -0.07061733 0.11959636 -0.27244866 -0.09082116
000220 cb 1f 91 3d fe 94 8d 3b 09 aa 1e bd 1d 57 05 be
       0.07086142 0.00432074 -0.038736377 -0.13021512
000230 07 71 18 3d d6 e1 9f bd 36 3a 65 3e 7d 60 8d be
       0.037217166 -0.07806747 0.22385487 -0.27612677
000240 e1 4a 54 be 5c 21 3e be 5f dd 80 be 57 e6 f3 3d
       -0.20731689 -0.18567413 -0.25168893 0.11909168
000250 03 67 90 bc 54 fd 4c be c6 99 4f 3d 09 1a 73 3e
       -0.017627245 -0.20018512 0.05068376 0.237404
000260 8b 7e 4c 3d 00 b9 04 be 6c 1b 48 be 7f 15 64 bd
       0.04992537 -0.12961197 -0.1954171 -0.055684563
000270 a6 95 6e be f3 15 0a bc a5 36 0b 3e 7a 52 2c be
       -0.23299274 -0.008428085 0.13595064 -0.16828337
000280 e3 d4 0f bd d7 92 0b 3e cd 03 5b be 16 15 bf bb
       -0.035115134 0.13630234 -0.21388169 -0.005831371
000290 73 38 22 be 9b 6c ed bc 6c de 5e 3b fb 6a 3a be
       -0.15841846 -0.028982451 0.0034007085 -0.18204872
0002a0 6d 02 06 bb 3d c7 58 be 15 4a 2d 3e 6c 39 05 3e
       -0.0020448223 -0.21169753 0.16922791 0.13010186
0002b0 90 95 3d 3e e4 17 14 3e ed ef 01 3e 0f 5d b8 3d
       0.18514085 0.14462239 0.1268918 0.090021245
0002c0 4a 77 20 be 8e d9 c6 bd ff 53 3f 3e 4b 7a 8b bd
       -0.15670505 -0.09709464 0.18684386 -0.06810435
0002d0 d1 3d d2 bd f6 fd 21 be db 36 02 bd 76 15 9c bc
       -0.10265697 -0.15819535 -0.031790596 -0.019053202
0002e0 0a 10 15 bd e4 3c f1 bd b9 7b ab 3e 37 94 55 3b
       -0.03639225 -0.11779192 0.3349283 0.0032589564
0002f0 06 67 cb bd 63 fa e4 3d 01 ef e4 bd 0a 43 2e 3d
       -0.099317595 0.1118057 -0.11178399 0.042544402
000300 29 24 ca bc da 21 93 bd c8 02 b5 bc bb 3b d8 bc
       -0.024675446 -0.07184191 -0.022096053 -0.02639567
000310 b2 1e 8f bd 73 de 16 be 53 5f b8 bd 82 86 d8 bd
       -0.069882765 -0.14733295 -0.09002557 -0.1057253
000320 4c a4 10 be f3 75 2c bd 8a cd 22 3c 02 54 b5 bd
       -0.14125174 -0.042104673 0.0099367 -0.08853914
000330 c0 87 92 3d fc 53 07 be 68 da a0 3d d6 d0 b1 3d
       0.071547985 -0.13215631 0.07854158 0.086824104
000340 63 d2 f2 3b f6 53 83 3d 08 86 fc bd 4f 8d a7 3d
       0.007410334 0.06412499 -0.12330252 0.08181249
000350 d6 e2 99 bd 88 11 fc 3c 19 25 32 bd 6f 6e 49 bd
       -0.07513969 0.030770078 -0.04349241 -0.049177583
000360 aa 39 97 3d 29 7b 7b bc 11 81 ee bd df 7f 15 bd
       0.073840454 -0.015349188 -0.11645711 -0.0364989
000370 f8 06 04 be 99 7b 78 bc f4 da ad 3d 81 44 09 be
       -0.12893283 -0.015166187 0.084890276 -0.13405038
000380 23 b1 3e 3a b4 2d 88 3d 28 10 c9 bd e6 4b 34 bc
       0.000727432 0.06649342 -0.09817535 -0.011004424
000390 63 19 46 be 01 aa 6f bd 11 a0 49 bd ae 9b 8d bd
       -0.19345622 -0.058511738 -0.049224917 -0.06914459
0003a0 d4 92 d9 bd 76 db 19 be e4 aa 3b bd b7 64 22 3c
       -0.10623708 -0.15025124 -0.04581727 0.009911708
0003b0 48 25 38 3d 1b 14 09 be ca e8 21 3d c7 c7 51 bd
       0.04495743 -0.13386576 0.039528646 -0.051215913
