model_checkpoints/Finished_LstmPositionsOnly_hdim_128_wsize_20_interval_1_nlayers_2_bs_512_lr_0.01_decay_0.95.pt (torch, 801635 bytes, 10 tensors)

lstm.weight_ih_l0 f4 [512, 2]
00000000: d9f4 14be 9ed4 22be ce16 a6bd 6bde 7ebd
00000010: d9ce 32bd b63f 373e fbb2 97bd 5874 00be
00000020: c568 d8be 2cb3 c4bd afab 83be ed6c f6bd
00000030: e626 203e 110d a23e 3108 f9bd e09c 53be
00000040: 96e8 01be ccbf 85be bde7 27bd bcd0 0a3e
00000050: ebea 06bf 5c14 77be 80d3 283d 7ab7 a93d
00000060: d4b9 37be 7322 61be cd12 1dbe ea47 f8bd
00000070: 955e 73be 455f 0ebe 0e37 0abf 9487 0ebd
00000080: 6244 2b3c 9e71 453e 3f79 3d3d 3bdc 993e
00000090: b0f8 c0be d8e8 c8be 3816 ddbd 9cfe 6cbd
000000a0: 598c 6b3f aed6 53be ad4b 2abd 32c7 85bd
000000b0: dd94 9dbe f991 f8be f761 3c3f d8a2 f13d
000000c0: f06b a7be a27d eebe 4f7b 8fbd 34c1 64bd
000000d0: 373e 47be 4f05 72be 0b7a 0ebe f39d c83c
000000e0: b902 87be a04e e7be 6a24 593f 0acd da3d
000000f0: b84e c6be aecb ebbe 6c26 a3bb 2221 1cbd
00000100: 4618 3fbe e758 89be 93b5 18be f87d 19bd
00000110: 9d3a febe 544e babe 6d32 b2be b954 5bbe
00000120: d5cb 6cbd e2b5 043e ad05 2cbd b094 eebc
00000130: d52d 37be 5007 b33d f4ed d5be 8825 073c
00000140: 995c 77be f9b9 57be 61c6 c7bd 2f38 f2bd
00000150: 562e 71be 4e94 0a3f 2e16 0dbd 9ecc 81bc
00000160: d84d 51bc a800 7c3d 0cb9 73be ad8f 143d
00000170: 4a81 5abe 184c 95bd 5672 84bd 832c cbbd
00000180: 5c65 e3bd 7e9d 80bd 16cc 1fbe 27cf 7cbe
00000190: c328 23be a9e9 cbbd 82d9 49be 22dd 603c
000001a0: 35c9 5cbc 09e8 c63c b09b 1abe e250 0abe
000001b0: f8fe a9be 1a93 6cbe 6b76 5bbe 5170 aebe
000001c0: 9321 0fbe 316d d1be 6853 65be 7724 d83e
000001d0: a88f aabe b559 cdbe 3210 9dbe 5fa7 c0be
000001e0: b8e8 b6be 928f 69be 1246 753e f777 643e
000001f0: c716 e6bd 0721 15be ab12 d3be 4f46 e3be
00000200: 0368 7dbe 4133 d5be d18a 02bd 7a8f 30be
00000210: e632 5c3c b7ae 4cbe 8eb4 3c3f b88e 023e
00000220: 3f13 b93d 05de a03e 9bce bcbe 229f aabd
00000230: 2137 8d3e 40e0 1a3e 70d7 66be 7813 47be
00000240: 063e 1d3f ffbb e83d 26e1 1dbe a450 553d
00000250: 3ebc fcbd 83b8 94be 620b bc3d 0eb3 59bc
00000260: 9cb9 e1bd 82d9 9cbd 4ed2 32be 3bf9 a0be
00000270: 61c3 10be afe0 66be 001e 8fbe 21fe 94be
00000280: 64fd 93be 869a 6fbe 0d10 89be 9c53 c3be
00000290: 6fa3 71be 3c8e 363e 3a1a 98be d22c abbd
000002a0: fca5 ebbb 9bba a13d 4ebb 99be 32ae 65be
000002b0: c231 01be 2c40 f2bd 9d62 87be a97f b5be
000002c0: a2d5 203d e8bf c13c b294 33be d2d1 aebe
000002d0: f599 6cbe db5a 51be f1e0 cc3e a9f2 09be
000002e0: 5b58 67bd 74c3 3f3d 56eb e7bc b63f 2abe
000002f0: b0d1 cbbe afa6 d7be 1467 66bd b51d f83d
00000300: dc20 33be b3e3 92be 4c54 94be 294c a9be
00000310: 7fad 76be cb4b 65be 7067 153c 51cf 0cbd
00000320: c438 06be 3c37 8bbe 9428 90be 18d3 2bbd
00000330: c707 9bbd a1bc 70bc 8d44 4c3e 8eb1 4fbe
00000340: 2d6f 34bd 6c97 d03d adac 5c3e 756a 873d
00000350: 3224 8ebe 68d2 f5be ba07 68be afbc 75be
00000360: 5801 003e ef0c 183e 25bd 04bd 4c20 98bd
00000370: 3e9e 76be f365 73be 9836 0dbe 2a78 c1bd
00000380: 9935 d83e e942 d13e 843d 28be 6f18 2cbe
00000390: af9e 96bd 7103 8abd 0ac5 19be a349 15be
000003a0: ba2d e739 b042 66bc 7fbb 53be 136a cebe
000003b0: c29e 4cbd 57d1 64bd cda5 7cbe 85eb 8abe
000003c0: ca55 aebe d307 9ebe f4bc 65be 716d ae3c
000003d0: 01c1 bebe ef5f 9ebe eb7b 81be 6725 9cbe
000003e0: dba9 1abe 8d00 4ebe 0b2f 60be 3c8b 4dbe
000003f0: ee03 b63c b4f6 c4bc dae0 e93e 6915 983e
-0.14546527 -0.1590142 -0.081098184 -0.062223833 -0.043654297 0.17895398 -0.07407185 -0.12544382
-0.42267433 -0.09604487 -0.25716922 -0.12032495 0.15639839 0.31650594 -0.121597655 -0.20665312
-0.1268638 -0.26122892 -0.040992487 0.13556188 -0.52702206 -0.2412886 0.041217327 0.082869485
-0.17941982 -0.21985798 -0.15339203 -0.121230915 -0.23766549 -0.1390353 -0.53990257 -0.034797266
0.010453315 0.19281623 0.046258207 0.30050835 -0.37689734 -0.39240146 -0.107952535 -0.057860002
0.9201103 -0.20687363 -0.041576076 -0.06532134 -0.30777636 -0.48548868 0.7358698 0.11798638
-0.32699537 -0.46580225 -0.07005941 -0.055848315 -0.19457327 -0.23634838 -0.13913743 0.024489379
-0.26369265 -0.45177174 0.8482119 0.10683639 -0.38731933 -0.46053833 -0.0049789455 -0.038117535
-0.18661603 -0.2682564 -0.14913015 -0.03747365 -0.49654093 -0.36387885 -0.34804097 -0.21419038
-0.057811577 0.12960008 -0.0419976 -0.029123634 -0.17888577 0.08741629 -0.41783106 0.008248694
-0.24156417 -0.21067037 -0.09754635 -0.118271224 -0.23552832 0.54132545 -0.03444498 -0.01584464
-0.012774907 0.061524063 -0.23801059 0.036269832 -0.21338382 -0.07289904 -0.0646712 -0.09920599
-0.11103317 -0.06280039 -0.15605196 -0.24688397 -0.15933518 -0.099566765 -0.19711879 0.013724597
-0.013475706 0.024280565 -0.15098453 -0.13507417 -0.33202338 -0.2310299 -0.21431892 -0.34070066
-0.13977651 -0.4090362 -0.22395098 0.4221532 -0.33312726 -0.40107504 -0.3067642 -0.37627694
-0.35724425 -0.22808674 0.23952511 0.22311388 -0.11234813 -0.1456338 -0.4122518 -0.4438958
-0.24746709 -0.41640666 -0.031870667 -0.17242232 0.0134398695 -0.19988523 0.73713005 0.12749755
0.09036874 0.31419387 -0.36876377 -0.083311334 0.27581123 0.15124607 -0.2254312 -0.1944102
0.61422765 0.113639824 -0.15417919 0.052078858 -0.12340592 -0.2904702 0.091818586 -0.013287319
-0.1102173 -0.07658674 -0.17463037 -0.31440148 -0.14137031 -0.22546647 -0.27952576 -0.29100135
-0.2890426 -0.2339879 -0.26770058 -0.38149726 -0.23597501 0.17827696 -0.2970751 -0.08358158
-0.0071914177 0.0789692 -0.30025715 -0.22429731 -0.12616637 -0.11828646 -0.26442423 -0.3544896
0.039266236 0.023651078 -0.17537192 -0.34144455 -0.23105605 -0.20444815 0.40015367 -0.13471474
-0.056480747 0.046817258 -0.02831046 -0.16625866 -0.39808416 -0.42119357 -0.056250647 0.12115041
-0.17493004 -0.28689346 -0.28970563 -0.33065918 -0.24089621 -0.22392194 0.0091189 -0.0343774
-0.13107592 -0.27190578 -0.2815596 -0.04194936 -0.07569843 -0.01469341 0.19948025 -0.20282575
-0.044051338 0.101851314 0.21550246 0.06612102 -0.2776199 -0.4801209 -0.22659197 -0.23997758
0.12500513 0.14848684 -0.032406945 -0.07428035 -0.24083802 -0.2376936 -0.13790357 -0.094467476
0.42228392 0.4087136 -0.16429716 -0.16806196 -0.07354485 -0.06738938 -0.1501657 -0.14578871
0.00044093822 -0.0140539855 -0.20676993 -0.40315303 -0.04995609 -0.055863705 -0.24672623 -0.27132812
-0.34049827 -0.30865344 -0.22435361 0.02129242 -0.37256625 -0.30932567 -0.25289854 -0.30497286
-0.15103857 -0.20117398 -0.21892945 -0.20072645 0.02221867 -0.024043418 0.4567936 0.29703835

lstm.weight_hh_l0 f4 [512, 128]
00000000: 3c85 e5bc c915 b6bc 71c9 b4bd 8696 5d3c
00000010: e5c6 12bd 7807 94bd 630d 653d 5d47 023d
00000020: 878d 03bd aa50 c73d aff3 593c 3680 df3c
00000030: 70eb a1bd 4772 183e e1e2 33be d15a 36bd
00000040: ab11 1b3e ed6c 4abe a83c c63d 57f8 88bc
00000050: e408 323e 56ad d2bc 71c3 903c 9c29 c63e
00000060: f142 a4bd 0a36 6e3d 63b0 ca3d 813b ccbd
00000070: c132 2dbc b0a1 a4bd fd1a 8c3d 7a92 f53d
00000080: 2f9d dc3d 4061 8a3b de9c 933c c9ee fbbc
00000090: c51c 97bd 36ef b7bc 9a34 0f3d da52 41b9
000000a0: 14cd c8bd e9a4 7ebd 7135 cfbd 0685 3f3d
000000b0: 2658 083e 21f7 10bc eafc 1a3e 6199 a63c
000000c0: a883 323d bb73 23be d9c2 fe3d 4c56 b6bc
000000d0: a0c6 f4bb befe 41be e1ad 12be 17e3 953d
000000e0: 13e3 043d 7b56 22be a67c 7e3d 8801 f9ba
000000f0: 29f9 003d 877d 88be 676f 613b 8a11 0b3e
00000100: adac b93c 02f2 833d cb87 99bd 2dcc 853e
00000110: 0d36 673d 9ebc a0bc 513b 163e 2e96 cabc
00000120: 2296 53be c49b 75ba 2490 f13d 76ba 5dbe
00000130: 873e 74bd e479 66bc 24a9 4a3d f2f0 e53c
00000140: 9842 9e3c 998e 28be 4a4f 12bd 75e8 3f3d
00000150: 40c9 da3d 7639 d2bd a3a9 c53d 5b81 cabc
00000160: 2870 a4bc 4c1f 18be 9366 c93c f343 67bd
00000170: 71f5 813c 4649 193e 460b 17bc 09f8 9d3d
00000180: 85e9 d93d 3d82 1dbd 6eb8 cd3d cf0a 2fbd
00000190: 5ffd 59bd 8c4c 6dbd 4208 adbd ff60 eb3c
000001a0: cb9d 49be 6278 97bd b013 15bd 3605 b7bd
000001b0: 095a 86bd 8def e039 9af3 65bc 324b 0b3d
000001c0: e8af e9bd 6358 84bd ec76 733c cb67 e83d
000001d0: ff9f dabc 046b f9bd 3fe8 a7bd 40c5 72bc
000001e0: be3a 433e 4f3a 063e 04a6 e8bc 6aae 003e
000001f0: 0147 e8bc 7158 a53c 7729 44bd 50de 8b3d
00000200: 78e9 8dbd 2743 cd3c 6c44 0fbe 21bd 2abd
00000210: 42a2 503c a503 293c e503 723d 42f2 7cbd
00000220: 2a2c 503c 8423 513c f179 1dbd a06c b73d
00000230: 700d 943d ac9e ccbc 2d1d 1a3e 3c88 0e3a
00000240: f969 2bbd d2ad 3abc d2b2 46bd 20ef 46bd
00000250: 9b7c 503d 5e3c 253d 59e1 7cbd 5d8c 4c3d
00000260: 9c9f a63d b6d8 cf3d cd65 a93d feb4 923d
00000270: 5c14 60bc 81e3 1fbd bcd9 70bd d1c0 4a3d
00000280: c8e1 723d 40bc 8c3d 0c28 fa3c 9284 923d
00000290: e484 d4bd b2e1 123e 2b1e 72bd e6eb b4bd
000002a0: f4ef e33d 10e7 6ebd fef8 b9bd df77 ba3b
000002b0: 14ee eebd 3ab3 3abe 4fc9 6f3d d9ed d03d
000002c0: cb3a 2c3e c9dc c53d ae1b cc3c dde2 f4bd
000002d0: fabb 3cbe e30b c0bd 6828 a63d 0a64 f73d
000002e0: 8dd7 243e 5802 71be 03e6 babd 25cb d73d
000002f0: 4e39 4fbe cb4e cebd 106b 4e3d c0cd 133e
00000300: 7825 3c3d 208c a5bc beb8 8abd 8f80 1a3e
00000310: b238 c2be e7b4 ee3b c3d5 b53d 671a 33be
00000320: 4553 c7bd 607d 8cbd 1913 9abd 65d2 9a3c
00000330: 2403 8e3d 0e0d 81bd ba60 873d f29d 6e3d
00000340: 643b f9bd c697 883d fdd8 6dbd ca73 cabd
00000350: 7af1 0e3e b02a 09be e21e d53d 42e3 f2bc
00000360: 4bff 87bb 43d9 30bc 0ce7 2d3d 5aee cfbd
00000370: 2bf6 433e 9af1 e5bc 9e5c 4fbd 399b 813d
00000380: 05a9 52bd faf0 65bd c268 943d 517d 203d
00000390: d90d 413d ee0d 5fbd dce5 17be 0943 503d
000003a0: db90 e93c f861 bfbd df48 293d 652d dd3d
000003b0: b475 113d 8bd6 a63d 49ec ed3d bfc7 e63c
000003c0: f217 39be 327b 5e3d 5559 b73c f4de a0ba
000003d0: dddb 1bbe adfd ea3d 9cd0 1e3d 6719 18be
000003e0: 8e77 4b3d 7fa5 d43d 4ab2 90bd e08e 3a3d
000003f0: 31d9 9e3d d9be 6cbd b6be 783d 72bd 773d
-0.028017633 -0.022227185 -0.088274844 0.013524657 -0.03583421 -0.07227987 0.05592097 0.03180634
-0.032117393 0.09732182 0.013302728 0.027282815 -0.07906234 0.14887343 -0.17567016 -0.044520203
0.15143459 -0.19768114 0.09679538 -0.01671998 0.17386204 -0.025717419 0.017671319 0.3870362
-0.080205806 0.058157004 0.09896924 -0.09972287 -0.010571183 -0.08038652 0.06841085 0.11990829
0.10772168 0.004223019 0.018019136 -0.03075351 -0.07378534 -0.022452932 0.034962274 -0.00018436779
-0.098047405 -0.06216899 -0.10117615 0.04675772 0.13314876 -0.008847983 0.15135542 0.020336809
0.04358259 -0.15962116 0.12439508 -0.022257946 -0.007469967 -0.18944833 -0.14324142 0.073187046
0.032443117 -0.15853302 0.062130593 -0.0018997649 0.031487618 -0.2665827 0.0034398676 0.1358091
0.022665346 0.06442644 -0.074966036 0.26132336 0.05644803 -0.01962119 0.14671065 -0.024729814
-0.2066274 -0.0009369219 0.11795071 -0.2165316 -0.059629943 -0.014067147 0.04947771 0.028068993
0.019318864 -0.16460647 -0.035720147 0.046852548 0.10682917 -0.10264866 0.09651496 -0.024719885
-0.020073012 -0.14855689 0.024585044 -0.056461286 0.015864106 0.14969358 -0.009218996 0.077133246
0.106402434 -0.038454283 0.10044943 -0.042734917 -0.05322015 -0.05793433 -0.08448841 0.028732775
-0.196891 -0.07396008 -0.03639573 -0.08936541 -0.065601416 0.0004290309 -0.01403513 0.03400726
-0.114105046 -0.06462171 0.014859896 0.11347922 -0.02668762 -0.12178615 -0.08198594 -0.014817536
0.19065377 0.1310818 -0.028399475 0.12566534 -0.02835417 0.020183774 -0.047891106 0.06829512
-0.06929296 0.025056435 -0.13990945 -0.041684274 0.012733998 0.01031581 0.059085745 -0.061754473
0.012705842 0.012764815 -0.03844637 0.089562654 0.072291255 -0.024978004 0.15050192 0.00054371706
-0.04184911 -0.011393981 -0.04851038 -0.04856789 0.050900083 0.040340774 -0.061738346 0.04993855
0.08135912 0.10148756 0.0827137 0.07163428 -0.013676729 -0.039035324 -0.058801398 0.04950029
0.059297353 0.06871843 0.030536674 0.07154192 -0.103769094 0.14343908 -0.0591108 -0.088340566
0.11129752 -0.058325827 -0.090806946 0.0056905593 -0.116665035 -0.18232432 0.058541592 0.10201616
0.16819303 0.09661252 0.024915542 -0.11957333 -0.18431082 -0.09377267 0.08113176 0.12079628
0.16097851 -0.2353605 -0.091259025 0.105367936 -0.20236704 -0.10073622 0.05039507 0.14433956
0.04593417 -0.020208418 -0.06773518 0.15088104 -0.3793388 0.007284749 0.088786624 -0.1749054
-0.09732679 -0.06859851 -0.07523174 0.018899152 0.06934193 -0.06301318 0.06610246 0.058256097
-0.12169531 0.066695735 -0.058068264 -0.09885366 0.13959303 -0.1339519 0.10406281 -0.02964938
-0.0041503063 -0.010793987 0.04245667 -0.10152884 0.19136874 -0.028069306 -0.050625436 0.063284345
-0.05143072 -0.056138016 0.072465435 0.03918201 0.047132347 -0.054456644 -0.14833778 0.05084518
0.028511455 -0.09344858 0.04132926 0.10799674 0.03551264 0.081463896 0.116173334 0.028171418
-0.1807554 0.054316707 0.022381464 -0.0012273476 -0.1522059 0.11474166 0.038773164 -0.1485344
0.049674563 0.103831284 -0.07065256 0.045546412 0.0775627 -0.057799194 0.06072875 0.060483404

lstm.bias_ih_l0 f4 [512]
00000000: 946b 1ebe 63bf 13bd e58a 283b 46f1 cbbd
00000010: 406a 1abd 4e03 dfbd cf1c 7b3d 8823 25be
00000020: 0e9e 9fbd bfe7 e8bd f923 e3bd df9c a3bd
00000030: c3bf 8dbd b61c 36bd c33e d0bc fcb1 34be
00000040: 2234 b0bb 0c25 08be 0831 7bbe a066 9abd
00000050: 38d2 893e c47c ca3a 6810 16be eae2 1a3e
00000060: 8cd0 39bd d37c c0bd f2f2 0abe 52bc 59bd
00000070: 4ca4 36be 44c4 a9bd 1c2d 77be 323e 84bd
00000080: bf5c 8bbe 309b 21be d6f4 1cbe f01e c8bd
00000090: a409 febb c9c7 f9bd bf0e cfbd b456 eebd
000000a0: 2380 3bbe 11f3 2dbe bf7f 283e 9e15 70bd
000000b0: 80f2 c5bd 0a1a f9bd 35ed 30be 0495 37bd
000000c0: 5798 98bd 771f 8bbd 73cf dfbd fc20 0ebe
000000d0: c647 98bd bae6 0abe ce4e 11be 5691 1fbc
000000e0: 0a2d 00be 3a09 163e f234 33be 8cb6 61bd
000000f0: ffac 3abe ae94 b33d 51de f1bd 8d97 0ebe
00000100: 5d6a 2cbe 04d4 74bd 5a7c 1dbd 0036 203e
00000110: fc43 ad3e 9181 d4bd 2744 9abd 8971 f7bd
00000120: da3d cc3d e76a c0bd ebae 03be 9c8d 183e
00000130: f720 febd 550e 5abe cfe8 46be 78ca 09be
00000140: 586b 02be 453a 81be 395e 94bd e73c 0ebe
00000150: 4f58 ccbd 1fc3 91be ca97 2fbe 3bb4 81be
00000160: 840b 203d bb05 38be d575 30be 95ac 4e3e
00000170: 3ef4 2ebd 52b3 46bd 2dab 0ebe 22de 8cbd
00000180: 0019 4ebe fc83 79be 4ede 4bbe b624 79bd
00000190: 8b2a 4cbe 02bd 753d d9d5 eabd fecd 3abd
000001a0: 11a4 20be 5c6d 373d b16f 45be f0b9 e7bd
000001b0: 4e0d 863d f925 10bd 1659 75bc b801 18be
000001c0: 47ff d03d e6ea f3bd d9c4 50be 606d e0bd
000001d0: 952b e2bd 5944 75bd 2200 55bd 0f51 3bbe
000001e0: 875a 64be 50c6 81be 3381 2dbe 8f6a 96be
000001f0: f25f 75be 31f7 55be cd86 d8bd 5621 ab3d
00000200: 2e41 acbd 6ee7 1ebd a77c f1bc fbf2 3bbd
00000210: afa6 44be 6f4f 7fbe 6e79 9a3d b46a 69be
00000220: 9832 31be 50f6 abbd 0e5c 38be e3d8 bebc
00000230: c1f1 07be bad1 babd 164a c1be 3136 2fbe
00000240: ea3c 24be 5d26 a4be a906 09be 84e9 e2bd
00000250: 64fa 11be acbc cabb 6063 2fbe f02e 1cbe
00000260: 46f0 0ebd 462b 3ebe 875f 43be 4890 2abe
00000270: a889 92be 1d5d 0fbe e757 5fbe 8c43 00be
00000280: 6293 08be 3d51 15be 50ca 5cbe fa83 92bd
00000290: 3caf 70bc 6a19 48bd df00 e3be be31 09be
000002a0: 6ef9 55be 3446 7dbe c83a 63be df88 25be
000002b0: 4989 2bbe 6b40 48be 0455 43be 7dab 1fbe
000002c0: 8715 04bd 1e71 54bd 3037 20be eb6f 10be
000002d0: 67dd 18bd 672d 0cbe 37c2 fdbd dc97 fdbd
000002e0: a57e fdbd 34a8 d3bd d502 99be 10ae b2bd
000002f0: df9a 3abe 2edc a0be a58c d6bd de1b 2dbe
00000300: 8922 4ebe 5094 1fbe 98a9 d2bd d0c3 26be
00000310: aaa9 053d 246f a4bd bf8f d3bd 4745 2fbe
00000320: 9152 64be 8c66 60be c33c 25bd 8fe2 8cbe
00000330: 66b0 ffbd f668 82bd 6002 d8bd 824d 16be
00000340: eb15 1bbe 600f 1bbe 970a 97bd 122e 3fbe
00000350: 6091 1ebd dcd5 36be a3fd 08be c6d6 19be
00000360: 9c1b abbd b3d8 e2bd 8f76 f8bc 7d5f 39be
00000370: 95d9 babc d1fb 56bc 80a3 76bd 6a1e 19be
00000380: 822d b8be a3a5 03be c00e e6bd cd5c 0abe
00000390: 6863 68be 533d 16be 4be7 43be 05da 7dbe
000003a0: 2a1d a9bd 0d12 aabe ac11 43be ac83 34be
000003b0: 69a3 b2bd bba8 0fbe 64c7 1bbe fe92 e9bd
000003c0: ef1e 0fbe 2a28 24be 4670 18be 9a9f 0fbe
000003d0: 87d8 2c3d 2e70 ecbd 65aa 5ebd 84da 91bd
000003e0: 42a0 aabe 35d3 22be c109 d1be 366c a4be
000003f0: 22ee d2be 742e 69be d54b 00bd 7bc3 9dbe
-0.15470725 -0.036071192 0.0025717553 -0.09958129 -0.037698984 -0.10889302 0.06130677 -0.16126835
-0.077938184 -0.11372327 -0.110908456 -0.07988905 -0.06921341 -0.044460975 -0.025420552 -0.1764602
-0.0053773085 -0.13295382 -0.24530423 -0.075391054 0.26918197 0.001544856 -0.14654696 0.15125623
-0.0453649 -0.09398808 -0.13569239 -0.053158112 -0.17836112 -0.08289388 -0.24138302 -0.06457175
-0.27219197 -0.15781856 -0.15327772 -0.09771526 -0.007752614 -0.12196309 -0.101102345 -0.11637631
-0.18310599 -0.16987254 0.16454981 -0.058614366 -0.09665394 -0.1216317 -0.17277987 -0.044819847
-0.074509315 -0.06793111 -0.1092824 -0.1387977 -0.07435565 -0.13564578 -0.14190218 -0.009739241
-0.12517181 0.14651957 -0.17500666 -0.05510573 -0.18230055 0.08768593 -0.118099816 -0.13925
-0.1683745 -0.059772506 -0.03844867 0.156456 0.3384093 -0.10376275 -0.0753253 -0.12082202
0.09972735 -0.0939539 -0.12859695 0.1489777 -0.12408631 -0.2129453 -0.19424747 -0.13456142
-0.12736261 -0.2523977 -0.07244534 -0.1389042 -0.09977781 -0.28469178 -0.17147747 -0.25332817
0.039073482 -0.17970936 -0.1723245 0.20183022 -0.042713396 -0.048510857 -0.13932486 -0.06878306
-0.20126724 -0.24366754 -0.19909021 -0.060826026 -0.19938104 0.059994705 -0.114665695 -0.045606606
-0.15687586 0.044782028 -0.19280888 -0.11314762 0.065455064 -0.035192464 -0.014974853 -0.14844406
0.1020494 -0.11910038 -0.20387591 -0.109583616 -0.11043469 -0.059879635 -0.05200208 -0.1829264
-0.22300158 -0.25346613 -0.16943817 -0.29378173 -0.23962381 -0.20895077 -0.10572586 0.08355968
-0.084108695 -0.038794927 -0.029478384 -0.04588602 -0.1920421 -0.24932645 0.07542692 -0.2279461
-0.17304456 -0.0839659 -0.18003866 -0.023296779 -0.13275816 -0.091220334 -0.37751836 -0.17110516
-0.16038862 -0.3206052 -0.13381447 -0.11079696 -0.14255673 -0.006187042 -0.17127752 -0.1525228
-0.03489711 -0.18571195 -0.1907941 -0.16656601 -0.28620648 -0.14000364 -0.21810876 -0.12525767
-0.13337472 -0.14581771 -0.21561551 -0.07154079 -0.014690217 -0.04885236 -0.44336602 -0.13397881
-0.20895931 -0.24733812 -0.22190392 -0.16165493 -0.16751589 -0.19555824 -0.190754 -0.15592761
-0.032247093 -0.05186569 -0.15646052 -0.14105193 -0.03732052 -0.13689195 -0.12390559 -0.123824805
-0.12377671 -0.103348166 -0.29884973 -0.08724606 -0.18223141 -0.31417984 -0.104760446 -0.16905162
-0.20130362 -0.1558392 -0.10286254 -0.16285634 0.032632507 -0.08029011 -0.10330152 -0.17116271
-0.22297122 -0.21914119 -0.04034115 -0.275166 -0.12484817 -0.06367676 -0.10547328 -0.14678004
-0.1514508 -0.15142584 -0.07375067 -0.18669918 -0.03871286 -0.17855018 -0.13378005 -0.15023336
-0.083548754 -0.11076488 -0.03032997 -0.18102832 -0.02280883 -0.013121561 -0.06021452 -0.14953008
-0.3597222 -0.12856154 -0.11233282 -0.13511963 -0.2269417 -0.14671831 -0.191312 -0.24790199
-0.08257516 -0.33216897 -0.1904971 -0.17628354 -0.08722574 -0.1402921 -0.1521278 -0.1140499
-0.13976644 -0.16030946 -0.14886579 -0.14025727 0.042198684 -0.11544834 -0.05436172 -0.07121757
-0.33325392 -0.15900882 -0.40827754 -0.32113808 -0.41197306 -0.22771627 -0.03132232 -0.30813202

lstm.bias_hh_l0 f4 [512]
00000000: 7a27 21be a1a7 d33b 6151 183e 4ac0 09be
00000010: 6b7a 23be 495e b1bd bc3d f73d 1d3e fdbd
00000020: 8096 58be 651c f4bc 269d 04be 2987 2abd
00000030: 1662 b7bd 0b72 af3c 6643 dbbd 224d a3bd
00000040: d8f2 64bd ce4a cebd 79d7 36be 2008 153c
00000050: 81bb 823e 7587 3dbd fc67 7ebe 70a7 153e
00000060: be7b 06be 81c3 a93b ec25 17be 1d8e 13be
00000070: c528 88be 1337 cfbc 418c 64be 2d0b 7eba
00000080: 5caa 33be c61d a2bd c9e0 95be 8aaf 00be
00000090: f5c9 59bd 8c82 06be 9dfd 19be 8967 92bc
000000a0: f7b1 f8bd 4158 bfbd ceaa 353e 1e6d 27bd
000000b0: 6771 ba3c 2619 17be eac1 40be 1520 68bd
000000c0: a053 2abd 293e 88bd 6efa 28be d9ce 04be
000000d0: 1e0b 84bd 23ff 12be d621 8dbe 7220 8fbc
000000e0: 9928 43be c0ca 073a cc4e 1bbe 4aa9 47be
000000f0: 2d97 40bd 7e22 51bc 5d52 9cbd 931f 74bd
00000100: a8cb acbc 979a d2bd 23fe e3bc 0a08 433e
00000110: 412e be3e 3dc5 19bc 2806 0abd f1e1 2bbe
00000120: b9e4 943b 9345 89bd 4bf4 3fbe 89ef 443c
00000130: 0edb 03be d5f9 41be cbb2 44bd da4e 17be
00000140: 96ac 83bd 26c5 06be 5cdd a0bc ab7f fabd
00000150: e7e4 bcbb 88d6 62be 8f05 9bbd 5f9a 84be
00000160: db80 473d 8114 99bd 4786 debd 3a73 0c3e
00000170: c318 4e3d 72e7 0fbe a76e 11bd 6636 0ebd
00000180: 06e4 35be 2d10 74be 360d 5abe 2495 f43c
00000190: ae0e 7fbd 14d0 973d 83a1 ee3c 5424 833d
000001a0: 4653 c6bd 0b69 523d 10cd 74be 8a3a 07be
000001b0: 142a b33d 0d02 9abd 42b1 62bd 7698 d4bd
000001c0: 2445 243d 0113 eabd d5f1 5ebe 7872 19bd
000001d0: a2db 0a3c 16a6 dcba 077d d2bd 6fd0 ffbd
000001e0: 5dfd 3ebe d475 71be 72dc 41be 96a3 87be
000001f0: 74bc b7be a3e6 03be 94e9 bcbd 6cd5 74bc
00000200: c1e9 a9bd f518 f5bd 9ca5 00bd ed92 35be
00000210: a767 3fbe 80c3 8bbe e192 8d3d 2695 d3bd
00000220: 3d01 35be d54c 6fbe db7d 03be b2f5 97bd
00000230: 148b 40be 4d00 28be 3b06 6dbe 5817 30be
00000240: c165 19be b737 55be 3419 36be 5f99 42be
00000250: fd5d 71be c625 8fbd c1d6 09be 1697 77be
00000260: a68e 39be 7d6e d2bd 0ea9 53be 6bb2 2dbe
00000270: 2c73 7cbe 32d7 4abe e010 adbd bffb 06be
00000280: b34b 73be 8201 b2bd 5d05 27be 8b2a d4bd
00000290: 7cd8 28be ebe9 50be 5065 ccbe b8b5 5bbe
000002a0: e842 61be bfc7 8dbe 5275 48be 5c9b 6dbd
000002b0: a2a0 debd 4bee a9be 5259 1fbe 64fe c9bd
000002c0: 6693 18bd 8932 3fbe 6692 febd 5e84 29be
000002d0: 1936 83bd 890d 7dbd 793e 0cbe 1991 0bbe
000002e0: cbfe 3ebe 6d5d 8abe 559e 60be e5c8 1cbe
000002f0: 8ac8 8abd f771 b1be 92c8 34bd 7ab9 6ebe
00000300: 3f9a 3abe de20 b0bd 6964 1dbe 0f62 50be
00000310: 4651 d7bd ec8f 23be 2c5c 04be 0cc8 16be
00000320: a53b 83be eb05 97be 8891 03be 5728 28be
00000330: 8ab4 a4bd d6bb c1bd 2b90 afbd 6235 34be
00000340: 0745 f7bd 79af 80be 0352 a3bd e775 1abe
00000350: 0c44 073d cede 2cbe aa71 50bd 935a e6bd
00000360: 16a3 32be 4db2 0fbe 8566 6ebd 62fd 77be
00000370: f3fb b4bd 5524 21be cb4b 18bd a54f 3ebe
00000380: a119 68be cf65 83be 504b c5bd 5b0a 71be
00000390: 4f22 64be b252 09be 5e79 86be b8b9 26be
000003a0: 7c25 63be 7dcb b4be 7015 92be adbb 44be
000003b0: e15a bebd 43b3 76bd e4f3 83bd 4c18 83bd
000003c0: 3484 adbc 6949 8cbe faec 21be 2385 1abe
000003d0: f6fb f9bd 2687 14be 2aa9 ad3c 3ea5 51be
000003e0: 0703 97be 8f6a f4bd 59b8 c3be 5eb8 aebe
000003f0: ae54 b9be 162c 02be 3cd7 aebd 6f57 97be
-0.15737715 0.006459192 0.14874794 -0.13452259 -0.15964667 -0.086605616 0.12072322 -0.12365363
-0.21151161 -0.029798696 -0.12950572 -0.041632805 -0.08954255 0.021416685 -0.107062146 -0.07973696
-0.055895656 -0.100728616 -0.17855634 0.009096175 0.2553368 -0.04627176 -0.24844354 0.14614654
-0.13133141 0.0051807766 -0.1476056 -0.1440968 -0.26593605 -0.025294816 -0.22319128 -0.00096909964
-0.17545456 -0.07915835 -0.2927306 -0.12566963 -0.053171117 -0.13135737 -0.15038152 -0.017871635
-0.12143319 -0.09343005 0.17740938 -0.040875547 0.022759153 -0.14755687 -0.18823972 -0.05667122
-0.041583657 -0.06652481 -0.16501781 -0.12969531 -0.06447433 -0.1435514 -0.27564877 -0.017471526
-0.19058456 0.00051800534 -0.15166777 -0.19498172 -0.047019172 -0.012764571 -0.07632897 -0.059600424
-0.021093205 -0.10283392 -0.027831143 0.19046035 0.37144664 -0.009385404 -0.033697277 -0.16785409
0.0045438674 -0.06702723 -0.18745534 0.01202 -0.12876531 -0.1894296 -0.048022073 -0.14776173
-0.064294025 -0.13161144 -0.019636802 -0.12231382 -0.005764592 -0.2215215 -0.075694196 -0.25899026
0.04870687 -0.07474614 -0.10865455 0.1371583 0.050316583 -0.14053133 -0.035505917 -0.034719847
-0.17762765 -0.23834296 -0.21294102 0.029856272 -0.06226986 0.07412735 0.02912975 0.064034134
-0.09683852 0.051369708 -0.2390635 -0.13205925 0.0874826 -0.075199224 -0.055344827 -0.10380642
0.040105 -0.11429406 -0.21771939 -0.03746268 0.008475216 -0.0016834165 -0.10277753 -0.124909274
-0.18651338 -0.23580104 -0.1893175 -0.26491994 -0.35885966 -0.1288095 -0.09224239 -0.014943462
-0.08296538 -0.11967651 -0.031407937 -0.17731829 -0.18691884 -0.27297592 0.069127806 -0.10331182
-0.17676254 -0.23369153 -0.12840979 -0.074199095 -0.18803054 -0.16406365 -0.23146908 -0.17196405
-0.14980222 -0.20822035 -0.17783052 -0.19003819 -0.2357101 -0.069896266 -0.13460828 -0.24178728
-0.18120822 -0.1027498 -0.20669958 -0.16962592 -0.2465331 -0.19808653 -0.08450484 -0.13181971
-0.23759346 -0.08691694 -0.1631064 -0.10359677 -0.16488832 -0.20401733 -0.39921045 -0.21456039
-0.21998179 -0.27691457 -0.19576004 -0.05800949 -0.10870482 -0.33189616 -0.15561417 -0.09862974
-0.037249945 -0.18671621 -0.12430267 -0.165544 -0.06406803 -0.061780486 -0.13695706 -0.13629569
-0.18651883 -0.27024403 -0.21935399 -0.1531101 -0.06776531 -0.3465726 -0.04413659 -0.23312941
-0.18222903 -0.08600019 -0.15370335 -0.20349906 -0.105135486 -0.1597287 -0.12925786 -0.1472475
-0.25631443 -0.29496703 -0.12848485 -0.16421638 -0.080422476 -0.09459655 -0.0857242 -0.17598489
-0.12073713 -0.25133875 -0.07974627 -0.15084039 0.03302388 -0.16881868 -0.05088965 -0.112477444
-0.17445025 -0.1403286 -0.05820324 -0.24217752 -0.08837118 -0.15736516 -0.037181657 -0.1858507
-0.22666027 -0.2566361 -0.09633505 -0.23539107 -0.22278713 -0.13410452 -0.2626447 -0.16281784
-0.22182268 -0.353115 -0.2853198 -0.19212218 -0.092946775 -0.06022955 -0.06443003 -0.06401119
-0.021181203 -0.27399758 -0.15813056 -0.1508985 -0.12206261 -0.1450468 0.021198828 -0.20473191
-0.29494497 -0.11934387 -0.38226584 -0.34125036 -0.36197418 -0.1271213 -0.085371464 -0.29558894

lstm.weight_ih_l1 f4 [512, 128]
00000000: 9219 d1bd 377d a7bd 3941 0dbe 5e34 8b3d
00000010: df06 8c3c 3851 c93d f6cd ff3d e127 ecbd
00000020: 31ab 6cbc c733 073d 503d 35be f145 ea3d
00000030: 49ed cebd 09e7 e93e f6bb a03e a97a 8ebc
00000040: ea80 f3bd 0d5d aabd 5879 6cbd 3ca9 f5bc
00000050: 834a 2fbe c286 573c e489 27bc cb78 06be
00000060: 72c8 803e 091d 223d c69d ddbd 2dac 3b3b
00000070: cf2e c1bc dfdb 823e c1be d7bc 9df4 96bc
00000080: 39d8 aebc 7432 14be 72da c9bd 0e20 503e
00000090: 96e2 aabd c312 b9bb e2d4 86bd b774 c4bc
000000a0: a0d9 fd3b 940e c93d 3228 29be 7b1a ba3c
000000b0: b3bb 3abd daa4 843e e535 66be d1c3 96bd
000000c0: 23db b8bd 2171 803d cd6f f5bc 71da 39be
000000d0: dd9e 503d 4808 0b3c 91e6 3abd 7103 683e
000000e0: aaac 51bd 884c 97be 27d9 033d 1996 e33d
000000f0: 08cf e3bd 6819 b9bc 9b80 d13d 49df 963e
00000100: 6626 d83d d3ae c5bd 0381 093e b980 93bd
00000110: e7af 20bf 0f69 98bd 62bd b93b 29ad 18be
00000120: 69d8 003d a53b 08be dff3 0f3d 6632 a13d
00000130: a1d4 b03d 1651 01be 4875 173c 2eb8 d03d
00000140: 8724 86bc 1386 ca3d 42f2 b3bd 70f9 823d
00000150: 7eec 483e 39ab e73c 8e4b 9fbd deb6 193e
00000160: 9d41 08bd 7ece 15bd 9cbc 923d bc6d 40bd
00000170: a659 813d 497a 593d e7d1 0c3e 7a9a d43d
00000180: 5d28 38bd eef8 5c3d 0444 e6bd 7350 6abd
00000190: 83d5 823d ee05 93be 6809 1ebe 28a6 923d
000001a0: 18f9 55be cb36 bf3d ea73 27be 0162 56bc
000001b0: b36f 00be 8000 6b3d 6fe7 693e 2076 863d
000001c0: ac60 0dbe 1210 d33d 81ec 58bd 6a1e 82bd
000001d0: 1ac0 bdbd 960c dd3e 9edd 7a3d 1cf5 613e
000001e0: 3c0c dcbd c0e8 0d3d e11f 743d d2a3 ebbd
000001f0: b695 05be a35c a1bd ebb4 243d db75 ab3d
00000200: 6b06 223c 7114 24be 23ae 93bc e51d 193e
00000210: ee6b acbd 5892 1b3d 9bba 6dbe 4f04 f13d
00000220: 7624 28be 1602 d53d c217 34bd 419d bb3d
00000230: ce60 1cbe ff02 733e 4c2f 90bd 55fa d9bd
00000240: eaf4 2d3e aec1 8a3d 81fb e8bc 060b 633e
00000250: 2dd2 87be 1f96 c9bd b4ab f7bd fa47 9fbc
00000260: b85b 28bc 6206 9a3d 6cd6 4bbd 1c73 24be
00000270: 87ba 4cbc e383 113e 8fe1 3f3d 8ad1 b93d
00000280: 8aeb b0bc 319f a83d b2f4 043d bb9c 9b3d
00000290: 515e 9f3d 475e f03d 84db 88bc 6c03 f2bc
000002a0: ff93 d23c ba70 0a3e bf60 293d c490 8a3a
000002b0: 4b0e 293c 3a0c 33be c752 4f3e 0799 573e
000002c0: 3c58 bc3d e5c4 08be 3aa6 8d3c ac62 99bd
000002d0: bc64 1abe 6e47 ad3d 6dfc 64bd e147 093c
000002e0: 3d7f 90bd 4996 f73d e1cf af3d 9ec1 17bc
000002f0: 10b3 7abd 5988 813e 8033 52be d00f ac3d
00000300: 2a88 353d 73e2 8fbd f986 77bc 71f9 ae3d
00000310: 8347 893d 3dfb 69bd 442a 123e 62ef aa3d
00000320: 20bf d8bc b868 aabd 291a 103e 857b c5bd
00000330: 75a3 143d 8924 7ebd 905a c93d a668 633d
00000340: e832 15bd eb61 0bbd f8e7 86be 596b 093c
00000350: 8856 38bd 981a a83b 21da ab3d 71e2 92bd
00000360: b0b8 c3bd e8a4 49be 0932 523d d422 7e3d
00000370: 0bb9 a63c 795d e83d 483f f93c 5d05 e7bc
00000380: 0586 053e fb03 20be 5400 b53d 396c f1bd
00000390: 7831 10be bf6e 233e f9b9 0bbe 08f5 a53b
000003a0: 1949 10bd eae2 b93d ad06 433d 6fd3 4f3d
000003b0: 7fb3 2abe 676b 373e 972f 873b 8846 083e
000003c0: aa81 7c3e 320a 683d adf7 1d3e 19de 403e
000003d0: 7379 e03d 7f7f e0bc 4557 8dbe f21d 263d
000003e0: bd22 a93d d018 3d3d 90e6 45be 1e78 0c3e
000003f0: 41e7 a0bd b70d 173d d307 5a3c 9bd4 78bd
-0.10209955 -0.0817818 -0.13794412 0.067970976 0.01709312 0.09829944 0.12490456 -0.11531044
-0.014445112 0.033008363 -0.1769917 0.114391215 -0.10103852 0.45684078 0.31393403 -0.017392473
-0.11889823 -0.08318529 -0.05773291 -0.029987924 -0.17118268 0.013154687 -0.010225747 -0.13132016
0.25152928 0.03957847 -0.108211085 0.002863656 -0.02358189 0.25558373 -0.026336076 -0.018427188
-0.021343337 -0.14472371 -0.09856118 0.20324728 -0.08343999 -0.0056479885 -0.06583573 -0.023981435
0.00774689 0.09817234 -0.1651924 0.022717705 -0.04558916 0.25907022 -0.22481497 -0.07361568
-0.09026172 0.062715776 -0.029960537 -0.18149735 0.050932754 0.008485861 -0.04563004 0.22657563
-0.051190056 -0.29550576 0.032189514 0.11112613 -0.111234725 -0.022595122 0.10229608 0.29467228
0.10554199 -0.09652486 0.1342812 -0.07202286 -0.62768406 -0.07441913 0.005668328 -0.14909805
0.031456385 -0.13304003 0.035144683 0.07870941 0.08634306 -0.12628588 0.009244271 0.101913795
-0.01637484 0.09888854 -0.087864414 0.06395233 0.19621465 0.028279888 -0.07778083 0.15011165
-0.0332657 -0.03657388 0.07164881 -0.04697965 0.06315927 0.053095136 0.13751946 0.103810266
-0.04496037 0.053948335 -0.11243442 -0.05720563 0.063883804 -0.28715461 -0.15433276 0.07160598
-0.20895803 0.09336623 -0.16352811 -0.013084889 -0.1254261 0.057373524 0.22842191 0.06565499
-0.13806409 0.103057995 -0.052959923 -0.06353457 -0.09265156 0.43173665 0.061246507 0.22066158
-0.10744521 0.034645796 0.059600715 -0.115058556 -0.13045391 -0.07878997 0.0402116 0.083720885
0.0098892255 -0.16023423 -0.01802737 0.1495281 -0.084190235 0.03798136 -0.23215716 0.117684
-0.16420159 0.104007885 -0.04396797 0.09160853 -0.15271303 0.23731612 -0.07040271 -0.1064345
0.16987959 0.06775223 -0.028440239 0.22172174 -0.2652754 -0.098430865 -0.12093297 -0.0194435
-0.010275774 0.07520749 -0.049765036 -0.16059536 -0.012495643 0.14210467 0.04684597 0.090731695
-0.021596689 0.08233488 0.032459922 0.07598253 0.07781661 0.11736732 -0.016706236 -0.029542647
0.025705336 0.13519564 0.04135203 0.0010571708 0.010318349 -0.17485133 0.20246421 0.21054469
0.09196517 -0.1335636 0.017291177 -0.07489523 -0.1507749 0.0846089 -0.055904794 0.008378954
-0.07055519 0.120892115 0.08584572 -0.0092624705 -0.061205924 0.25299338 -0.20527458 0.084014535
0.04431931 -0.07025614 -0.015107864 0.08543671 0.06703093 -0.057124365 0.14273936 0.0834644
-0.026458323 -0.08320755 0.1407248 -0.096427 0.036288697 -0.06204656 0.098317266 0.055519722
-0.0364255 -0.03402893 -0.26348853 0.00838741 -0.045004398 0.0051301233 0.08391214 -0.071720965
-0.09556711 -0.19691813 0.05131725 0.062044933 0.020351907 0.113459535 0.030425683 -0.0282008
0.13039406 -0.15626518 0.08837953 -0.1178822 -0.14081371 0.15960215 -0.13645162 0.0050646104
-0.03522596 0.090764835 0.04761379 0.05073875 -0.16670035 0.17912064 0.004125546 0.13308156
0.24658838 0.056650348 0.15426512 0.18834724 0.109606646 -0.027404545 -0.27605644 0.0405559
0.08258579 0.04616624 -0.19326234 0.13717696 -0.07856608 0.036878314 0.0133075295 -0.06074963

lstm.weight_hh_l1 f4 [512, 128]
00000000: 03d6 c7bd e2a6 d93d 9963 11be 6362 fe3d
00000010: 1e3c 2f3d ad09 f5bd f8cc ceb5 3c38 dcbd
00000020: 6424 12bd 955d c33c a02d 883d 394d 173e
00000030: 8d92 71be bfd9 03be 9678 583d 0812 5bbd
00000040: d496 b6bd 117f 19be 7ba0 c93d b278 33bc
00000050: 09b3 07be d5d0 523c 84d1 a5bd ea5e ce3d
00000060: 46b8 e13d 1e44 03be 254f 2f3e ada9 d5bd
00000070: f32b 89bd 30e9 1c3e d51a 93bd 20ab 053e
00000080: 2170 88bd 212a 9abd b530 983d 0be2 d33c
00000090: b203 163d fb6c 3c3c 8228 d0ba 0c81 9fbc
000000a0: f911 ffbd 888b e83d df33 8d3c f5cd 003d
000000b0: 75c6 92bd 7924 48bd 5a2c 063e c1d0 62bd
000000c0: 073a 563d 1e0f 5ebd 83b1 62bc 57fb f4bd
000000d0: e3a8 753c 69df c1ba 4ee1 a1bc 6da7 073e
000000e0: 5b2b b0bb 05fe 0c3d 33ef a73d 28cc 6f3d
000000f0: 0b5b 43bd a814 153c cc3f e73c 6b33 34bd
00000100: d378 a5bb 862a ff3d f0b0 6bbd a3d4 3e3e
00000110: 0d10 13be 06a3 acbd 0b4a 563d af29 2bbe
00000120: c200 063e ff6c 51bc ba78 243d bab8 9b3d
00000130: d05d 613d 098c f5bd 07e7 233d d6d6 b63d
00000140: e7a2 e3bd 0071 283d f19d cb3d 8c58 23be
00000150: 1c1f 3a3e 378e 53be 563e bbbd b28c ecbd
00000160: 430c 0b3e bbb4 823d 363a d3bd 2fc3 bfbd
00000170: 0bcc da3d 07fc 41bc 44a3 4c3e 67dd d9bd
00000180: 4f84 48be 0320 1d3d f4eb ee3d 84f8 93bc
00000190: fc58 b7bd a2ee 363e 6378 3bbd fe09 463d
000001a0: 2dd0 95bd 6ac7 283d 566a 30bd 448c 6c3e
000001b0: bf84 5cbd f570 d9bd 8cf0 a8bc 2fb4 cfbd
000001c0: d5ee 963d 6f92 853d 43b3 a3bc 6815 c33d
000001d0: 9ff3 31bd e8ef af3d f8bf 9b3c 4cdf a9bc
000001e0: 38fc a2bc 1e81 d3bd a201 1dbd 0000 893b
000001f0: f393 223e c225 cbbd a8bb de3b 6554 3e3d
00000200: 2168 a0be fc2e 83bd 0c6f 81be d3d6 d03d
00000210: 6d8e 423e 190c 89bc 8aae a83d 5258 493e
00000220: 0f71 44be 5b7e 37be ed90 60bd 99b9 2e3e
00000230: f658 84bc 146d c6bd e68f 18be ee72 153e
00000240: b4a2 62be 9117 a4bd 45b1 fa3c e906 d73a
00000250: 6123 87be 7c04 0b3e 1122 143e 509f 113e
00000260: 3c52 37bd 2a6f 6dbe fabf 4f3e 1e60 3dbe
00000270: 14ed 65be 8df8 cb3e 5d92 163e 362e 7c3e
00000280: 7ff2 913d 7539 01be 3390 af3d c297 3cbe
00000290: 604e e83d 03ac ff3d 6cc9 24be e24e 503e
000002a0: 02fd 81bd 3bbd 5cbd 7bda fe3d 6457 e23d
000002b0: 98d9 45be 4040 e1bd 305f 313e 8c3d 9ebd
000002c0: ba5b 373e b953 753e 281f c63d 6da7 fabd
000002d0: 896b a63d 3978 2dbe 525e 0f3e bad0 053e
000002e0: d579 aa3d 63be f2bd 1949 fa3d 68c2 373e
000002f0: d0be d3bd 772c 19be f49b 063e 9817 91bd
00000300: 5f6f 133d e9a3 863b de81 babd 0257 dc3d
00000310: 413f 39be 0354 19be 5415 0e3e 0ff5 a9bd
00000320: 2872 843d a472 133e a9c0 f6bd 465c 3ebe
00000330: 5966 053e 1ac7 02be 4ae3 2abe 526b 943e
00000340: b02a 0c3e bfca fe3d b770 593e 7dfc 36be
00000350: 924f b0bd d47a 48be e386 f5bd d98b 1cbd
00000360: 16fe cdbc 4dc9 2c3e 533b 9cbd e5d7 7d3d
00000370: 3a9e fd3d 3230 3cbe 349e 3e3e d6cd 3e3c
00000380: e6e6 d83c 998d 4cbd 17b9 083e a4ee 76bd
00000390: 9889 b5bd 7eb1 21bd af76 34be 8569 523e
000003a0: 9d96 743c 313c a13d 1284 7cbe 63f9 673e
000003b0: 08e2 18be 0edf 8d3c 0b0c 3cbd b037 19be
000003c0: 27a4 7b3e fbad 003e 5e8b be3d e97a 77bd
000003d0: 06d6 56be 3e82 29be b1c8 14be 922f 6dbe
000003e0: d608 4abe 4da1 c9bd 348c 513e ac09 0e3d
000003f0: 2973 843d 2fac 13be 7499 d83d 070e af3d
-0.09757616 0.106275335 -0.1419815 0.124211095 0.04278194 -0.11964736 -1.540785e-06 -0.10752913
-0.035679236 0.023848334 0.06649327 0.14775552 -0.23591061 -0.12876032 0.052849375 -0.053483993
-0.08915487 -0.14989878 0.09845062 -0.010954069 -0.1325189 0.012867172 -0.080966026 0.10076697
0.110214755 -0.12818953 0.17120035 -0.10432754 -0.06697836 0.15323329 -0.07182852 0.1305356
-0.06662012 -0.07527567 0.07431165 0.025864622 0.036624618 0.011500592 -0.0015881213 -0.019470714
-0.124546 0.113547385 0.017236648 0.031446416 -0.07166759 -0.048862908 0.13102856 -0.055374864
0.052301433 -0.054213636 -0.013836267 -0.11962002 0.014993879 -0.0014791313 -0.019760754 0.13247462
-0.005376262 0.03442194 0.081999205 0.058544308 -0.047694247 0.009099163 0.028228663 -0.04399435
-0.0050498038 0.124592826 -0.057541788 0.18635802 -0.14361592 -0.08429532 0.052316707 -0.1671512
0.13086227 -0.012782334 0.040154196 0.07603593 0.055021107 -0.119896 0.040015247 0.089276955
-0.111150555 0.04112339 0.09942234 -0.15951747 0.1817593 -0.2065972 -0.09142749 -0.11550273
0.13578896 0.06382128 -0.10313837 -0.093634 0.10683449 -0.011839873 0.19984156 -0.10637932
-0.19581722 0.038360607 0.11666098 -0.018062837 -0.08952519 0.17864469 -0.045769107 0.048349373
-0.07315097 0.0412058 -0.04307016 0.23100382 -0.053837534 -0.10617248 -0.020622514 -0.10141789
0.07369772 0.065220706 -0.01998294 0.09525567 -0.043445226 0.0859068 0.019012436 -0.020736359
-0.019895658 -0.103273615 -0.038331635 0.004180908 0.1587675 -0.09919311 0.0067972727 0.046467204
-0.31329444 -0.06405446 -0.25280035 0.101972245 0.18999644 -0.016729401 0.08236416 0.19662598
-0.19183753 -0.17919295 -0.054825712 0.17062987 -0.016155701 -0.09688774 -0.14898643 0.14594623
-0.22132379 -0.080123074 0.030602107 0.0016405258 -0.2639418 0.1357593 0.1446612 0.14220929
-0.04475616 -0.23186937 0.20288077 -0.18493697 -0.2245372 0.39838067 0.1470427 0.24627003
0.071263306 -0.12619574 0.08572426 -0.18417266 0.11343074 0.124839805 -0.16092461 0.20342591
-0.063470855 -0.0538914 0.124440156 0.11051825 -0.19321287 -0.10998583 0.17321467 -0.07726583
0.17906085 0.23957719 0.09673911 -0.12238965 0.081259795 -0.16940393 0.14000824 0.13067904
0.08324019 -0.1185272 0.122209735 0.17945254 -0.10339129 -0.14958368 0.13145429 -0.07084578
0.035994884 0.004108895 -0.091068015 0.10758783 -0.18090536 -0.14973454 0.13875324 -0.08298694
0.06467086 0.143992 -0.12048466 -0.18589887 0.13027324 -0.12771264 -0.16688266 0.2898813
0.13688159 0.124410145 0.21234404 -0.17869754 -0.08608927 -0.19578105 -0.11988618 -0.038219307
-0.025145572 0.16873665 -0.07628503 0.06197347 0.12383695 -0.1837776 0.18615037 0.011645755
0.026477288 -0.049939726 0.13351856 -0.06028618 -0.088641346 -0.03947591 -0.17623399 0.20548065
0.014928487 0.07872809 -0.24659756 0.22653727 -0.14929974 0.017318275 -0.045909923 -0.1496265
0.24574338 0.12566368 0.09303926 -0.06041995 -0.20980081 -0.1655359 -0.14529683 -0.23162678
-0.19729933 -0.09845219 0.2046364 0.034677193 0.064672776 -0.14421152 0.10576144 0.085475974

lstm.bias_ih_l1 f4 [512]
00000000: bdc8 06be 815f babd 2d04 f83d 9f60 8e3d
00000010: 6642 2dbd 3565 babe efe6 6abe 843e d1bd
00000020: d3af 9abd 8cbe b9bc f389 21be 6a47 183e
00000030: 3572 5bbe 76f3 163e 7b7e 3fbd 5162 0dbe
00000040: b2a1 b53d caa1 083e c49c bdbd 1424 00be
00000050: f901 e93d 674e 8abb d1ff 34be a5dd 0f3e
00000060: 58c9 d2be 0bec 073e 8123 113d 27ec cdbc
00000070: e57e 163e 5416 e7bc 7381 ebbd 120e e9bd
00000080: ec01 85bd b56c 8ebd 152d 17be a82e 15be
00000090: 47c8 eebd 0bb2 fcbc d7b4 01be c383 83be
000000a0: 16b0 9ebd 50ab 73be db25 b6bd bb3c 7abd
000000b0: a748 453e 1236 2e3d 6e69 92bc 2622 4bbd
000000c0: 8932 9f3d 7156 7cbd 9544 6fbd 9d7d 07be
000000d0: e179 a8bd 8624 3e3e 2e75 58bd 49ee 953d
000000e0: 47e1 113e 59a6 aa3d 013d 453e 11af 6ebd
000000f0: e9a0 383e 844a 98bd 9396 c2bd 1ac5 14be
00000100: 7ca0 54bd 569d 9ebc 6ca9 bdbc c377 62be
00000110: 955d 8cbd 6ce3 b1bd 85c2 6abc 067b 0c3e
00000120: 33fa c13d ce92 7d3d 4fd0 41bd cac8 003b
00000130: 5f18 e0bc b9e6 48be 663d e2bd a488 41be
00000140: e478 6bbe f650 26be 40b0 19be dd57 0bbe
00000150: ee06 46be 6f05 02bc 1628 07be bc79 293c
00000160: 4ba5 1fbe 0ef0 303e e4b6 eebc 9e33 87bd
00000170: 8fe5 293d ebe6 2fbe 3301 efbd f9a7 dbbd
00000180: 74a4 65be 17a2 75bd 38b3 c9bd 6b04 06be
00000190: a298 6fbe 1375 1abe ec9b 08bd cfcf aabd
000001a0: f31a 4bbe b3dc 503e b14c e33d a037 12bc
000001b0: acbd 42bd af0f 20be b837 0bbe aea4 f7bd
000001c0: c515 6f3e 80eb 083e 47c7 2e3e b60c 24be
000001d0: 0cf9 193e 945c 07be b179 c2bd 6cdb 71bd
000001e0: 10e3 813c 3dad e1bc 6e1b 04be 6ac0 5cbe
000001f0: 5d27 89bd ec81 1fbe 9d63 bd3b ce5b 16be
00000200: 3d35 7dbd 36d5 12be 4a39 173e fabe 8dbd
00000210: 489b b4bd e3c2 27be 20ea f4bd 6229 1bbe
00000220: bcad 67bd bd21 50be 5fe9 29be d60e 703e
00000230: a999 20be c9cd 0a3d d353 f5bd 0708 d7bd
00000240: 7e2b 7cbd b5ec 823d 6dab 32be 59c5 eabd
00000250: d9d0 6e3e 8023 f8bc 35f8 43be d48b 183c
00000260: 281f 8bbe 2cd4 953d 3ca8 563d 8574 7bbd
00000270: 30a1 47bb 69d9 78be 1848 81bc 476a 69be
00000280: 45d9 39be 6fd3 35be 40c1 07be 0157 22bd
00000290: c357 71be c253 79be c4d5 debd 1f6f 53be
000002a0: d037 35bd 26e5 10be 0f07 95bd 0ca4 8f3c
000002b0: 0f01 633e aaac 8aba 9dc7 4dbe 18e5 53be
000002c0: 085b cb3d 17a2 76bc fe61 27be 89c5 20be
000002d0: 90e9 b5bd f79b 823e ad08 a33d 6307 933e
000002e0: 338d 183e fd61 813d f8d7 b73d 2a63 d0bd
000002f0: d56b cd3d 7790 abbd 0d76 27be 3c57 9bbe
00000300: e822 aebd bbf6 0bbd 6354 67bd 689b 99be
00000310: ae9a 24be f453 05be d48b 8e3d 69da b3bb
00000320: 802a 113e 6358 95bd 6e97 f3bd 8b19 88bd
00000330: 1b62 85bd e93a 14be a734 5ebe 6b68 e5bd
00000340: 7fcf 77be 5db7 1fbe 774e 80be 2383 dfbd
00000350: 95d1 d7bd 866d bdbd ee4e 6bbd 7570 1bbe
00000360: 5a91 c8bd ec7b 053e 0940 ddbd 9a4f dcbd
00000370: 0cb7 d23c c532 e9bd 02a4 51be 69bf 63be
00000380: 8f9b cebd 19aa bcbd 1c63 bdbd d069 60be
00000390: 4834 17be 9e64 95be 9790 66bd b122 f8bd
000003a0: e0c7 66be bd6f 0a3e c5c9 c5bd 9224 1dbe
000003b0: 950d 7dbd 2790 08be 8d16 31bd a7ac 80be
000003c0: 6bc9 403e af4e 4a3e 04fb ea3d d3d7 38bd
000003d0: fb41 df3d f0a9 02bd 334c 04be 63a9 b6be
000003e0: 4821 a0bc 31c8 64bd 46cc fdbd 3f73 3bbe
000003f0: f536 703d 7bd7 d1bd 9f2e 08be 7611 09be
-0.13162513 -0.09100247 0.121101715 0.06952023 -0.04229965 -0.3640534 -0.22939657 -0.10217002
-0.07553067 -0.022673868 -0.1577528 0.14870992 -0.21430285 0.1474131 -0.04675148 -0.13807036
0.088687316 0.13342968 -0.09258416 -0.12513763 0.113773294 -0.004220772 -0.17675711 0.14049394
-0.41169238 0.13273637 0.03543425 -0.02513702 0.14696844 -0.028208889 -0.114993 -0.11379637
-0.06494507 -0.06954328 -0.14763291 -0.14568579 -0.116592936 -0.030846616 -0.12666641 -0.25686464
-0.077484295 -0.2379582 -0.08893939 -0.061093073 0.19265996 0.042532034 -0.017872538 -0.049593113
0.07773311 -0.061605874 -0.058415014 -0.13231511 -0.082263716 0.1856862 -0.052846126 0.0732084
0.14246093 0.083325095 0.19261552 -0.058272425 0.18030132 -0.07436088 -0.09501376 -0.14528313
-0.051910862 -0.019362133 -0.023152076 -0.22115998 -0.06853787 -0.086859554 -0.014328604 0.13718805
0.0947155 0.061907582 -0.0473178 0.001965093 -0.027355371 -0.19619264 -0.11046867 -0.1889978
-0.22995335 -0.16241822 -0.1500864 -0.13607736 -0.19338581 -0.007935866 -0.13198885 0.010343965
-0.15590398 0.17279074 -0.029139943 -0.06601642 0.04147869 -0.17177932 -0.116701506 -0.107253976
-0.22426015 -0.059969034 -0.098486364 -0.13087623 -0.23398069 -0.15083723 -0.033351824 -0.083404176
-0.19834499 0.2039669 0.11098612 -0.008924395 -0.047544166 -0.15630983 -0.13595474 -0.12091957
0.23348148 0.13371086 0.17068206 -0.16020474 0.1503641 -0.1321891 -0.09495867 -0.059047148
0.015855342 -0.027548427 -0.12901089 -0.21557775 -0.06696961 -0.15576905 0.005779697 -0.14683458
-0.06181835 -0.14339146 0.14767948 -0.069211915 -0.0881868 -0.16382937 -0.11958718 -0.15152505
-0.05656217 -0.2032537 -0.1659293 0.2344316 -0.15683617 0.03388766 -0.11978879 -0.10499578
-0.061564915 0.063928045 -0.17448206 -0.11463422 0.23321857 -0.030290365 -0.19137652 0.009310681
-0.27172208 0.07315859 0.052406535 -0.06139042 -0.0030461065 -0.24301685 -0.015781447 -0.22794448
-0.18149288 -0.17756437 -0.13257313 -0.039633755 -0.23568635 -0.24348357 -0.10880616 -0.20647858
-0.04424268 -0.14149913 -0.07276737 0.017534278 0.22168373 -0.0010580022 -0.20095678 -0.20692861
0.09929472 -0.015053294 -0.16345975 -0.15700354 -0.08882439 0.25509617 0.07960639 0.28716573
0.14897613 0.06317518 0.0897674 -0.10175164 0.10030333 -0.08377164 -0.16353627 -0.30339992
-0.085027516 -0.034170847 -0.05647696 -0.30001378 -0.1607463 -0.13020307 0.06960264 -0.005488683
0.14176369 -0.07292249 -0.11894117 -0.06645497 -0.06512853 -0.14475597 -0.21699773 -0.11201557
-0.24200247 -0.15597291 -0.25059864 -0.10913684 -0.105380215 -0.092494056 -0.05744832 -0.15179618
-0.097933486 0.13035554 -0.10803229 -0.1075737 0.02572205 -0.11386637 -0.2047272 -0.22240986
-0.10088264 -0.09212131 -0.09247419 -0.21915364 -0.14766037 -0.29178327 -0.056290235 -0.12115992
-0.22537184 0.13519187 -0.09657625 -0.15345982 -0.06178053 -0.1333624 -0.043234397 -0.25131723
0.18826835 0.19756578 0.11473659 -0.0451277 0.10901257 -0.031900346 -0.12919693 -0.35676107
-0.01954712 -0.05585498 -0.12392478 -0.18305682 0.05864616 -0.10246178 -0.13299035 -0.13385567

lstm.bias_hh_l1 f4 [512]
00000000: 47ec 14be 0335 b6bd 3fd6 373e 1eff b4bd
00000010: 519b 0bbe 0417 a1be a223 75be 539c 45be
00000020: 166e bebd 7a52 ddbd c05a a0bd 452f a13d
00000030: 3eeb 22be 6d7b 233e 84f8 a3bd 1dd5 3ebe
00000040: 5ea3 a53d 5222 183e 4623 91bd 55a1 0cbe
00000050: 503d 223e 7c25 25be f625 46be 63eb 523e
00000060: 1096 98be 6e6e c53d 8701 053e 7c75 26bd
00000070: 7f6d 7f3d 29fe 0f3c 1a77 083d a373 cabd
00000080: 4711 49be 05e7 3dbe 3eea 1bbd 6c67 64bc
00000090: 1502 20be 9264 27bb 0060 36be c24d 1dbe
000000a0: 0389 3cbe 28e9 82be 4ccc aabd e499 78bd
000000b0: 9ef3 843d 484d c73d 7f4d 0ebd f3f2 b6bd
000000c0: d84f 6a3d 9587 c2bd 6e5b 1fbe 533a 95bd
000000d0: 4df6 02be 079d 113e c6a0 d43c 95b4 5a3e
000000e0: 626d bf3d a9a7 b53d 4dee d23d 1b35 b2bd
000000f0: 0a5f 123e 55ee fabd c2ae 02be 6f09 8fbe
00000100: 665d babd eef2 e73a ebfe cdbb 9241 94be
00000110: 4fca a5bd de29 e2bd eec7 313d fec0 923d
00000120: f07a 493e 68dc 12bd 42f7 9abd 28d9 09bd
00000130: 9f92 ea3c 69c5 86be a05c 0bbe adb8 5abd
00000140: 97b7 debd 7f10 1fbd e1f7 aebd f9c2 e0bd
00000150: f4fc f1bd 42d4 c2bd 84b4 f0bd 5f02 8cbd
00000160: bd2f 79be 1d3d 123d 5817 093d 909f a83a
00000170: c6e4 80bd 6c3a 77be 4083 60bd 5da4 0dbe
00000180: aa01 f2bd b35d 16be fde6 6abd 6e2f 5cbe
00000190: 3e1f 06be 4c92 44be c248 31be dbd3 96bc
000001a0: 594f 30be 1829 b23d 4e59 7a3d c584 b83d
000001b0: 3708 143b d699 0fbe f3bc 4abe adc6 47be
000001c0: 037f 913d 5fd1 3c3d 4c7f 153e 5be0 0bbe
000001d0: c3d9 903d 2a22 f4bd 4257 abbd d78c ccbd
000001e0: ffd2 cebd 8be5 c03c 9b4d 8cbd 967c dcbd
000001f0: 4e92 82bd 7af9 a2bd 08e8 dbbb 8e53 07be
00000200: 05c6 26be 0f27 4bbe 6509 4b3e 7c35 5abc
00000210: aa61 a7bd 91b6 6fbe c325 56be 4e41 6abe
00000220: 7ccc 05be 183e 08be 129f 33be 2577 803e
00000230: 9cc0 3cbe 7065 7ebc 2b50 11be a5ac cabd
00000240: ec64 0c3d 0948 d43d 316d 67be 370f 14be
00000250: 6e91 793e 6957 9dbc b92f 03be da98 8bbb
00000260: 8b4f 37be 81e9 1f3e ba13 013e 0bdb 04bd
00000270: 74ff c13c 1923 a8bd fe9f 02be 62c3 03be
00000280: 35bc 49be 90e4 48be bd7d 29be ace9 50bd
00000290: b535 84be 97e4 3dbe 4a72 39be 6ee3 99be
000002a0: e293 3cbd 5fa1 2dbe 093f 95bd fa54 b9bd
000002b0: d432 6d3e 0f9e 2abb 1922 3ebe dd7a 7cbd
000002c0: 120b 2d3e 775b 84bd bedf e4bd ac03 1cbe
000002d0: 3fc1 0dbe a9a7 1b3e f9df 9e3d 58c0 f33d
000002e0: cb81 a83d e2c4 0c3d 11c2 0f3e c6cd 35be
000002f0: 288d c93d 55e7 d0bd 88e1 02be 9ae4 8ebe
00000300: 4ca7 0cbe 0988 30be 3b78 8dbc 39ed 81be
00000310: 5a47 25be a1a7 debd 300e 923c 99a8 ca3c
00000320: 168b 833d 6661 dfbd 9d78 2ebe 9883 12be
00000330: 1dd6 15be 0652 48be 170e 0ebe 5f39 44be
00000340: 446e 69be 8126 debd fedf 32be d720 2bbe
00000350: aeec 28be fc8a 0dbe 1062 5fbc 858e 8bbd
00000360: b3ce 70be 6556 373e 3c6c f6bc 11ff 5bbc
00000370: e917 eebc 2e83 f1bd 9453 3bbe b1fb 2abe
00000380: 9300 38be ec65 5abe 2d59 04be 7096 ebbd
00000390: c0ac 4cbe 7abe 1bbe 8b4e 23be 97a8 17be
000003a0: d9f6 39be 38c9 c33d 68fd 0ebe ab5b a0bd
000003b0: e2f7 e3bd ec12 8fbe 5f57 44be fa14 eabd
000003c0: b322 423e bb0e 573e ecbc 4e3e dd0e 26bd
000003d0: d0b9 ff3c 9b5f c9bc 0565 14be 6309 bfbe
000003e0: 35d9 66bd 0f50 3cbd 864f 5abe dfa9 2abe
000003f0: 1dd6 60bd 3790 0bbe 7dd9 59be ac41 12be
-0.14543258 -0.0889683 0.17952822 -0.08837722 -0.13633467 -0.31462872 -0.23939374 -0.19297914
-0.09298341 -0.10806747 -0.07829809 0.07870344 -0.1591005 0.15965052 -0.08006385 -0.18635984
0.080878004 0.14856842 -0.07086806 -0.13733418 0.15843701 -0.1612758 -0.19350418 0.20597605
-0.2980199 0.096402034 0.12988864 -0.040639386 0.062360283 0.008788624 0.03331671 -0.09885337
-0.19635497 -0.18545158 -0.038065188 -0.013940673 -0.15625794 -0.0025542122 -0.17810059 -0.15361694
-0.18411641 -0.2556851 -0.08339748 -0.060693637 0.06491779 0.09731537 -0.034741875 -0.08933058
0.05720505 -0.094985165 -0.15562221 -0.07286515 -0.12789269 0.14220057 0.025955569 0.21357949
0.09347035 0.08869869 0.102993585 -0.08701535 0.14294067 -0.122524895 -0.12761977 -0.27936885
-0.090998456 0.00176963 -0.006286492 -0.28956276 -0.08095228 -0.11043142 0.04340356 0.071657166
0.19675803 -0.035854727 -0.07566692 -0.033654362 0.028634368 -0.26322487 -0.13609552 -0.053398777
-0.10874861 -0.03883409 -0.08543373 -0.10974688 -0.11815825 -0.09513141 -0.117531806 -0.0683639
-0.24334617 0.035702813 0.033469528 0.0012864936 -0.06293635 -0.2414338 -0.05481267 -0.13832231
-0.11816724 -0.14684181 -0.057349194 -0.21502468 -0.13097855 -0.19196433 -0.17312911 -0.018411567
-0.17217769 0.08699244 0.061120324 0.09009699 0.0022587904 -0.14023528 -0.19798641 -0.19509383
0.07104304 0.04609811 0.14599341 -0.13659804 0.07072785 -0.11920579 -0.083662525 -0.099878006
-0.10098838 0.023546955 -0.068507396 -0.107659504 -0.06375562 -0.0795774 -0.00671101 -0.13215467
-0.16286476 -0.19839118 0.19827802 -0.013318416 -0.08172925 -0.23409487 -0.20912842 -0.22876474
-0.13066286 -0.13304937 -0.1754115 0.250909 -0.1843285 -0.015527114 -0.14190738 -0.098962106
0.034275934 0.10365302 -0.22600247 -0.14458929 0.24371883 -0.01920672 -0.12811173 -0.0042601647
-0.17901437 0.15616418 0.12605181 -0.03243546 0.02368138 -0.08209819 -0.12756345 -0.12867501
-0.19700702 -0.1961844 -0.16551872 -0.051004097 -0.25822225 -0.18544231 -0.18110004 -0.30056328
-0.04603947 -0.1695609 -0.072874136 -0.09049411 0.2316392 -0.0026034152 -0.18567695 -0.06164061
0.16898754 -0.06462758 -0.11175488 -0.15235776 -0.13843249 0.15200676 0.07757563 0.11901921
0.08227881 0.03436745 0.14038874 -0.17754278 0.098413765 -0.10200373 -0.12781346 -0.27908784
-0.13735694 -0.17239393 -0.017269244 -0.253763 -0.161405 -0.108718164 0.01782903 0.024738597
0.06423013 -0.10907249 -0.17038198 -0.14308012 -0.14632459 -0.1956254 -0.13872562 -0.1916251
-0.22795969 -0.10847188 -0.17468259 -0.16711746 -0.16496536 -0.1382255 -0.01363422 -0.06814293
-0.2351635 0.1790405 -0.030080907 -0.013427512 -0.029064136 -0.11792599 -0.18293601 -0.16697575
-0.17968969 -0.21327943 -0.12924643 -0.11503303 -0.19987774 -0.1520938 -0.1594793 -0.14810406
-0.18160571 0.09559864 -0.13963854 -0.07829984 -0.11131264 -0.27944124 -0.19173954 -0.11429782
0.18958549 0.21001713 0.20189255 -0.04054152 0.031216532 -0.024581721 -0.14491661 -0.3731185
-0.05635949 -0.045974787 -0.21319398 -0.16666363 -0.054891694 -0.13629232 -0.21274371 -0.14282864
