model_checkpoints/lstm_hdim_128_wsize_20_interval_7_nlayers_1_bs_512_lr_0.01_decay_0.95_epoch_44.pt (torch, 277987 bytes, 6 tensors)

lstm.weight_ih_l0 f4 [512, 4]
000000 4e a0 7f bd aa b7 65 bb 7e b2 44 be da fd 3c 3e
       -0.062408738 -0.00350521 -0.19208714 0.18456212
000010 f1 b9 08 bf 37 33 bd 3e 3e 8f cf be 9d e4 86 3e
       -0.53408724 0.36953136 -0.40538973 0.26346293
000020 ac cb 37 be fa f3 fc bd 80 df b6 3c e5 9b 54 3d
       -0.17948788 -0.12351222 0.02232337 0.051906485
000030 c1 83 f6 bd 37 d9 ef bc d9 b4 32 3e a5 1e 01 be
       -0.12036849 -0.02927838 0.174518 -0.12609346
000040 d8 e3 ee bb 37 00 a3 bd 80 6e 84 be be b6 31 3e
       -0.0072903447 -0.07959025 -0.25865555 0.17354867
000050 db 85 60 be 26 46 49 bc 49 4c e8 3c 1a ab 28 3e
       -0.21926062 -0.012284791 0.028356688 0.1647152
000060 2c 2c d4 bd 77 3c b1 bd 7a 7a bb bc c0 99 d4 bd
       -0.103599876 -0.08654111 -0.02288555 -0.10380888
000070 69 5a c5 bc 5b da b6 bd 94 02 84 bc 62 aa 4b be
       -0.024090962 -0.08928367 -0.01611451 -0.19889215
000080 cf 63 29 3e b8 a8 7d 3e 7c 69 0d be db 6d be bd
       0.1654198 0.24771392 -0.1380977 -0.09298297
000090 c7 e2 1c bf 83 1e dd 3d 5d ae 56 bf 88 04 77 3e
       -0.61283535 0.10796835 -0.8385981 0.24122822
0000a0 86 72 56 be 8f 89 64 be e8 d5 1c bd 96 51 84 be
       -0.20942125 -0.223181 -0.038289934 -0.25843495
0000b0 55 27 04 bc 08 ab da 3c e7 df 2a 3e 73 bc 4c 3e
       -0.008066018 0.026692882 0.16686974 0.19993763
0000c0 5b d3 f7 bd 36 57 9c bd f1 83 a8 bf 3b 32 21 c0
       -0.1210086 -0.07633822 -1.3165265 -2.5186908
0000d0 bf 6b 94 bd d6 41 fc 3d dd d2 bd bc cc a7 52 be
       -0.072471134 0.12317245 -0.023171837 -0.20571822
0000e0 16 29 3b be d2 35 1b 3e c5 69 34 bf 6e 11 3b bf
       -0.18277392 0.1515725 -0.7047389 -0.7307347
0000f0 ee f6 43 3e fe 67 25 bc 9e f7 6b be 35 97 b7 3d
       0.19137165 -0.010095594 -0.23043677 0.08964387
000100 1c bb c0 3c f6 54 92 bd b6 75 a5 bd 7f c4 34 bf
       0.02352672 -0.07145111 -0.08079092 -0.7061233
000110 16 1c 0a 3e bd ee 0d 3e 70 43 fc 3d fe 72 b9 bc
       0.13487276 0.13860603 0.1231755 -0.02263784
000120 0d 54 47 3e ca 5b 1b 3f 6f 8a d0 c0 eb 70 07 c0
       0.19465657 0.60686934 -6.5168986 -2.116267
000130 5a 9e e9 be b9 f8 e5 be 8e 46 2f 40 90 91 6b 40
       -0.45628625 -0.44916323 2.7386813 3.6807594
000140 d4 3c 80 be 65 9c 81 be af 22 49 3e 30 47 2b bf
       -0.25046408 -0.25314632 0.19642137 -0.669055
000150 ad fe 16 bd 9f 2c 31 bd 5b 8f 0e c0 38 0a 8a bf
       -0.03686397 -0.043255445 -2.2274997 -1.0784369
000160 e4 15 fe be 35 91 df bc ca 20 c2 3b 04 89 22 3e
       -0.49626076 -0.02729092 0.005924319 0.1587258
000170 4d 1e 75 be 20 c0 39 be ae 3f 96 be c8 f6 c7 be
       -0.2393734 -0.18139696 -0.2934546 -0.39055467
000180 2c 36 75 3d 49 97 4c be 2a ee b5 bd c3 60 78 3e
       0.059866115 -0.19979586 -0.08883317 0.24255662
000190 c0 2e 84 bd fe 01 0b be 3d 9c a0 3e 4c ae 0a 40
       -0.06454229 -0.13574979 0.313692 2.1668882
0001a0 88 b2 b0 3c 29 4d 58 be a4 b0 53 be 57 8d 8e 3e
       0.021569505 -0.21123184 -0.20672852 0.2784221
0001b0 2d ef c9 3e 0f 99 3f bc 24 cb 4c be c4 ed 1a bd
       0.3944029 -0.011694207 -0.19999367 -0.037824407
0001c0 2c f3 c7 3d 9d 68 2b 3e fb 14 f0 3d 66 4c 1e 3e
       0.09763178 0.16739126 0.11722752 0.15458831
0001d0 38 2e 5d be 18 a0 ed be a8 9a fd be a2 f5 f3 3e
       -0.21599662 -0.46411204 -0.49532056 0.4764834
0001e0 6b 7f 92 3d 99 74 13 be 80 9e 7d 3e 3c 21 8e be
       0.07153209 -0.14399947 0.24767494 -0.2775973
0001f0 8b 0c 1a 3e ce b5 b3 3d b4 ee 0c bd 3c 2a 04 bd
       0.15043847 0.08774911 -0.034407333 -0.03226684
000200 f7 43 82 3d 4f 3e 42 bc 11 2f 7e 3e 33 b1 34 3e
       0.063606195 -0.011855676 0.24822642 0.17645721
000210 6e d3 0d 3e c6 10 18 be 3e 6b f4 be c1 a2 fc be
       0.13850185 -0.14850149 -0.4773807 -0.4934292
000220 b1 02 5f 3e 40 72 58 3b 60 e2 17 3e 04 f0 d1 bf
       0.2177837 0.0033027083 0.14832449 -1.6401372
000230 bf ab 2d bd 50 1b 2c 3d 8d 8e 80 3d c6 66 06 bd
       -0.042400118 0.042018235 0.062771894 -0.032812856
000240 1b 70 18 3e 91 59 bc bd 0e 2d 69 bd 25 f6 94 be
       0.14886515 -0.09196771 -0.056927733 -0.29094043
000250 b2 d3 ff bb 8e 03 0a 3e a2 5e 5c 3e ec f3 f0 3d
       -0.0078072185 0.13477919 0.21520475 0.117652744
000260 6a 8a 56 bb dc de bb 3c 67 b3 84 be f7 18 37 3e
       -0.003273631 0.022933416 -0.25918123 0.17880617
000270 89 bf dd bd 1c 98 7e bd b5 30 27 3e 90 07 6a be
       -0.10827548 -0.06215678 0.16327174 -0.22854447
000280 2d eb 2e 3e 17 fb ce bd 99 d9 eb be d3 33 74 be
       0.170819 -0.10106485 -0.4606445 -0.23847894
000290 3f f4 39 3e a8 77 62 3e 10 c9 8b 3d ee c8 98 3c
       0.18159579 0.22115958 0.06825459 0.018650498
0002a0 7a 45 83 3d 2e 7e f5 3d 54 d5 77 be 44 8b e9 bc
       0.06409736 0.119869575 -0.24202472 -0.02850879
0002b0 69 72 47 bd 42 a4 85 3d d8 b7 72 3d 54 72 f8 bd
       -0.048693094 0.0652547 0.05925736 -0.12131181
0002c0 06 54 a8 be 6c 00 df bd c0 69 31 be 21 dc c7 be
       -0.32876605 -0.10888752 -0.17325497 -0.39035133
0002d0 ec 92 09 bf 2b 51 e1 3d 7f 5d 41 3f 7d 5d ab bf
       -0.5373981 0.1100181 0.7553329 -1.3387905
0002e0 ba 72 82 3d 63 37 45 3c 9e e8 64 be 85 18 dd 3d
       0.063695386 0.012037131 -0.22354361 0.10795692
0002f0 5a bc 9c bd 1a 4d bc be 6a 72 17 be 0d 4c 6a be
       -0.07653113 -0.36777574 -0.14789739 -0.22880574
000300 c1 57 0a 3e 51 b6 7a 3e 40 41 9d be c7 45 a8 3d
       0.13510038 0.2448361 -0.30713844 0.08216434
000310 49 b5 a9 3e a9 6a 53 be a1 cc 99 bd 53 b8 0f bd
       0.33146122 -0.20646156 -0.07509733 -0.035087895
000320 b4 5c cd 3d 17 f9 1a 3e 18 14 14 3e 94 a0 f0 be
       0.10027447 0.15134083 0.1446079 -0.4699751
000330 e7 a1 3e bd e1 43 d5 3d 7a d8 15 bf 4c 8b e0 be
       -0.04654112 0.104133375 -0.5853344 -0.43856275
000340 d1 1a a4 bd e6 b7 a2 be 4e 22 9e 3d 3a 3f 01 41
       -0.08012927 -0.31780928 0.07721387 8.077936
000350 87 71 77 3d f6 66 44 bd 3d e8 87 bf 60 b1 1f bf
       0.060411002 -0.047949754 -1.0617748 -0.6238003
000360 1a 3d 06 3e 10 ac f0 3d 4e e1 96 bd 5a 38 d7 3a
       0.13109246 0.11751568 -0.07367192 0.0016419992
000370 a9 f3 ac bd 57 89 03 be a8 d9 01 40 fd 72 01 3f
       -0.08444912 -0.1284536 2.0289097 0.50566083
000380 84 ac 07 be 30 a3 bf be 11 74 d3 bc 64 d1 fd be
       -0.13249403 -0.3742919 -0.02581218 -0.49573815
000390 5a 1c 97 be 64 19 37 3e e4 b9 f4 bd 65 98 9c be
       -0.29513818 0.1788078 -0.11949518 -0.30585018
0003a0 2e 0d bf be fe 09 83 be 66 00 71 3d 7a b8 30 bd
       -0.37314743 -0.2559356 0.05883827 -0.04314468
0003b0 24 75 f2 3a cb 35 1e 3e 62 c5 85 be 55 6d 31 be
       0.0018498045 0.15450208 -0.26127154 -0.17326863
0003c0 fb 93 96 bd d0 af 5b be 8a 7b 0c bf 68 82 52 3e
       -0.07352444 -0.21453786 -0.54876006 0.20557559
0003d0 c6 7f f2 bd 9e 68 79 3e 6b da 01 3e 04 f8 38 3e
       -0.11840777 0.24356315 0.12680976 0.1806336
0003e0 0b c7 16 bf b0 f1 2c be bc 25 df 3e d3 96 53 bb
       -0.58897465 -0.16889071 0.43583477 -0.0032285943
0003f0 77 2b d2 bd 75 36 8c 3d ff 19 ce 3c 4a 98 22 be
       -0.102621965 0.06846324 0.02515888 -0.15878406

lstm.weight_hh_l0 f4 [512, 128]
000000 16 b0 2a bc b4 23 93 be 4d 6e a6 bb b4 10 cf 3d
       -0.010417959 -0.28738177 -0.005079067 0.10110608
000010 92 e6 c1 3e 17 4c a3 3d 84 50 50 3c 6c fe 88 3d
       0.37871224 0.07973497 0.012714509 0.06689152
000020 31 ac 87 3d 1c e7 00 3f d1 f7 02 be ce 0d 54 bd
       0.0662464 0.50352645 -0.12789847 -0.051770978
000030 40 7b 0d 3f 48 0d 69 3e 09 22 45 bd f8 19 6f bc
       0.5526619 0.22758973 -0.04812816 -0.014593594
000040 80 3f 2d bd 8f 63 e2 3c a2 8f 44 bf b3 74 c4 3f
       -0.042296886 0.027635364 -0.76781666 1.5348114
000050 d0 06 00 3f f2 a7 d2 3e 7d 28 61 bc bf f8 84 be
       0.50010395 0.41143757 -0.013742563 -0.25971028
000060 44 31 5d 3d 18 53 02 be 1c 70 0a bd d1 30 aa bd
       0.05400206 -0.1272701 -0.033798322 -0.08310092
000070 f3 de 16 bc 84 25 1c 3c f8 47 b1 bc ff 8e a5 bd
       -0.009208429 0.009530429 -0.021640763 -0.08083915
000080 49 c9 b1 bd 80 92 23 be 55 4d 24 bf 82 8e f0 bc
       -0.0868097 -0.15973854 -0.641805 -0.029364828
000090 90 bd 2e 3d d3 2e 27 3d 6c bc 17 3d be 37 47 be
       0.04266125 0.04081614 0.037044927 -0.19454858
0000a0 dc 70 f6 bd 8b be 14 3e a1 3d 6d 3d ad b4 12 be
       -0.12033245 0.14525811 0.057920102 -0.14326735
0000b0 8f 9b 1c 3e 91 7f b4 bd c3 6d 93 3d 61 97 a5 3d
       0.15293716 -0.08813394 0.0719867 0.08085514
0000c0 b1 40 e4 bd 5c 06 00 3c 95 e6 13 bf ef c4 88 be
       -0.111451514 0.007814016 -0.57773715 -0.26712748
0000d0 78 a0 6d bf fc a5 0d be 63 96 5e be c0 c1 91 3a
       -0.9282298 -0.1383285 -0.21737055 0.0011120364
0000e0 f1 a0 77 be 53 d4 61 3e 12 f3 01 bf ef 72 5c 3c
       -0.24182488 0.22053652 -0.5076152 0.013455137
0000f0 db b9 84 be e4 1c 44 3d 34 70 2b 3d 08 e7 d2 3b
       -0.25923046 0.047879115 0.041855052 0.0064362325
000100 ae c8 d9 3e 42 60 b9 3e 76 56 d2 3c 36 34 65 3c
       0.4253592 0.3620625 0.025675993 0.013989499
000110 85 35 99 be b3 a0 5c 3e 84 26 9a 3d d7 d2 9d 3d
       -0.29923645 0.21545677 0.075268775 0.0770623
000120 67 a7 75 be a9 1d fb 3d 69 71 04 3f 47 a1 fc bd
       -0.2398964 0.122615166 0.5173555 -0.12335449
000130 b5 ea 44 3d 4c 9a 07 bd 24 84 a4 be 69 ae 8e bd
       0.048075397 -0.033106133 -0.32132065 -0.0696686
000140 29 24 2b bd cb 03 d8 3e b3 2a a7 be 74 49 57 3d
       -0.041782532 0.42190394 -0.32649764 0.052560285
000150 7f 5a 0b 3f 76 29 d0 3d 67 c4 85 bd 66 9b cf bd
       0.5443496 0.10164158 -0.065316014 -0.10137062
000160 b5 cc 62 bd b9 a9 64 3e d7 d5 c4 bd 59 6e 83 bd
       -0.055371005 0.22330369 -0.09611099 -0.064175315
000170 d7 50 28 be 1c 13 d5 3d 7a f7 9a 3d d3 fd b6 3d
       -0.16437088 0.104040354 0.07566734 0.08935132
000180 0a 7f 5d be e0 b8 b1 3d a3 51 8f be b0 ab 7f bd
       -0.21630493 0.0867784 -0.2799197 -0.062419593
000190 a1 b1 f7 bd 06 7e a6 be 24 50 df bd 80 fe 19 be
       -0.12094427 -0.32518023 -0.109039575 -0.1503849
0001a0 66 4a dd 3d d7 65 9c bc c3 cf 06 3f 88 25 ec 3d
       0.10805206 -0.01909153 0.5266077 0.11530596
0001b0 1d 3d ed 3e 33 ce 82 be 8d e3 47 be de 5b 10 be
       0.46335688 -0.25547943 -0.19520397 -0.14097545
0001c0 79 71 b8 3d 4e 84 e0 bb f1 e5 1c 3e 68 60 66 be
       0.09006018 -0.0068517094 0.1532209 -0.22497714
0001d0 f5 52 c1 3d 0d c6 64 bd 74 08 1c 3e f8 b0 c3 be
       0.09439651 -0.05585294 0.152376 -0.38220954
0001e0 96 38 69 3e 9c 7a b4 3e 14 55 87 bc 79 c3 0a be
       0.22775492 0.35249794 -0.01652006 -0.1355113
0001f0 9e 9b f8 3d 41 7e 2e 3f 08 02 37 3e f6 15 94 3f
       0.121390566 0.681614 0.17871869 1.1569202
000200 31 e3 ae 3e 66 0a 92 bf 98 68 3f bf f1 a0 e1 3e
       0.34157708 -1.1409423 -0.7476897 0.440681
000210 c4 9d 23 3e 7a 75 b3 be 8b 36 1a 3f fc 7d a9 3e
       0.15978152 -0.35050565 0.60239476 0.3310393
000220 c4 38 17 3f 98 03 08 bf 63 6c 2b bf d4 14 2b 3f
       0.5907099 -0.53130484 -0.6696226 0.66828656
000230 63 ee be bf 47 6c 13 3f f9 48 bd be db d8 9d be
       -1.49165 0.57587093 -0.36969736 -0.3082951
000240 5b c8 cb 3e ba dd 09 3f f2 c7 a9 bf 22 52 66 3e
       0.39801297 0.5385395 -1.3264143 0.22492269
000250 da e9 c4 bd bd a3 31 3f dc 9e 21 bd 6e ba 2b bf
       -0.09614916 0.6939047 -0.03945814 -0.67081344
000260 7b d0 ee be e3 9c 50 be 51 89 95 3e 82 b0 88 3f
       -0.46643433 -0.20372348 0.29206327 1.0678866
000270 9a 30 d6 3e 06 cd 27 be 75 13 63 3f 29 cf 86 be
       0.41833955 -0.16386804 0.88701564 -0.26329926
000280 18 51 e7 bf e0 bc b8 3e 92 15 94 bf 74 50 8b be
       -1.8071623 0.360816 -1.1569083 -0.27209818
000290 00 c1 13 bf 15 ac 35 3f c8 ab c2 3e 07 9d d3 bf
       -0.5771637 0.709657 0.38021684 -1.6532296
0002a0 86 a9 8f be 13 38 26 bf 96 24 b8 3e 32 c7 86 be
       -0.28059024 -0.6492931 0.35965413 -0.2632385
0002b0 fc cd 24 3e fe 39 02 3f 4f e5 63 be 6d 88 a5 be
       0.16094202 0.5086974 -0.22255443 -0.32330647
0002c0 79 1c cc 3e ea ad ff 3e 74 e6 9b 3f dc 1f e2 3d
       0.39865473 0.49937373 1.2179704 0.11041233
0002d0 b4 35 88 3f 80 ca e9 be 50 e3 ee be 6d 0b 2f bf
       1.0641389 -0.45662308 -0.466578 -0.6837681
0002e0 41 1d aa 3e aa d7 42 bd 6a a1 6d bf 5a 76 11 3f
       0.33225444 -0.047568955 -0.92824423 0.56821215
0002f0 ca fd ba be fe f4 4d be 00 2b 28 3f 15 aa df 3e
       -0.3652175 -0.20112988 0.6569061 0.4368445
000300 8b 78 9a be 82 52 43 be 9e 1b 8d be cf 00 42 bf
       -0.30170092 -0.19074443 -0.27560133 -0.75782484
000310 79 6a 2f 3f 8a 63 2f bd 79 3b aa 3e 15 cd 36 3f
       0.6852184 -0.042819537 0.332485 0.7140668
000320 eb fc 2d 3e 97 32 2d be 1e bb 25 bf 36 da cc 3e
       0.16991012 -0.1691383 -0.64738643 0.40010232
000330 54 52 72 bd 58 81 a7 3e d4 5b ed be da 38 fd be
       -0.059160545 0.3271587 -0.46359122 -0.49457437
000340 ce 88 c8 3e 35 09 4c 3f bd bf 3e bf 49 49 2b 3d
       0.39166874 0.7970155 -0.7451132 0.041817937
000350 4a b3 48 bf 32 80 e7 3d 4a a1 86 3e ac 2d 14 bf
       -0.78398573 0.11303748 0.2629493 -0.5788219
000360 0b bf cb be a6 e6 98 3f 23 b7 9c bf a5 3b 24 3f
       -0.39794192 1.1945388 -1.2243389 0.6415351
000370 1b 87 0c bf 1e 31 5d bc 82 88 26 bf 2a 42 2d bf
       -0.54893655 -0.01350048 -0.65052044 -0.67679083
000380 b8 9c 86 bf a9 9c 11 3f ba 94 23 bf 7e 61 c4 3c
       -1.0516577 0.5687967 -0.63898814 0.02397227
000390 9a f0 84 3f 92 4b 98 bd 3e 38 a6 bf 2a 02 9e bd
       1.0385926 -0.07436289 -1.2985914 -0.077152565
0003a0 46 c8 fb bd 32 2e 07 3f 43 ad 16 3e de 0f 00 3c
       -0.122940585 0.52804863 0.14714532 0.007816283
0003b0 0d c3 0e 3e 4a d0 72 3f 72 3c 61 bf 64 36 da 3e
       0.13941593 0.94849074 -0.8798286 0.42619622
0003c0 8b 92 38 3f dd 24 f8 be 20 20 4a 3f 51 62 ba bf
       0.72098607 -0.48465624 0.7895527 -1.4561254
0003d0 76 f9 f3 3e 1b ab 84 3e 33 f7 e3 bd 14 c3 4b 3f
       0.4765126 0.25911793 -0.11131134 0.7959454
0003e0 e8 bc 57 3f cf 95 94 bd cb f7 37 3d 90 5d 36 bf
       0.84272623 -0.07255136 0.04491405 -0.71236515
0003f0 8e 97 4d 3d 38 16 7c 3e 38 95 41 3c 15 fa 17 bf
       0.050193362 0.24617851 0.011815362 -0.5936597

lstm.bias_ih_l0 f4 [512]
000000 63 dc d2 bd 9d 43 de 3d 23 8d 66 be ac 03 38 be
       -0.10295942 0.1085274 -0.22514777 -0.1797015
000010 7d e4 a7 bc a3 05 98 bd a7 55 04 bd 87 07 65 bd
       -0.020494694 -0.0742295 -0.032308247 -0.05591538
000020 35 75 2c bc c5 5b 21 3e 86 8d 15 be 86 9e 8f bd
       -0.010525991 0.15757664 -0.14604768 -0.07012658
000030 29 ff 79 be 29 18 41 bb 2c a2 3d be 37 33 05 bc
       -0.24413742 -0.0029463863 -0.18518895 -0.008129886
000040 be 5e e9 bc 65 7a f3 3c c4 7c 05 3f 8d d2 69 be
       -0.02848756 0.029721448 0.521435 -0.22834225
000050 2c 8b 52 be b8 3f ac bd 19 87 0b be ae 86 30 be
       -0.20560902 -0.08410591 -0.13625754 -0.17238876
000060 a1 c9 1a bd 5c ad 93 be 6b 71 05 be f3 17 b3 3d
       -0.037789945 -0.288432 -0.13031547 0.08744802
000070 48 c9 0e bd 8b 00 d8 be 65 77 71 be a3 af 91 3d
       -0.034859926 -0.42187914 -0.23580702 0.07113578
000080 75 9f ea bd 57 71 3a be b9 83 93 3d 04 d8 14 be
       -0.11456195 -0.18207298 0.072028585 -0.14535528
000090 2d 17 db bd 3e d8 93 bd 19 86 00 be b5 58 12 be
       -0.1069778 -0.07218979 -0.12551154 -0.14291652
0000a0 7f 6a e2 bc 18 03 c1 3b f5 23 21 be 66 0e 2b bd
       -0.027638672 0.0058902614 -0.15736373 -0.04176178
0000b0 99 74 88 bd e7 a0 0e bd 3f eb 20 be f7 b9 9b be
       -0.06662864 -0.034821417 -0.1571474 -0.30415317
0000c0 f7 45 8c bd 39 c1 49 3d c5 2e 62 3d a5 a7 4a bd
       -0.06849282 0.049256537 0.055220384 -0.049476285
0000d0 e9 dd aa bd 9f a2 90 bc 2a f3 b2 bc 29 2b 53 be
       -0.08343107 -0.017655669 -0.021844465 -0.20621933
0000e0 0e 80 07 be 46 d4 3a be f5 af bd be 5f 47 09 3d
       -0.13232443 -0.18245038 -0.37048307 0.03351533
0000f0 aa 99 be bd c1 6c 59 bc 2c f9 42 be 0e e6 22 be
       -0.09306653 -0.013270558 -0.19040364 -0.15908071
000100 4e 04 16 3e 6c 25 ac 3e d5 3d 41 3e ef 7f 1f 3f
       0.1465008 0.336223 0.18871243 0.62304586
000110 31 9d 8e 3e 93 57 a2 bd 3c 3b 2e be ef b4 76 bd
       0.27854303 -0.0792686 -0.17014784 -0.060231145
000120 2c fb 29 be 2c a2 12 be 74 aa d3 bc c6 ad d7 bc
       -0.1659972 -0.14319676 -0.025838114 -0.026327979
000130 12 6f 84 bd 7c 41 1c be 60 6e a8 bd fa 41 15 be
       -0.064664975 -0.15259355 -0.08224177 -0.1457595
000140 b4 11 88 bd 8b 46 73 bd e4 c4 d8 bd 08 65 dc 3c
       -0.066440016 -0.059393447 -0.10584429 0.026903644
000150 95 f9 c8 bc ef d9 d0 bd 63 cb 0a bd 8d 86 8e be
       -0.024533072 -0.101978175 -0.03388537 -0.2783703
000160 5a 25 0d be 22 07 59 be 22 28 d3 bd 4f 30 1c 3d
       -0.1378378 -0.21194127 -0.10310389 0.03813201
000170 06 13 89 be ca 28 13 be 0e 12 38 bd 12 ec c2 ba
       -0.26772326 -0.14371029 -0.044939093 -0.001487138
000180 b7 de 85 3c 10 24 1f 3b 35 ef 15 3d db ea 77 be
       0.01634155 0.002428297 0.03660508 -0.24210684
000190 c4 36 dc bc a0 91 30 be 0c 88 a4 bd 1b 78 88 be
       -0.026881583 -0.17243052 -0.080337614 -0.26654133
0001a0 e8 a3 84 bd e2 d7 07 be a8 ac af bd 2f 6e 79 bd
       -0.06476575 -0.13265947 -0.085778534 -0.060896095
0001b0 61 0d 0d be c4 83 de bc 06 05 f6 bd 9b b4 7e 3d
       -0.13774635 -0.02716244 -0.12012677 0.062183958
0001c0 df 06 90 bd d7 2a 16 3d 3e 33 11 be 0f db 8c 3e
       -0.070325606 0.03666195 -0.14179704 0.27510878
0001d0 c6 8d da bc 09 a9 ba be 5c 9c 57 3e 16 a7 e3 bb
       -0.026678931 -0.3645709 0.2105574 -0.0069474084
0001e0 8e 6c 29 3f 65 4c 20 be 94 23 7b be 3d 87 13 bd
       0.66181266 -0.15654142 -0.2452529 -0.036017645
0001f0 56 f1 5f be a0 d6 30 3c 67 e7 23 be 1a 5a 94 3d
       -0.21869406 0.010793358 -0.16006242 0.07243748
000200 10 bc 0a be ce d1 4a be 17 32 c3 bd 0d 79 be 3d
       -0.13548303 -0.19806597 -0.09531038 0.09300432
000210 24 b4 39 bd d5 56 d1 3d 98 86 64 3d 98 07 e2 bd
       -0.04533781 0.1022164 0.05579242 -0.11036605
000220 34 b2 58 3d 88 e3 d5 3d 15 9a 03 be 37 1f fe bd
       0.052904323 0.10443789 -0.12851746 -0.124082975
000230 b1 48 a5 be 3b fc 09 be ac 06 46 3e 62 4f e0 bb
       -0.32282022 -0.13475125 0.19338483 -0.0068454007
000240 d7 0d 14 be 5e 01 08 3c 1b 50 29 be 79 eb b0 3d
       -0.14458404 0.008301107 -0.16534464 0.08638663
000250 c0 4b 84 bd 61 a8 21 be 1e c9 2e be 9f 7e c3 bc
       -0.06459761 -0.15786888 -0.17068908 -0.023864089
000260 98 9e b8 3b 27 7d cd bd 41 1d 7a bd a2 a0 0e bd
       0.00563414 -0.100336365 -0.061063055 -0.03482116
000270 a1 64 bf bc 39 d4 88 be 55 e5 7b bd 6f c6 b8 bd
       -0.023363413 -0.26724413 -0.061498005 -0.09022223
000280 48 4b 0d 3e 7d c3 b2 be 2e ba fe 3d d3 b9 be 3c
       0.13798249 -0.3491477 0.12437855 0.023281967
000290 33 c2 de 3c 59 50 3d bd 01 34 cc 3d e1 01 99 bd
       0.02719221 -0.046219204 0.099708565 -0.074710615
0002a0 ac e7 ae bd d0 cc c8 bc 97 4f c2 3d e0 17 c0 3c
       -0.08540282 -0.024511725 0.09487837 0.023448884
0002b0 7a 8e 22 be 15 68 a9 3c 69 1a 77 bd 03 a2 a8 bd
       -0.15874663 0.020679513 -0.06032792 -0.08234026
0002c0 e6 8a 88 bd a6 d3 c5 b8 2e b4 9b 3d bd 22 cc bc
       -0.06667118 -9.4331146e-05 0.07602726 -0.024918908
0002d0 32 b4 11 be 0d af 31 be 5e ff 48 bc 98 2d 8a bd
       -0.14228895 -0.17351933 -0.0122679155 -0.067469776
0002e0 ec 04 50 be 25 e5 b1 bc 3a 82 02 3f 04 6d 31 bd
       -0.20314378 -0.02171571 0.5097996 -0.043316856
0002f0 61 61 4f bd c6 cd ed bc ad be 42 be a6 e5 3e 3c
       -0.050629977 -0.029028784 -0.1901805 0.011651432
000300 09 96 56 be d2 ca 6c 3d 5a f0 51 be a2 80 fe bd
       -0.20955671 0.057810612 -0.20501843 -0.124268785
000310 f4 3b 12 3e 38 29 3a 3d 59 35 a8 3d 1c b7 c7 bb
       0.14280683 0.045449466 0.082133 -0.0060948264
000320 aa b6 6b 3e 3f a0 07 bb 3b 1d 42 3e 26 cb d7 3d
       0.230189 -0.002069488 0.18956463 0.10536794
000330 e0 bd ab bd 3a ea b0 bb 63 9b 0f bc c7 39 0d 3b
       -0.08385825 -0.0053990157 -0.008765074 0.002154933
000340 60 0d 88 3c d0 06 93 bd 12 9e 16 be 04 ae b0 bd
       0.01660794 -0.07179034 -0.14708737 -0.08626941
000350 46 e6 28 be 8e e9 40 be c5 4d ce bd 4f 60 08 3f
       -0.16494092 -0.18839094 -0.10073427 0.53271955
000360 46 c5 dc bd f6 d9 16 3e 7e da d1 bd b7 20 c0 3d
       -0.107798144 0.14731583 -0.10246752 0.0938124
000370 53 65 51 be 60 70 40 3e 3b 5f 44 3d 9a d8 1d 3c
       -0.20448808 0.18792868 0.04794238 0.009634161
000380 2c 8d ad bd 25 7f 25 bd 0e 62 2c be df c2 06 3d
       -0.08474192 -0.040404458 -0.1683428 0.032900687
000390 6c 78 1f bd fc a8 0f be fd d1 30 bc 60 86 41 3c
       -0.038933203 -0.14029306 -0.010792253 0.011811823
0003a0 16 dd e9 bd 97 37 d5 3a 19 f3 59 3d a8 c8 ae bd
       -0.11419122 0.0016267177 0.05321035 -0.08534366
0003b0 0f ea 7b bd 20 2f ee bd 28 4d 29 be 96 70 bc bd
       -0.061502513 -0.11630082 -0.16533339 -0.092011616
0003c0 6e 95 59 bd 72 d0 81 be e4 e6 ae bd 5e 9b a7 be
       -0.053121023 -0.25354344 -0.08540133 -0.32735723
0003d0 12 1f a7 3c f0 75 2b be af c5 1f be 97 7b a2 3d
       0.020400558 -0.16744208 -0.15602754 0.07933729
0003e0 af ec 37 3c 0a cf 64 bd 12 3d 55 be bc 53 f4 3d
       0.011225863 -0.05586151 -0.20824078 0.119300336
0003f0 1e 47 47 be d5 06 e0 3d d4 db 99 bd a1 bc 4a bc
       -0.19460723 0.10938803 -0.07512632 -0.012374074

lstm.bias_hh_l0 f4 [512]
000000 c0 cf 32 bd 64 34 c1 3d b1 a1 14 be 43 90 e0 bd
       -0.043655157 0.09433821 -0.14514805 -0.10965016
000010 70 54 db bc 21 de fd bd 5e 75 43 be 87 ce 05 bd
       -0.026773661 -0.12395883 -0.19087741 -0.032667663
000020 72 ef 83 bd 7a 12 1f 3e db a1 98 bd bf 30 41 3d
       -0.06442155 0.15534392 -0.074527465 0.04716563
000030 fe 9e 8a be b3 21 27 be a0 37 b8 bd 55 48 9f bd
       -0.27074426 -0.16321449 -0.089949846 -0.07777468
000040 d4 cf a3 bd b3 16 e7 bd 0f 8c 06 3f 3b 60 72 be
       -0.079986244 -0.112836264 0.5255746 -0.23669522
000050 c6 b1 85 be 84 5d 87 bd d1 0b 47 be f2 89 3a be
       -0.26112193 -0.066096336 -0.19438101 -0.18216684
000060 15 27 13 be 94 05 42 be 28 a9 36 be 98 32 5e bd
       -0.14370377 -0.1894744 -0.17837965 -0.05424747
000070 72 f9 46 bd 2c 19 cf be 22 d9 69 be e4 33 08 3d
       -0.048577733 -0.40448892 -0.22836736 0.03325261
000080 04 58 3d bd c1 5e 5a be cd bf aa 3d 27 3a 74 bd
       -0.046226516 -0.21325208 0.08337364 -0.05962577
000090 d3 d7 e8 bc f1 3c f7 bd 3b 5f 87 bd 44 4c 29 be
       -0.028423226 -0.120721705 -0.06609961 -0.16533
0000a0 20 1c c9 bc d0 91 b7 bd 89 8b 2b bd 66 47 8b bd
       -0.024549544 -0.089633584 -0.041881118 -0.068007275
0000b0 a1 a3 36 be 6f 47 40 3d 89 93 4d be 4e ac 86 be
       -0.17835857 0.046943124 -0.20075811 -0.26303333
0000c0 e8 cb 5e bd 06 39 37 3d 66 bc 3f 3e c2 66 0e bd
       -0.05439368 0.044732116 0.18724212 -0.034765966
0000d0 4c 8d 15 be 88 e8 05 bd 6a 21 9c 3d d4 c6 c5 bd
       -0.14604682 -0.032692462 0.07623561 -0.09657064
0000e0 97 9d 09 be e9 58 3b be 70 20 6f be 1a 72 0d bb
       -0.13439022 -0.18295635 -0.23352218 -0.0021582902
0000f0 93 55 29 be ce c5 5e 3c 82 8a 62 be 8a 92 10 be
       -0.1653655 0.013596965 -0.22123149 -0.141184
000100 aa 1b 13 3e 68 ae 5f 3e a3 ab 16 3e 7b 34 16 3f
       0.14366022 0.21843874 0.14713912 0.5867383
000110 df 8c ab 3e cf 19 78 3c a0 e6 2e be 92 2d 16 bd
       0.33505914 0.015142872 -0.17080164 -0.036664553
000120 d8 6a 96 be 2a b8 4e be cd 35 1f 3c 8e 5c 92 bd
       -0.2937839 -0.2018744 0.009717417 -0.0714656
000130 aa 08 58 bd 75 40 d3 bd 42 de f4 3b 0b d0 5e be
       -0.052742638 -0.103150286 0.0074727843 -0.2175905
000140 5f 7d 70 bd e9 f7 fe 3c ae ba 43 bd dd 6c d3 bd
       -0.058713313 0.031124072 -0.047785453 -0.103234984
000150 ef 2c 81 bd 77 ba 88 bd 3d e5 c8 3c 4b 68 69 be
       -0.063073985 -0.0667619 0.024523372 -0.22793691
000160 e8 1a 9e bd a3 31 21 be 39 f9 a6 bd 43 b4 82 bd
       -0.07719976 -0.15741591 -0.08153004 -0.063820384
000170 b0 aa 63 be a0 7a 05 be ec d3 de bc e1 51 27 3d
       -0.22233081 -0.13035059 -0.027200662 0.04084957
000180 32 48 ef 3b aa 19 50 bd 9a 47 22 3d f9 25 54 be
       0.0073023075 -0.050805725 0.039619066 -0.2071761
000190 87 5e b7 bd b0 8a 2a be 78 b9 10 3d fc 82 b0 be
       -0.089535765 -0.16654468 0.035333127 -0.34474933
0001a0 8d 66 19 be 73 8d 02 be d0 0f 31 be 6a c1 1e be
       -0.14980526 -0.12749271 -0.17291188 -0.15503469
0001b0 e9 f0 9d bd 6e c6 be bd d7 58 ac bd af a1 06 3d
       -0.077119656 -0.09315191 -0.08415382 0.032869037
0001c0 35 2e 79 3d 16 0d 26 bd 4c 4a 07 bd 9c 0b aa 3e
       0.060835082 -0.040539823 -0.03302984 0.33211982
0001d0 c3 e0 9a 3b 25 76 b8 be 13 e7 26 3e 23 7f a0 bd
       0.0047265007 -0.36027637 0.16299085 -0.078367494
0001e0 4f 5e 15 3f fd 92 08 bd fa b2 ce be fc c9 03 be
       0.5834703 -0.033343304 -0.40370923 -0.1287002
0001f0 e8 17 f6 bd 43 42 9e 3d d1 e2 7c be 98 01 a0 3c
       -0.120162785 0.07727482 -0.24695899 0.01953201
000200 2a 56 0b bc f1 62 77 be 1d 29 8c bd 45 6a 6a bd
       -0.00850443 -0.24158837 -0.06843779 -0.057230253
000210 d1 fc 96 3d 6a fc 07 3e 1d bb b9 3d df 8d da bd
       0.0737244 0.13279882 0.09068892 -0.10671591
000220 56 72 e5 bd 93 e2 a9 3d 3e cc 1f bd 31 25 5d bd
       -0.112034485 0.08295169 -0.03901314 -0.053990547
000230 ae b3 ab be cf ad ba bc cf ef 98 3d 61 f1 99 3d
       -0.33535522 -0.022787957 0.07467615 0.075167425
000240 a3 f0 36 bd 9a 78 18 bd 4e 2a 3f be a7 f5 ad 3d
       -0.044663083 -0.03722439 -0.18668482 0.0849412
000250 54 a8 5b bb 55 be 5a be a2 0f 97 be 45 bb af 3d
       -0.003351708 -0.21361668 -0.29504114 0.08580641
000260 60 bd 14 be b5 0a 6b be 67 ee 87 3c e8 77 ec bd
       -0.14525366 -0.22953303 0.016593171 -0.11546308
000270 79 1f 93 bc c9 1f 60 be 26 8e 52 bd 4d bf e1 bd
       -0.017959343 -0.21887125 -0.051405095 -0.11022816
000280 77 60 3a 3e ec ba 6d be 35 4c 02 3d 99 92 cb bd
       0.18200861 -0.23215836 0.031810958 -0.09940071
000290 8b 64 1f 3d 48 fe 03 be cd 14 18 3e 95 1d 2c 3d
       0.038914245 -0.1288997 0.14851685 0.0420204
0002a0 3d 1f a2 bd 88 ea 0d 3d ae 65 1a bb d2 45 50 bd
       -0.079161145 0.034647495 -0.002355914 -0.050847836
0002b0 1c 4a 21 be fc e3 a1 3c 49 71 7f 3c 8d 21 70 bd
       -0.15750927 0.019762032 0.015590974 -0.058625747
0002c0 b5 72 ff 3c 33 d6 7c bd 3a d5 6f 3d 1a 26 1e bd
       0.031182626 -0.061727714 0.058552958 -0.038610555
0002d0 88 16 f5 bd 7b 50 24 be f9 4a 81 bc e4 92 84 3d
       -0.11967188 -0.16046326 -0.01578282 0.0647333
0002e0 34 9b 82 be 29 5f 7e bd 07 5b e4 3e 7b 1e 0a 3d
       -0.25509036 -0.06210247 0.44600698 0.033720475
0002f0 ea 9f 9b 3c 31 73 c5 bd 5b bb 2a be 2f 29 0e 3d
       0.018997151 -0.09641112 -0.16673033 0.034707244
000300 5e e4 e4 bd e1 37 0e bc bd 69 70 be da 93 0c bd
       -0.1117637 -0.008680315 -0.23477836 -0.03432069
000310 3b c9 25 3e 80 88 8a ba 00 97 ad ba 70 13 c1 bc
       0.16190045 -0.0010569245 -0.0013243854 -0.023568839
000320 5a 6b d6 3d 0e 57 bb 3d b7 b9 3a 3e 77 97 3e 3d
       0.104696944 0.09147464 0.18234907 0.046531167
000330 0f ed 67 bd d8 fa 77 bd ae 54 82 3d 29 9e 0b ba
       -0.05662256 -0.060541958 0.063638076 -0.0005325997
000340 a0 03 3b 3c 0d c5 fb bd 73 27 c5 bd 24 22 39 be
       0.0114144385 -0.12293444 -0.09626665 -0.1807943
000350 0f 7c 90 be 6f 1e b3 bd 42 3e da bd 86 b0 03 3f
       -0.2821965 -0.08746039 -0.10656406 0.5144123
000360 69 a5 94 bd ea 66 04 3e 9f 7b 11 bd b9 a8 d3 3d
       -0.07258112 0.12929884 -0.035518285 0.10334916
000370 ab 67 73 be f5 0e ea 3d a2 1a 87 bc 4d 9e a7 3d
       -0.23770015 0.11428634 -0.016492192 0.0818449
000380 9f 0a 8a bd 3a ee 0d bd 17 38 22 be ac ca 22 bd
       -0.06740307 -0.03465102 -0.15841709 -0.039744064
000390 4f f2 38 bd bb 60 7f be da ad e4 bd 99 08 a0 bd
       -0.04515296 -0.24939243 -0.11165972 -0.0781414
0003a0 7c 40 61 be 19 8a 9a bd f5 27 00 bd 05 65 b2 bc
       -0.21997255 -0.07545871 -0.031288106 -0.021776685
0003b0 63 5f 41 be 8c 78 3c be 74 4c 50 be a6 93 1d be
       -0.18884043 -0.1840536 -0.20341665 -0.15388355
0003c0 dd 00 89 bd 8d e2 7e be 93 47 84 bd 7a a1 8e be
       -0.06689618 -0.2489111 -0.06458964 -0.27857572
0003d0 fc 53 11 bd 38 57 a1 be 59 99 88 be 7b 9f 45 bd
       -0.035480484 -0.31511855 -0.26679495 -0.048247796
0003e0 1d e4 6a 3a 1c 06 84 3d 6f 89 42 be 78 c8 af 3d
       0.0008960383 0.06446478 -0.1899774 0.08583158
0003f0 4b 09 76 be d1 ec 0e 3e 12 af 14 3d 60 85 46 3d
       -0.24026982 0.13957526 0.036299773 0.04846704

fc.weight f4 [4, 128]
000000 a2 29 ab bc 46 e8 07 3e e1 d9 a2 3c d9 4e 8d bd
       -0.020893876 0.13272199 0.019879283 -0.068998046
000010 5a af 9c 3c 73 fd 89 3c fb 38 ed bc 29 a2 87 bd
       0.019126583 0.016844487 -0.028957834 -0.066227265
000020 0e f2 16 be 36 1a 0f bd 66 c3 59 3d b4 b1 14 bb
       -0.14740774 -0.034937106 0.053164862 -0.0022688927
000030 37 c0 0b bd 79 41 b2 bd c7 42 04 3d 97 df 11 3e
       -0.034118857 -0.08703894 0.032290246 0.14245449
000040 cf e3 c8 bc e0 70 39 be be 0e 46 39 c7 4e ad 3b
       -0.02452269 -0.18109465 0.00018888243 0.005288932
000050 39 bc bf 3c f1 69 f9 ba a8 be 03 3e 4f 39 56 bd
       0.023405181 -0.0019028765 0.12865698 -0.052300747
000060 7e 12 1d 3e 87 2b c7 3b 62 dd 62 3d da 92 8b bd
       0.15339085 0.006078187 0.05538691 -0.06815119
000070 f8 a3 49 be 82 a2 82 bd 23 4f c1 bd 71 83 f7 3d
       -0.19691455 -0.06378652 -0.09438922 0.12085617
000080 9b b6 17 3c 5d f6 0d be fe 60 bd 3b 79 45 94 3d
       0.009259845 -0.13863511 0.0057793846 0.07239813
000090 e2 f3 01 3e b9 18 c2 bd f2 e7 a1 3b f1 b6 da 3b
       0.1269069 -0.09477372 0.00494098 0.0066746403
0000a0 8a 3a 09 3e 34 fb 48 3e 53 e1 e8 bd 88 e7 9c 3d
       0.13401237 0.19627076 -0.11371102 0.076613486
0000b0 d2 39 c8 bd 23 8b c9 bc 97 98 22 3e 78 17 a1 bd
       -0.09776653 -0.024602478 0.15878521 -0.078658044
0000c0 69 51 1c be 02 d1 60 be b0 df d0 3d 30 5c bd 3c
       -0.1526543 -0.2195473 0.10198915 0.023115247
0000d0 8e fd 9c 3a d4 87 88 3c 2c f1 33 bd 7f da a4 bc
       0.0011977421 0.01666633 -0.04393117 -0.020123718
0000e0 92 4f bd 3c 61 7f bf bc b0 63 bb 3d c2 85 0b be
       0.023109231 -0.023376169 0.09149873 -0.13625243
0000f0 64 4a 4e 3d 95 70 f1 bc 53 1b 8d 3d 5b e5 dc bd
       0.050363913 -0.029472629 0.06889977 -0.107859336
000100 4d 9e 63 bc 08 fb 1f bc 9a 5e ac 3e 7b 4f 5d 3c
       -0.013892722 -0.00976444 0.33665925 0.013507719
000110 2c 3b 74 3d 08 56 07 3e 3f bd 18 bd 89 0e e9 bc
       0.059626743 0.13216412 -0.037289854 -0.028449314
000120 d3 02 53 bd ed 97 7f 3b 81 15 e8 3d 5f aa 03 3e
       -0.051516365 0.0039000467 0.113322265 0.1285796
000130 78 98 10 bc 33 cf 96 bd c5 51 83 3d c4 17 42 3d
       -0.008825414 -0.07363739 0.06412081 0.047385946
000140 3b ec 06 be c9 63 00 3d 2c 69 22 bd 3b bd 2b 3b
       -0.13176052 0.031345163 -0.03965108 0.002620532
000150 be 88 c0 3d 9f 52 bf bd 7f 59 d5 bc f8 30 c7 bd
       0.094010815 -0.093419306 -0.026043652 -0.09726137
000160 d6 25 6a bc 5f d3 9e bc 8d 63 9d 3c 1a f1 19 be
       -0.014291247 -0.019387899 0.019212509 -0.15033379
000170 b0 ba 65 3d 10 38 b8 bc cf 97 82 3e a4 39 1c 3e
       0.056086242 -0.02248767 0.25506446 0.15256363
000180 e4 1d a3 bd 62 a2 c0 bd 85 f4 89 3a ce 2f 1a 3d
       -0.079646856 -0.09405972 0.0010525143 0.037643246
000190 6a f3 c8 bc be c2 12 3c c0 cf b9 bc b4 5f 99 bc
       -0.024530131 0.008957563 -0.02268207 -0.018722393
0001a0 37 98 fd bd 38 55 3c be 3b b2 52 3d 58 c7 d3 bc
       -0.12382548 -0.18391883 0.051439505 -0.02585189
0001b0 62 6c 7c 3c 29 3b 48 3c cd 61 24 bd 91 b4 8f 3c
       0.0154067 0.012221136 -0.040132333 0.017542155
0001c0 a2 b7 3b 3d 37 0f 9b 3c f6 0d 35 be 4f e6 59 3f
       0.045829423 0.018928153 -0.17681107 0.8511705
0001d0 b1 3d 30 bc 58 81 af 3d ae 28 df 3e bc 76 8a 39
       -0.010756896 0.08569592 0.43585724 0.00026409875
0001e0 e0 f4 a2 3e 0f 89 74 bd 08 a8 6a 3d 34 ea 04 bd
       0.3182745 -0.05970102 0.057289153 -0.032449916
0001f0 e9 5e 03 bd db ca bc 3c 5e 8c 20 bc bf cd 0c 3d
       -0.032072935 0.023045948 -0.009799091 0.034375902
000200 d5 91 9a bd 86 56 8a bd 9a 94 8d 3c 1d c8 2b be
       -0.075473465 -0.06754784 0.017282773 -0.16775556
000210 4e 55 b1 bc 87 3f e7 3d ec 78 52 bd 98 e1 c6 bd
       -0.021647122 0.11291414 -0.05138485 -0.09710997
000220 3c 79 62 be 42 49 27 3d af 3b 68 bc 24 58 f8 3b
       -0.2211656 0.04084135 -0.014174386 0.0075788666
000230 c6 f6 17 bc a9 46 1b be 09 ec 3b 3d 75 8f 89 3d
       -0.009275144 -0.15163673 0.045879398 0.067168154
000240 57 53 98 bd 9b 4e 51 be 60 39 03 3b e0 64 81 3b
       -0.07437771 -0.20440142 0.0020023212 0.003948793
000250 f8 85 fd bd d1 28 86 3c ef c5 83 bd 04 6c e4 bc
       -0.12379068 0.016376885 -0.06434237 -0.027883537
000260 be 4e 97 3d 46 32 cd 3b 51 1e d7 3c 8c cd 22 bb
       0.07388066 0.0062620966 0.026259573 -0.0024841754
000270 ff c8 55 be 6b 2e 29 be d8 61 0b 3d ca e2 fa 3d
       -0.20877455 -0.16521613 0.034028858 0.12250288
000280 d2 c6 f2 bd 36 fa bc bd 59 95 fd 3b c3 3f 15 3e
       -0.11854328 -0.092274114 0.007738751 0.14575104
000290 87 b7 1b bc c1 53 2e be 21 e8 4f 3d 5e bb ab bb
       -0.009504206 -0.17024137 0.050758485 -0.005240842
0002a0 72 9f bf 3d a6 1b 70 3e 7e 8a 09 be 7d 17 0a 3e
       0.09356584 0.23448047 -0.13431737 0.13485523
0002b0 0a e5 5a be d2 da 4f bd 84 be c0 3d dd e6 b5 3a
       -0.21376434 -0.050745793 0.09411338 0.0013878007
0002c0 f2 7b 6f be 97 e9 8d bd d6 37 16 bd 48 e6 43 3d
       -0.23387125 -0.06929319 -0.036674343 0.047827035
0002d0 12 41 a8 3a d5 ab 91 bc 5c e2 7f bd b7 df 85 bc
       0.0012836775 -0.017782131 -0.062471732 -0.016342027
0002e0 a4 22 c2 bd d8 25 0e be 9c 0c 1b 3c 42 3e 60 be
       -0.094792634 -0.13881624 0.0094634555 -0.2189875
0002f0 29 25 5d 3d b4 22 22 3e 82 97 eb bd ac 20 3d be
       0.053990517 0.1583355 -0.11503507 -0.18469495
000300 21 7e ae bc 64 9e 71 bb 2b 0e cd 3e cb ea 95 bc
       -0.021300377 -0.003686809 0.40049872 -0.018300435
000310 92 7d 09 be 76 de 13 3e 5d 2b 4d be cd f7 1c be
       -0.13426808 0.14440331 -0.20036073 -0.15328903
000320 c4 f6 43 bd 2e 20 49 bd 68 16 46 3e 56 85 69 3a
       -0.047842756 -0.049102955 0.19344485 0.0008908113
000330 d1 33 4d 3a 07 83 87 3c 1c e7 47 3e dc d9 55 3d
       0.00078278506 0.01654197 0.19521755 0.05220972
000340 f9 c3 21 be d9 b9 65 3c fa 1e 93 bd 95 57 1c be
       -0.15797414 0.01402136 -0.07183643 -0.15267785
000350 a7 53 7d 3d ab 18 4e bd 01 ab 91 bc 02 38 16 3c
       0.061847355 -0.050316494 -0.017781736 0.009168627
000360 e4 30 3f 3e e3 de 9f bc c6 84 93 3d 9a 59 5a be
       0.18670994 -0.01951546 0.07203059 -0.21323243
000370 74 78 68 3d 09 11 25 bd b4 7f 95 3e b9 c9 52 3e
       0.056755498 -0.04029945 0.29198992 0.20584764
000380 ec aa c6 3d 2b 08 ad 3d c9 d1 31 3d cc 89 e0 3d
       0.097005695 0.084488235 0.043412957 0.10963783
000390 03 4d 0a 3d 0f 60 8b bb 2b 13 be bd dc d7 a3 bd
       0.03376485 -0.0042533944 -0.09281 -0.08000156
0003a0 ed 2e 86 be c9 0e f5 bc d6 44 cc bc f9 23 54 3d
       -0.26207677 -0.029914277 -0.024935167 0.05179212
0003b0 42 be 9d 3c 2e 4f f1 3b 98 d9 4a 3d 31 49 b4 bd
       0.019255761 0.0073641753 0.04952392 -0.08803023
0003c0 a5 0f 12 be a9 b8 dd bc 77 22 0b be a2 5f 19 3e
       -0.1426378 -0.027065592 -0.13587366 0.14977887
0003d0 37 66 22 be c6 f0 81 3d 6b 28 da be 31 15 8f 3a
       -0.15859304 0.06344752 -0.4260896 0.001091635
0003e0 ff 4a 19 bf f1 53 29 bd 94 69 15 bd 47 bd 8e bc
       -0.5988006 -0.04133982 -0.03647764 -0.017424239
0003f0 1f c0 16 3c e1 81 80 3d ec ec aa bd 10 a1 6e 3d
       0.009201079 0.062747724 -0.083459705 0.05825907

fc.bias f4 [4]
000000 0a b2 82 3e 53 7c 3d 3e f3 d2 6c 3e d0 33 3b 3e
       0.25526458 0.18504457 0.23127346 0.18281484
