model_checkpoints/lstm_hdim_32_wsize_20_interval_7_nlayers_1_bs_512_lr_0.01_decay_0.95_epoch_147.pt (torch, 65699 bytes, 6 tensors)

lstm.weight_ih_l0 f4 [128, 76]
00000000: e8b0 b9ba ec3f 473e 410a 693e 2003 823e
00000010: bac8 96ba d44d 953e 00f6 0c3e c805 e73d
00000020: e349 ca3c 0cfb 493e 8b3d ac3d 3ff4 2b3e
00000030: 0470 8f3e 4936 a8bc 3282 563e 9ff3 3a3e
00000040: 3758 523e a7b2 de3d bf73 d2bc 89b9 303e
00000050: 240b ff3d 03bb 863e 4ba4 0d3d b504 383e
00000060: 0751 aebb 9afa 813e 5452 853e 94b9 b83e
00000070: 5b48 f3bb dd6c 863c bef1 6a3e 47c6 9b3e
00000080: 4b86 033d e1b5 093e 847f 963e f2b4 a23d
00000090: b8dd 133d 9782 1e3d 9d9f 233e 7655 d8bc
000000a0: 3f84 00bd 8530 3f3e c4e6 6a3c 6ba0 313e
000000b0: c9d8 103e 2d19 5b3e c025 e43d 7aad 123e
000000c0: 423d 213e 4fa8 003d cefa 3d3d f018 bc3d
000000d0: 8aa9 8fbc e016 473e 1b74 653e ba97 9e3e
000000e0: 5f59 ffbb 3566 7a3d a006 883e 256c 8e3d
000000f0: ae13 c73d 28ad 523e b7ff 343e 7232 813d
00000100: ea98 4d3e f66c 803e c321 eb3d 2f8f 453e
00000110: 82f7 4d3e 06f8 1d3e cbdd dfbc c6d0 333e
00000120: 5d95 893e 2b27 b93e 6e55 a9bd aba6 ba3d
00000130: 78ad 623e 0ce7 86bc 290f aa3c ce1d febc
00000140: 47d7 c23e 15d4 443d a59a 9c3c 8484 f9bc
00000150: 9708 bc3e c449 b83b b69c 543d 8e6a 14bc
00000160: 52ef c73e 1711 2abe 3b49 543d 3f1a 143b
00000170: 7b3b 883d e5b0 77bb 062d 443d 6cad 84bc
00000180: 02fd 923e 3ce0 903d 21c0 773d 6c51 80bd
00000190: 72b6 123e 987f 2f3d cbae 213d 9e9b 2fbd
000001a0: 85d3 473e d71c 2abe ee6e 963c 557a 63bc
000001b0: 8a6c b13d 8055 88bc 22ab c53b c504 683c
000001c0: 3de8 3cbd bc4c c2bc 3144 523c fd52 aa3c
000001d0: e2a1 3f3e f80b 14be e4b3 30bc 85b1 163d
000001e0: d593 dbbb d0d4 5abd b41b 06bc c253 423d
000001f0: 9c55 f0bd d674 53be a6ed 0bbd 1c0e 263d
00000200: 0d78 57be 3603 98be 945c 06bd 02f8 0e3d
00000210: b776 35be d8be d6be a1cb 4cbd 387d 0a3d
00000220: 8663 8cbe 2ec9 d8be 3fe4 a7bc 6057 c93c
00000230: 3954 ebbb 80ad 7fbe 8425 8fbc 1930 933d
00000240: 9a12 bdbe 41b8 bbbe 313f 03bd 9225 953d
00000250: 27f6 c6be 0df7 92be a541 97bc 61af 1a3d
00000260: 2522 2dbe bae2 58bd d3ee 23be 8664 7abc
00000270: dde0 ad3d b869 313e f9a6 c2bd d9a5 2f3d
00000280: 5496 83bd 9982 9e3d d9c1 063d bddd b3bd
00000290: 7d95 0c3e 18e4 a4bd 1c7f 41bd fbc9 6dbd
000002a0: c713 103e 65db cbbd 1ba0 2cbd f13d 27be
000002b0: 8eb1 513e 6c81 2a3e af74 d13d 19a0 2cbe
000002c0: 1343 f6bd 515a 84bd 5c6a 863d 5d0a 00be
000002d0: b19c ccbd d3e3 183e 32cd cb3d 0a95 c93d
000002e0: 88b7 023e 30af 013e 4b3e 05be 7b39 f03d
000002f0: b46b 063d e389 babc 4d49 b43d 1388 15be
00000300: dd43 a13c e8c0 a3bb e8ad f33d bf0d 0fbe
00000310: 2efd d03c 0211 0c3e 5150 f4bd 393c c23d
00000320: 62d9 5b3e a6c4 983e 8f21 9c3d 2d73 bbbd
00000330: 9d05 3b3d 4b45 4a3e 7aeb a93c dc6a a63d
00000340: e050 8439 b65f 963e e956 ae3d 1ffa d93d
00000350: 5f7f 913d f9e6 9a3e 319f 793d b0c8 123e
00000360: b06b 9a3e 1566 e13d de02 7f3d 3efd 9cbc
00000370: bcc4 523e 1746 3c3e 730b db3d 112d a23d
00000380: 5239 643e 403c c53e aa83 183e a7fe 813c
00000390: 0ce0 0cbe e85a 31be 9ce2 f63b 5dbe 6a3d
000003a0: 68bd dcbd 4f47 03bd e35c 11be 9768 9d3d
000003b0: 8a27 a1bd ad28 b23d 196e 053a 7e31 a9bb
000003c0: 947c c23d 91aa 08be b6c7 03bd 4ce6 abbd
000003d0: f003 153e b8e0 18be 4149 15be c0ba 94bc
000003e0: 3e14 e0bc 1fd7 13be 0736 0bbe 520c 3abc
000003f0: fb8c 9e3d 2ffc 07bd b926 f8bd fd0e bbbb
-0.0014167102 0.19457978 0.22757818 0.2539301 -0.0011503913 0.2916094 0.13765717 0.112803996
0.024693435 0.19724673 0.08410176 0.16792391 0.2801515 -0.020533698 0.20948103 0.18256997
0.20541464 0.10873919 -0.025689958 0.17258276 0.12453297 0.26314554 0.03458051 0.17970546
-0.005319718 0.25386506 0.26039374 0.36079085 -0.007424397 0.016409332 0.2294378 0.3042471
0.032110494 0.13448288 0.29394162 0.07944669 0.03610012 0.03869876 0.15978856 -0.026407938
-0.03137612 0.18670852 0.014337245 0.17346351 0.14145197 0.21396323 0.11140013 0.14323989
0.15746024 0.03141051 0.046381764 0.09184444 -0.017536897 0.1944232 0.22407572 0.30975133
-0.0077926363 0.06113263 0.26567554 0.06954221 0.097205505 0.20573866 0.17675672 0.0630845
0.20077863 0.2508313 0.11481049 0.19292901 0.20113948 0.15426645 -0.027327439 0.1756011
0.26871768 0.36162695 -0.082682475 0.09113821 0.22136486 -0.016467594 0.020759182 -0.031020071
0.3805487 0.04805382 0.019116709 -0.030458696 0.36725304 0.005624028 0.051907264 -0.009058608
0.39049774 -0.16608082 0.05182765 0.0022598652 0.0665197 -0.0037794646 0.0478945 -0.016195975
0.28708655 0.07074019 0.060485963 -0.0626553 0.1432741 0.042846292 0.039473336 -0.042873017
0.19514282 -0.16612564 0.018363442 -0.013884147 0.0866328 -0.016642332 0.0060323635 0.014161293
-0.046119917 -0.02371823 0.012833641 0.020791525 0.18714097 -0.1445769 -0.010785077 0.03679039
-0.0067009726 -0.05342561 -0.008185316 0.04744316 -0.11735079 -0.20650038 -0.034162186 0.0405408
-0.2104189 -0.2968995 -0.032803133 0.034904487 -0.17721067 -0.41942477 -0.049998883 0.033810824
-0.2741968 -0.42340988 -0.020494578 0.024577796 -0.007181671 -0.24968529 -0.017473944 0.07186908
-0.36928254 -0.36664012 -0.032042686 0.072825566 -0.38859674 -0.2870411 -0.018463919 0.03776491
-0.16907556 -0.0529506 -0.16009073 -0.015282756 0.08490155 0.17325485 -0.09504504 0.042882774
-0.06425157 0.07739753 0.03289971 -0.087825276 0.137289 -0.08051318 -0.04724036 -0.05805395
0.14070044 -0.099539556 -0.042144876 -0.16332223 0.20477888 0.16650933 0.10227334 -0.16857947
-0.12024512 -0.06462539 0.06563255 -0.12503953 -0.09990824 0.14930658 0.09951247 0.0984288
0.12765324 0.12664485 -0.13012044 0.117297135 0.032817557 -0.022770828 0.088030435 -0.1460269
0.01968568 -0.0049973615 0.11898404 -0.13970087 0.02551135 0.13678363 -0.11929382 0.09484143
0.21469644 0.2983753 0.07623588 -0.091528274 0.04565965 0.19752996 0.020742167 0.081258506
0.00025237259 0.29369897 0.085126705 0.1064341 0.07104372 0.30254343 0.060942832 0.14334369
0.30160284 0.11005799 0.062258594 -0.019163724 0.2058286 0.18386112 0.10695543 0.07918752
0.22287491 0.3852253 0.14893976 0.015868498 -0.13757342 -0.17319834 0.007534338 0.05731045
-0.10778314 -0.032050427 -0.1419559 0.076859646 -0.078688696 0.086991645 0.0005089953 -0.0051633706
0.09496418 -0.13346316 -0.03217288 -0.08393535 0.14552283 -0.14929473 -0.14578725 -0.018155456
-0.027353402 -0.14437531 -0.13594829 -0.011355476 0.07741734 -0.033199485 -0.12116761 -0.005708574

lstm.weight_hh_l0 f4 [128, 32]
00000000: 47c9 263e 6812 c4bd ff05 3c3c fbbc 94bd
00000010: e5f6 19be d8f7 d2bc b6a6 b33c 9d87 863d
00000020: e815 333e 2191 8cbd 0ac1 18be 7ebb 423d
00000030: e64b be3d a7c0 8f3d 5304 883d cca4 4fbd
00000040: 53e2 0ebd 85a6 83bc 140d a9bd 078e 48bd
00000050: a1f5 6c3b 99c2 ccbd d96c bcbd ab71 f43d
00000060: ffad 16be 9a95 9dbd 162f 89bd 0f04 22be
00000070: 8b14 053e 0428 293c 7a3e ad3d dcf0 a03c
00000080: 7624 bdbc f6b0 193e 7dd3 333e e059 2bbe
00000090: 0228 ac3d 7380 573d d2c4 fabd 6c40 2b3d
000000a0: 40a2 d03c f174 b0bd dc20 4ebd a82e adbd
000000b0: b002 dcbd e11e 01bd 50e8 81bd 94f4 a93d
000000c0: 740d 27be 01c2 133e 3758 30be d2d7 ecbd
000000d0: 27fd 7fbd 960b 383c 2f96 f03d f858 b63d
000000e0: 38da df3d 7ba9 a9bd d84a 2abe c77f 26be
000000f0: 6858 00be 01c0 863d 393b a83c e151 fbbd
00000100: 9bd7 103e 7b7a 173e 09e3 893c 761d 0a3c
00000110: 0f64 2abe ca4c 173e 086b bfbd 7b33 0fbe
00000120: 7e89 18be 5a50 8ebc 35f6 a63d 2eda cbbd
00000130: 6946 c03d d0e8 c23b e56b e23d 37c3 2bbd
00000140: 61b1 92bd 19c9 c3bd 2dc0 853d 3024 973d
00000150: 1397 ab3d 6e63 2e3d b22e 2b3e e9bf 08be
00000160: dddb 8bbd 3bee 5f3d 2385 173c 1dd3 20be
00000170: 6eb5 a63a 73e0 d9bc 83c4 863d e91c babd
00000180: 5c47 983d 39c7 debd 36d5 253d ad45 f1bd
00000190: 0e47 803d b30f 0d3e 3460 323d a225 63ba
000001a0: e511 813d 8b2a d13d 89b9 163e fd79 f43d
000001b0: e673 d7bd f29b 943d 671a 1abe c699 c63d
000001c0: dda9 2dbe bb09 903d 08f5 9c3c 6e48 2dbe
000001d0: f5b4 023d 2f27 8ebd c45d 7b3d c86f 7a3d
000001e0: 5133 b83c 39e8 de3b c91c 1dbd 0588 f2bd
000001f0: 1adf 073e 502c 1b3e b894 12be 355a de3d
00000200: 0d6f d4bc f60e 173b c8ae 88bc 1516 733c
00000210: 434d 26be 1a48 0bbe 4105 33be f925 37bd
00000220: 5031 43bd 637b f73d 4697 24be 981a d03d
00000230: 3bb7 1a3e 8f2e 263e 20fd 163e 5c85 733a
00000240: 8c5c 8ebc 9649 2dbe 1b01 0fbd fb65 803d
00000250: 4a82 c33d ef88 20bd 90ef 1ebe 36ee 9bbc
00000260: 523b a83d ef75 67bd 8dcc 5bbd 7fe1 2bbe
00000270: de79 803d 20fb 2d3e 8b3c 68bd 2433 01be
00000280: 8557 04bc ad1c f1bc 2c88 833d 6a36 32be
00000290: 40c0 303d a8d9 273e 47e5 063e c864 27be
000002a0: 84f1 9f3d b0f4 9f3c f4be 373d bd56 9abc
000002b0: c3db 92bd 8afa 183e ca32 253e c8b7 fa3d
000002c0: 5793 27be ed25 3cbd b78d 22be c2e6 29bd
000002d0: 050b 883d df3b 723d 7a62 3bbc 3250 eb3d
000002e0: 73dd 2d3e ccf2 073e 66b8 af3d 0868 ea3d
000002f0: 49b2 903d 718d 14bd 71ef 15be becb e2bd
00000300: c5be edbd 22b5 803d f615 92bd ef46 243d
00000310: 3c91 913c 4414 06bd b430 d2ba 97f2 a5bd
00000320: addf dd3d e98a 6abb 0f4d 343d caf3 3bbb
00000330: 1abf a33c e1e0 153e 50d4 1ebe 5e2b 863d
00000340: a169 073e 3a53 30be 52a8 bc3c dca3 173e
00000350: 270b aebb 0a3d 40bd 1376 a43d a2b7 a13d
00000360: 2f84 833c 3278 6e3d 0b60 d53c 11b3 143e
00000370: fc41 30bd ff49 1d3d e53a 5e3c 5e84 da3c
00000380: e524 803c 4769 12bd 5276 bb3c 5e65 14be
00000390: 4288 c23d 142b 443c 8a91 27be 2c45 253e
000003a0: f4a3 0c3e 10a3 cf3d 04f9 17bc cef4 d8bd
000003b0: abca c3bd 1bda 223e 9560 423d e193 103e
000003c0: 64bd 12be 934d 65bd e747 2d3d 7ac9 943d
000003d0: 174f 2ebe 891e ec3c 4ac3 babd 7726 203e
000003e0: 49e5 0ebd 9bc7 25be 4e47 20be 06c7 09be
000003f0: 634c e83c 12f8 3cbd 48c0 aabb 0d19 083d
0.16287719 -0.09573823 0.011476039 -0.07262608 -0.15035589 -0.025752947 0.02193008 0.06568835
0.17488825 -0.06863619 -0.14917389 0.047542088 0.0929182 0.070191674 0.0664145 -0.050694272
-0.03488381 -0.016070614 -0.082544476 -0.048963573 0.0036157148 -0.09998054 -0.092004485 0.11935743
-0.14714812 -0.0769455 -0.06698434 -0.1582186 0.12996118 0.010324482 0.08459182 0.0196461
-0.023088675 0.15008911 0.17561145 -0.16733503 0.084060684 0.052612733 -0.12244572 0.041809484
0.025467992 -0.08616055 -0.050324306 -0.084561646 -0.107427 -0.03152359 -0.06343138 0.08298603
-0.16313726 0.14429475 -0.17221151 -0.11564602 -0.062497284 0.011233231 0.11747395 0.08903688
0.10930294 -0.08284279 -0.16630113 -0.1625968 -0.12533724 0.065795906 0.020536052 -0.122714765
0.14144747 0.14792816 0.016831892 0.008429876 -0.16639732 0.14775386 -0.093465865 -0.13984482
-0.14896199 -0.017372299 0.08152429 -0.09953724 0.0938843 0.0059481636 0.110557355 -0.04193422
-0.071627386 -0.09559841 0.06530795 0.07379949 0.083784245 0.042575292 0.16717032 -0.13354458
-0.06829045 0.054670554 0.009248051 -0.15705533 0.0012718865 -0.026596284 0.065804504 -0.090875454
0.07435486 -0.108778425 0.040486537 -0.11780868 0.062635526 0.1377552 0.043548778 -0.00086649705
0.06302241 0.102131926 0.14719214 0.1193733 -0.10520153 0.07256307 -0.15049134 0.09697299
-0.16959329 0.07033106 0.019159809 -0.16922161 0.031910855 -0.069410674 0.06136872 0.06114176
0.022485407 0.0068025854 -0.03835753 -0.1184235 0.132687 0.15153623 -0.14314544 0.108570494
-0.02593186 0.002304969 -0.016684905 0.014836808 -0.1624041 -0.13601723 -0.17482473 -0.044713948
-0.04765445 0.12084081 -0.16073331 0.10161322 0.1510896 0.16228698 0.14744997 0.00092895865
-0.017378114 -0.16922602 -0.034913164 0.06269451 0.09546335 -0.03919309 -0.15521073 -0.019034486
0.082144395 -0.056508955 -0.05366187 -0.16785239 0.06273244 0.16990328 -0.056698363 -0.12617165
-0.008077507 -0.029432619 0.06422457 -0.1740357 0.043152094 0.16391623 0.131734 -0.16347039
0.07809737 0.019525856 0.04485984 -0.018840188 -0.071708225 0.14939323 0.16132656 0.12242085
-0.163648 -0.045934606 -0.15874372 -0.041479833 0.06642727 0.05913913 -0.011437053 0.114899054
0.16979007 0.13276213 0.08580093 0.11445624 0.07065255 -0.0362677 -0.14642121 -0.11074017
-0.11608652 0.06284548 -0.07133095 0.04010671 0.017769448 -0.03273417 -0.0016036243 -0.08102911
0.108336784 -0.0035788363 0.0440188 -0.0028679245 0.019988585 0.14636566 -0.15510678 0.065512404
0.13223888 -0.17219248 0.02302948 0.14808601 -0.005311388 -0.04693321 0.08030333 0.07896353
0.016054241 0.058220096 0.026046773 0.14521433 -0.043031678 0.038400646 0.013563846 0.026674446
0.015642593 -0.03574493 0.022883568 -0.14491794 0.09498645 0.011973161 -0.16364112 0.16139668
0.13734418 0.101385236 -0.009275679 -0.10593568 -0.0956014 0.15903513 0.04745539 0.14118911
-0.1433006 -0.055982184 0.0423049 0.07264991 -0.17022358 0.028823154 -0.0911928 0.15639673
-0.034886632 -0.16189425 -0.156522 -0.13454828 0.028356737 -0.046135016 -0.00521091 0.033227015

lstm.bias_ih_l0 f4 [128]
00000000: 55bb 8f3d d690 1d3f 1d1d 26be 4ccd 01bd
00000010: a383 de3e 485a 4b3e e89e f83d 50d7 62bc
00000020: 82fb d2ba 35e0 0fbe 1f88 6abd 5778 703e
00000030: 2785 3a3d a131 013e 1ed5 dbbd 09fe 0f3d
00000040: 7eeb dbbd 1300 cb3d 8430 3abe 3c95 c13e
00000050: 6927 cabe 259f 33be f513 193e fc06 ad3d
00000060: c178 64be d1b3 85bd 8c5a 20be 4faa 32bc
00000070: 13a8 953e cc6f d63e 0244 9b3e 203f 193e
00000080: edcf 2ebe 7a3c d7bd 549e 283e 1ef8 003d
00000090: 64be 783d f374 9e3b 5456 a13d 3312 883c
000000a0: 81c6 1dbe 012b 30bc 5f6a e4bd 5538 03be
000000b0: ae18 ec3d 4a5b 0a3e fe7e 283e d1c5 31be
000000c0: a82a 00be 001c b03d 2563 cbbc ed00 06be
000000d0: b6ac 213e 932f 223e 92f1 b23d 511b 1bbc
000000e0: d914 0fbe 075b 48bd a8d0 e0bd f50f 30bc
000000f0: 55ef 1f3e 035e f43d 23ea 643d 137c 1b3e
00000100: acd3 013d 3dbe 813e 0ac3 edbd 7c79 9b3d
00000110: b9af 97bc 0f3b 3abe 2717 7a3d 4084 a1bc
00000120: 7faa 743e aa02 1dbe 9485 d33c 41ec 573e
00000130: 4431 0a3d edd3 eebc 265b b03c a5b2 26be
00000140: c4dd 623c 9f3c a7bd ac71 c23d 5110 083e
00000150: 864c a43d eb16 1c3e 809d bc3d dcaa 0b3e
00000160: c0e4 133e 75fe 203e 6d65 16be a1e8 c0bd
00000170: 5aa0 94bd bb84 d83d 2855 a83d 1e02 663d
00000180: 5527 4b3e b68a 813e 613a 0ebf 8513 513d
00000190: 44c1 2e3f fbba 25be 3c02 c13d e443 1fbf
000001a0: 7fdf 363d a545 e3be 583f 2cbe 9b5c 593d
000001b0: d95e 2b3e db51 e8be ab2e 153e 37d2 c73c
000001c0: 512b 21be fc7b a1bd e091 fdbd 790c 973e
000001d0: 9928 bebe 4d1d 17bd 41b9 62bc 57df 18be
000001e0: bb08 e43c 9f48 c3bd 9cbb 5a3d e642 983d
000001f0: 8bde 4d3f c9d0 603f fbb7 be3d b9f6 eb3c
0.070181526 0.6154913 -0.16222043 -0.031689927 0.43459806 0.19858658 0.12139684 -0.01384528
-0.0016096684 -0.14050372 -0.05725872 0.23483406 0.04553714 0.12616588 -0.10734008 0.035154376
-0.10738276 0.099121235 -0.1818257 0.3780917 -0.39483193 -0.17541178 0.14949019 0.08448598
-0.22311689 -0.06528438 -0.15659541 -0.010904863 0.29229793 0.4188217 0.30325323 0.14965487
-0.17071505 -0.10509582 0.16466647 0.031486623 0.060728446 0.004835719 0.07877794 0.01661024
-0.15407754 -0.01075244 -0.11153101 -0.12814458 0.11528145 0.13511387 0.16454694 -0.17360617
-0.12516272 0.085990906 -0.02482755 -0.1308629 0.1578854 0.1583846 0.08737482 -0.009466962
-0.13972796 -0.048914935 -0.10977298 -0.010745992 0.15618642 0.11931994 0.055887353 0.1518405
0.031696007 0.25340453 -0.116094664 0.07591531 -0.018516408 -0.18186592 0.061057236 -0.019716382
0.23893164 -0.15333048 0.025820531 0.21086217 0.03373839 -0.029153788 0.021527838 -0.16279085
0.013846818 -0.081658594 0.094943374 0.13287474 0.08022408 0.15243118 0.09209728 0.13639396
0.1444273 0.15722068 -0.14687128 -0.094193704 -0.07257147 0.10572191 0.08219367 0.056154363
0.19839223 0.2530114 -0.5555783 0.051044006 0.6826365 -0.16184609 0.09424254 -0.6221297
0.044646736 -0.44389072 -0.16821039 0.05306683 0.167354 -0.4537495 0.14568584 0.02439223
-0.1573918 -0.07884976 -0.12381339 0.29501703 -0.3714035 -0.036893178 -0.013838113 -0.14928947
0.027836194 -0.09535336 0.053401574 0.07434635 0.804177 0.8781858 0.09312435 0.02880417

lstm.bias_hh_l0 f4 [128]
00000000: bf1f 0c3e 82eb b33e a0fb 1abd 1ca7 5f3d
00000010: b82e 813e 9c26 a6bd ed2f f2bd 85ad 153e
00000020: a0f7 a1bc 97e2 b0be 2746 7ebe 6f4c 953e
00000030: 1bfb a8bd 2944 b9bd 388d c63d 6bf6 a53c
00000040: fc57 89bd 5074 c73c 14db 75be 23c9 1f3e
00000050: 8ea4 24bf fc37 9fbe 382a d8bd fb1a cfbd
00000060: 75b0 bebc 6d48 3abc 19d7 b03d 97f0 d53d
00000070: 0de2 b83e fb24 fb3e 71d8 33bc 78a6 95bc
00000080: f705 e83d 0d8a ccbd 6bb8 243e 8289 6cbd
00000090: e465 15be 8052 26be c5d5 86bc 3e6b 45bd
000000a0: fe4b 0f3e a24e 29be 2f2a 283d c024 c5bd
000000b0: ed22 0d3e cafa f2bd 5ab8 293d 3fe7 74bd
000000c0: 8d2d 7bbd 7ba2 353d a488 8cbd 46d2 db3d
000000d0: f50c 163e 21b5 253e adeb 10be d10c 123e
000000e0: efb9 40bc 64b1 dcbc b105 d0bd db44 0ebe
000000f0: c150 f6bd e86f 28be 4ea6 acbd e556 83bd
00000100: 7600 7c3c 933a ff3d 091a a6bd f057 9dbd
00000110: 3a84 49bd ec84 5dbe e40b 5f3d de6a 823e
00000120: 3dc8 3f3d b3d7 513d df24 23be b873 89bd
00000130: 0d5c 36bc 0f37 c8bd dd56 4d3e b6b4 4bbe
00000140: 6056 063e a3bc 1abe 68c8 3a3e cb81 803e
00000150: 3cc6 66bd 5ed1 36bd dfae b03d 96b5 45bb
00000160: 121f ae3d 4dde d73d 4260 21be 454d 1cbe
00000170: 779a 8cbd d3d3 9abd 31b6 973e 7882 553d
00000180: d529 4c3e a606 ff3d f9e2 39bf 3bfc 3ebd
00000190: 8357 2e3f cd92 2dbe 3eac 013b ef70 cfbe
000001a0: 0c2a 373e a423 9abe 30fa 04be e0e7 cc3c
000001b0: daea 4d3e 5662 02bf c937 4d3d 202b 243d
000001c0: a0a4 c3bb 9459 57be cbf4 55be 64b7 4b3d
000001d0: a82f 7abe bf56 1fbe 2c02 353e 0992 5abd
000001e0: c596 47be 0885 6ebe 5fcb 80be a4ea 203e
000001f0: 5519 353f e5f7 843f 1ab4 1a3e 0513 5ebe
0.13683985 0.35140616 -0.037837625 0.054602727 0.25230956 -0.08112833 -0.11825547 0.14616974
-0.019771397 -0.34547874 -0.24831448 0.29159877 -0.082510196 -0.09046204 0.09694904 0.020259103
-0.06706235 0.024347454 -0.24009353 0.15604071 -0.6431359 -0.310974 -0.105549276 -0.10112568
-0.0232775 -0.011369807 0.086347766 0.104462795 0.36109963 0.4905165 -0.010976897 -0.018267855
0.11329263 -0.099872686 0.16085975 -0.057748325 -0.1458965 -0.16242409 -0.016459355 -0.048197977
0.13993832 -0.16533902 0.041055854 -0.0962615 0.13782854 -0.118642405 0.041435577 -0.059790846
-0.061322737 0.044344407 -0.06862 0.10733466 0.1465338 0.16182376 -0.14152403 0.14262702
-0.01176308 -0.026940055 -0.101573355 -0.13893454 -0.12027121 -0.16448939 -0.084301576 -0.06413058
0.015380969 0.12462344 -0.081104346 -0.07682788 -0.049198367 -0.21632737 0.0544547 0.25472158
0.04682182 0.051231097 -0.15932034 -0.06711525 -0.011130345 -0.097761266 0.20052667 -0.19893155
0.13118887 -0.15111022 0.18240511 0.25099024 -0.056341395 -0.04463326 0.08627104 -0.0030168048
0.0850202 0.105404474 -0.15759376 -0.15263851 -0.06865399 -0.075599335 0.2963119 0.052126378
0.19937833 0.1245244 -0.7261196 -0.046627264 0.6810228 -0.16950531 0.0019786502 -0.4051585
0.17887133 -0.30105317 -0.12986064 0.02501291 0.2010912 -0.509313 0.05010203 0.04008019
-0.0059705526 -0.21030265 -0.20894162 0.04973544 -0.24432242 -0.15560435 0.1767661 -0.053361926
-0.19491108 -0.23292935 -0.2515516 0.15714508 0.7074178 1.0388151 0.15107766 -0.21686943

fc.weight f4 [60, 32]
00000000: 5d10 39be c369 0d3e d93f fa3d 6f9e f63d
00000010: b137 ff3e 025e 83bd 7674 05be e05b 943d
00000020: 964a 233e a7f7 7c3e aec0 e5bc 9381 97be
00000030: a713 39be 27d9 42be 65ca 6cbe 86d4 693e
00000040: 9da7 6c3e f74c aabe 6b88 f63d 0d8b 1abe
00000050: e0b2 3fbe 244d 063e 7f20 60be 1274 fabd
00000060: e1f6 a43d 9cb6 303e 3911 113e aa9d 9d3e
00000070: 70d3 7f3e 397f 47bf e89d 11bf 1149 313e
00000080: 5760 89be ee3f a5be 8c67 653e b47a 683e
00000090: be17 f13e 3560 07be e53f 013e e54a c6bd
000000a0: f414 e13d c2e2 9c3e 8d51 f6bd cf01 8ebd
000000b0: b202 c8bd 9a26 bcbd 0949 05be 3d7a 793e
000000c0: 305d e53c d463 59be 3ec8 7d3d 383b b4bd
000000d0: e197 c8be 9032 a23e 6e7b acbd 4a10 033c
000000e0: 0f8d 13bd 4eac 4f3e 2f6a 0d3e 1dee 5b3e
000000f0: 1a00 153f 37da 453e f8d5 efbd 75be 803e
00000100: 8d15 11be c1e0 0d3d 98f0 6f3e 4636 283e
00000110: 2054 b63e 41e8 40be bcec e9bd a658 d4bc
00000120: 46bc 683e bd33 433e ab7f afbd da2b 9fbe
00000130: 422a 46be cb34 4abe e3d2 60bd 49d0 8abc
00000140: 2be9 883e fa26 78be 598a 15be b332 1abe
00000150: 9e8c 5dbe 9f38 013c e014 80bd 1f11 51bc
00000160: d1db b43c f76a 3c3e 3b4e 833d 1fe5 e43e
00000170: 69a9 253e 7190 52bf faa1 dfbe edc4 3c3e
00000180: 5116 48bd f544 aabe 50bd 5d3e 6119 c03d
00000190: 9a3c ec3e c19b 4dbe a173 d23c 3372 e6bd
000001a0: 0d84 333e d4a5 833e 4f41 13be fd6a 54bd
000001b0: a4c6 9bbd d981 73be 688d efbd 5716 503e
000001c0: 0e24 223d 5be5 62be 4dbf 82bb 60f0 17be
000001d0: 8722 a5be e4ea 7b3e 1e4b 1dbd 6afa 253e
000001e0: 3b5b 48bd b0e0 993e 1985 033e b41e 203e
000001f0: 0785 1e3f 4244 293e ed00 febd b09b 3c3e
00000200: 9601 dd3c d180 dd3d 7341 e13d 0a3b 153e
00000210: c5dd 863e 0f12 5dbe bbf3 953c 9ab1 d23d
00000220: a956 2a3e 59cf a03e d21f cabd e4bb 90be
00000230: b1f5 08be 1687 a5be 97f0 19be 7e1c 473e
00000240: 0ad0 0b3d 5444 53be af8f c3bd 0eb7 3bbe
00000250: cf90 58bd 6f38 3b3e 53cb f2bd f383 573e
00000260: 0daf 173d 2ea7 923e a47a 883d 6bad c73e
00000270: c41d 4b3e fd6a 5cbf 0100 dabe c370 913e
00000280: 5650 8dbe 1223 a4be b0db 1e3e 2096 283e
00000290: 77a6 f63e 4b44 3fbd 8672 113e 302f a8bd
000002a0: d361 3c3e 4a63 b53e 956a d8bd 363a 32bc
000002b0: 0413 82bd df8a 83be c7d3 acbd eb63 353e
000002c0: a815 a33d 300e 86be b191 1a3e 7856 0abe
000002d0: 1236 a8be 8b92 5c3e c944 88bc 3b76 83bd
000002e0: 6da8 c8bd de0a 023e 85de 85bc 9112 363e
000002f0: 0bca 243f 371b 2a3e c17a 18be 7ce5 8e3e
00000300: 7fcc 77be d069 76bd fcc0 413e e64a 8b3e
00000310: 6c48 a23e 2411 8dbe a70c fabd 69b5 8fbc
00000320: b21d b1bc 294d c13e 1d69 84bd 99f9 67be
00000330: 9c74 04be 46b2 95bd 3c7a dcbd aae0 163e
00000340: f344 f73c 2872 29be a01d e4bc 620d 69bd
00000350: c2ca e0bd 1eaf 3c3d 1471 aabd 2d68 c8bc
00000360: 4298 0b3e 81ea 3c3e e3f6 3a3d 7b38 493e
00000370: 82bd 663e 94c8 6dbf 7fbc ebbe 0e76 773e
00000380: 61ce 7cbe a838 a2be 9fcc 183e ea1a 803e
00000390: 6a95 113f 7722 0fbe 20d0 7d3c 72f5 83bd
000003a0: b67c 2f3e c63c ad3e 9de6 fe3c 84e3 383d
000003b0: 0a48 43bd 7ad4 84be 5aa6 8cbd eb87 973e
000003c0: b400 223e 2359 8fbc e89b b93d 94e7 01be
000003d0: 7b5a 57be 1e95 8c3e e87b 053c 3d96 b4bd
000003e0: 3cad 35bd 4495 463e 46d1 6dbd d81a 183e
000003f0: c029 3d3f 247c 033e bb6d 50be ef3a b43d
-0.18072648 0.13809876 0.12219209 0.120419376 0.49847177 -0.06414415 -0.13032708 0.07244086
0.15946421 0.24703847 -0.028045978 -0.29591045 -0.18073903 -0.1902815 -0.23124082 0.22834978
0.23110814 -0.33261845 0.120377384 -0.15092106 -0.18720579 0.13115364 -0.21887396 -0.1222917
0.08054901 0.1725716 0.14166726 0.3078435 0.24983001 -0.779285 -0.5688157 0.17313029
-0.26831314 -0.32275337 0.22402781 0.22703058 0.47088426 -0.13220294 0.1262203 -0.09682254
0.109903246 0.30641752 -0.12027273 -0.06933939 -0.09766139 -0.0918705 -0.13016142 0.24363036
0.027998537 -0.21229488 0.061958544 -0.088003576 -0.39178374 0.316792 -0.0842198 0.007999489
-0.036023196 0.20280573 0.13810037 0.21477552 0.5820328 0.19321524 -0.11710733 0.25145307
-0.14168377 0.03463817 0.23431623 0.16426954 0.35611057 -0.18838598 -0.114221066 -0.025921177
0.2272807 0.19062705 -0.085692726 -0.31088144 -0.19352058 -0.19746701 -0.054888617 -0.016945021
0.26740393 -0.24233618 -0.14603557 -0.15058403 -0.21635672 0.007887035 -0.062539816 -0.01276043
0.022077473 0.18400179 0.06411406 0.44706056 0.16177906 -0.8225165 -0.43678266 0.18434496
-0.048849408 -0.33255735 0.21654248 0.09379841 0.46139985 -0.20078947 0.025689902 -0.112522505
0.17530842 0.25712454 -0.14380382 -0.051859844 -0.07606247 -0.23780002 -0.11696893 0.20321022
0.039585166 -0.22157805 -0.00399009 -0.1483779 -0.32252905 0.24601322 -0.038401715 0.16208807
-0.04891513 0.30054235 0.12843741 0.15636712 0.61921734 0.16529945 -0.1240252 0.18418765
0.026978295 0.108155854 0.109988116 0.14573303 0.26341072 -0.2158892 0.018304696 0.10287781
0.1663462 0.31408194 -0.098693505 -0.2826835 -0.13374974 -0.32329625 -0.15033184 0.19444463
0.03413395 -0.20631534 -0.0954889 -0.18331549 -0.052872475 0.18283246 -0.11855187 0.21046428
0.037032176 0.28643173 0.06664017 0.38999495 0.19835573 -0.8610075 -0.42578128 0.28406343
-0.27600354 -0.32058007 0.15513492 0.16463518 0.48173878 -0.04669599 0.14203843 -0.08212125
0.18396692 0.35427314 -0.10567204 -0.010878136 -0.06351283 -0.25691888 -0.08438831 0.17713897
0.07963115 -0.261827 0.1509464 -0.13509548 -0.32853752 0.21540277 -0.016634362 -0.06419035
-0.0979775 0.12699458 -0.016341457 0.1778052 0.64370793 0.16611944 -0.14890577 0.27909458
-0.24199103 -0.060159504 0.18921274 0.2720558 0.31695879 -0.2755214 -0.122094445 -0.017542558
-0.021620605 0.3775418 -0.06465361 -0.22653808 -0.12935108 -0.073093936 -0.10765502 0.1473414
0.030184245 -0.16547453 -0.027846158 -0.05689753 -0.10976173 0.046065442 -0.08322349 -0.024463737
0.136323 0.18448831 0.045645606 0.19650452 0.22533229 -0.9288418 -0.4604225 0.24166128
-0.24688102 -0.3168385 0.14921807 0.25020534 0.5686861 -0.13977991 0.015491515 -0.06443299
0.17137417 0.3383543 0.031115824 0.04513885 -0.047676124 -0.25943357 -0.068676665 0.29595885
0.1582058 -0.017498558 0.0906294 -0.12685996 -0.2103061 0.27457517 0.008147217 -0.08817718
-0.044354662 0.19392878 -0.058060907 0.1485399 0.7389183 0.12840325 -0.20354359 0.08800303

fc.bias f4 [60]
00000000: 905e a23e 6fdf 803b e5a3 003e f22e 253e
00000010: 0cae 533e ed07 77bb 6d05 873e a568 213e
00000020: 618a bb3c 7f19 883e 5ec6 533e 1c4c 323e
00000030: a6d3 e93d a51e 993e 844f c13c cea8 6e3e
00000040: b384 6c3e d25f c83d a6d6 713e 0cd5 103e
00000050: ed38 1f3e c565 473e cae9 af3d 2cab 623e
00000060: 7b90 933e 9feb 5f3e 2724 783e 553c 4c3e
00000070: 2fcf f93d f910 b93c 5f48 933e b412 883e
00000080: 15d6 7c3e 97fd 1c3e cc05 1d3b 2410 0e3d
00000090: 9300 7e3e 294a 753e 29e8 533e 4f3a 933e
000000a0: ea14 103e 38f5 4b3e 76f2 5f3e 1b48 8c3e
000000b0: a5c5 433d 5d0c a43d d59a 8d3d 092c 9a3e
000000c0: 7a7a 4a3d f42a 203e bb36 7f3e 1126 903e
000000d0: 3614 a83c f7c9 ec3d c757 e03d 3912 bf3d
000000e0: fc85 5b3e 6fb2 ee3d 307d 9a3d 9726 053e
0.3171277 0.0039328854 0.12562521 0.1613119 0.20671862 -0.0037693933 0.26371327 0.15762575
0.022893133 0.26581952 0.2068114 0.17411846 0.11417322 0.29906192 0.023597486 0.23306581
0.23097496 0.09783901 0.23617038 0.14143771 0.15549059 0.19472416 0.085895136 0.2213561
0.28821167 0.21867226 0.24232541 0.1994489 0.1219772 0.022591101 0.28766152 0.2657677
0.24691041 0.15331112 0.0023959754 0.03468336 0.24804907 0.23954071 0.20694031 0.28755423
0.14070478 0.19917762 0.21869835 0.27398762 0.04779591 0.080101706 0.069142975 0.3011172
0.04943321 0.15641385 0.24923222 0.28154042 0.02051745 0.11561959 0.10954242 0.093296476
0.2143783 0.11655127 0.07543409 0.13003002
